Continuous_Control/Nets/checkpoint_actor.pth (torch_old, 542623 bytes, 10 tensors)

bn1.weight f4 [33]
000000 01 dd 97 3f 0c 7d 78 3f b8 75 99 3f fc 58 b0 3d
       1.186432 0.97065806 1.198905 0.086107224
000010 19 cd b8 3d c1 14 9f 3d 0d 4d 86 3d 41 05 af 3e
       0.09023494 0.0776763 0.06557665 0.34183696
000020 32 3d 01 3f c6 9b 9d 3e c5 1e 1f 3f aa ba 2e 3f
       0.50484 0.30782908 0.62156326 0.68253577
000030 0d 3a 0b 3f 5f 4e dc 3f a7 9a 6d 3f 4f 5e cf 3f
       0.54385453 1.7211417 0.92814106 1.6200656
000040 4a 73 c7 3d 4f bf 6c 3d 1e b4 86 3d 29 0f d4 3d
       0.097387865 0.057799634 0.065773234 0.10354454
000050 96 1e e3 be 9a 10 f5 3e 13 87 13 3f 34 c5 85 3f
       -0.44359273 0.47864228 0.5762798 1.0450807
000060 5c c6 27 3f c1 d8 64 3f c4 8a ac 3f a8 4e 61 3e
       0.6553705 0.8939324 1.3479848 0.22002661
000070 12 b9 aa 3f 66 a0 83 3e 70 96 3b 3d 98 b8 33 3e
       1.3337729 0.25708312 0.045797765 0.17550886
000080 ca 48 ea 3f
       1.8303463

bn1.bias f4 [33]
000000 c3 87 8f bc 6b f9 52 be 84 b9 a0 bc f8 14 4d 3d
       -0.01752079 -0.20602958 -0.01961971 0.050068825
000010 e7 7e e1 bc ad eb 65 b8 de 29 9e 3c a5 c9 c1 bc
       -0.027526332 -5.4817345e-05 0.019307073 -0.023655722
000020 8a 08 88 3c 49 3e 48 3d 75 e7 1e be 80 8c 94 bd
       0.016605634 0.048887525 -0.15517981 -0.07253361
000030 83 ee 72 3c 58 60 07 be d1 cc c6 bd 0f cd 00 be
       0.014827373 -0.13220346 -0.097070344 -0.12578224
000040 a2 5b 91 3c fd 2d da 3b 4d d8 ec 3b b8 d2 ac 3b
       0.01774389 0.0066583143 0.0072279335 0.005274143
000050 94 97 47 be 94 6c 1c bd 3e 5c 2f 3e 73 03 17 3c
       -0.19491416 -0.038189486 0.17125031 0.009217131
000060 83 08 21 be 25 e8 22 3d a2 7f 83 3d 6b 0b f0 3e
       -0.15725903 0.03977217 0.064208284 0.4688371
000070 0f e0 ef 3c fe 61 d1 b9 03 37 04 bf d3 b6 42 bf
       0.029281644 -0.00039936596 -0.5164644 -0.7606022
000080 5c 81 39 3e
       0.18115753

bn1.running_mean f4 [33]
000000 ca ea 36 3f e3 27 0d c0 39 40 11 be 6c 1a 33 3f
       0.7145201 -2.2055595 -0.14184655 0.6996219
000010 39 3d 85 3d 9d 53 1a 3d 3e 02 cf bc 48 c1 67 3c
       0.06505818 0.037677396 -0.025269624 0.014145203
000020 c5 c1 82 bc 70 88 23 3d 5e 46 55 bc b0 b9 cd 3c
       -0.015961537 0.03992504 -0.013017265 0.025112957
000030 dc a7 ad 39 92 a1 23 3f 0b 67 23 c0 b0 ca 3a be
       0.00033122196 0.6391841 -2.5531642 -0.18241382
000040 d0 0d 87 3b d5 6c 8b 3c e4 67 10 bb e2 4e 0f 3c
       0.0041215196 0.017019669 -0.002203458 0.0087468345
000050 eb 08 5e 3e fa 60 b0 bc 3c 37 2e 3f 99 63 a6 bc
       0.2168309 -0.021530617 0.6805303 -0.020311164
000060 b9 b4 cf 3d b9 53 94 3b 72 bb 6a bd fc ff 7f bf
       0.10141892 0.004526582 -0.057307668 -0.99999976
000070 29 4e 4c 3c 00 00 00 00 fc ff 7f 3f 00 00 00 00
       0.012469807 0.0 0.99999976 0.0
000080 bf 0d b7 bc
       -0.022345422

bn1.running_var f4 [33]
000000 4d df ae 40 69 ef 9c 3f d5 75 7f 40 8b 22 59 3e
       5.4647584 1.2260562 3.991567 0.21204583
000010 9b 63 c8 3d 0a 5c 97 3d 25 da f6 3d 3f 97 66 3f
       0.09784623 0.07390602 0.120533265 0.90074533
000020 a2 50 24 3e c5 7b 4b 3e 15 89 84 40 f7 8f 86 40
       0.16046384 0.19871433 4.1417336 4.205074
000030 61 5e 73 40 b2 12 c7 41 67 03 d1 3f 72 4a a1 41
       3.8026354 24.884129 1.6329163 20.16135
000040 12 15 14 3e 8e 52 a3 3e 03 ce 0b 3e fc 72 cc 3e
       0.14461163 0.31898922 0.13652806 0.39931476
000050 67 c4 82 40 a2 05 b4 3f 3e 9e 05 40 74 70 21 41
       4.086475 1.4064219 2.0877833 10.089954
000060 ee 83 86 40 b9 51 1f 41 30 e2 00 42 04 00 00 00
       4.2036047 9.957452 32.220886 6e-45
000070 4a 54 fe 41 04 00 00 00 04 00 00 00 04 00 00 00
       31.791157 6e-45 6e-45 6e-45
000080 0b 2c a4 3e
       0.32064852

fc1.weight f4 [400, 33]
000000 e3 c2 36 bd 06 bd 38 be 52 0c c0 be 92 0c 09 be
       -0.044619452 -0.18040857 -0.375094 -0.13383701
000010 be 7f 9a 3e 6b 0d 75 be 8e 52 05 be b2 a7 f2 3e
       0.30175585 -0.239309 -0.13019773 0.47393566
000020 65 6f 4a bd ac c1 c8 3d b6 bf a0 bd 44 df 9b bd
       -0.04942264 0.09802565 -0.07849066 -0.07610944
000030 69 a0 84 3d aa e2 d5 3d 76 be 53 3e 7c 15 21 b8
       0.06475908 0.10443623 0.20678124 -3.84054e-05
000040 d2 0c 83 3e be 64 90 3d b9 84 20 3e cb 34 06 bd
       0.2559572 0.07050465 0.1567563 -0.03276519
000050 31 a9 99 3e 0e 3e 8d bc 6b c7 db be f7 39 e1 3d
       0.30011895 -0.017241504 -0.4292558 0.10997384
000060 64 cf 85 3e 67 2a 6b 3d 45 8d 6c be 12 5a 0f be
       0.2613479 0.057413485 -0.23100765 -0.13999203
000070 be 36 f4 bd d9 a3 92 3d 24 57 3a 3e 60 6b 16 3e
       -0.11924504 0.07160158 0.18197304 0.14689398
000080 2e 3a 95 3e 66 66 1c be 0d 09 b5 ba 12 b1 10 3e
       0.2914595 -0.15273437 -0.0013811901 0.14130047
000090 1f a0 16 be 7d e1 7e 3d d8 d8 bf 3e 7a f2 51 be
       -0.14709519 0.06222676 0.37470126 -0.20502654
0000a0 8b a3 e3 bd 34 94 02 be 69 47 33 3d 4a 1a 95 3d
       -0.11115178 -0.12751848 0.043769274 0.07280405
0000b0 f2 e9 93 3d 11 aa af 3c f1 ba 2e be a2 8f b1 3e
       0.07222356 0.021443399 -0.170635 0.34679896
0000c0 95 07 b3 bd 78 7b 0b be a8 cc c1 bc 0f 37 e0 bb
       -0.087416805 -0.13621318 -0.023657158 -0.006842501
0000d0 9a b7 85 3e cf 95 8b 3e 3c 02 82 3e 90 e7 32 bc
       0.2611664 0.27262732 0.2539233 -0.010919467
0000e0 ff 9c c1 be ab 87 89 3e a5 54 9b 3d 34 9f b1 be
       -0.3781509 0.2686132 0.07584504 -0.34691775
0000f0 2d 98 3a be 4f 79 71 3c 87 de 64 3c 2b 40 6e 3e
       -0.18222113 0.014738395 0.01396907 0.23266666
000100 d3 eb 87 3e 75 99 5c be 9c 7a 8d be fc aa 5b be
       0.26547107 -0.21542914 -0.27632606 -0.21451944
000110 8f e1 ac 3e eb 60 d2 bd 78 f6 9f 3d 8b d4 7a be
       0.33765838 -0.10272392 0.07810682 -0.24495141
000120 d6 48 31 be 6f 79 cd be 08 2b 6a 3e 14 c3 0e bf
       -0.17312941 -0.4013171 0.22867978 -0.55766416
000130 83 64 ae be c1 ce 92 bc fb 89 84 3e a3 81 78 be
       -0.3406106 -0.017920854 0.2588652 -0.24268202
000140 76 92 a6 3e 3f 8d 12 3d 61 40 05 be e1 cf 16 be
       0.32533616 0.035779234 -0.1301284 -0.14727737
000150 3e 40 02 3e 70 64 bd 3d 05 58 27 3d 6f e6 e3 3d
       0.12719819 0.092476726 0.040855426 0.11127936
000160 1b 73 31 bb 97 09 c8 bd f2 cd 1d 3e 6a fd 06 3e
       -0.0027076665 -0.09767454 0.15410593 0.13182607
000170 b2 17 47 be 8d aa 72 be a5 e6 21 bf 45 42 05 bc
       -0.19442633 -0.23697872 -0.6324256 -0.008133476
000180 8f 74 7c 3e 64 4a 83 3e 9b 3e f6 bd 53 b3 db be
       0.24653839 0.25642693 -0.1202366 -0.4291025
000190 5f eb b7 bc ec 0c 53 3e b8 6e 9e 3e ed fc f9 3d
       -0.0224511 0.20610398 0.30943847 0.12206445
0001a0 8c f6 ad be 8d a6 63 be b8 5c 83 be 5b ed 6a 3e
       -0.33977163 -0.22231503 -0.25656676 0.22942106
0001b0 b4 5a 21 be 3f c4 37 bd dd de 8b be 02 44 be 3d
       -0.15757257 -0.04486489 -0.2731847 0.09290315
0001c0 e6 56 51 3e 26 45 e0 bd db dc 50 be 6e 99 25 3e
       0.20443305 -0.10950689 -0.2039675 0.1617181
0001d0 ec 3f 90 3d 6f 71 75 3e 90 c2 cc 3c bd 46 25 3c
       0.07043442 0.23969053 0.024995118 0.010087666
0001e0 69 31 80 3d 2a ff 2e be c2 a0 fe bd 60 88 e9 3d
       0.06259424 -0.17089525 -0.12433006 0.114029646
0001f0 ea 9a 66 3e e0 f6 8b be f6 74 92 bc c5 1a f1 be
       0.22520033 -0.27336788 -0.017878037 -0.47090736
000200 89 8b 32 bd cd 26 04 3e f1 53 e0 3d ea b8 84 be
       -0.043590102 0.12905426 0.109535106 -0.25922328
000210 3d c4 8a be dd cd 94 3d b1 cd b1 bd 85 6b 78 bd
       -0.27102843 0.07265828 -0.08681811 -0.060649414
000220 32 f5 80 bd 9b 01 13 3b 5d ab 76 bd f0 ba 48 be
       -0.06296767 0.0022431377 -0.06022202 -0.19602561
000230 38 b4 c7 bd 23 9b d0 bc 04 b5 aa bd 10 e1 f7 3d
       -0.09751171 -0.0254646 -0.08335307 0.12103474
000240 ff 92 29 bc d0 7b 5a 3e dd 25 22 be 2c 98 18 bc
       -0.010349988 0.21336293 -0.15834756 -0.009313624
000250 e6 57 09 3c bd ac a7 bd a4 ac 1e 3e 92 e2 bb bd
       0.008382773 -0.08187244 0.15495545 -0.09174074
000260 85 fb 45 3c 4c 43 cb bd f5 a5 70 3e 1c cf 0c 3e
       0.012083893 -0.09924945 0.23500808 0.13750881
000270 50 04 4b be a8 21 6f 3e 6c 06 92 3e f6 ea 3c bc
       -0.19825864 0.23352683 0.28520525 -0.011530628
000280 1e 83 d6 3e 1a 33 75 3d 47 4b ab 3d 84 a6 72 3d
       0.4189691 0.059863187 0.083639674 0.059240833
000290 09 e1 64 be 65 f8 9b 3d 84 8c e2 3d eb e2 26 3e
       -0.22351469 0.07615737 0.110619575 0.162975
0002a0 98 4d e3 bd 47 a3 ee bd c1 76 39 bd d8 8f 41 3e
       -0.11098784 -0.116522364 -0.04527927 0.18902528
0002b0 a3 b2 72 3d 3e 3b 89 3d 0f ff 9d 3e 8a 5d 49 3d
       0.059252393 0.06700753 0.30858657 0.04916147
0002c0 b3 20 4a be 85 5a 03 3d 1d a1 b7 3c 78 a5 7b bd
       -0.19739036 0.032068748 0.022415692 -0.0614371
0002d0 b7 70 8c 3e 29 4f 59 3d 1b 33 78 3b 9b f5 43 3e
       0.27429745 0.05305401 0.0037872258 0.1913666
0002e0 dc 40 30 be bf 92 07 3e fc 4d 1c bd fa 55 0d 3e
       -0.17212242 0.13239573 -0.03816031 0.13802329
0002f0 79 96 d4 3c 9e 73 18 3e a9 3e 66 bc 35 f8 22 be
       0.025950657 0.14887854 -0.014053025 -0.15914996
000300 e2 e2 9c be 70 53 2a 3e 38 ef e6 3d 33 25 bd 3e
       -0.30641848 0.16633391 0.11276096 0.36942443
000310 93 e5 bd 3e f9 27 59 bf b8 f0 a2 3e fe 1c 11 be
       0.37089214 -0.8482662 0.3182428 -0.14171216
000320 1a e7 7f be af 98 78 bd 77 39 ef 3d 3c d4 dc ba
       -0.24990502 -0.060692485 0.116808824 -0.0016847919
000330 b9 ae 4b be 18 4f 1b be 61 63 b4 be 07 f8 46 bd
       -0.1989087 -0.1516689 -0.3523207 -0.04857638
000340 fc 4d f0 3d 01 1b 62 be 4e 50 32 3c 5d e3 77 be
       0.11733624 -0.22080614 0.010883404 -0.24207826
000350 d2 40 d6 3c d0 50 b4 3e b6 36 d5 3d a8 cc 1c be
       0.026153956 0.35217905 0.10410826 -0.15312445
000360 65 e2 2d 3e ce 78 df 3d 9f ed c9 3e f2 04 af bd
       0.16980894 0.109117135 0.39439103 -0.08545865
000370 93 73 88 be 1d 8e f1 bd 2a 2e 43 3e 77 6d 05 be
       -0.26650676 -0.11794684 0.19060579 -0.13030039
000380 4e f4 40 3e eb f2 b5 bc 1e 4a dd be 46 ba 22 3c
       0.18843195 -0.022210559 -0.4322061 0.009932106
000390 5c 71 4d bc 8f c2 3f 3c 96 50 3d 3e 00 df ac be
       -0.012539234 0.011704101 0.18487772 -0.33763885
0003a0 a4 7e df 3e fa fc 77 be a4 4b ea bd 0d 8d 80 3d
       0.43651307 -0.24217597 -0.114402086 0.06276903
0003b0 fe dd 2a 3e f5 65 19 be 42 65 79 bd 9a fc df 3c
       0.16686246 -0.149803 -0.060887583 0.02734213
0003c0 2f 01 b9 3d da 02 13 3d 72 2a 57 3d b8 90 cf bd
       0.09033429 0.03589139 0.052530713 -0.10135025
0003d0 03 67 9b 3d 4e 93 99 be 9d 6e 86 3e 99 d1 c2 3d
       0.07588007 -0.29995197 0.26256266 0.09512634
0003e0 9b ce b0 bc 30 7d 4a be 57 00 0b bd 30 e1 ee 3d
       -0.021582892 -0.19774318 -0.03393587 0.11664045
0003f0 0c 64 10 3d 91 f5 f1 bd aa 0c 3f 3d 4b d4 65 be
       0.035251662 -0.11814416 0.046642937 -0.22444265

fc1.bias f4 [400]
000000 18 dc 12 be 26 71 2f be e4 82 b2 be ac 92 48 be
       -0.14341772 -0.17133006 -0.34865487 -0.19587201
000010 42 04 22 be 43 ea 88 be 2a 46 83 bd 54 29 90 3d
       -0.15821937 -0.26741228 -0.06409867 0.07039133
000020 83 c9 8c be 24 43 06 be b1 fb 77 be 12 7c 05 be
       -0.2749749 -0.1311155 -0.24217106 -0.1303561
000030 ba e3 a9 be 85 fb f2 bd 0f 73 96 be c8 2e 3b bd
       -0.33181554 -0.1186438 -0.29384658 -0.04569891
000040 3c ca 6c be 57 0e 68 be 79 9d 29 be aa c6 b6 bd
       -0.23124021 -0.2266172 -0.16563977 -0.08924611
000050 01 ac 9a be d4 59 ab be 23 01 b2 be c8 c0 c4 be
       -0.30209354 -0.3346697 -0.34766492 -0.3842833
000060 73 bd 85 be 52 76 a6 be 23 32 8c be ed 44 40 be
       -0.261211 -0.32512146 -0.27382 -0.18776293
000070 89 21 9a be d8 e0 dc be 1b 58 99 be 10 b1 63 be
       -0.3010371 -0.43140292 -0.29950032 -0.22235513
000080 24 0f 63 be aa 6b cd be db cf 0c be e0 aa 35 be
       -0.22173744 -0.40121204 -0.13751166 -0.17740965
000090 c5 09 09 be 76 53 a4 be 46 ab 7f be 47 a3 a6 be
       -0.13382633 -0.32094926 -0.2496768 -0.32546446
0000a0 af 01 41 be 15 4b b7 be 5d 1f 74 be 3f 3f 89 bd
       -0.18848298 -0.3579947 -0.23840089 -0.06701516
0000b0 30 62 8f be f8 a6 8e be 57 5c e3 be 89 45 8f be
       -0.280046 -0.27861762 -0.44406387 -0.2798274
0000c0 aa b1 90 be a4 de c3 be cb 17 0a be 18 5b 9f be
       -0.28260547 -0.382558 -0.13485639 -0.31124187
0000d0 56 91 b8 be 48 01 9c be f3 34 4c be 9b ee bc be
       -0.36048383 -0.30469728 -0.19942074 -0.36900792
0000e0 e1 e2 7c be c6 9d 64 bc e4 ec 4f 3c 54 1f 00 be
       -0.24695922 -0.013953632 0.0126907565 -0.1251195
0000f0 bf 57 b6 be da 25 e5 be b3 43 c6 be e2 8f 69 be
       -0.3561382 -0.4475544 -0.38723525 -0.22808793
000100 e6 44 b5 be ef 25 4c be d7 7e 82 be 0c 1f b1 be
       -0.35404128 -0.19936346 -0.25487396 -0.34594
000110 17 86 6a be b4 6e a3 be e9 4a d1 3d 0c 54 a7 bd
       -0.22902714 -0.31920397 0.10219366 -0.081703275
000120 6d 57 3b be de f7 e5 bd 77 59 a5 be 90 90 9c be
       -0.18295069 -0.112289175 -0.3229482 -0.30579042
000130 2b 4e 2a 3d c8 97 69 be a4 e2 f5 bc ec 2c 83 bd
       0.041578453 -0.22811806 -0.030015297 -0.064050525
000140 87 49 ac be 9f 6e 77 be bc b7 4d be 79 b1 4d be
       -0.33649847 -0.24163292 -0.2008962 -0.20087232
000150 51 8b 8a be b4 9a 91 be 76 da 33 be fd 79 c9 3c
       -0.27059415 -0.28438342 -0.17563805 0.024594301
000160 64 78 8d be b9 43 27 be 19 e3 6a be 36 85 76 be
       -0.27630913 -0.16334428 -0.22938193 -0.24074253
000170 e3 e6 7f be 31 36 0a bd 8c 96 e7 3b 94 7a f1 be
       -0.2499042 -0.033743087 0.007067507 -0.47163832
000180 6d c2 28 bd 1f ae 86 bd 71 a1 1f be bb d2 49 be
       -0.041201044 -0.0657618 -0.15588929 -0.19709294
000190 4c 4d bb bd 5d cc 66 be 04 af 8e be 5a 5f 98 be
       -0.091456026 -0.22538896 -0.278679 -0.29760247
0001a0 54 ab 93 be 0a 05 85 be 79 2c 2c be 5a 66 7b be
       -0.2884165 -0.25980407 -0.1681384 -0.24550763
0001b0 ae 11 8c be 10 ab 5b be 27 ef 23 be a7 bd f6 bd
       -0.2735724 -0.21451974 -0.16009198 -0.12047892
0001c0 6e 28 cc be 40 ec 31 be 0a b2 84 be 44 50 84 be
       -0.39874595 -0.17375278 -0.25917083 -0.25842488
0001d0 e9 5d 6b be 60 4e aa be 69 bb 61 be 43 15 80 be
       -0.22985043 -0.3326292 -0.22044148 -0.2501622
0001e0 57 f4 8d be 3d f1 0c bf 1d ef 3e be 30 ae fa be
       -0.2772548 -0.550556 -0.18645902 -0.4896102
0001f0 03 9a 20 be 3a f4 85 be 81 07 c7 bd 50 64 43 bd
       -0.15683751 -0.26162893 -0.09718228 -0.047703087
000200 08 fd 12 be 06 38 8f bd f7 9f aa bd 35 71 a3 be
       -0.14354336 -0.069931075 -0.08331292 -0.31922308
000210 be 5e 80 be f9 1f d8 be 2c 22 48 be 00 39 c6 be
       -0.25072283 -0.42211893 -0.19544286 -0.38715363
000220 10 3d 8b 3d 84 6b 07 be c8 bd 70 be 89 a5 b4 be
       0.06798756 -0.13224608 -0.23509896 -0.35282543
000230 bc e9 de bd b1 31 fd bd 16 d7 a3 be 91 f0 69 be
       -0.10884425 -0.123629935 -0.32000035 -0.22845675
000240 de 4a 76 be 5e 93 f4 bd 68 66 c5 bd 45 2c 6c be
       -0.24051997 -0.119421706 -0.09638673 -0.23063762
000250 71 8d 98 be cc a3 8f be 32 82 3b bd 04 41 66 be
       -0.2979541 -0.28054655 -0.04577846 -0.22485739
000260 71 ba b1 be 62 f0 1d be 13 03 7a be 1a 0c 74 be
       -0.34712556 -0.1542373 -0.24415235 -0.23832741
000270 36 15 0b be 2c 05 ad be 48 0e 99 be f1 36 e1 be
       -0.1358231 -0.33793008 -0.29893708 -0.4398723
000280 8b be 83 bd fd 71 27 be a9 7f d9 bc 82 87 87 be
       -0.064328276 -0.16352077 -0.02655013 -0.26470572
000290 bb 15 f9 bd 2d fe 57 be b4 13 75 be 86 cd 8b be
       -0.12162348 -0.21093054 -0.23933297 -0.2730524
0002a0 96 9c fd bd 00 f2 10 be 92 9e a8 bc 7b d1 c4 be
       -0.12383382 -0.14154816 -0.020583425 -0.3844107
0002b0 8c 69 ac be 4b 18 cf be e5 f4 d0 be ed ff 84 be
       -0.33674276 -0.40448222 -0.4081184 -0.25976506
0002c0 99 44 9f be 07 23 ec be d2 8b fb be 95 76 ca be
       -0.31107023 -0.46120474 -0.49130112 -0.39543596
0002d0 ce b7 51 be 55 f9 54 be be 8d 3d be 8b 28 8e be
       -0.20480272 -0.20798238 -0.18511102 -0.27765307
0002e0 ba fe 1e be c3 64 13 be f6 31 ce bc ab 5d 22 be
       -0.15526858 -0.14393906 -0.025170308 -0.15856044
0002f0 c0 f6 00 bf 1e 13 70 be a1 83 fd be da bb e1 be
       -0.5037651 -0.23444793 -0.49514487 -0.44088632
000300 f6 b3 c7 be 73 0c 3e bd bb db db be 7b ec b7 bd
       -0.39004487 -0.04639859 -0.4294108 -0.08980652
000310 73 c8 2c be 8c 30 f8 be 3b 0c 9d be a9 f2 c8 be
       -0.1687334 -0.48474538 -0.30673394 -0.39247635
000320 a4 16 03 be f1 af 14 be b0 c6 70 be 10 e1 59 be
       -0.12801605 -0.14520241 -0.23513293 -0.21277261
000330 d6 4a 61 be e4 52 90 be 8a 13 93 be a3 54 18 be
       -0.22001204 -0.2818824 -0.28725845 -0.14876036
000340 9e 5a bb bd 67 f7 60 be 8c b5 b4 be 8e d4 9f be
       -0.09148143 -0.21969377 -0.3529476 -0.31216854
000350 34 9c cf be 53 95 b2 be 79 d1 ea be d6 cf a4 be
       -0.4054886 -0.3487955 -0.4586294 -0.32189816
000360 b1 5e 84 bd 49 29 e1 bd 7f 70 75 bd 09 a5 55 be
       -0.064633735 -0.10994203 -0.059921738 -0.20863737
000370 03 a7 bc bd bf e6 47 bd 1c dc 7f be aa d7 78 be
       -0.092115425 -0.04880404 -0.24986309 -0.2430102
000380 46 78 e4 ba 26 83 5d be cf dd d2 be e5 22 a0 be
       -0.0017430864 -0.2163206 -0.41184852 -0.31276622
000390 e9 51 57 bd 20 1d f8 be bc a4 db be 04 81 58 be
       -0.05256835 -0.4845972 -0.4289912 -0.21142966
0003a0 7d fb 1b be 24 0f 38 be b6 44 59 bd ef bb 43 be
       -0.15232654 -0.17974526 -0.053044043 -0.1911466
0003b0 6f 19 b6 be e5 7a 82 be 79 4f 9e be 47 41 18 be
       -0.3556628 -0.25484386 -0.30920008 -0.14868651
0003c0 77 61 6f be 30 07 f7 bd c8 d5 a2 be 3a 9c 89 be
       -0.23377024 -0.12061918 -0.31803727 -0.26877004
0003d0 e4 d9 a6 be a1 5e 66 3d 7c d9 0b 3c 04 08 a2 be
       -0.32588112 0.05624259 0.008535739 -0.3164674
0003e0 ab 02 10 3d a8 7e 12 be fd cc 93 be 4a a4 95 3d
       0.035158794 -0.14306128 -0.2886733 0.07306726
0003f0 ef 18 e6 be 8f c7 0d be 6e 51 8c bc a6 bf 5f be
       -0.44940898 -0.13845657 -0.017128672 -0.21850452

fc2.weight f4 [300, 400]
000000 95 ef 6e 3e b7 b5 28 bd 90 55 bc be 89 71 89 3d
       0.23333581 -0.04118892 -0.3678403 0.06711108
000010 a5 b0 95 3d 7a 4a 77 bf 3f bd 14 bf 03 d3 b5 bd
       0.07309083 -0.9659802 -0.58101267 -0.08878138
000020 50 57 b5 bd 3b 59 56 be e7 9c de bd e9 8f 73 bd
       -0.08854544 -0.20932476 -0.108697705 -0.059463415
000030 46 df 2f 3d 0b bb 89 bd 52 bc 53 be 3f 56 42 be
       0.04293754 -0.06725129 -0.20677307 -0.18978213
000040 8e 0f 17 3d 28 4b bc bd 8d 90 e5 3d a3 7a 31 3e
       0.03688007 -0.091940224 0.112092115 0.17331938
000050 df f3 f2 be 20 9e 88 3e 0e ec 95 3d a1 a9 c1 be
       -0.47451684 0.2668314 0.073204145 -0.3782473
000060 46 4b 06 3d 1f 74 a7 bc ca ce b2 be 6c ee 32 3e
       0.03278663 -0.020441113 -0.34923393 0.17473763
000070 a8 da 2d be 25 45 ba bb 01 57 a0 bd bc d3 eb 3d
       -0.16977942 -0.005684512 -0.07829095 0.115149945
000080 5a 53 67 3e b2 20 58 bd ca ea 45 bf 7f c0 17 3e
       0.2259039 -0.052765556 -0.77311385 0.14819525
000090 9a ea 9e 3e 07 11 11 bf 73 03 0d 3f b8 02 5c 3d
       0.31038362 -0.56666607 0.5508339 0.05371353
0000a0 22 61 01 bf 97 18 34 3e 43 70 39 ba 78 fa 23 3d
       -0.5053884 0.17587505 -0.0007073918 0.040033787
0000b0 a5 5a 38 be 37 f2 fd be 7a d9 20 3e a4 6f 24 bf
       -0.18003328 -0.49598858 0.1570796 -0.6423285
0000c0 ce 29 08 3e db ad 83 3e 5a 42 ca 3d c9 3c 0c 3f
       0.13297197 0.2571858 0.09875937 0.5478025
0000d0 06 ed 5e be ee 5c c9 3e 83 6f 14 be 97 28 34 be
       -0.21770105 0.39328712 -0.14495663 -0.17593609
0000e0 5c 9e d2 bd 67 a7 64 3e e5 4c 27 3b ec 9c 13 be
       -0.10284111 0.22329484 0.002552801 -0.1441533
0000f0 a1 85 6a 3e 88 a3 f2 bd 9f c1 e8 be d3 49 ab 3b
       0.22902538 -0.11847597 -0.4546022 0.0052273064
000100 95 b7 95 3e 28 98 af be f2 5d 37 3d 37 bc c1 3d
       0.29241624 -0.34295774 0.044767328 0.09459727
000110 b4 93 e4 bb 2c 9e 95 3d 6e f0 b4 be d7 bd b4 3d
       -0.0069756154 0.073055595 -0.35339683 0.088252716
000120 73 5b 39 3e 2d 81 64 3c fc 82 99 3c 46 99 d9 be
       0.18101291 0.0139468135 0.018739216 -0.4249975
000130 de a3 d9 be e6 96 f7 3d 39 24 13 3e c1 4b 7b 3e
       -0.42507833 0.120893285 0.14369287 0.24540617
000140 0e 27 00 be 5f 6a 8f 3e 9f de 59 bf 71 bb a2 3e
       -0.12514898 0.28010842 -0.8510532 0.3178363
000150 f1 55 e8 bb f5 39 a6 3e ef e1 62 be cb 8a 29 bc
       -0.007090323 0.32466093 -0.221565 -0.010348032
000160 5d 57 7c be 1b 92 2e 3c 72 8f 54 3e e3 89 28 be
       -0.24642701 0.010654951 0.20757845 -0.1645885
000170 ad 13 a2 be 75 12 58 be 2f 2d 9d 3d 74 fe d7 bd
       -0.31655636 -0.21100791 0.07674634 -0.1054658
000180 ca 5c 75 be 1c 8b c7 3d 06 6c 11 be 52 af d4 bc
       -0.23961177 0.0974333 -0.14201364 -0.025962505
000190 ee 68 0a be b4 57 84 bc c9 93 ec be d7 4a ed 3e
       -0.1351659 -0.016155101 -0.462065 0.4634616
0001a0 80 63 7c be 29 0d 1b 3d 99 11 0d bc fc 58 f0 3d
       -0.24647331 0.037854347 -0.008610153 0.117357224
0001b0 3c 92 3f be 14 c8 d8 3e 6d d7 d3 3e cf 27 2f 3e
       -0.18708128 0.42340147 0.41375294 0.1710503
0001c0 3b 4f 47 3e a3 85 f7 be 69 75 03 3d 44 03 00 be
       0.19463818 -0.48344144 0.032094393 -0.12501246
0001d0 e5 2d 97 3e 40 08 11 3e 9f 8a 44 bc e3 b3 83 be
       0.29527202 0.14163303 -0.0119959405 -0.2572318
0001e0 e9 d8 92 3e 75 02 7a 3e f3 b5 16 3f 60 86 4b be
       0.28681114 0.24415 0.5887138 -0.19875479
0001f0 65 e8 f3 be ac 69 8d 3e 98 89 11 bf c5 f8 c9 be
       -0.4763824 0.27619684 -0.56850576 -0.3944761
000200 d6 81 d1 be 04 87 8d 3e 25 17 dd 3d db 3d 44 3d
       -0.4091937 0.2764207 0.1079543 0.047910552
000210 40 4a 95 3e f6 66 f3 be 22 6b 2d 3e b3 2a a1 be
       0.2915821 -0.4753949 0.16935399 -0.3147789
000220 72 ae c7 bb f3 49 db 3c 61 28 67 be fc 65 d8 be
       -0.0060937935 0.02676866 -0.22573997 -0.42265308
000230 0e 59 c0 be 8c d3 f6 3d 3b 66 a1 be e2 97 b7 bd
       -0.37567943 0.12052068 -0.31523308 -0.08964516
000240 ac 61 17 bf 5d 36 c4 3d 08 f0 2f 3c 4d 6f 8b 3e
       -0.5913341 0.095806815 0.01073838 0.27233353
000250 45 32 d1 be 0e 16 57 bd f4 2b 52 bd f5 ca 73 be
       -0.40858665 -0.052511267 -0.05131145 -0.2380789
000260 9c e3 83 bc a4 bd 9d 3e 92 d2 4a 3e dd 8a ed bd
       -0.016099744 0.30808747 0.19806889 -0.11598752
000270 2f 05 43 bf 66 b0 e8 3e 2b b3 87 be 15 8c 38 be
       -0.76179785 0.4544708 -0.26503882 -0.18022187
000280 f2 cb f4 be 9c a1 e0 be 2a 12 29 3e 63 46 c2 3d
       -0.47811848 -0.43873298 0.16510835 0.094860815
000290 2c d5 05 be 47 6b bd bd e2 2d b8 be dd 3c d6 bd
       -0.130696 -0.09248977 -0.35972506 -0.104608275
0002a0 a3 c3 ba 3e a9 2d c1 3e 48 b0 88 be 17 c8 62 3e
       0.36477384 0.37730148 -0.26696992 0.2214664
0002b0 d1 b9 01 be cc 5b 76 3d 7d f3 e2 3e f2 7c 07 be
       -0.1266854 0.060146138 0.44326392 -0.13231257
0002c0 cd 76 ca bd 21 e8 a6 be 35 aa 0e bf 3c d7 96 be
       -0.09885941 -0.32598975 -0.55728465 -0.29461086
0002d0 e3 69 07 be bd 66 5e be 1d 83 ac be 6a e6 1e be
       -0.13223986 -0.21718879 -0.33693781 -0.15517583
0002e0 01 6e 02 bf 65 b7 49 be cf b0 ad 3d 33 44 48 3e
       -0.509491 -0.19698866 0.08480989 0.19557266
0002f0 be e1 26 3e 81 5c f9 bd f2 ec bd 3d f3 72 94 be
       0.16297051 -0.12175847 0.09273709 -0.2899395
000300 75 33 c5 3e 03 e9 ca 3d 14 45 15 bf 12 e2 dc be
       0.3851582 0.09907725 -0.5830853 -0.43141228
000310 1d 2e e4 3d a3 24 25 be 07 bc 4a be a5 03 38 3f
       0.11141608 -0.16127257 -0.19798289 0.7188056
000320 ee 01 96 3e 44 f2 84 be 82 10 78 3c 4b 9c b1 3d
       0.29298347 -0.25966084 0.0151406545 0.08672389
000330 94 e6 13 3e cc 39 8f be 9d be 52 3e e0 3c 27 bc
       0.14443427 -0.27973783 0.20580526 -0.010207385
000340 ad ff f1 be d1 33 51 3d de 53 95 3e 91 f1 7b be
       -0.47265378 0.051074807 0.29165548 -0.24603869
000350 56 40 57 bd 3b 00 0a bf ab 37 dd be 9c d3 7d bb
       -0.05255159 -0.539066 -0.43206534 -0.0038730865
000360 11 c8 56 bc c8 bc 4a 3e 30 7b 0d be 9e f7 fe 3d
       -0.013109223 0.19798577 -0.13816524 0.12449573
000370 ca 7f 0f be 71 28 1c bd e2 ef c4 bc 73 09 d3 be
       -0.14013591 -0.038124505 -0.024040166 -0.41218147
000380 80 33 e5 bd 2d ba ee be f1 1b 5b 3d a9 42 e9 be
       -0.111914635 -0.46626416 0.053493444 -0.4555867
000390 66 a9 20 3f db f0 8a 3e 91 b7 57 3c 89 59 07 3d
       0.6275848 0.27136883 0.013166324 0.03304437
0003a0 4c 71 c7 bd 33 30 04 be 2a d8 aa be 8f 54 ec 3d
       -0.097384065 -0.12909012 -0.33368045 0.11539566
0003b0 be b9 34 3e d7 90 55 be 2b f3 a9 3e b7 01 e5 be
       0.1764898 -0.20856033 0.33193335 -0.4472787
0003c0 b0 17 8d bd 79 d8 bf be f3 3b 7c bd e8 a1 2c 3e
       -0.06889284 -0.37469843 -0.06158061 0.16858637
0003d0 f0 65 7d bd 7d 3e 0e bc ac d0 ab 3e f7 74 25 be
       -0.061864793 -0.008681891 0.33557642 -0.161579
0003e0 cd 35 95 3e 39 2e 2b 3c a8 1b 29 be 75 98 3c 3d
       0.2914261 0.010448032 -0.16514456 0.04604383
0003f0 53 5c 4d be 07 c3 c2 3d e0 d8 40 be 00 2b e0 be
       -0.2005475 0.09509855 -0.18832731 -0.43782806

fc2.bias f4 [300]
000000 5b cd 25 be c3 08 29 be 96 bd 27 be 7f d5 75 be
       -0.16191618 -0.16507249 -0.16380915 -0.24007224
000010 a1 86 18 be 6f 5f 7d be e4 ca 51 be f8 cb c1 bd
       -0.14895107 -0.24743436 -0.20487553 -0.09462732
000020 c6 ca 5e 3e b3 16 fc bd c9 ce 2b 3d f3 dc d3 bd
       0.2175704 -0.12309017 0.041945253 -0.10344877
000030 7f b6 88 be 05 56 6e be 34 5f 49 be 7e c6 b4 be
       -0.26701733 -0.23275001 -0.19665223 -0.35307688
000040 03 68 05 bd 84 2f de bd 07 4b 54 be a6 19 f9 bd
       -0.032569896 -0.10848907 -0.20731746 -0.12163095
000050 a9 08 97 3d d5 73 09 be 42 9b d2 bd db 38 6b 3c
       0.07374699 -0.13423093 -0.10283519 0.014356817
000060 41 62 ff bc 0e 2f e1 3d 8b a4 2a bc 14 b4 59 bd
       -0.03117478 0.10995303 -0.010415207 -0.05315025
000070 bb 31 f1 bd 97 85 30 be b9 d4 d2 bc fd 16 84 3d
       -0.117770635 -0.1723846 -0.0257362 0.06449697
000080 2e 1b d2 bc da 62 2a be 5f be 62 be c0 12 62 bd
       -0.025647726 -0.16639271 -0.22142933 -0.055193663
000090 cc 84 21 3e ac e2 5f 3b c3 0c 90 3d 61 2f 2d bd
       0.15773314 0.0034162207 0.07033684 -0.042281512
0000a0 0a 66 df 3d 87 6d 92 ba f6 a4 21 39 00 69 3c be
       0.10908134 -0.0011171558 0.00015415609 -0.1839943
0000b0 63 cd 81 bd ae 5d 42 bd c8 af ae bc 1a 6c 39 bd
       -0.063380025 -0.04745262 -0.021324053 -0.04526911
0000c0 47 de 38 3d 38 8d d6 3d 89 13 27 be 04 c4 a9 be
       0.045133855 0.10476154 -0.16316046 -0.3315736
0000d0 fa df e7 bc 57 d6 41 be 3d 66 eb bd 93 cb 8f be
       -0.028305043 -0.1892942 -0.1149411 -0.28085002
0000e0 33 2f 21 be 6b 8b 2c 3e 58 f4 bc 3d 7d 12 30 bc
       -0.15740661 0.16850059 0.09226292 -0.010746595
0000f0 f5 91 83 be b3 34 38 be 4f 26 2a bd 12 30 8e 3d
       -0.25697294 -0.17988853 -0.04154044 0.069427624
000100 b8 4b a9 3d 35 03 31 be 65 32 23 3e 0a 6d 86 be
       0.08266395 -0.1728638 0.15937193 -0.26255065
000110 44 fd 75 3c f7 92 26 bd 6e a3 57 be 2a 19 0c 3c
       0.0150139965 -0.0406675 -0.21058437 0.008550921
000120 33 ce a3 be 6f cb a4 be b5 88 89 bb 5d ac c4 bd
       -0.31993255 -0.32186458 -0.004197205 -0.09603188
000130 15 e1 0f 3e 03 ac 5f bd 13 5c 64 bc ef 0e da 3d
       0.14050706 -0.054607403 -0.013937968 0.106473796
000140 1d 3d 9e 3c 64 aa 42 be 44 84 e5 bd 6e f8 1f 3e
       0.01931625 -0.19010311 -0.11206868 0.15622112
000150 f8 30 d8 bd b8 b5 c7 be eb 14 21 3e a7 ee f2 bd
       -0.10556215 -0.39005828 0.15730636 -0.118619256
000160 40 03 16 3d ec 6f b0 3c a3 3b cb 3d 44 29 8b 3c
       0.036624193 0.021537744 0.09923484 0.01698745
000170 62 56 79 be 22 e9 91 bd 43 07 3c be 75 72 f4 3c
       -0.24349359 -0.07124545 -0.18362145 0.029839734
000180 41 92 71 be 2c 8a 24 be f7 e0 42 3d 67 d6 6d 3d
       -0.23590948 -0.16068333 0.047577824 0.058065798
000190 11 93 1e be 7a ec 81 bd 0a 42 aa 3d 59 63 54 bd
       -0.15485789 -0.063439324 0.08313377 -0.051852558
0001a0 4f 31 e2 bd e0 4e 9d be cf a4 cb 3d 1e 1c 91 bd
       -0.11044561 -0.3072424 0.09943544 -0.07085441
0001b0 3d 88 7f bc f8 27 85 3d c8 ad 39 3d 36 9a 8d be
       -0.015596447 0.06501764 0.045331746 -0.27656716
0001c0 65 88 c6 bd a6 7e 05 3d c2 d7 04 be 1d 4a 9f 3e
       -0.09693984 0.032591484 -0.1297293 0.3111123
0001d0 68 11 f5 3b f5 4d d9 3d 95 33 8d bd 87 09 89 3d
       0.0074788816 0.10610572 -0.06894604 0.0669127
0001e0 07 ec a2 be 0b 8b 95 3d b6 19 6e 3e 70 6f 9a 3e
       -0.318207 0.07301911 0.23251995 0.30163145
0001f0 a6 35 2c be 9b 96 92 be c5 e9 63 bd 22 a3 82 be
       -0.1681734 -0.28630528 -0.055642862 -0.25515085
000200 f0 52 24 3e df f8 23 3d 64 8b 5a be 7d c9 cd 3c
       0.16047263 0.040032264 -0.21342236 0.025120491
000210 62 4e 89 be 9f d4 9d bd 00 60 71 bd bb 72 58 be
       -0.26817614 -0.0770657 -0.058929443 -0.21137516
000220 d9 8c 08 be ae 61 5b 3c e6 f3 5a be 44 cc 85 bd
       -0.13334979 0.013389988 -0.21382102 -0.06533101
000230 25 24 38 3e 74 89 ed bd 39 d9 61 bd 68 ef 56 3d
       0.17982538 -0.11598483 -0.0551388 0.05247441
000240 d8 ef 2a ba cf a0 93 be 01 c8 86 bd 51 32 43 be
       -0.0006520725 -0.28833625 -0.065811165 -0.19062163
000250 73 67 3e bd 29 98 f8 bc 29 0e 16 3c 1c cc 96 3d
       -0.046485376 -0.030345993 0.0091586495 0.073631495
000260 4a fe 9e 3e 08 d1 d0 bd 2b 22 c4 3d e9 4e a6 be
       0.31053382 -0.101961195 0.095768295 -0.3248208
000270 35 82 83 3d 89 4e c0 bd 5b a6 42 bc a0 b7 a6 bd
       0.064213194 -0.093899794 -0.011880483 -0.081404924
000280 97 3e 7d be 84 1d b3 be 7f d3 01 3e 2c cc 00 3e
       -0.24730907 -0.34983456 0.12678336 0.12577885
000290 6a 8f 1d 3d ae ad 46 3d c3 06 36 be 3d f1 97 bd
       0.03846685 0.048505478 -0.17776017 -0.074190594
0002a0 7f e3 7a bd c9 e3 3b 3c 9d 2a ac be 25 e6 e6 bd
       -0.061252113 0.011467882 -0.3362626 -0.11274365
0002b0 89 08 ed 3c 2f 42 42 3d 2f 6f c0 be ca 99 6a bc
       0.028934734 0.0474264 -0.37584826 -0.014318893
0002c0 a3 34 ad bd df 44 bd 3d ff 56 8a bd bb 39 97 be
       -0.08457305 0.09241652 -0.067548744 -0.29536232
0002d0 a1 a5 3e bd 48 0d 72 bd 27 3e cd 3d 20 4b 98 3e
       -0.046544675 -0.059094697 0.1002162 0.29744816
0002e0 2e 63 14 3d ed de 50 be 3f 8a 61 3e c1 f5 28 3c
       0.036227398 -0.2039754 0.22025393 0.010312499
0002f0 4d 87 90 be 4f 5e 83 3d e0 6d 01 be 62 0b 81 3e
       -0.28228226 0.06414472 -0.1263957 0.25203997
000300 ca 14 91 bc f5 3e 77 be 8a b1 e1 3c e1 4e 0e be
       -0.017710108 -0.2414511 0.027550478 -0.13897277
000310 7c db e9 bc 1a 31 3a bd ea a4 49 bd 91 cd b3 3e
       -0.028547041 -0.045456983 -0.04922954 0.35117772
000320 30 f0 19 bd 61 6d 67 bd 70 5c 49 3e b3 a7 f1 be
       -0.037582576 -0.056500796 0.19664168 -0.47198257
000330 08 ed a1 bd 94 cf 5c 3c 34 2a 00 bd 5c 52 48 be
       -0.07906538 0.013477225 -0.031290248 -0.19562668
000340 b5 cb f8 bd 0d b4 3a be bb 3a 68 3d 99 2f 8e 3d
       -0.12148229 -0.18232746 0.056696635 0.06942672
000350 9d 42 1b be ec 4a e2 bd d7 83 e8 bd 71 4e 24 3d
       -0.1516213 -0.110494465 -0.113532715 0.04011387
000360 73 e7 f9 3d e3 38 33 3d f9 2a a5 be 1d 25 ed bd
       0.122023486 0.043755423 -0.32259348 -0.115793444
000370 44 35 1c be a9 1a af bd 35 2d 21 3c fb a3 4c 3e
       -0.15254694 -0.08550007 0.009837438 0.19984429
000380 c8 7c de be 2f 40 d0 bc 84 d7 9b be 01 28 31 be
       -0.43454576 -0.02542123 -0.30437863 -0.17300417
000390 ce c6 4d be 19 22 24 be 01 67 08 3d 6a cf ad be
       -0.20095369 -0.16028632 0.033301357 -0.33947307
0003a0 8d 9c 16 3e 38 80 5b bd c2 40 19 be 2e ce 37 3e
       0.14708157 -0.053589076 -0.1496611 0.17949745
0003b0 8e 6a 08 bd 27 f8 0f be ac f8 84 3c 04 45 ab 3d
       -0.033304743 -0.14059506 0.016231857 0.08362773
0003c0 a5 51 a2 bd ff 0b fc bd bc 33 8c 3d f9 bb 09 3e
       -0.07925729 -0.123069756 0.06845805 0.13450612
0003d0 c6 07 0e 3e 88 ee 83 3e c9 79 19 be a9 dd 82 be
       0.13870153 0.25767922 -0.14987864 -0.25559738
0003e0 d9 4b 92 be da fa 3f bc 96 8b ad 3d ef 90 9b be
       -0.28573492 -0.0117175225 0.084738895 -0.30384013
0003f0 a4 60 00 be 40 7a 6f be 10 fa 60 3e 87 52 e4 bc
       -0.12536865 -0.23386478 0.21970391 -0.027871383

fc3.weight f4 [4, 300]
000000 86 95 b4 bd 77 3f e9 3e 3b fa 8f be 5e 39 ea 3e
       -0.08817582 0.45556232 -0.28120598 0.45746893
000010 5b 97 a2 3e b1 07 33 3e 50 6c 33 be 9d 47 51 3e
       0.317561 0.17483403 -0.17521787 0.20437475
000020 7b 0f ee 3e 61 f1 c9 3b 02 48 57 3e 10 38 d0 bd
       0.46496186 0.006162808 0.21023563 -0.10166943
000030 0e 5f 07 be f4 cc 1d 3e bb e1 a8 3f 09 a3 46 3e
       -0.13219854 0.15410215 1.3193887 0.1939813
000040 a1 48 11 3d 0b 7f 69 bd c2 d7 0d bd b8 a5 9d bd
       0.035469655 -0.057005923 -0.03462959 -0.07697624
000050 89 21 02 bb 3b 1d 85 3e 82 97 cc 3e d5 db 26 bf
       -0.0019856414 0.25998864 0.3995934 -0.6517919
000060 7d 28 4c be fd 0c fc bd b9 38 00 3f e9 68 1a 3e
       -0.1993732 -0.12307165 0.5008655 0.15079083
000070 9e 52 e5 be 1d ba 94 bd f2 6a f0 be 14 37 1c bd
       -0.44789594 -0.07262061 -0.46956593 -0.038138464
000080 f6 c0 fb be 95 f1 32 bf ec 30 de bd 26 52 8c 3d
       -0.49170655 -0.69899875 -0.10849175 0.06851606
000090 6c 35 36 bd 8a 64 41 be f7 b6 4e 3e 48 ab 19 bd
       -0.04448454 -0.18886009 0.20186983 -0.037516862
0000a0 29 44 3f be 5d 8a 95 bc 6e 74 da be c3 43 e7 be
       -0.18678345 -0.018254453 -0.42666954 -0.45168886
0000b0 3f 29 69 3e 09 1f 18 be 7a ee a2 3d 45 63 7d 3e
       0.2276964 -0.14855589 0.07955642 0.247449
0000c0 29 ec 17 bf 61 cf b3 bd 00 29 12 bd 47 ab fb 3d
       -0.59344727 -0.08779789 -0.035683632 0.12288528
0000d0 d7 6b f6 be da c4 24 3d 27 6c ff bd 25 bd 7e 3f
       -0.4812915 0.040226795 -0.124718 0.9950736
0000e0 ca 0c 02 3f 55 cf c8 be 76 7c 82 bd ee 89 2c 3e
       0.50800765 -0.39220682 -0.06371395 0.16849491
0000f0 5c 2b ae 3e 17 88 37 bf db c2 5f be 99 c6 4b 3f
       0.34017456 -0.7169203 -0.21851675 0.7959991
000100 7b 97 df 3d fc a2 42 3e ae ed fb bd e6 c6 4e 3d
       0.109175645 0.19007486 -0.12301193 0.050482653
000110 c6 18 27 be 3d 35 86 be 38 db d9 3e 13 bf ac 3e
       -0.16318044 -0.26212493 0.42550063 0.33739528
000120 77 15 99 bd dc 48 e8 3d 4f 67 3d be 1e 6a 9a 3e
       -0.07474797 0.11342022 -0.1849644 0.30159086
000130 57 3c b6 be a0 f4 cd be ab 45 61 3e bb 9f aa be
       -0.3559291 -0.40225697 0.21999232 -0.3332499
000140 24 83 b8 3e e2 c0 78 bd d3 93 4e 3e 1d ca 83 bd
       0.36037552 -0.060730822 0.20173578 -0.064350344
000150 60 1d 80 be 84 39 b7 3d e9 ea b7 be 3c 8d a5 3e
       -0.2502241 0.08946517 -0.3592141 0.32334316
000160 16 d3 19 3e 4b bd 7b bf 7a 6a 84 be e4 b4 91 be
       0.15021929 -0.98335713 -0.25862485 -0.2845832
000170 3b f0 b4 3e 29 da 9f be b4 12 0f 3e e8 3e 29 3d
       0.3533953 -0.3122113 0.13971978 0.041319758
000180 2f 8f 58 bf d8 c0 ae 3c 79 8b c5 bd bc 5e ac bd
       -0.8459348 0.02133219 -0.09645743 -0.08416507
000190 30 a7 68 bf 5a 7f 9f bd ed e3 4b 3e ff 07 46 bf
       -0.9088011 -0.07787962 0.19911166 -0.7735595
0001a0 3b 19 f4 be 8f 1d 10 bc 34 27 3b be f1 c5 92 3e
       -0.476755 -0.00879611 -0.18276674 0.28666642
0001b0 eb e0 c3 be 11 2b dd bd 43 c4 15 3d 52 26 fd bd
       -0.38257536 -0.1079923 0.036564123 -0.12360825
0001c0 b8 3e cb 3e fc 9e 1d 3e b3 7e cf 3e d4 b7 8a 3e
       0.39696288 0.15392679 0.4052635 0.27093375
0001d0 fe 47 21 3e 14 13 ad bd 1f 6d 1f c0 dd a3 5f be
       0.15750119 -0.084509045 -2.4910352 -0.21839853
0001e0 24 74 e7 be 9c f6 95 3e 26 d9 b1 3e b3 4d 91 3c
       -0.45205796 0.2928971 0.34735984 0.017737245
0001f0 d5 0d ad bd 72 29 46 be 5a 44 88 3d 6f ef 6c 3f
       -0.08449904 -0.19351748 0.06653662 0.92552847
000200 fd ad d6 3f 86 51 b0 bd 28 bf d0 be ed 6a 53 3e
       1.6771847 -0.08609299 -0.4077084 0.20646258
000210 fa 18 0f 3e c4 b8 bd 3e d0 64 53 3d b0 ce fc bd
       0.13974372 0.37055027 0.051609814 -0.1234411
000220 56 b0 33 be 48 77 2b 3e 0b 28 64 3e 0c fc 5e be
       -0.17547736 0.16744721 0.222809 -0.21775836
000230 bc b0 a0 3c af 7a 8a be 89 99 17 3f ee b1 af 3d
       0.019615524 -0.27046725 0.5921865 0.08578859
000240 93 09 0c bf 26 31 99 3e 7a 3b 1c 3e 53 2c 08 bf
       -0.5470211 0.2992031 0.15257064 -0.53192633
000250 2d 73 9f bf 19 02 41 3e ea c1 84 be 09 ac a7 bd
       -1.2457024 0.18848456 -0.25929195 -0.0818711
000260 78 bc 00 bd d2 36 43 bf 4c 73 4c bc 41 3c d9 3f
       -0.031429738 -0.76255524 -0.012478661 1.6971513
000270 be 9e ce 3e 6b 2f 78 3e 52 aa a2 3d 00 bc 22 3e
       0.40355486 0.24236839 0.07942642 0.15892029
000280 fc 84 72 3c 4b a5 92 3e bb 85 c9 3e e2 b8 86 bf
       0.014802214 0.28641734 0.3935984 -1.0525172
000290 77 04 06 bf 89 9f db 3d 83 e5 3b 3e e0 99 5a 3e
       -0.5235056 0.10723788 0.1834927 0.21347761
0002a0 5a 22 34 be cb 21 81 3d db b4 f3 3e f6 c8 18 3c
       -0.17591229 0.063052736 0.4759892 0.009325257
0002b0 53 87 83 3e 93 53 d3 3e ec 57 ab 3e 6b 09 21 bb
       0.25689182 0.412747 0.33465517 -0.0024572264
0002c0 86 d9 e4 3f b2 a5 51 bf 22 f5 8e bd 24 2c 7b bc
       1.7878883 -0.81893456 -0.06980349 -0.015330348
0002d0 32 71 af 3e 57 94 07 3e eb f3 68 3e a3 37 9b be
       0.3426605 0.13240181 0.22749297 -0.30315885
0002e0 fa 07 d3 3d ff 58 16 bd e3 fc b9 3e 6f a9 01 bd
       0.10304256 -0.036705967 0.3632575 -0.031655725
0002f0 f2 1f a8 3d 2d 59 77 bf 52 94 42 3e f5 6c b9 bd
       0.08209218 -0.96620446 0.19001892 -0.09053985
000300 5c 82 28 bf 26 d4 ed be 4c 52 09 3f 25 a8 68 be
       -0.6582391 -0.4645092 0.536412 -0.22720392
000310 74 09 e5 3d c0 28 0a bf 87 b4 36 bd 8b 77 cc 3d
       0.11183444 -0.5396843 -0.044605758 0.099837385
000320 e8 82 1d bf cb 3c 81 bf 64 35 d5 3e b8 e9 a9 3f
       -0.6152787 -1.0096678 0.41642296 1.327445
000330 d4 ed 6f be 62 61 fd 3e 48 df 77 3d c2 d3 87 be
       -0.23430568 0.4948836 0.060515672 -0.26528746
000340 8c ad 30 be bc d1 cb bc ce 4c 10 3e 93 a0 db be
       -0.17253703 -0.024880283 0.14091799 -0.42895946
000350 2f 13 24 3c 15 54 5b 3d c6 08 9a 3c 5b 61 1e 3e
       0.010014339 0.053546984 0.018803012 0.15466826
000360 0d 18 85 be a9 a6 a7 3e 03 25 03 bf 07 1e 97 3e
       -0.25994912 0.3274434 -0.5122835 0.29515097
000370 3b 6e 4f be fb b6 66 bd 19 5e 20 be 5d ac af 3e
       -0.20256893 -0.056326848 -0.15660895 0.3431119
000380 5a 47 e5 be 74 09 a8 3d 8c a9 68 be dd 62 6c 3e
       -0.44781 0.08204928 -0.22720927 0.23084588
000390 44 6c 4d be 2f 0e 07 3e b5 50 82 3d 41 1d a2 3e
       -0.20060831 0.13189004 0.0636305 0.31662944
0003a0 59 59 21 bd 04 a9 4c bf 6a 1e a4 bd 05 89 7e 3d
       -0.03939185 -0.799454 -0.080136135 0.06214239
0003b0 71 2d 8a be 89 2a 99 3e bf 8e eb 3d fe ef 22 bd
       -0.26987794 0.29915264 0.11501836 -0.039779656
0003c0 8d dd c8 bd 95 2e e6 3f 7b 0a 76 be 4f b5 86 bf
       -0.098078825 1.7982966 -0.24027435 -1.0524081
0003d0 f2 28 98 be c3 bc 23 bc 0e ab 9b be ff 07 f3 3e
       -0.2971874 -0.009993735 -0.30403942 0.47467038
0003e0 14 6c c9 bd 22 3a a3 bf 4c 10 17 be 10 59 da 3d
       -0.098350674 -1.2752116 -0.1475231 0.106615186
0003f0 3a 23 31 be 25 0b 3b bd 66 50 43 bf 74 63 85 3e
       -0.17298594 -0.045664925 -0.76294553 0.2605244

fc3.bias f4 [4]
000000 a2 c8 31 be 53 6c 62 3e 70 45 f6 b8 21 68 38 3e
       -0.17361692 0.22111635 -0.00011743128 0.18008472
