Tennis/Nets/checkpoint_critic2200.pth (torch_old, 526870 bytes, 9 tensors)

bn1.weight f4 [24]
000000 99 8b 18 3e e6 29 6d 3e 20 83 26 3e c6 1b 18 3e
       0.14897002 0.23160514 0.16260958 0.14854345
000010 1c 36 64 3f 1d 12 15 3f 2b fb a6 3d b2 45 9b 3a
       0.89145064 0.58230764 0.08153375 0.0011846332
000020 78 49 08 3e a3 b8 d1 3c c7 7e 07 3e ff 01 16 3c
       0.13309276 0.025600737 0.13231955 0.009155749
000030 57 b8 8f 3b 44 39 1c 3f 58 80 22 3e af 26 4f 3e
       0.0043859887 0.6102488 0.15869272 0.202296
000040 8d a7 03 3f 59 56 8c 3e a9 93 9d 3d e1 48 70 3e
       0.5142754 0.27409628 0.076941796 0.23465301
000050 dd 62 3c 3f ae 53 3f 3f e0 77 84 3e a3 76 76 3e
       0.73588353 0.7473706 0.25872707 0.24068694

bn1.bias f4 [24]
000000 32 c6 c2 3c f1 0f e1 bb 93 9f b1 3c 87 97 0b bb
       0.023776148 -0.0068683554 0.021682536 -0.0021300034
000010 bb 3f f9 3c b7 48 8e 3e 14 a9 cd 3c 99 50 29 ba
       0.030425897 0.27789852 0.025105037 -0.00064588484
000020 2f 4e a4 bd 8c b9 b3 3e 6c 3e e3 3a d8 af cf b8
       -0.08022725 0.351025 0.0017337329 -9.9032826e-05
000030 23 96 62 ba 50 c0 a9 3e 7a 0b e4 3b 3f b2 d6 bc
       -0.0008643588 0.33154535 0.006959376 -0.026208041
000040 96 c9 c8 bd 1d 40 51 3e bd 46 32 bb ac 90 c4 bc
       -0.098040745 0.20434614 -0.0027202808 -0.023994766
000050 3f 0e 99 3d 5b 91 75 3e 9e fa 75 bd 6a 2a 4a bd
       0.0747342 0.2398123 -0.06005346 -0.049356855

bn1.running_mean f4 [24]
000000 14 c0 c4 c0 b2 32 85 bf d8 60 83 40 27 90 76 3d
       -6.148447 -1.0406096 4.1055717 0.06019607
000010 95 62 8b bd 92 17 31 40 d8 60 83 40 27 90 76 3d
       -0.068059124 2.7670636 4.1055717 0.06019607
000020 f2 af c9 c0 e9 53 87 bf 7a 58 86 40 61 33 60 3d
       -6.3027277 -1.0572482 4.1983004 0.0547365
000030 f3 84 d0 bd 20 1a 31 40 7a 58 86 40 61 33 60 3d
       -0.10181608 2.7672195 4.1983004 0.0547365
000040 53 05 ce c0 f6 3b 89 bf c6 30 8b 40 48 90 92 3c
       -6.43815 -1.0721424 4.349704 0.017891064
000050 eb fe fa bd 78 56 2e 40 c6 30 8b 40 48 90 92 3c
       -0.12255653 2.7240276 4.349704 0.017891064

bn1.running_var f4 [24]
000000 06 89 67 41 f6 da 80 3f 63 22 86 43 11 b7 ec 40
       14.470953 1.0066822 268.26865 7.397347
000010 5d 83 05 42 53 fe 75 40 63 22 86 43 11 b7 ec 40
       33.378284 3.8436477 268.26865 7.397347
000020 d4 3b 5e 41 8a 7c 80 3f b1 f0 88 43 a9 57 fc 40
       13.889606 1.0038006 273.8804 7.8857007
000030 72 0e 0d 42 7a f6 7e 40 b1 f0 88 43 a9 57 fc 40
       35.264107 3.9837937 273.8804 7.8857007
000040 7c c2 55 41 af 63 81 3f 24 75 8d 43 69 26 03 41
       13.359982 1.0108546 282.91516 8.1968775
000050 1b f4 14 42 90 15 89 40 24 75 8d 43 69 26 03 41
       37.238384 4.283882 282.91516 8.1968775

fcs1.weight f4 [400, 24]
000000 36 e0 3e 3e 9c 7d 05 3f e4 4f 76 3d f0 17 bc 3e
       0.18640217 0.5214479 0.060134783 0.36737013
000010 a6 7d 54 bf 4a 03 3f bf 69 e3 29 bc b9 20 3d bd
       -0.83004224 -0.74614394 -0.01036916 -0.046173785
000020 23 a5 a8 bc 90 39 cd be db f6 3a 3e 76 98 e2 3d
       -0.020586556 -0.4008298 0.1825823 0.11064236
000030 5e 7d d9 3d b6 5a ae 3d de b8 1d 3e 22 4d 74 3e
       0.10619615 0.085133955 0.15402552 0.23857549
000040 fa 06 4c be 46 48 fb be 4f a8 52 3c 0b 78 4a be
       -0.19924536 -0.49078578 0.012857511 -0.19772355
000050 87 74 57 3f 41 61 dc 3e 4f 37 28 3e 12 1b 2f be
       0.8416218 0.4304295 0.16427349 -0.1710017
000060 d3 35 76 3e 8c 04 81 3e d7 ec b8 bd 29 c2 03 be
       0.2404397 0.25198781 -0.090295486 -0.12867035
000070 a3 82 10 3e 52 db fa bd 87 93 3c be b6 a7 bd bd
       0.14112334 -0.12248863 -0.18415652 -0.09260504
000080 3f d5 63 3e 15 12 cf bd a2 45 20 3d 9b 2f 91 be
       0.22249316 -0.10110871 0.039128907 -0.28356633
000090 7c 2f fc 3c bf 33 1f 3e d2 9b 20 bb c5 17 a2 be
       0.030784361 0.15547083 -0.0024506939 -0.3165876
0000a0 31 4c b1 3e 0e 5e 9e 3d fc 4c f8 bd e9 fb ca be
       0.34628442 0.07732783 -0.121240586 -0.39645317
0000b0 53 98 22 bf 14 8d fe bd 64 92 09 be 71 cd cd be
       -0.6351368 -0.12429252 -0.1343475 -0.40195802
0000c0 08 b3 14 3e da c0 46 bd b5 58 74 3d de e2 64 bd
       0.1452142 -0.04852376 0.05965491 -0.05588042
0000d0 73 38 3b 3d 02 71 da be c9 02 c0 3d 99 71 60 bd
       0.04570813 -0.42664343 0.09375531 -0.054795835
0000e0 86 63 9d bd 0e cf a3 bd 31 b7 61 3d 1a c2 f8 bd
       -0.07684998 -0.07998477 0.055106346 -0.12146397
0000f0 16 17 56 bd 20 ce a7 be bc 82 fc 3d 3c d3 26 be
       -0.05226811 -0.32774448 0.12329623 -0.16291517
000100 63 50 cc 3c 97 8f c8 3d df 11 2e 3d f2 50 e6 3e
       0.024940675 0.097930126 0.042497512 0.4498363
000110 12 54 98 bd 39 1a 1b 3f e2 69 31 3d 27 a8 06 3f
       -0.0743791 0.6058689 0.04331387 0.5260033
000120 93 08 0b bd d1 2e 52 be ab 3c 75 3c 3a a7 db 3d
       -0.033943724 -0.20525672 0.014968078 0.10725255
000130 a9 bd 48 bf 7b 54 31 bc 69 34 af 3c 2c d3 76 3b
       -0.784144 -0.010823364 0.021387296 0.003766249
000140 b1 fc a8 3c 96 a6 9b bd 2a 00 b5 bc d8 c1 83 bd
       0.020628305 -0.07600133 -0.022094805 -0.06433457
000150 2d 04 32 3d 39 b0 3b be 9f 55 1b 3d 44 c0 d7 bd
       0.043461014 -0.18328942 0.03792345 -0.10534719
000160 b9 31 a5 bc 13 be d8 bd 15 e2 74 3b 78 57 ac bd
       -0.020165311 -0.10583129 0.00373662 -0.08415121
000170 ff f7 77 3f 27 9d 09 3e 1a f7 af 3c f4 e3 8e bd
       0.96862787 0.13438855 0.021480132 -0.06977072
000180 23 5d 40 3d 43 e9 12 bd 79 75 cc bd 38 51 f0 be
       0.046963822 -0.035866987 -0.09983344 -0.46936965
000190 c2 b0 93 3c 8a a1 b1 bd 15 ef 16 be 2a 2a b9 3c
       0.01802862 -0.08673389 -0.1473964 0.022603113
0001a0 87 42 ce 3d 19 94 b7 be 5f a4 fc 3e d9 4c ff be
       0.10071283 -0.35855177 0.49344155 -0.49863318
0001b0 cd 0a af 3a 94 77 11 3d 57 f7 01 3f 0b d9 0f bf
       0.0013354659 0.03551443 0.50768036 -0.56190556
0001c0 0f 60 8c 3d 05 4b 57 bf ac c2 de be c8 f8 6d 3e
       0.06854259 -0.84098846 -0.43507898 0.23239434
0001d0 05 40 af be a0 9e 74 3b a5 81 d5 be 2a a4 44 3e
       -0.3422853 0.0037325993 -0.41700473 0.19203249
0001e0 1e 3e 98 3e a5 34 3a 3d aa 92 9a 3d f7 78 fb bd
       0.29734892 0.045460362 0.07547505 -0.122789316
0001f0 c6 a7 9a be bb b8 44 be e8 3c da 3b d6 99 60 3d
       -0.30206126 -0.19211094 0.0066600926 0.05483421
000200 62 33 b1 3c 77 39 5f be 99 a4 72 bd 64 d3 e0 bb
       0.021630947 -0.21799265 -0.059239004 -0.006861137
000210 c9 4f c2 bc 8a e5 77 3d ff 59 55 bd 2f a6 cf 3a
       -0.023719685 0.06052164 -0.05208778 0.0015842373
000220 40 e5 53 3e a5 4d 87 3d 7b ba f9 3e 7c a9 37 3e
       0.2069292 0.066066064 0.48775086 0.17935747
000230 47 ab 8b 3e 92 23 0c bd 02 da 22 3f 79 d9 89 3e
       0.27279112 -0.03421361 0.63613904 0.2692373
000240 c9 e4 2e bc e2 b3 11 be 0c 5e 86 bc f3 cc 16 3b
       -0.010674664 -0.14228776 -0.016402267 0.0023010343
000250 74 66 ed be 7d 74 10 be 0f 28 a8 3c 1d 18 af 3c
       -0.46367228 -0.14106937 0.020526914 0.021373803
000260 76 de 02 3d 4c af 60 bd af 7f 1a bd 43 70 1f 3c
       0.031950437 -0.054854676 -0.037719425 0.009731355
000270 11 57 2f bc 7c f8 92 bc fb d4 0c bd 7b ed 7a bd
       -0.010701911 -0.017940752 -0.0343828 -0.061261635
000280 84 db 30 3c 4b 2a 4a 3d 4a 58 9b bd 05 a4 02 bd
       0.010794524 0.04935674 -0.07585199 -0.031894702
000290 10 78 49 3f 8b 88 38 3e e4 57 5d 3b 4f c8 12 bd
       0.78698826 0.18020837 0.003377431 -0.03583556
0002a0 54 a1 d7 3c 69 df 22 3e 17 61 26 be d3 e2 95 be
       0.026322044 0.15905537 -0.16247974 -0.29274616
0002b0 3a 38 16 3e 44 c9 c5 bd 0c 1e 80 be 6c 5f 81 bd
       0.14669886 -0.09657529 -0.25022924 -0.063170284
0002c0 ef 1d e7 3b d8 81 7e be b3 cb aa bd 33 ad 89 b9
       0.007053129 -0.24854219 -0.08339634 -0.0002625972
0002d0 f1 ea cc 3d 9c 9d b5 be c4 44 a5 bd f6 49 7f bc
       0.10005749 -0.3547181 -0.080697566 -0.0155815985
0002e0 c5 6d fe 3d df c1 99 be 83 60 44 bd 45 95 20 3f
       0.124232806 -0.30030724 -0.047943603 0.6272777
0002f0 9b 74 88 3e a1 52 d6 3e 04 fe 8c bd 9e ff 32 3f
       0.26651463 0.41859916 -0.06884387 0.6992129
000300 65 22 bd 3e 82 a3 18 3d 3d 5b c5 3d 53 ec 51 be
       0.36940303 0.03726531 0.09636543 -0.20500307
000310 04 13 59 3d c8 ea 3a bd b9 97 43 3d 85 6e 7c bd
       0.05299665 -0.04563406 0.047752116 -0.061628837
000320 c5 2e d5 bc 89 79 6f be 15 9b 2d bf 50 28 a8 be
       -0.026023278 -0.23386206 -0.6781476 -0.32843256
000330 b7 61 e9 3d bb 3c e9 bd 3d f8 27 bf 94 90 d4 be
       0.11395591 -0.113885365 -0.65613157 -0.41516554
000340 f0 4b b4 3d a4 3f c1 3d 9d e3 af 3d 66 95 5d 3e
       0.088035464 0.094359666 0.08588336 0.21639022
000350 3b 7b 33 be 70 27 84 bc a7 e4 16 3e 62 7d 86 3e
       -0.17527477 -0.016132087 0.14735661 0.26267534
000360 44 08 4b be 81 9b 26 be 34 55 13 3f 88 27 9c 3e
       -0.19827372 -0.16270258 0.57551885 0.3049891
000370 cb 56 84 3d 49 4b fc bd 09 b2 eb 3e bb 57 09 be
       0.06461867 -0.12319047 0.46034268 -0.13412373
000380 3b 8a 59 be a3 31 e9 be 42 fa f4 be 43 9e 02 3e
       -0.21244137 -0.45545682 -0.47847182 0.12755685
000390 bd bf d4 bc 1e 58 87 3d 5d 21 fa be b7 fe 48 3e
       -0.025970334 0.06608604 -0.4885358 0.19628416
0003a0 83 32 53 bb b4 22 28 bf 26 c1 bf 3e 3b f7 1e 3d
       -0.0032226152 -0.6567795 0.37452048 0.038809996
0003b0 df 07 3c 3d d0 5f 1e 3e bf d8 d6 3e f5 93 7a 3d
       0.045905944 0.15466237 0.4196224 0.06117626
0003c0 88 de 89 be ce 84 c2 bd 44 5f 85 be 33 a9 9f bd
       -0.2692759 -0.09497987 -0.26049244 -0.07795944
0003d0 76 d1 f8 bc d0 f2 74 be b8 c4 89 be c8 6c e6 3b
       -0.030373316 -0.2392075 -0.26907897 0.0070320107
0003e0 ef 68 3c be e9 c4 ad be e6 20 58 3d 78 46 43 3e
       -0.18399404 -0.33939293 0.05276575 0.1906985
0003f0 7f 28 1e 3d 06 72 09 3e 17 6c b3 3d 65 2e 8c 3e
       0.03861284 0.13422403 0.08760851 0.27379146

fcs1.bias f4 [400]
000000 40 ab d1 be 4f 10 ad be 57 aa 73 be 2f 8d 1f bd
       -0.40950966 -0.33801505 -0.23795448 -0.038953003
000010 ca 3c 9f be 46 11 30 be be ca 84 be cf 72 7d be
       -0.31101066 -0.1719409 -0.2593593 -0.24750827
000020 e1 a8 cf bd b4 c5 28 bd f5 23 ec be a1 e4 09 bf
       -0.10139633 -0.04120417 -0.46121183 -0.53864485
000030 df e0 fb 3c d4 b1 dd be 80 c9 b8 bd c8 29 e5 be
       0.030746875 -0.43299735 -0.09022808 -0.4475844
000040 23 68 67 be 3e 36 ee be 98 78 0d be 21 2c 25 be
       -0.22598319 -0.46525759 -0.13815534 -0.16130115
000050 a7 60 5e be 74 4e 83 bd 27 d8 c5 bd 5f 2c 8e be
       -0.21716557 -0.06411448 -0.096603684 -0.27768227
000060 86 6f c5 be 50 7f 84 be f0 d3 45 bd af 25 39 be
       -0.38561648 -0.25878382 -0.048297822 -0.18080781
000070 67 7b 4c be bf 85 bb be 43 0b 0a bf 9d 91 7d be
       -0.1996895 -0.36625478 -0.53923434 -0.24762578
000080 8f fa 28 be 95 67 c0 be bd 60 46 3c 94 77 f6 be
       -0.1650183 -0.37579027 0.012108025 -0.48138106
000090 09 02 1f be 61 fd db be a6 f7 57 be b5 0b 25 be
       -0.1552812 -0.4296675 -0.21090564 -0.16117747
0000a0 3c 74 be bd b0 6f b5 be 70 05 77 bd e5 62 22 be
       -0.09299514 -0.35436773 -0.06030792 -0.15858038
0000b0 ab fc 27 bf bf 03 17 3e 3f f0 37 be c7 fc 27 be
       -0.65619916 0.14747523 -0.1796274 -0.1640502
0000c0 d4 04 2e be 7b c7 02 bf fb 45 42 be d3 43 b9 be
       -0.1699403 -0.51085633 -0.18972008 -0.36184558
0000d0 86 15 33 be 7c 57 6e bd 3c 48 08 bd 2c 56 3f 3d
       -0.1748868 -0.0581889 -0.033272013 0.04671304
0000e0 d7 e7 a0 3c 1a eb 09 be 7c ca 14 3d be 2e 08 bc
       0.0196418 -0.1346859 0.036325917 -0.008311925
0000f0 9c 1d 42 be bf c2 a5 bd 80 61 d6 3c d7 0b 54 be
       -0.18956608 -0.080937855 0.026169538 -0.20707642
000100 8f 5b 44 be 2c 49 87 be 3f 36 4c be 5b aa 19 3c
       -0.19175552 -0.26423013 -0.19942568 0.009378995
000110 79 20 df bd ee 25 61 be 08 cb cc be 0c 34 9c be
       -0.108948655 -0.21987125 -0.3999865 -0.3050846
000120 3f a4 75 bd 8b 85 af 3b 86 d0 3b bd 3b 28 13 be
       -0.05997109 0.0053564957 -0.04585316 -0.14370815
000130 f4 eb e8 bd 1a 1b 76 be a8 ed 85 bd fb dc 6d be
       -0.113731295 -0.24033776 -0.0653947 -0.23228829
000140 f1 ae 13 3d f3 57 90 be 51 47 e6 bd 0c 0a 21 3d
       0.03605551 -0.281921 -0.11244071 0.039316222
000150 06 95 ca be 44 ae 32 be 81 44 98 bc 85 6c 0c bf
       -0.3956682 -0.1744929 -0.018587353 -0.5485309
000160 a5 c7 d6 be 2c 87 2a be a1 87 93 be f6 23 52 be
       -0.41949192 -0.16653126 -0.28814414 -0.2052153
000170 fe ab 8b be be d3 3e bd 0d 3b d0 be 02 80 b2 be
       -0.27279657 -0.04658865 -0.40670052 -0.34863287
000180 16 d7 ab be 2a ec 00 bf 56 ce 7c be e0 1e 85 be
       -0.33562535 -0.5036036 -0.24688086 -0.26000118
000190 40 b2 34 be 27 0c 3e be a1 27 96 be 75 10 e5 be
       -0.17646122 -0.18559323 -0.2932711 -0.44739118
0001a0 60 fa 69 be 3a f9 9f be 8b 37 2c 3b 58 55 95 bd
       -0.22849417 -0.31244832 0.0026278223 -0.07291669
0001b0 8d ee f7 be b4 11 57 be 73 38 ce bd 94 5c 78 be
       -0.48424187 -0.21002847 -0.100693606 -0.24254066
0001c0 d2 2c 8d bd 63 ce 85 bd e8 ca 3f be 8a 91 b8 bd
       -0.068933144 -0.06533506 -0.18729746 -0.090121344
0001d0 ef 1a d7 bc cc 83 2a be 0b b6 e4 bd f6 2c 38 be
       -0.02625796 -0.16651839 -0.111675344 -0.17985901
0001e0 ed b6 e9 be 21 e2 a1 be e6 f8 fc be 80 48 5d be
       -0.45647374 -0.31617835 -0.49408644 -0.21609688
0001f0 f1 9e 63 be 19 00 30 be 01 73 3a bd 23 0b a9 be
       -0.222286 -0.17187537 -0.045519833 -0.3301631
000200 09 8d e7 be ce aa 65 be ef 4f c9 be b4 4c 6a be
       -0.4522479 -0.22428438 -0.39318797 -0.22880822
000210 41 49 3c bd 8a 5a d2 3d 0a 3d db bc 56 62 d3 be
       -0.045968298 0.10271175 -0.026762504 -0.41285962
000220 fe 69 e3 be fd b2 51 be 53 e1 eb be d7 22 2a be
       -0.44416803 -0.20478435 -0.46070346 -0.16614853
000230 1b 25 62 be 4a 3d 36 bc 7a 82 16 be 5a 1e ef be
       -0.22084467 -0.011123011 -0.1469821 -0.46702844
000240 77 e9 96 bd 57 c0 35 be fc 64 9e be 03 2b e0 bb
       -0.07368749 -0.17749153 -0.3093642 -0.006841065
000250 fa 90 b0 bd 2e 68 e3 bd 6d c1 0a bf 60 6c 88 be
       -0.08621402 -0.11103855 -0.54201394 -0.26645184
000260 69 4b b6 bd 9f a5 28 be 33 bc bd be 95 30 da be
       -0.08901102 -0.1646943 -0.37057647 -0.4261519
000270 a5 40 fd be 7b d1 2f be 32 5e ee be 9f a7 3a be
       -0.49463382 -0.17169754 -0.4655624 -0.18228005
000280 da a4 c7 bd a0 6d 7c 3e 88 0c b6 be 1f 35 6f be
       -0.0974824 0.24651194 -0.35556436 -0.23360108
000290 47 fe 3a be 4b 52 c0 be 1a 88 7d bd a8 b6 96 be
       -0.18261062 -0.37562785 -0.061897375 -0.2943623
0002a0 15 14 60 be 9d 8e 32 bd dc b1 46 be 9d 9f 31 be
       -0.2188266 -0.043593038 -0.19403785 -0.17346044
0002b0 6b f8 e7 be 1f 99 f7 be ea 51 c3 be ac af c3 bd
       -0.45306715 -0.4835901 -0.38148433 -0.09554991
0002c0 e0 5d 02 be 0a 9c 2f be 31 11 19 3d 80 8e fd bc
       -0.12731123 -0.17149368 0.03736991 -0.030951738
0002d0 05 92 b2 bd b0 52 4a be 83 a6 b9 bd e5 8b 77 bb
       -0.08719257 -0.19758105 -0.09064963 -0.0037772593
0002e0 f8 76 77 bd f3 2b 5a 3d 94 21 17 be 17 2c d6 be
       -0.06041619 0.05326457 -0.14758903 -0.41830513
0002f0 20 76 39 3d 07 ba 0a be 5e ba 5e be a7 d1 8c be
       0.04527867 -0.13547526 -0.21750781 -0.27503702
000300 84 d0 9f bb bf aa a2 bd 2e 14 67 be 9b 5c 23 3c
       -0.004877152 -0.079427235 -0.22566292 0.009970809
000310 7f ff 3c be a8 5f 15 be ed 66 c4 be 2d cf a3 bd
       -0.18456839 -0.14587271 -0.38359776 -0.079985
000320 aa 42 4a bd f5 0e 82 be b4 10 79 be 9e 5c 3a be
       -0.049379982 -0.25402036 -0.24322778 -0.18199393
000330 f3 3b eb bc e4 a0 f6 be 89 db ce be 35 1f 1f bf
       -0.02871511 -0.48169625 -0.40401867 -0.62156993
000340 41 c2 8c be 78 7f 26 3e 4b 79 68 be c0 9a 71 bd
       -0.27491954 0.16259563 -0.2270252 -0.05898547
000350 c8 b5 53 be 61 b9 43 be 01 84 10 bd 7f cf 46 be
       -0.20674813 -0.19113685 -0.03528214 -0.19415091
000360 2b 61 9a 3d e2 ad 88 be af e5 4a 3d 39 13 06 be
       0.075380646 -0.26695162 0.04953545 -0.1309327
000370 02 7d 3e be 01 3a 8c be 2b 74 81 be 36 16 c8 3c
       -0.18602374 -0.27388003 -0.25283942 0.024424654
000380 72 8b 43 be 5d 0d 2b be 31 a3 e2 be 76 7b 91 be
       -0.19096163 -0.16704316 -0.4426513 -0.28414506
000390 ea bb 95 be 20 81 75 bd fd 07 d0 bd b6 9d 19 bf
       -0.2924493 -0.059937596 -0.10157774 -0.6000627
0003a0 47 68 4a be 79 1e 07 be c8 d1 4d be c4 65 a9 bd
       -0.19766341 -0.13195218 -0.20099556 -0.082713634
0003b0 ec a9 35 be 90 00 8c be 20 80 32 bd c0 b9 51 bc
       -0.17740601 -0.2734418 -0.04357922 -0.012800634
0003c0 c5 41 14 be ce 9b 47 be a3 d0 71 be 45 66 f4 be
       -0.14478214 -0.19493029 -0.23614745 -0.47734275
0003d0 5c 8d c7 bd 13 25 f9 bd e2 71 4c be 70 34 1b 3c
       -0.09743759 -0.121652745 -0.19965318 0.009472951
0003e0 74 bc 00 be 07 2f d4 be 40 03 2c bd 71 b7 c7 be
       -0.12571889 -0.4144213 -0.041995287 -0.39007142
0003f0 79 ba e3 bd 70 dc 78 be f8 89 8b 3c a5 55 2a bf
       -0.11119551 -0.2430284 0.017033562 -0.66536933

fc2.weight f4 [300, 402]
000000 9f 97 14 be 58 34 c4 3d 8c cb e6 be 03 3e fa be
       -0.14510964 0.09580296 -0.4507717 -0.48875436
000010 6b 65 84 be 2f bd ac 3e 2c d4 8c be 6e 7d 03 bf
       -0.25858626 0.33738086 -0.27505624 -0.51363266
000020 1d 1d 3b be 04 d0 e0 bc 0a d5 51 3d a3 f3 a4 bc
       -0.18272825 -0.02744294 0.05122856 -0.020135706
000030 ae d7 1e 3d f4 dc 1b bf 1f f0 02 bf 96 78 ca be
       0.038779907 -0.6088402 -0.51147646 -0.39545125
000040 eb 94 41 3f 2e 59 c1 3e 64 0f 02 bd 96 99 0e be
       0.75617856 0.3776335 -0.03175296 -0.13925776
000050 e9 4b b9 be 6c d7 b2 be cb 08 85 bf 12 d7 89 be
       -0.36190727 -0.3492998 -1.0393308 -0.26921898
000060 71 e4 4f bd 5a a4 16 3e ac 84 74 3e eb 00 20 3f
       -0.050754968 0.14711133 0.23878735 0.625014
000070 37 43 80 3e b3 19 33 bf d3 cd 11 bf e1 aa ae be
       0.2505128 -0.6996109 -0.5695469 -0.34114745
000080 80 a3 5e 3b c6 26 2f bc 7e 8c f4 bd 02 0e 94 3f
       0.0033971965 -0.010690397 -0.11940859 1.1566775
000090 cd fd 18 bf 28 04 a2 be 45 c1 fe 3c 46 98 6b 3e
       -0.5976227 -0.31643796 0.031098017 0.23007306
0000a0 da 34 f7 3d b8 1b 2a bf 29 d1 05 bf cf 03 3d bd
       0.120706275 -0.66448545 -0.5227228 -0.04614621
0000b0 ea e2 20 bf 65 d1 85 3e 53 84 5b 3c 50 2c 12 bd
       -0.62846243 0.26136318 0.013398248 -0.03568679
0000c0 77 0f a2 bf 82 27 0e 3d 06 2d 88 bf d5 93 59 bd
       -1.266097 0.034705646 -1.063874 -0.0531195
0000d0 b0 91 a6 bc 39 9f bd 3e a2 d9 89 bf 2c d5 5e bf
       -0.020333141 0.3703554 -1.0769541 -0.87044024
0000e0 67 04 b2 3d b3 15 8f 3e fb de e8 bf 49 4e fa be
       0.08692246 0.27946243 -1.8193048 -0.48887852
0000f0 2c 50 cc 3d ee 61 2e bf d7 8f a5 3e 8a 2c 4c 3d
       0.09976229 -0.6811818 0.32336304 0.049847163
000100 dc c3 5d bd 34 45 cb 3e 8e cc 0f bd c6 fb aa bf
       -0.054141864 0.39701235 -0.035107188 -1.3358085
000110 a4 fe 0d be 89 9d 28 be f7 61 6d be b2 45 b7 be
       -0.13866669 -0.16466345 -0.23181902 -0.3579536
000120 0e fc 74 bd f8 7c 8f 3e 6f 60 2e 3d 35 af 24 3e
       -0.05981069 0.2802503 0.042572435 0.16082461
000130 5d 9c cd 3e 38 9b 35 bd 15 22 4c bf bf 79 e0 3c
       0.40158358 -0.04433748 -0.79739505 0.027401803
000140 9c 6e 84 3e 50 9b 21 bf 9e 78 ac 3d 8b a8 87 3e
       0.25865638 -0.63127613 0.084214434 0.26495776
000150 2e 31 9f be f2 0f 53 3e 38 dd 1a bf 4a a4 5a bd
       -0.3109221 0.20611551 -0.60493803 -0.053379335
000160 e0 2a 76 3d 16 ad 56 3e 30 60 72 bf 48 54 79 3c
       0.060099483 0.20964465 -0.9467802 0.015217848
000170 70 81 0f be ed 92 be bd f3 a4 8c bd e4 08 14 3e
       -0.1401422 -0.093053676 -0.06867399 0.14456517
000180 d4 7d 4a 3e 33 f0 49 be 6f 16 39 bd 0e f5 58 3d
       0.19774562 -0.19720535 -0.04518741 0.052968077
000190 6f e4 7c bd 80 c9 47 3d 10 fb b8 be 5b 7d 04 be
       -0.06174129 0.04877615 -0.36129045 -0.12938444
0001a0 05 b8 58 be ee 27 33 bf bf 54 0a 3d f6 3a 7c 3e
       -0.21163948 -0.699828 0.033772226 0.24631867
0001b0 4c 62 17 be 9a 33 7b bd 23 c4 02 3f e9 bb a8 be
       -0.14783591 -0.061328508 0.5108053 -0.32955864
0001c0 cb 66 af bd 5f 80 e9 be 96 28 1f bf 86 2b e1 be
       -0.08564528 -0.45605752 -0.62171304 -0.43978518
0001d0 0b 99 19 bf 88 9e bb bb 29 e4 27 bf 70 4b 30 be
       -0.5999915 -0.0057256855 -0.6558252 -0.17216277
0001e0 47 e3 e5 bd d2 ff 03 bf ba d1 e5 3d f1 3b da 3e
       -0.1122499 -0.51562226 0.11221643 0.42623857
0001f0 c1 08 d8 bd 38 8e 27 bf 18 1b c1 be 61 1d 98 3e
       -0.10548545 -0.65451384 -0.37715983 0.29709914
000200 96 b8 a3 3e 5a 20 5d 3c ab 9e 54 bc e0 d7 01 3f
       0.31976765 0.013496483 -0.0129772825 0.50720024
000210 09 e9 a0 be 11 06 94 bf 6b b9 60 bd e8 14 fe be
       -0.31427792 -1.1564351 -0.05486433 -0.49625325
000220 11 0e b1 3d ea fd d6 3a 53 e1 ab bd df 02 50 be
       0.08645261 0.0016402577 -0.083925866 -0.20313595
000230 37 0f 83 be 7b 42 c6 3e 3f e5 3f 3e 29 f8 61 bf
       -0.25597546 0.38722596 0.18739794 -0.8826929
000240 2c 72 0a bf 91 40 83 3d d1 09 a3 be e5 4b 86 bf
       -0.5408046 0.064087994 -0.31843427 -1.0491911
000250 19 43 6f be a1 67 a6 3e a6 28 e1 3e 4b 14 bc be
       -0.2336544 0.32500938 0.43976325 -0.36734232
000260 e5 b7 6f 3e 97 04 06 bf 9c a8 40 3e 49 e8 3e 3d
       0.23409994 -0.52350754 0.1881432 0.046608243
000270 3b bd 95 3c 1e b2 a8 bd 7b 49 9f 3e f2 d5 44 3d
       0.018278709 -0.08237098 0.3111075 0.048055597
000280 38 69 01 bf fa c2 a5 be d6 b8 8f be 62 85 33 3d
       -0.50551176 -0.32375318 -0.28070706 0.043828376
000290 4d 47 81 bd 61 6d d5 be df 73 6f be db 6c 24 bc
       -0.06312428 -0.41685012 -0.23384045 -0.010035719
0002a0 9e fc 25 bf 41 d8 70 3e 51 24 01 3d 40 fe 8a be
       -0.6483859 0.23519994 0.031528775 -0.27147102
0002b0 ab db bb 3c b5 1d 0e be b1 85 f0 3a 9e 8e 91 bd
       0.022931894 -0.1387852 0.001835039 -0.0710728
0002c0 41 de ab 3d 2a 54 a1 bd bd a0 2f be 2e e2 04 bf
       0.08392001 -0.07877381 -0.1715116 -0.5190762
0002d0 bb 10 03 3e 77 96 6f bd 12 01 bc be c1 1b e0 3a
       0.12799351 -0.058493104 -0.36719567 0.0017098115
0002e0 65 eb 22 be 0c 05 1a bf 08 d1 e8 bd cc e9 9f 3e
       -0.15910108 -0.6016395 -0.113679945 0.3123306
0002f0 e0 20 d2 be ab 70 04 3e 3b 20 b4 bd 6f 4c 0a 3d
       -0.41040707 0.12933604 -0.0879521 0.0337643
000300 d3 39 e5 3c 0b 38 0b bd b4 69 12 3d e4 87 c6 be
       0.027981674 -0.033988994 0.035745338 -0.3877555
000310 58 49 94 bb 8a e0 b8 bd 91 fd 0a 3d 9d 3d 9e 3d
       -0.004525345 -0.090272024 0.033933226 0.077265956
000320 17 3a a1 bd ec 51 0b bf 91 e5 af be a9 d2 f8 ba
       -0.07872408 -0.5442188 -0.34354833 -0.001898368
000330 fd d5 0c bf 84 e9 39 be df 8e 28 bf ad 2e b6 be
       -0.5501402 -0.18155485 -0.65843004 -0.35582486
000340 7f c9 46 bf 28 b3 22 bf 5e 7c 76 3d 5b c6 d1 be
       -0.7765121 -0.6355462 0.0601772 -0.40971646
000350 c3 cc e9 be 48 7b af bb eb 2c 30 bf e0 7c 18 bf
       -0.45664033 -0.0053552724 -0.6881854 -0.59565544
000360 6b 42 8f bf 03 17 9e be 2b cd 6b be 09 44 04 bf
       -1.1192144 -0.30876932 -0.23027484 -0.51666313
000370 7a 34 41 bd d9 d6 9f bd d3 59 44 3e f6 2c e6 bd
       -0.047169186 -0.07804651 0.1917489 -0.11239044
000380 26 de c3 be 32 cd cc bc a5 be 46 be 53 b0 7d 3e
       -0.38255423 -0.025000188 -0.19408663 0.24774294
000390 ae dc a5 bd 1d fb a4 bd a5 f2 30 bf 3f 3e 8b bf
       -0.08098732 -0.080557086 -0.69120246 -1.0878371
0003a0 12 12 51 bd 05 36 4c 3e 6c 7d 73 39 eb 8c b0 bf
       -0.051042624 0.19942482 0.00023221009 -1.3793005
0003b0 88 08 f6 bd b2 19 67 be f7 5a c7 3d 25 97 d9 3e
       -0.12013346 -0.22568396 0.09734147 0.42498127
0003c0 26 9d 99 bf da ea b3 bb e5 0b 8d 3e c2 27 f7 be
       -1.2001083 -0.005490643 0.27548137 -0.4827252
0003d0 7e e4 f0 3d 51 ed 1b bf 5b b3 15 be ef 26 86 3e
       0.117623314 -0.6090899 -0.146192 0.2620158
0003e0 74 0b 80 3e 62 9e 23 be a5 d8 54 3e ff 72 d6 be
       0.25008738 -0.15978387 0.20785768 -0.4188461
0003f0 c9 3b ac be e2 eb 73 3f 53 f7 b9 be 5a f6 9f bb
       -0.33639362 0.95281804 -0.36321506 -0.0048816623

fc2.bias f4 [300]
000000 79 c0 79 3d 2c b1 37 bd 09 b0 9d bd 46 c8 ed 39
       0.06097457 -0.0448467 -0.07699592 0.00045353378
000010 98 5a 67 bd b1 e2 c3 bb f6 38 cb bd eb f0 9b bd
       -0.05648288 -0.0059779515 -0.09922974 -0.07614311
000020 34 a6 9c bd a2 06 cd bd e8 e2 61 bd 88 ba bf bc
       -0.07648888 -0.10011031 -0.055148035 -0.023404375
000030 da ef 61 bd f1 f0 9a bd 42 9c 3b bd b3 9a 84 bd
       -0.05516038 -0.07565487 -0.045803316 -0.06474819
000040 99 3d 55 3e 38 66 b6 bd 7b e4 cf bd c5 ee b2 bd
       0.20824279 -0.089062154 -0.10151001 -0.08736948
000050 12 96 8c bd c5 8c b2 bd 94 20 e2 bc 11 97 0a 3d
       -0.06864561 -0.08718256 -0.027603425 0.033835474
000060 33 fa 35 bd 20 dc 49 bd 89 2f 1a bd 14 a1 a6 bd
       -0.04442806 -0.049282193 -0.03764299 -0.08136192
000070 f7 a3 25 be ff 07 1c bc 02 ed 10 bd 6a cb 62 bd
       -0.16175829 -0.009523391 -0.03538228 -0.055369772
000080 e4 fb 4d bd 8d 1c 85 bd 0c fd 19 bd bd 7c d8 3d
       -0.05028905 -0.06499586 -0.03759484 0.10570667
000090 3f b5 af bd fa f7 a4 be be ce 9d bd b9 cd 73 3e
       -0.08579492 -0.3222044 -0.077054486 0.23808946
0000a0 b0 df 56 bc 6d b2 1c bd 5a d1 b2 bd e4 4e fd bc
       -0.013114855 -0.038256098 -0.08731337 -0.030921407
0000b0 d8 14 35 3e 8e 00 95 bd 74 d6 51 bd db ae 7b bd
       0.17683733 -0.072754964 -0.05122991 -0.061446052
0000c0 04 43 a0 bd b0 3c a0 bd ed 94 50 bd 0f 83 8c bd
       -0.07825282 -0.07824075 -0.050923277 -0.06860935
0000d0 aa dc f1 bc 76 d8 de bd 5b cf 08 bd 76 7c 7f bc
       -0.029524166 -0.108811304 -0.033400875 -0.015593639
0000e0 52 90 9e bd 39 85 1b bd 11 50 e2 bc 80 fd 2f bd
       -0.07742371 -0.037968848 -0.02762607 -0.042966366
0000f0 cc 1a a5 bd 9a ef 39 bc eb 0b 90 bc e9 b6 b6 bd
       -0.08061752 -0.011348629 -0.017583808 -0.08921606
000100 21 79 c8 bc ea 1e 45 bc 77 c5 82 bd 76 27 55 3e
       -0.024471821 -0.012031296 -0.0638532 0.20815834
000110 18 c8 bd bd ea 32 8d bd c7 57 94 bd 57 9e 83 bd
       -0.092666805 -0.06894477 -0.07243305 -0.06426685
000120 6b 42 81 bd 35 c9 3e bd 29 63 8e bd 55 91 91 bd
       -0.06311496 -0.046578605 -0.06952507 -0.07107798
000130 a4 b1 11 bd 50 b6 84 bd 86 33 29 bd 8b cc 8e bd
       -0.035569802 -0.06480086 -0.041308902 -0.06972607
000140 e9 a8 90 bd 66 92 18 bc 6f 6e 11 bd 28 7c 84 bd
       -0.07063467 -0.009312248 -0.03550571 -0.064689934
000150 b0 61 88 bd c4 e3 46 bc 84 22 c2 bd 18 25 d1 bc
       -0.066592574 -0.0121392645 -0.094792396 -0.025530383
000160 3d 3b b9 bd 92 69 f4 bd 71 b3 b1 bd 32 0d a0 be
       -0.09044502 -0.119341984 -0.08676804 -0.31260067
000170 9a e0 37 3d bb 8c 06 bd d5 bf b1 bc 66 ce b9 3e
       0.04489193 -0.032849055 -0.021697918 0.36290282
000180 24 97 93 bd bc 02 a7 bd b5 ea 93 bc 41 8b 88 bd
       -0.07206562 -0.081548184 -0.018056253 -0.066671856
000190 49 a8 89 bd 9a 22 d0 bc 6c 58 80 bc 20 9f 4a bd
       -0.06721551 -0.025407124 -0.015667163 -0.04946816
0001a0 dd 7c 1e 3e 24 4a 9e bc 9d 14 34 bd 14 84 79 bd
       0.15477319 -0.019322462 -0.04396497 -0.060916975
0001b0 cb 26 88 bc ae 11 99 bd 73 f6 95 bb a8 be 2b bd
       -0.01662006 -0.07474075 -0.004576498 -0.04192987
0001c0 ad e0 d0 bb e9 08 5f bd aa 42 d9 bd b6 c5 66 bd
       -0.0063744397 -0.054451857 -0.10608418 -0.056340896
0001d0 62 4a 98 bd d0 c9 8d bc b6 0b c4 bc a2 ed 7f 3d
       -0.074360624 -0.017308146 -0.023931365 0.062482484
0001e0 cd 06 90 bd 93 3a b9 3d 38 68 c8 bc 92 df f6 bc
       -0.07032547 0.09044375 -0.024463758 -0.030135904
0001f0 f2 ef 2e bb 13 61 2b bd 98 fa 7a bd 1b 5b 54 bd
       -0.0026693312 -0.041840624 -0.06127414 -0.051844697
000200 20 58 42 bd 7b 5b 0d 3e 84 50 19 bd ea 13 65 bd
       -0.047447324 0.13804428 -0.0374303 -0.055927195
000210 7b c0 0f bc ce e4 72 bd 96 7d 28 3e ac 1d 33 bd
       -0.008773918 -0.059300236 0.16454157 -0.04372947
000220 e1 d0 02 bd 16 49 48 3d 5f 3f 3b bd 54 3e 59 bd
       -0.031937484 0.048897825 -0.045714732 -0.053037956
000230 08 12 c5 be 8f 39 cc bb c7 92 b3 bd 60 6b 7a bd
       -0.3849032 -0.0062324475 -0.0876823 -0.061137557
000240 72 96 27 bd d9 f0 97 be 47 f9 14 bd db 46 b8 be
       -0.04091496 -0.2967594 -0.036370542 -0.35991558
000250 f3 bb b8 bd f9 0f a3 3e 31 91 93 bd 1c 37 59 bc
       -0.090202235 0.31848124 -0.072054274 -0.013257768
000260 a2 73 ee 3d db e0 9e bd 48 9e 15 bd e6 fe 7f bd
       0.11643149 -0.077577315 -0.036527902 -0.06249895
000270 e3 31 84 3e 3c 0b 86 bb 72 48 2e bd 9b ef 91 bd
       0.2581931 -0.0040906947 -0.042549558 -0.07125779
000280 8a 96 81 bd d0 f8 9f bc 42 cc bd bd 1e 70 31 bd
       -0.06327541 -0.019527823 -0.09267475 -0.043319814
000290 84 ee a2 bd 2c b9 55 3d 68 c3 83 bc ce bf f5 bc
       -0.079556495 0.052178547 -0.016084388 -0.029998686
0002a0 a9 95 b5 bd 1d 15 37 bd 80 47 b3 bd b0 65 d3 bd
       -0.08866436 -0.04469787 -0.08753872 -0.1032213
0002b0 79 ca 95 bd cf d5 40 bc 56 47 d0 bc be 3a fe 3d
       -0.07314009 -0.011769726 -0.02542464 0.12413548
0002c0 ee 30 0a bd ef da 45 3e de 8d 25 be d2 15 27 3e
       -0.03373807 0.19321798 -0.161674 0.16316918
0002d0 3b 3f f9 bc d4 21 0f bd 89 60 1e bd c5 94 f5 bc
       -0.030425658 -0.03494437 -0.03866628 -0.029978165
0002e0 7e 6a dd bc 96 cf 61 bd e4 dc 6c bd 7c bf e5 bd
       -0.027028318 -0.05512961 -0.057827845 -0.11218163
0002f0 02 92 9c bd c9 74 ef bc 62 c2 a5 bc 54 3f 8c bd
       -0.07645036 -0.029230492 -0.02023429 -0.068480164
000300 54 80 a7 bb 85 ba 96 bd 95 4d f8 bb 8b 49 45 bd
       -0.0051117335 -0.073597945 -0.007577608 -0.04816584
000310 6d a9 48 be a3 8d 7a be 7a b9 57 3e 88 9f f8 bc
       -0.19595881 -0.24468093 0.21066847 -0.030349508
000320 15 e4 82 bd 4c 3f a2 bd 98 18 cb bd f9 b8 15 3d
       -0.063911594 -0.07922229 -0.099168 0.036553357
000330 04 cf a2 bc 0c a6 89 bc dd d5 a9 bd ab 8d b8 3d
       -0.019874103 -0.01680281 -0.08292744 0.09011396
000340 58 fd a1 bd 43 ef b4 3c 87 4e 27 3b f6 6a 93 bd
       -0.079096496 0.022086745 0.0025528984 -0.071981356
000350 ba 58 c4 bd 3a 4b 9f be d8 0e 26 3c 11 a1 a1 bd
       -0.09587236 -0.3111208 0.010135375 -0.07892049
000360 17 6e a1 bd e7 2d 4a be 59 af 87 bd b4 de 5c bd
       -0.07882326 -0.19744073 -0.06625242 -0.053923324
000370 ec a3 a6 bd fb 3f 4b bc 3e ec 03 be 1c 91 84 bd
       -0.08136734 -0.012405391 -0.12883088 -0.0647299
000380 d3 2d 29 bd 4b 8f 16 bd 56 29 32 bd 0d c2 6f be
       -0.041303467 -0.03675775 -0.043496452 -0.23413868
000390 c5 e9 08 bd 55 99 8b bd d7 09 b0 bd 12 df 12 bd
       -0.033426065 -0.06816355 -0.08595627 -0.035857268
0003a0 6a e1 aa bb c5 78 9e 3d df a0 9c bd 80 66 8b bd
       -0.0052148597 0.07737879 -0.07647871 -0.0680666
0003b0 33 94 15 be b0 08 8e bd 5c 00 8d bd d7 62 1b bc
       -0.14607315 -0.06935251 -0.06884834 -0.0094840145
0003c0 77 6e 45 bc 86 70 1b bd 18 01 30 bd 84 3d 34 bd
       -0.012050263 -0.037949108 -0.042969793 -0.04400398
0003d0 50 58 19 bd 07 98 d8 bd c3 5b b3 be b4 18 30 be
       -0.037437737 -0.10575872 -0.35030946 -0.17196923
0003e0 6b db 29 bd e4 28 1f bb 9e e5 86 bd 31 91 87 bd
       -0.04146902 -0.0024285847 -0.06586765 -0.0661949
0003f0 25 7c 66 3d bb 67 45 bd 82 60 70 be 53 07 a8 bd
       0.056270737 -0.04819463 -0.23474315 -0.08204522

fc3.weight f4 [1, 300]
000000 77 36 8f bf 6d 98 06 3c 22 45 94 bc a0 2e b3 3b
       -1.1188496 0.008215052 -0.018099371 0.0054682046
000010 8c 81 f5 3c 25 ec da 3c e5 af 9e ba b9 6b 87 3c
       0.029969 0.02672393 -0.0012106864 0.016530858
000020 21 8c c3 bc 8c f3 53 bc 58 f4 8b 3c f6 f9 84 bf
       -0.02387053 -0.012936484 0.017084286 -1.0388782
000030 3b b2 ad 3b 5b 27 13 3b 7c 91 9e 3a 44 bd b6 bc
       0.0053007877 0.0022453878 0.0012097801 -0.022307046
000040 60 7f a5 3e f0 36 1c 3b 17 c6 f5 bc 09 bf b6 bc
       0.32323742 0.0023836456 -0.030001683 -0.02230789
000050 05 44 f7 be 36 6e fa bc 6e c0 22 3c ef fa 81 bf
       -0.48294082 -0.03057013 0.009933574 -1.0154704
000060 ca 8e 87 3d 47 ed 91 3c ae d2 97 bc b0 a4 f7 3c
       0.06619032 0.017813338 -0.018533077 0.030229896
000070 8d 59 4f 3f 9f 4e 68 3f cf b4 cb bb 7f 7a 2a b8
       0.8099602 0.90744966 -0.0062166224 -4.0645242e-05
000080 fe be eb bc 66 e6 e2 3b 12 9c 57 3c d1 00 5a 3e
       -0.028777596 0.0069244383 0.013159769 0.21289374
000090 78 ca 3d bf ea 38 cf bf a9 f8 9a ba ef 7c 1c bf
       -0.7413707 -1.6189244 -0.0011823374 -0.61128134
0000a0 a4 cf d3 3b 40 56 cd 3c d7 c2 46 bc 5c 3a a0 3c
       0.0064639617 0.025065541 -0.012131414 0.019559078
0000b0 9e e2 80 3e 97 af d3 bc 56 b1 e7 bc 17 a9 a4 bc
       0.25172895 -0.025840564 -0.028282803 -0.02010016
0000c0 dc 30 a6 bb ec bd e9 bc 2f de fc bc 4d 05 dc bc
       -0.0050717425 -0.028532945 -0.030867664 -0.026857996
0000d0 b1 18 54 3c 04 fc a0 be 72 7c 23 3c ce b5 b7 be
       0.01294534 -0.31442273 0.009978401 -0.35880893
0000e0 86 23 dd bc 8c 71 d9 bc 07 7c db 3c ac a2 25 bc
       -0.026994478 -0.026543401 0.02679254 -0.010109585
0000f0 84 3d 8b 3c c0 68 5c 3c 9c 3d 92 bc b7 0d 79 3c
       0.016997106 0.013452709 -0.017851643 0.015201024
000100 ae 46 81 3f c9 59 be bc aa 18 e2 b9 05 9a 55 bf
       1.0099695 -0.023236172 -0.00043124455 -0.8343814
000110 82 59 d4 3c 6d e9 f6 bb 77 cd 0a bd bb 65 c7 3b
       0.025921587 -0.0075351507 -0.033887353 0.0060851253
000120 96 9d 78 bc f6 41 5f 3b 38 41 f5 bb a5 cf 2e bf
       -0.01517429 0.0034066415 -0.0074845813 -0.6828559
000130 12 07 e8 bc 6c bd c6 3c ce f0 ba bc b0 30 a5 bb
       -0.028323684 0.024260245 -0.022819903 -0.0050412044
000140 9a b4 f5 bc 42 9e d5 3c 2a ad 5e bb 0e 8e 51 3c
       -0.029993344 0.02607644 -0.0033977726 0.012790216
000150 23 3a cb bc a5 41 0d 3b 3d 19 c4 bc d2 95 dc b9
       -0.024807995 0.002155402 -0.023937816 -0.00042073295
000160 40 61 a6 3c a2 b5 d7 bc 28 6c ad bc 8b fd bb bf
       0.020310044 -0.026331726 -0.021169737 -1.468675
000170 47 ca bc 3e ec 9a 98 bc 7c 8c bd bc c0 0b 2f 3e
       0.36873075 -0.01862856 -0.023138277 0.17094326
000180 3d 45 91 bb 37 9a 6b ba a3 ff fc bc 91 dd e1 ba
       -0.0044333027 -0.00089875184 -0.030883616 -0.001723217
000190 2e 4f fb bc 31 f0 9e be e7 3b 50 3f 13 d5 7e 3c
       -0.030677404 -0.31042627 0.81341404 0.015553731
0001a0 f0 c8 95 3e 5f 7d a9 3d 05 4c 3e 3b 53 8f a4 3c
       0.29254866 0.08275866 0.002903701 0.020087874
0001b0 5e e8 4a bb e3 4a a4 3b 58 aa 12 bd 9b fd a5 3c
       -0.0030961256 0.00501381 -0.035806984 0.02026253
0001c0 8a cb 56 3b b0 a6 be 3c bd 08 a3 3c ee 53 55 3b
       0.0032775127 0.023272842 0.019901628 0.0032551247
0001d0 79 2e a4 3c 04 35 16 bc 84 b7 f1 bb 1a 5f 61 3e
       0.020041691 -0.009167913 -0.007376613 0.22008935
0001e0 6d 3d bf 3c 01 12 94 3e f5 65 b6 3c dd 32 7a 3c
       0.02334472 0.28919986 0.022265414 0.015270916
0001f0 dd 7c 69 3c 06 dd 28 bb 2b 77 4c bc 2f 2e bb bc
       0.014250961 -0.0025766506 -0.012479584 -0.02284917
000200 ea 43 7e 3b b2 6c 3e 3e 6c 97 1c bf 71 d9 1f 3c
       0.0038797804 0.18596151 -0.6116855 0.009756432
000210 f6 4e d0 3c 4e 8a f7 3c f9 da 12 bf cd c5 19 3c
       0.025428277 0.030217316 -0.57365376 0.009385538
000220 41 e5 b3 bb 2d 6e ea bd c3 c5 f1 3c b6 e3 e8 bc
       -0.0054899757 -0.114467956 0.029513245 -0.028428894
000230 c1 dc 96 be a9 0d bf bc 3f 50 15 3c 2c 66 ef 3c
       -0.29465297 -0.023321943 0.00911337 0.029223524
000240 88 71 85 bc 40 f7 9d 3e 88 03 aa 3b 8d 64 e1 bf
       -0.016289487 0.308527 0.0051884092 -1.7608811
000250 16 ed 8e be 7a c4 4c 3e 7b 94 ee 3e a8 e6 7b 3c
       -0.27915257 0.19996825 0.46597657 0.015374817
000260 3e ba 08 bf c9 a3 aa bb 5b 7c 03 3d de 31 2e 3c
       -0.53409183 -0.005207513 0.032101016 0.010632006
000270 4a 96 9a 3e b2 73 bf 3c 7e 6d e7 bc e7 2b 47 bf
       0.30192786 0.023370598 -0.028250452 -0.77801365
000280 35 69 ad bb 65 58 cf 3c fa 0f 58 3f 36 2a af bc
       -0.0052920827 0.025310704 0.8439938 -0.021382432
000290 5e d3 2a 3c de bf b0 3e 2a f3 12 3a a9 b2 8e 3c
       0.01042637 0.34521383 0.0005605692 0.017419176
0002a0 57 10 83 3b d9 90 b7 bc b4 8d e3 bc 84 8f ac bb
       0.0039997506 -0.022407936 -0.02777753 -0.005266132
0002b0 5b 17 f9 3c 66 a2 63 3c 42 e9 c8 bc 94 47 b6 be
       0.030406645 0.013893699 -0.024525288 -0.35601485
0002c0 66 8a 96 38 7c 8c 9b be f6 3a 44 3e bb 40 3b be
       7.178336e-05 -0.3038062 0.19163117 -0.18286411
0002d0 c9 4f 37 be 97 c3 00 bc 87 ae a3 bc 0d b6 1b be
       -0.1790153 -0.007859132 -0.019980682 -0.15206166
0002e0 d9 68 bc be b4 fe fe be 09 4f 48 3a 78 42 0e bf
       -0.36798742 -0.49803698 0.00076411717 -0.55570173
0002f0 e8 09 e6 bc 0d 8f 39 3c 5c 86 9f 3e 51 9b e7 3c
       -0.028080896 0.01132561 0.31157196 0.028272303
000300 32 8f 48 3c e3 9e 9e 3d 28 61 90 3f 93 f4 7a 3c
       0.012241172 0.07745149 1.127965 0.0153171
000310 4d 89 d5 be a8 68 e1 3e 74 c2 94 3e d4 87 56 3c
       -0.41706315 0.4402516 0.29054606 0.013093907
000320 2d 0c 8c bc 46 ac fb 3c 57 2e 2f bc 2f a3 57 be
       -0.01709565 0.030721795 -0.010692201 -0.21058343
000330 de 34 06 bd cb df 9d 3c 00 b1 99 bc a0 fc 24 3f
       -0.03276526 0.019271752 -0.018761158 0.64447975
000340 23 10 42 bb 6e cc 25 bc 3d 19 ed bc 20 34 dd 3c
       -0.002961167 -0.010119541 -0.028942699 0.027002394
000350 c9 95 b0 3c 7d dd 0b bf 01 d3 62 3f 03 3d fa 3b
       0.021555798 -0.5463484 0.88603216 0.0076366677
000360 65 17 37 3a c5 5b e2 be 0d 19 e5 3c a7 16 2e bc
       0.0006984382 -0.4421064 0.027966047 -0.010625518
000370 4d d6 cd 3c 74 28 84 bc 2a 7d 68 bf 98 e3 67 bc
       0.0251266 -0.01613257 -0.90815985 -0.014153384
000380 b8 51 95 3c cf df de bb a6 d1 01 bd 07 87 4b 3f
       0.018227443 -0.0068015824 -0.031694077 0.7950291
000390 f8 a7 d3 3c c6 3e 7b 3b 19 d3 a8 bb 72 c1 82 bc
       0.02583693 0.0038336976 -0.005152118 -0.015961383
0003a0 48 e1 fc 3a b4 7e fa 3e 27 b7 b8 bb 3b 57 88 bb
       0.0019293213 0.48924792 -0.005637068 -0.0041607893
0003b0 2b fe 4d be 03 c2 71 bc 1f 4a 98 bc 29 6a ba bc
       -0.20116489 -0.014755729 -0.018590031 -0.0227557
0003c0 94 e3 64 3b b3 d2 4f 3f d4 71 58 bc 61 8c 4a bb
       0.0034925686 0.81180876 -0.0132107325 -0.0030906426
0003d0 7b bb a0 bc 55 79 a1 be 89 00 41 bf df bd a8 be
       -0.019620648 -0.31537881 -0.7539144 -0.3295736
0003e0 fa 02 fc bc fc 21 99 3c e2 bf b3 3c b2 5e 76 bc
       -0.030763138 0.018692963 0.021942083 -0.015037226
0003f0 b2 2d a5 bf 3f 62 92 3c 51 db b6 be 9f 4b 5a 3c
       -1.290457 0.017869113 -0.357142 0.013323694
