Tennis/Nets/checkpoint_critic2000.pth (torch_old, 526870 bytes, 9 tensors)

bn1.weight f4 [24]
00000000: c1f2 353e ff5a 8a3e bdc6 343e 8172 273e
00000010: a9a8 603f 800a 143f 8f00 bf3d 8c1d 593a
00000020: 82ff 1e3e a976 4f3d 244e 2b3e 4b74 143d
00000030: 2434 ab37 e1f1 173f af1c 413e 7c8b 5f3e
00000040: d7e3 0c3f 7920 943e d872 c43d 48cc 893e
00000050: b8b6 323f ebf3 393f e981 9b3e ef41 8e3e
0.17768385 0.2702255 0.17653938 0.16352274 0.87757355 0.5782852 0.093262784 0.0008282296
0.15527156 0.050650273 0.16729027 0.036243718 2.0409068e-05 0.5935345 0.18858598 0.21830553
0.55035156 0.28931025 0.09592217 0.26913667 0.69810057 0.72637814 0.3037255 0.27784678

bn1.bias f4 [24]
00000000: 1332 cd3c 92fa 863c f1e8 093d eb5f 0e3c
00000010: 1c21 673d a9a0 7e3e a495 073d c398 1cbb
00000020: dfd1 c9bd a92e a53e b18e 633a b698 99ba
00000030: bf87 b3b9 585b 973e c292 3b3c 295c 73bc
00000040: 8d2f b4bd dfa5 5a3e 9b36 90b9 8f3d 01bb
00000050: 3fc2 b63d 7d01 5a3e a728 8fbd e41d e7bc
0.025048291 0.016476903 0.033669416 0.008689861 0.05642806 0.24865974 0.033101693 -0.0023894764
-0.09854483 0.3226216 0.00086806255 -0.0011718485 -0.0003424268 0.29561877 0.011448564 -0.014853516
-0.08798132 0.21352337 -0.00027506505 -0.001972053 0.08923768 0.2128963 -0.06990176 -0.028212495

bn1.running_mean f4 [24]
00000000: 209b c3c0 2d4d 86bf 5f84 7a40 f994 013e
00000010: 2490 69bc c3f2 2540 5f84 7a40 f994 013e
00000020: 71b4 c8c0 a85b 89bf c211 8740 199a 9e3d
00000030: aa5b 95bc 7d60 2440 c211 8740 199a 9e3d
00000040: bb94 ccc0 0c4e 8cbf 3794 9340 62b6 8d3d
00000050: ae68 0fbd 9bd9 2040 3794 9340 62b6 8d3d
-6.112686 -1.0492302 3.9143293 0.12654485 -0.014255557 2.592942 3.9143293 0.12654485
-6.2720265 -1.0731096 4.2209177 0.077442355 -0.018232185 2.5683892 4.2209177 0.077442355
-6.3931556 -1.0961318 4.6118426 0.069195524 -0.03501194 2.5132816 4.6118426 0.069195524

bn1.running_var f4 [24]
00000000: 6f08 6341 53c7 833f d0b9 8343 aec4 c740
00000010: 7fcb 0842 74bd 7c40 d0b9 8343 aec4 c740
00000020: 5d4c 5841 4a0b 843f bbcd 8643 d826 d440
00000030: 8932 1242 7164 8540 bbcd 8643 d826 d440
00000040: d3e2 4c41 a0b1 833f 5cfd 8b43 a955 e040
00000050: 3e66 1c42 d659 9240 5cfd 8b43 a955 e040
14.189559 1.0295204 263.45166 6.2427588 34.198727 3.9490633 263.45166 6.2427588
13.518643 1.0315945 269.60727 6.6297417 36.54935 4.168511 269.60727 6.6297417
12.805377 1.0288582 279.97937 7.0104566 39.099846 4.5734663 279.97937 7.0104566

fcs1.weight f4 [400, 24]
00000000: 57e7 093e 98b9 f83e 4724 8e3c a34c 293e
00000010: 8e14 69bf 6c78 14bf 4c5b 4cbd ee71 423c
00000020: 5120 a8bc 5fd8 c7be 317d 883d a718 543d
00000030: e6fb 553e 3a38 073e 835d 0e3d 1687 123e
00000040: 90db 9bbd 8d0f a7be 5bcf 24bd 065d 14be
00000050: 75b2 4b3f be12 e83e 09a2 f63d 33d5 fcbd
00000060: 7d63 763e 2b7d 633e 84a4 ecbd e301 68be
00000070: 1f11 a43d b8be f0bd 7f0d 62be 4371 b3bd
00000080: 5c87 713e f25b 05be 83aa ccbd a80f 16be
00000090: 4a18 33bd d9bb 9f3d e295 18be 3b23 09be
000000a0: 7253 6b3e 18ea a03d 1b81 90be 7d0b acbe
000000b0: c184 1abf 787b 95bd d0c3 87be ae7b afbe
000000c0: efa9 603c 087d 5e3e 13d8 bd3d e363 18bd
000000d0: 4682 793d 947e f2be 16f3 f33d 0b52 133d
000000e0: f6b9 65bc ecd4 aabd 70db 96bc 6184 43be
000000f0: c0ec 233d 2583 4bbe b4a6 4e3d c29e 67be
00000100: f11b 853d 85b1 1c3e 2107 e0bc e4bc b43e
00000110: 5a36 6abd 0358 0a3f 2cc9 02bc 3b25 da3e
00000120: 0d19 64bc 99d9 1bbe 73b6 babb 462d b83d
00000130: c770 3ebf 5b3a 96bd f4c2 133b ab07 0b3c
00000140: 649e b13c 79fb 2fbd 9ccf 0cbc c9f7 253b
00000150: 0767 6abd b0f5 e5bd e74b 623d 7ab1 76bd
00000160: 86b6 64bc 2a78 59bd c096 f93c 609f b3bd
00000170: 6354 763f d7e2 003e 3b6c 2e3d 62ed 99bd
00000180: e3e4 0c3a 11cf 76bd 1aed 2f3a b183 b6be
00000190: cb69 74bc adb3 bfbd 93f2 5bbd dfb1 6fbd
000001a0: ba35 a53d 0021 c4be 57b2 f33e 9161 dbbe
000001b0: 517d b2bb 7cf7 21bb 824c fa3e 1a57 e3be
000001c0: 412e c1bb b64d 51bf 07fd c2be b1bd 533e
000001d0: f497 8ebe 75d2 07bc 4996 babe f36b 2c3e
000001e0: bdb5 c93e b4af b93d 2227 103d a68e 303c
000001f0: 00b9 8abe 9950 40be 0e43 03bd 7faf cc3c
00000200: d857 0d3e f9b3 68be b4ce b8bb db48 903d
00000210: 54e3 0dbe 6490 543d 2a51 3d3a e93a 8a3d
00000220: 077a 393e 7d85 9f3d 0370 dd3e 1466 313e
00000230: 318a 673e e01a 40bd dbb4 0f3f b984 863e
00000240: d00d d9bc 58ed 10be 7baf c73c fa13 d33c
00000250: 3b1a debe 31ad cebd 8364 673d 8c68 f6bb
00000260: 3055 043d 954b 24bd 8ed1 8bbc 8829 643d
00000270: b10c a1bc 6af3 e2bc d497 4fbc 94e4 d8bc
00000280: 0e15 23bc a3a2 5c3d 5e51 5bbd ad98 cdbc
00000290: c3c8 443f 4f78 193e 8843 d03c f14b dcbc
000002a0: 26f9 443d 871e 083e 5113 a5bc 4821 63be
000002b0: e0de d63d eb92 53be 1ac7 edbd f549 70bd
000002c0: db0f 2d3d 05af 55be c56b 56bb ece7 703d
000002d0: 9300 6a3e 503c 84be 5f75 953a bbd9 e13c
000002e0: dab2 2bba c80a 8fbe 6348 adbd 435a 083f
000002f0: 3b31 873e b57c eb3e b19b e1bd 3d91 183f
00000300: 7459 cb3e 1a4e bb3d 952b d83d 8507 a1be
00000310: f087 1dbc baaa bcbd 9996 683d 7541 9ebd
00000320: f15d 103d f4c8 6fbe 8071 1dbf d69f 64be
00000330: 1cf5 3b3d f5bb 00be ac65 16bf 4389 80be
00000340: 41e1 a03d 6c8c 043e 7d8a 133c 5f0b 6e3e
00000350: 8841 1fbe b734 253d 1546 9d3d b974 8f3e
00000360: 89d4 a3bd 405c 9abd 2244 093f 3245 8e3d
00000370: 4f21 463d 1328 82bd ca2e da3e e2b8 3a3c
00000380: 3ee4 f3bd 3bb0 f9be 3760 cbbe 16c0 563e
00000390: 3364 1fbe 9fcd 9b3d 0d96 cfbe e95a 7b3e
000003a0: 71db 4e3d 343f 0fbf ffb5 ab3e dcad 4dbd
000003b0: 57b9 5e3d cd2c 023e 92ec c43e 299a 91bc
000003c0: a224 27be 9ff2 5bbd 8a4d 74be 70cd 9fbd
000003d0: c4ac 99bc 50d3 9bbe 964f 75be 3b6b 3e3d
000003e0: 0039 f3bd 71a2 9abe fb19 003c b99e d33d
000003f0: e20c 3d3d 77b6 cb3d 9f77 383d a433 253e
0.13467155 0.48579097 0.017351283 0.16533141 -0.9104699 -0.5799625 -0.049891755 0.011867983
-0.020523222 -0.39032266 0.06664503 0.051781323 0.20896873 0.13205042 0.03475715 0.14309344
-0.076102376 -0.32629052 -0.040236812 -0.1448861 0.7956918 0.453268 0.120426245 -0.12345352
0.2406139 0.22215717 -0.11554816 -0.2265697 0.08011078 -0.11755127 -0.22075461 -0.08761837
0.23586792 -0.13023356 -0.0999346 -0.1465441 -0.043724336 0.07799501 -0.14900926 -0.13392346
0.2298105 0.0785715 -0.282235 -0.33602515 -0.60358816 -0.072989404 -0.2651658 -0.34274048
0.01371239 0.21727383 0.092697285 -0.037204634 0.060915254 -0.47362196 0.11911599 0.035966914
-0.014021387 -0.08341393 -0.018415183 -0.19093467 0.040020704 -0.19874246 0.05045195 -0.22619155
0.0649947 0.15302093 -0.02734715 0.35300362 -0.05718074 0.54040545 -0.007982533 0.4260653
-0.013921988 -0.15219726 -0.005698019 0.0899301 -0.74390835 -0.07335349 0.002254662 0.008485715
0.021681972 -0.042964432 -0.00859442 0.0025324693 -0.05722716 -0.11228502 0.055248167 -0.06022785
-0.013959533 -0.053093113 0.030467391 -0.08770633 0.96222514 0.12586533 0.042583685 -0.0751598
0.0005374683 -0.060256068 0.0006711051 -0.35647348 -0.014917801 -0.09360442 -0.053698134 -0.05851924
0.08066888 -0.38306427 0.47597 -0.42847875 -0.005447068 -0.0024714163 0.48886496 -0.4440239
-0.0058954065 -0.817592 -0.3808367 0.2067783 -0.27850306 -0.008289923 -0.36442783 0.16838054
0.39396468 0.09066716 0.03519357 0.010776198 -0.2709427 -0.18780746 -0.03204637 0.024986027
0.13803041 -0.22724904 -0.0056398753 0.07045146 -0.1385625 0.051895514 0.0007221872 0.067495175
0.18112956 0.07789133 0.4324952 0.17324096 0.2261131 -0.04690063 0.5613534 0.26273134
-0.026495844 -0.1415304 0.024375668 0.025766362 -0.43379387 -0.100916274 0.05649234 -0.007519787
0.032307804 -0.040111143 -0.017067697 0.05570367 -0.019659372 -0.02770396 -0.012670476 -0.026476182
-0.00995375 0.05386604 -0.053544395 -0.025097216 0.7686884 0.149873 0.025422826 -0.02689168
0.04808917 0.13292895 -0.020150812 -0.22180665 0.10491729 -0.20661514 -0.11610241 -0.05866428
0.04225145 -0.20867546 -0.0032718044 0.058814928 0.22851782 -0.25827265 0.0011402777 0.027569642
-0.0006549783 -0.27937913 -0.08461072 0.5326273 0.26404747 0.4599358 -0.11016024 0.59596616
0.39716685 0.09145756 0.105551876 -0.3145105 -0.00961493 -0.09212251 0.056784246 -0.07727329
0.03524584 -0.23416501 -0.6150131 -0.22326598 0.04588805 -0.125717 -0.5874889 -0.25104722
0.07855464 0.12944192 0.009005186 0.23246525 -0.15552342 0.040333476 0.07679383 0.2801874
-0.07999522 -0.075371265 0.5361959 0.06946792 0.04837161 -0.063553 0.42613822 0.011396619
-0.11908768 -0.48767266 -0.39721844 0.20971712 -0.15565567 0.076075785 -0.40544167 0.24546398
0.050502244 -0.55955815 0.3353729 -0.050214633 0.054375973 0.12712403 0.3846174 -0.017773705
-0.16322568 -0.05369818 -0.23857704 -0.07802856 -0.018759139 -0.30434656 -0.23956141 0.04648898
-0.11876106 -0.30202058 0.007818694 0.10333008 0.046154864 0.09946912 0.045035955 0.1613298

fcs1.bias f4 [400]
00000000: 3eb2 cdbe bb4b bdbe 8376 82be 7b13 c3bb
00000010: 4468 abbe 0e09 42be db12 70be 6d50 5cbe
00000020: 574e e0bd 6087 a0bd 1361 d8be 7093 e1be
00000030: eab9 183d d204 dbbe ee04 b5bd ec4d d7be
00000040: d6c8 4ebe 372d e1be 9c20 e3bd 0df4 0ebe
00000050: dcd9 71be 6ff9 97bd 9077 abbd 7528 5dbe
00000060: 8d1a a4be 0a7f 7fbe 9202 f3bc 9b8b 37be
00000070: f338 3abe f0b1 b1be 823e e7be 8de1 43be
00000080: 1ce0 31be 1669 9fbe 725e 153d ab86 ddbe
00000090: ae94 0dbe 6f24 d0be 5bea 52be fa13 04be
000000a0: 0400 72bd ae29 a2be b6b5 77bd 7a09 bebd
000000b0: 02d7 0dbf 828d 243e acab 1cbe c57e ffbd
000000c0: 87df 14be 7c59 dcbe 5940 4abe 4fb0 a5be
000000d0: 8615 33be 09fe f8bc a82d 17bd 8955 143d
000000e0: b813 363d f0a3 03be 3ed4 2d3d 00fc 4f3b
000000f0: 6bce 4dbe b966 a4bd e47f c1bc d70b 54be
00000100: 8f5b 44be dc2b 4bbe 5b3e 4bbe e288 c53c
00000110: ba5f 51bd c89f 17be 088b bcbe 9cce 96be
00000120: ad8d 00bd 13f3 883c ad68 a6bc 6911 e8bd
00000130: 9393 fbbd dc27 6fbe 7e48 23bc fbdc 6dbe
00000140: 61ca 973d e919 88be c7ba afbd 9d0e 913d
00000150: 1bdf b2be 6ed8 d8bd 7bdc c4bb eabd 07bf
00000160: f59a f1be e720 1dbe 7463 66be f623 52be
00000170: a0ef 77be d253 8cbd ad19 f1be e55a abbe
00000180: 516c 9ebe 61ce ddbe 56ce 7cbe e01e 85be
00000190: 064b 30be 270c 3ebe fff9 60be 110e cbbe
000001a0: c4db 92be 0bfd 8ebe d72a a73b 8a7d 80bd
000001b0: 45c6 d7be 1d2e 64be 9b10 acbd 87df 23be
000001c0: c904 76bd cba0 cdbd 56d2 2abe c83b b6bd
000001d0: f721 8abc cc83 2abe 0771 ebbd 7816 4cbe
000001e0: b5f0 ecbe 6bd1 7abe eb86 d9be 8284 17be
000001f0: 8885 68be 0656 2dbe d47e 16bd 63c9 99be
00000200: 9b0b d6be ceaa 65be 436b c3be 007b 72be
00000210: a644 aebc 271c de3d 51c5 a4bc 0414 abbe
00000220: 48d2 cdbe 634e 4fbe f270 debe ad2b 12be
00000230: cfc2 60be b31d f73b c349 f4bd 60d0 f9be
00000240: 68d5 9bbb e1f5 62be 7505 bebe 9cd9 a13a
00000250: 1d91 81bd 1138 c4bd 7b2b f2be 8a0b 79be
00000260: 4a90 a9bd b226 25be 47ff aabe 811b c4be
00000270: d418 f6be 60c5 efbd 6c58 ddbe 9fa7 3abe
00000280: e586 96bd 815e 583e 1d41 bfbe 1f35 6fbe
00000290: 47fe 3abe 0e47 a4be fe0d 3fbd 8df5 c6be
000002a0: 5013 3dbe e76e 20bd dcb1 46be 5266 03be
000002b0: f7e9 dbbe 6400 d9be 54b8 d5be d524 8fbd
000002c0: da58 fabd 9478 45be e05e 1c3d 45e2 13bd
000002d0: 64dc 92bd b40f 4bbe 7a22 babd 70f1 64bc
000002e0: 46bb 75bc ddd5 873d ea7c 08be 43db b8be
000002f0: f8de 653c 7a6a 13be 44e9 50be 41f8 9cbe
00000300: 9b11 24bd 8840 97bd 2e14 67be 0c97 72ba
00000310: 7fff 3cbe e090 4cbe bba6 adbe e139 a6bd
00000320: 2bdf fbbc 142c 7cbe bf24 33be 6328 1bbe
00000330: be5d 853c d21b d2be 96cd bbbe d761 10bf
00000340: c78a 79be 13d1 393e 7cab 3abe e0ae a5bd
00000350: 9ee0 40be 61b9 43be baf2 bebc 62b2 35be
00000360: 721e e53d d49b 56be d181 2a3d 9f24 debd
00000370: 4b55 43be 67a1 85be a7ac 50be 8205 2b3d
00000380: 1352 1dbe 5d0d 2bbe cc31 d4be 04a2 83be
00000390: bb8a 94be 6813 f7bc 1a86 c7bd 004c 05bf
000003a0: 4768 4abe 659e e3bd 79bd 2dbe 6f43 72bd
000003b0: c6c3 2cbe 0100 89be 4506 c2bd 13f4 aabc
000003c0: 4dac d4bd ce9b 47be a036 59be a0d6 d5be
000003d0: 989c a4bd 5507 e4bd 468e 8fbe 2480 973c
000003e0: dc50 e8bd 7cc3 b0be 9270 a3bb 7503 c0be
000003f0: 35e2 9cbd 1528 2dbe 8384 233d e932 28bf
-0.4017505 -0.3697184 -0.25481042 -0.00595325 -0.33477986 -0.18948767 -0.23444693 -0.21515055
-0.10952442 -0.07838321 -0.42261562 -0.44057798 0.037286676 -0.42777115 -0.08838831 -0.42051637
-0.201938 -0.4397981 -0.11090204 -0.13960285 -0.23618263 -0.074206226 -0.08372414 -0.21597464
-0.32051507 -0.24950805 -0.029664312 -0.17924349 -0.18185787 -0.34706068 -0.45164877 -0.1912901
-0.17370647 -0.31134862 0.036467023 -0.43266806 -0.13826248 -0.40652797 -0.20597212 -0.12898245
-0.059082046 -0.31672424 -0.060476027 -0.09279151 -0.554062 0.16069606 -0.15299863 -0.12475351
-0.14538394 -0.4303702 -0.19751109 -0.32361075 -0.1748868 -0.03039457 -0.036908776 0.036214385
0.0444524 -0.12855506 0.042438738 0.0031735897 -0.20098273 -0.08027405 -0.023620553 -0.20707642
-0.19175552 -0.1984095 -0.19848005 0.024113122 -0.051116683 -0.14807045 -0.36824822 -0.29454505
-0.031385113 0.01671747 -0.020313585 -0.11331446 -0.12284007 -0.23355049 -0.009966014 -0.23228829
0.074116476 -0.26582268 -0.08580547 0.070828654 -0.3493584 -0.10588156 -0.0060077286 -0.5302416
-0.47188535 -0.15344582 -0.22498876 -0.2052153 -0.24212503 -0.06851925 -0.47089902 -0.33467785
-0.30942014 -0.43321517 -0.24688086 -0.26000118 -0.17216119 -0.18559323 -0.21970366 -0.3965917
-0.28683293 -0.2792743 0.0051015425 -0.06273945 -0.42143455 -0.22283216 -0.08401605 -0.16003238
-0.060063157 -0.100404344 -0.166818 -0.08898121 -0.016861899 -0.16651839 -0.11496168 -0.19930446
-0.46277395 -0.24493949 -0.42485747 -0.14796641 -0.22707188 -0.16927347 -0.036742046 -0.30036458
-0.4180573 -0.22428438 -0.38167772 -0.23679733 -0.021272969 0.108452134 -0.020113619 -0.33413708
-0.40199494 -0.20244746 -0.43445545 -0.14274473 -0.21949314 0.007541382 -0.119281314 -0.4879179
-0.0047556646 -0.22164108 -0.37113538 0.0012348178 -0.06326506 -0.09581006 -0.47298798 -0.24320808
-0.08279474 -0.16128042 -0.33397886 -0.38302234 -0.48065817 -0.11707568 -0.43231523 -0.18228005
-0.07349948 0.211298 -0.37354365 -0.23360108 -0.18261062 -0.3208546 -0.046644203 -0.38859215
-0.18464398 -0.039168265 -0.19403785 -0.12832001 -0.4295194 -0.4238311 -0.41742194 -0.06989447
-0.12223978 -0.19284278 0.038176417 -0.03610446 -0.071709424 -0.19830209 -0.09088607 -0.013973579
-0.014998263 0.06632588 -0.13328901 -0.36104783 0.014030211 -0.14396086 -0.20401484 -0.30658153
-0.040055852 -0.07385355 -0.22566292 -0.0009254075 -0.18456839 -0.1997714 -0.33916268 -0.08116508
-0.030746063 -0.2462619 -0.17494486 -0.15152125 0.016280051 -0.4103685 -0.36680287 -0.5639929
-0.24369346 0.18146162 -0.18229479 -0.080899954 -0.18835685 -0.19113685 -0.0233091 -0.17743829
0.111874476 -0.20957881 0.04162771 -0.10846829 -0.19075505 -0.26099703 -0.20378362 0.0417533
-0.1536334 -0.16704316 -0.41444242 -0.25709546 -0.29012093 -0.03016062 -0.09742375 -0.5206909
-0.19766341 -0.11114196 -0.1696681 -0.05914634 -0.16871557 -0.26757815 -0.09473852 -0.020868337
-0.10384426 -0.19493029 -0.21212244 -0.41765308 -0.080376804 -0.11134211 -0.28038234 0.01849372
-0.11343548 -0.34524143 -0.0049877847 -0.37502638 -0.07660333 -0.16909821 0.039921295 -0.6570268

fc2.weight f4 [300, 402]
00000000: e027 bbbd fe4f 4b3e 8ccb e6be 2c0e 04bf
00000010: ceb7 75be a339 6f3e 5d77 d9bd 6e7d 03bf
00000020: 06e8 8abe dfb4 bdbd c833 353c da28 9f3d
00000030: c745 8a3e 0113 bfbe 2a03 c9be 4c11 ebbe
00000040: f7a5 3c3f 45d1 d73c da25 86be 17c4 1bbe
00000050: 98ce c8be 3fad a5be dfa7 63bf ba67 a5be
00000060: 2572 473c b7d6 9b3d 632c 813e 206d f33e
00000070: 1ec4 6b3e 0923 35bf 7742 1fbf edc8 e8bd
00000080: 5f0d 67bb c626 2fbc 7601 8ebd accd 793f
00000090: e309 ebbe 7117 5dbe 44af 8c3d a3f5 833e
000000a0: 6140 fc3d 2dd1 42bf 756d bebe 2319 0f3c
000000b0: dffe 21bf 7da0 6d3e c667 b0bd 502c 12bd
000000c0: 6804 68bf 8227 0e3d b035 8bbf 19d3 c9bd
000000d0: b091 a6bc 6ecb cc3e 3ca4 98bf 2012 49bd
000000e0: a1cc 753d c55a db3e 9065 c3bf 7a95 f3be
000000f0: 117b 973d 07eb 4abf 8a83 b43e 8a2c 4c3d
00000100: dcc3 5dbd 52e2 b63e 8ecc 0fbd 2665 b3bf
00000110: 0103 47be 7d5b f1bd a2fb 65bd 4a74 9cbe
00000120: 6468 5abd c470 a03e b375 883c e669 ce3d
00000130: c0a8 8a3e b79b c0bd 3713 60bf bf79 e03c
00000140: 8f2c 7a3e b284 63be 1d4d b2bd 980c af3e
00000150: 30ae 69be 8d38 2e3d 1e24 fcbe 8765 91bd
00000160: e02a 763d 16ad 563e 6ab0 debe 4854 793c
00000170: 5a84 fa3b d449 41be f3a4 8cbd 42f7 bc3d
00000180: 63b4 b03d d43c a6bd 6f16 39bd 0ef5 583d
00000190: a13a 8dbd 80c9 473d d3c2 a2bd 5b7d 04be
000001a0: bf83 adbe ad60 18bf 90c0 833b eb89 a53e
000001b0: 222c eabd 9a33 7bbd 5ff7 ca3e 2084 c1be
000001c0: 292a a03d ae6d 15bf 9ca1 a4be 9257 80be
000001d0: cf1f f4be 889e bbbb 0ca8 00bf 58c4 0fbe
000001e0: 47e3 e5bd 0664 68be 27c6 5b3c 34ce 3ebd
000001f0: 7c24 73bd 9918 14bf 0fdb d6be 9fd7 b3bd
00000200: d8c4 b03e 5a20 5d3c ab9e 54bc e80f c83e
00000210: 6678 aabe 79d6 80bf 0a79 70be d5d3 9cbe
00000220: e36c 2ebe 95d1 083d 14c0 28bd d290 cfbd
00000230: 370f 83be ab5e 113f 4ca5 283e 0bbb 72bf
00000240: c70a fdbe 9140 833d d109 a3be 7c86 4ebf
00000250: 8213 56be b062 073e 13b1 983e 1fba 9cbe
00000260: 98d9 563e d9d9 08bf bfc4 e83d 49e8 3e3d
00000270: 3bbd 953c b4ee 54be b106 bf3e f2d5 443d
00000280: 3db3 41bf d10a 60be 5edb 8dbe 6285 333d
00000290: 4d47 81bd 51ce a4be df73 6fbe db6c 24bc
000002a0: e4e3 dabe 9742 863e 5124 013d 39cc 2abe
000002b0: abdb bb3c d4b7 8ebe b185 f03a 95da 08be
000002c0: 0176 013f 2a54 a1bd 82b7 603d aa5d 47bf
000002d0: 478a 0c3c 7796 6fbd c09e c1be 2e73 7b3d
000002e0: b6f9 3abe c493 07bf 4bab d3bd 1fce 833e
000002f0: b765 d2be 2e39 013e 973d 623c 28ea afbe
00000300: 835f f03a 0b38 0bbd b469 123d b00b 3bbe
00000310: 5849 94bb e32b 1b3e b39a 10be e649 a13d
00000320: 173a a1bd d572 08bf e363 9fbe 2c3e 053e
00000330: 3fb4 04bf 4e50 38be 1fee 94be dd9f a8be
00000340: f739 28bf 953d 13bf 4bcd 53bd 96ba 5ebe
00000350: 1e83 bfbe 487b afbb 4204 ccbe 02fa fbbe
00000360: 91a0 85bf d936 abbd 05b4 09be d607 e2be
00000370: cfe8 743e d9d6 9fbd 00d4 ef3d 012e b2bd
00000380: 9386 e1be 32cd ccbc 0c28 9cbe e332 9f3e
00000390: 2749 84bd d172 f03d 8d68 2ebf a0a6 8bbf
000003a0: 1212 51bd 8de4 e53d 3d1e 27bd cf48 9fbf
000003b0: 8808 f6bd e792 46be ad03 8e3d f88c 603e
000003c0: 81f9 61bf daea b3bb 15d7 803e c227 f7be
000003d0: 77e1 373e 4f64 97be 5bb3 15be 45c5 2c3e
000003e0: 10e0 9a3e 629e 23be 1c07 513e 9671 24bf
000003f0: ec07 b23c fb4e 5c3f 028f c0be 5af6 9fbb
-0.09138465 0.19854733 -0.4507717 -0.51584125 -0.23995897 0.2336183 -0.1061847 -0.51363266
-0.27130145 -0.09263014 0.011059709 0.07771464 0.2700636 -0.37319186 -0.39260226 -0.45911634
0.7369074 0.026344905 -0.26200753 -0.15211521 -0.3922012 -0.3235874 -0.88928026 -0.323057
0.01217321 0.07609313 0.25229177 0.47544193 0.23024032 -0.70756584 -0.6221079 -0.113664486
-0.0035255773 -0.010690397 -0.069338724 0.97579455 -0.4590598 -0.21590973 0.06869367 0.25773343
0.12316967 -0.76100427 -0.37192884 0.00873402 -0.6327953 0.23205753 -0.08613543 -0.03568679
-0.90631723 0.034705646 -1.0875759 -0.09854717 -0.020333141 0.39998955 -1.192512 -0.04908955
0.060009602 0.4284269 -1.526537 -0.4757498 0.0739652 -0.79264873 0.35256606 0.049847163
-0.054141864 0.35719544 -0.035107188 -1.4015243 -0.1943474 -0.11785028 -0.05614818 -0.30557472
-0.05332221 0.31336033 0.016657686 0.10078792 0.2708187 -0.094047 -0.8752932 0.027401803
0.2443106 -0.22218588 -0.087061144 0.34189296 -0.22820354 0.0425344 -0.49246305 -0.07099443
0.060099483 0.20964465 -0.43493968 0.015217848 0.007645172 -0.1887582 -0.06867399 0.09226848
0.08628156 -0.08117071 -0.04518741 0.052968077 -0.06895948 0.04877615 -0.07947316 -0.12938444
-0.33889577 -0.59522516 0.004020758 0.32331786 -0.11434199 -0.061328508 0.39641854 -0.37796116
0.078205414 -0.5837048 -0.32154548 -0.2506681 -0.47680518 -0.0057256855 -0.5025642 -0.14039743
-0.1122499 -0.22694406 0.013413942 -0.04658337 -0.059360966 -0.57850033 -0.41964003 -0.08781361
0.3452518 0.013496483 -0.0129772825 0.39074636 -0.33294982 -1.0065452 -0.23483673 -0.30630365
-0.17033724 0.033402998 -0.041198805 -0.10135044 -0.25597546 0.56785077 0.16469306 -0.94816655
-0.49422285 0.064087994 -0.31843427 -0.80673957 -0.20905879 0.1322124 0.29822597 -0.3061075
0.20981443 -0.5345741 0.11365651 0.046608243 0.018278709 -0.20794183 0.37309793 0.048055597
-0.7566412 -0.21879126 -0.27706426 0.043828376 -0.06312428 -0.32188657 -0.23384045 -0.010035719
-0.42751992 0.2622268 0.031528775 -0.16679467 0.022931894 -0.27874625 0.001835039 -0.13364632
0.50570685 -0.07877381 0.054862507 -0.77877295 0.00857789 -0.058493104 -0.3781643 0.06138914
-0.1825932 -0.5295985 -0.10335406 0.25743195 -0.41093227 0.12619469 0.0138086295 -0.34358335
0.0018339012 -0.033988994 0.035745338 -0.18266177 -0.004525345 0.1515346 -0.14121513 0.07875423
-0.07872408 -0.5330022 -0.31130895 0.13011998 -0.51837534 -0.17999384 -0.29087922 -0.32934466
-0.6571345 -0.5751584 -0.051709455 -0.21750864 -0.37404722 -0.0053552724 -0.39846998 -0.49214178
-1.0439626 -0.08360071 -0.13447578 -0.44146603 0.23916934 -0.07804651 0.11710358 -0.08700181
-0.44047984 -0.025000188 -0.30499303 0.3109351 -0.06459265 0.117406495 -0.6812828 -1.0910225
-0.051042624 0.11225233 -0.04080032 -1.2444094 -0.12013346 -0.19391976 0.06934295 0.21928775
-0.8827134 -0.005490643 0.25164095 -0.4827252 0.17957102 -0.29568717 -0.146192 0.16872127
0.3024907 -0.15978387 0.20412868 -0.6423582 0.021732293 0.86058015 -0.37609106 -0.0048816623

fc2.bias f4 [300]
00000000: 7f8b a73d 2cb1 37bd 09b0 9dbd 9393 c43b
00000010: 985a 67bd b1e2 c3bb f638 cbbd ebf0 9bbd
00000020: 34a6 9cbd a206 cdbd e8e2 61bd 05f4 b13b
00000030: daef 61bd f1f0 9abd 429c 3bbd b39a 84bd
00000040: b6ed 2b3e 3866 b6bd 7be4 cfbd c5ee b2bd
00000050: 7a68 98bd c58c b2bd 9420 e2bc 4c1e 383d
00000060: 33fa 35bd 20dc 49bd 892f 1abd 14a1 a6bd
00000070: a329 c5bd c2c7 48bc 02ed 10bd 6acb 62bd
00000080: e4fb 4dbd 8d1c 85bd 0cfd 19bd 2eda 063e
00000090: 6774 b3bd a91a 98be bece 9dbd 8dcc 533e
000000a0: b0df 56bc 6db2 1cbd 5ad1 b2bd e44e fdbc
000000b0: 859d 3d3e 8e00 95bd 74d6 51bd 65a3 7abd
000000c0: 0443 a0bd b03c a0bd 213d 9dbc 0f83 8cbd
000000d0: aadc f1bc 49b6 e0bd be68 c0bc 253d 953c
000000e0: 5290 9ebd 3985 1bbd 1150 e2bc 80fd 2fbd
000000f0: cc1a a5bd 9aef 39bc eb0b 90bc e9b6 b6bd
00000100: 19d1 0d3c ea1e 45bc 77c5 82bd 35d7 333e
00000110: 18c8 bdbd ea32 8dbd c757 94bd cb20 05bd
00000120: 6b42 81bd 35c9 3ebd 2963 8ebd bf9f 83bd
00000130: a4b1 11bd 158e b6ba 8633 29bd 8bcc 8ebd
00000140: e9a8 90bd 6692 18bc 6f6e 11bd 287c 84bd
00000150: b061 88bd c4e3 46bc 8422 c2bd 1825 d1bc
00000160: 3d3b b9bd 9269 f4bd 71b3 b1bd 0981 8cbe
00000170: e753 323c bb8c 06bd d5bf b1bc ab57 9e3e
00000180: 2497 93bd bc02 a7bd b5ea 93bc 418b 88bd
00000190: 49a8 89bd 45be 013b 0c3d 2e3c 209f 4abd
000001a0: a234 103e 244a 9ebc 9d14 34bd 1484 79bd
000001b0: cb26 88bc ae11 99bd 73f6 95bb a8be 2bbd
000001c0: ade0 d0bb e908 5fbd aa42 d9bd b6c5 66bd
000001d0: 624a 98bd d0c9 8dbc b60b c4bc 0961 aabc
000001e0: cd06 90bd 7e3c f83d 3868 c8bc 92df f6bc
000001f0: f2ef 2ebb 1361 2bbd 98fa 7abd f159 02bd
00000200: 2058 42bd 616d 133e c13b 61bd ea13 65bd
00000210: 7bc0 0fbc cee4 72bd 14a5 163e 980b 44bc
00000220: e1d0 02bd 6ee6 873d fae3 64bc 543e 59bd
00000230: 641f a8be 8f39 ccbb c792 b3bd 606b 7abd
00000240: 55f1 15bc f39c 98be 47f9 14bd 0922 a7be
00000250: 65ab aabd 9fa6 883e b6da 9ebc 1c37 59bc
00000260: 6034 b03d dbe0 9ebd 489e 15bd e6fe 7fbd
00000270: 0eb4 813e 3c0b 86bb 7248 2ebd 1959 a6bc
00000280: e413 01bd d0f8 9fbc ed31 dfbd 1e70 31bd
00000290: 84ee a2bd 04a7 d8bc 68c3 83bc cebf f5bc
000002a0: a995 b5bd 1d15 37bd 8047 b3bd b065 d3bd
000002b0: 79ca 95bd cfd5 40bc 5647 d0bc de00 0b3e
000002c0: c46b 01bb 65d0 4b3e f99c ebbd 9f65 403e
000002d0: fff3 00bc d421 0fbd 8960 1ebd 6536 99bd
000002e0: a4ab 5b3c 62b9 4bbd e4dc 6cbd 9078 afbd
000002f0: 0292 9cbd c974 efbc fe0f 92bd 543f 8cbd
00000300: 5480 a7bb 85ba 96bd 0e86 eebc 115e 86bc
00000310: f862 d5bd ee8a 42be 38ab 1c3e 889f f8bc
00000320: 15e4 82bd 359a 42bd 9818 cbbd e5be 8a3d
00000330: 04cf a2bc 0ca6 89bc 7a5a 79bd ec95 e93d
00000340: 58fd a1bd 43ef b43c 874e 273b f66a 93bd
00000350: ba58 c4bd 61e5 9cbe b272 d0b9 11a1 a1bd
00000360: 176e a1bd 5e55 05be 59af 87bd b4de 5cbd
00000370: eca3 a6bd fb3f 4bbc e284 d1bd 1c91 84bd
00000380: d32d 29bd ceb4 0bbc 5629 32bd 05d1 1cbe
00000390: c5e9 08bd 5599 8bbd d709 b0bd 12df 12bd
000003a0: 6ae1 aabb 754c 2a3d dfa0 9cbd 8066 8bbd
000003b0: 8673 eabd b008 8ebd 5c00 8dbd d762 1bbc
000003c0: 776e 45bc ee0a 4bbd 1801 30bd 843d 34bd
000003d0: 5058 19bd ea64 e2bd 3b95 97be e623 11be
000003e0: 6bdb 29bd e428 1fbb 9ee5 86bd 3191 87bd
000003f0: e87d 453d bb67 45bd 32ab 48be 50f4 4dbd
0.08180904 -0.0448467 -0.07699592 0.0059990375 -0.05648288 -0.0059779515 -0.09922974 -0.07614311
-0.07648888 -0.10011031 -0.055148035 0.0054307007 -0.05516038 -0.07565487 -0.045803316 -0.06474819
0.16789898 -0.089062154 -0.10151001 -0.08736948 -0.07441802 -0.08718256 -0.027603425 0.04495077
-0.04442806 -0.049282193 -0.03764299 -0.08136192 -0.09627082 -0.012254657 -0.03538228 -0.055369772
-0.05028905 -0.06499586 -0.03759484 0.13169166 -0.08762436 -0.2970784 -0.077054486 0.20683499
-0.013114855 -0.038256098 -0.08731337 -0.030921407 0.1851712 -0.072754964 -0.05122991 -0.06119098
-0.07825282 -0.07824075 -0.019194188 -0.06860935 -0.029524166 -0.10972268 -0.023487445 0.018217633
-0.07742371 -0.037968848 -0.02762607 -0.042966366 -0.08061752 -0.011348629 -0.017583808 -0.08921606
0.00865581 -0.012031296 -0.0638532 0.17562564 -0.092666805 -0.06894477 -0.07243305 -0.032501977
-0.06311496 -0.046578605 -0.06952507 -0.064269535 -0.035569802 -0.0013927842 -0.041308902 -0.06972607
-0.07063467 -0.009312248 -0.03550571 -0.064689934 -0.066592574 -0.0121392645 -0.094792396 -0.025530383
-0.09044502 -0.119341984 -0.08676804 -0.27442196 0.010884262 -0.032849055 -0.021697918 0.3092626
-0.07206562 -0.081548184 -0.018056253 -0.066671856 -0.06721551 0.0019797247 0.010634672 -0.04946816
0.14082578 -0.019322462 -0.04396497 -0.060916975 -0.01662006 -0.07474075 -0.004576498 -0.04192987
-0.0063744397 -0.054451857 -0.10608418 -0.056340896 -0.074360624 -0.017308146 -0.023931365 -0.020798223
-0.07032547 0.12120913 -0.024463758 -0.030135904 -0.0026693312 -0.041840624 -0.06127414 -0.031824056
-0.047447324 0.14397193 -0.054988626 -0.055927195 -0.008773918 -0.059300236 0.1471141 -0.011965655
-0.031937484 0.06635748 -0.0139703695 -0.053037956 -0.3283645 -0.0062324475 -0.0876823 -0.061137557
-0.009151776 -0.29807243 -0.036370542 -0.32643154 -0.08333472 0.26689622 -0.019391399 -0.013257768
0.0860374 -0.077577315 -0.036527902 -0.06249895 0.25332683 -0.0040906947 -0.042549558 -0.020306157
-0.03151311 -0.019527823 -0.108981945 -0.043319814 -0.079556495 -0.026446827 -0.016084388 -0.029998686
-0.08866436 -0.04469787 -0.08753872 -0.1032213 -0.07314009 -0.011769726 -0.02542464 0.1357455
-0.0019748071 0.19903715 -0.115045495 0.18788765 -0.007870673 -0.03494437 -0.03866628 -0.07481078
0.0134076215 -0.04973734 -0.057827845 -0.08567917 -0.07645036 -0.029230492 -0.071319565 -0.068480164
-0.0051117335 -0.073597945 -0.029116657 -0.016402276 -0.104192674 -0.1899831 0.1529969 -0.030349508
-0.063911594 -0.047510345 -0.099168 0.067746915 -0.019874103 -0.01680281 -0.0608773 0.114055485
-0.079096496 0.022086745 0.0025528984 -0.071981356 -0.09587236 -0.30643752 -0.00039758306 -0.07892049
-0.07882326 -0.13020846 -0.06625242 -0.053923324 -0.08136734 -0.012405391 -0.102304235 -0.0647299
-0.041303467 -0.008526994 -0.043496452 -0.1531411 -0.033426065 -0.06816355 -0.08595627 -0.035857268
-0.0052148597 0.04157682 -0.07647871 -0.0680666 -0.114478156 -0.06935251 -0.06884834 -0.0094840145
-0.012050263 -0.04957097 -0.042969793 -0.04400398 -0.037437737 -0.11054404 -0.2960604 -0.1417385
-0.04146902 -0.0024285847 -0.06586765 -0.0661949 0.048215777 -0.04819463 -0.19596556 -0.050281823

fc3.weight f4 [1, 300]
00000000: 0adf 92bf 6d98 063c 2245 94bc 26d9 953c
00000010: 8c81 f53c 25ec da3c e5af 9eba b96b 873c
00000020: 218c c3bc 8cf3 53bc 58f4 8b3c 5af2 4cbf
00000030: 3bb2 ad3b 5b27 133b 7c91 9e3a 44bd b6bc
00000040: b8c5 9d3e f036 1c3b 17c6 f5bc 09bf b6bc
00000050: 236d 01bf 366e fabc 6ec0 223c eaa5 5bbf
00000060: ca8e 873d 47ed 913c aed2 97bc b0a4 f73c
00000070: ce0d 333f 977c 573f cfb4 cbbb 7f7a 2ab8
00000080: febe ebbc 66e6 e23b 129c 573c ae88 4e3e
00000090: 7765 2abf 4332 c2bf a9f8 9aba 3d23 28bf
000000a0: a4cf d33b 4056 cd3c d7c2 46bc 5c3a a03c
000000b0: 52d0 713e 97af d3bc 56b1 e7bc ba93 a2bc
000000c0: dc30 a6bb ecbd e9bc 083c 673a 4d05 dcbc
000000d0: b118 543c 9847 95be a326 283c f0e0 a5be
000000e0: 8623 ddbc 8c71 d9bc 077c db3c aca2 25bc
000000f0: 843d 8b3c c068 5c3c 9c3d 92bc b70d 793c
00000100: 1c3e 883f c959 bebc aa18 e2b9 d559 62bf
00000110: 8259 d43c 6de9 f6bb 77cd 0abd ec55 d2bc
00000120: 969d 78bc f641 5f3b 3841 f5bb 8212 05bf
00000130: 1207 e8bc c0ff cdb9 cef0 babc b030 a5bb
00000140: 9ab4 f5bc 429e d53c 2aad 5ebb 0e8e 513c
00000150: 233a cbbc a541 0d3b 3d19 c4bc d295 dcb9
00000160: 4061 a63c a2b5 d7bc 286c adbc 9a19 a3bf
00000170: 4957 133d ec9a 98bc 7c8c bdbc b42c 373e
00000180: 3d45 91bb 379a 6bba a3ff fcbc 91dd e1ba
00000190: 2e4f fbbc ca26 91be ea1f 433f 13d5 7e3c
000001a0: 759a 583e 5f7d a93d 054c 3e3b 538f a43c
000001b0: 5ee8 4abb e34a a43b 58aa 12bd 9bfd a53c
000001c0: 8acb 563b b0a6 be3c bd08 a33c ee53 553b
000001d0: 792e a43c 0435 16bc 84b7 f1bb 8db4 513e
000001e0: 6d3d bf3c 97a8 963e f565 b63c dd32 7a3c
000001f0: dd7c 693c 06dd 28bb 2b77 4cbc 32a2 e03a
00000200: ea43 7e3b dbd3 233e 7956 12bf 71d9 1f3c
00000210: f64e d03c 4e8a f73c 266c 0abf bd79 b6bc
00000220: 41e5 b3bb 24c7 06be 06b4 0bbb b6e3 e8bc
00000230: fd52 52be a90d bfbc 3f50 153c 2c66 ef3c
00000240: d235 7d3c bad2 983e 8803 aa3b f55f b5bf
00000250: 77dc 7abe ef0d 673e 6d50 f63e a8e6 7b3c
00000260: e7c2 cbbe c9a3 aabb 5b7c 033d de31 2e3c
00000270: 47fc 953e b273 bf3c 7e6d e7bc 1b97 2bbf
00000280: 27a6 d23c 6558 cf3c b07e 103f 362a afbc
00000290: 5ed3 2a3c 926e 843e 2af3 123a a9b2 8e3c
000002a0: 5710 833b d990 b7bc b48d e3bc 848f acbb
000002b0: 5b17 f93c 66a2 633c 42e9 c8bc 4be8 b3be
000002c0: 2ef0 003d 0583 b8be f6f7 093e b9e6 5abe
000002d0: d68f 40be 97c3 00bc 87ae a3bc 3698 45be
000002e0: 226d b1be 3cd2 ffbe 094f 483a 1860 ddbe
000002f0: e809 e6bc 0d8f 393c 7c70 953e 519b e73c
00000300: 328f 483c e39e 9e3d c3b1 3e3f 88ad 85bc
00000310: 46ce 9cbe b401 af3e c87a 7c3e d487 563c
00000320: 2d0c 8cbc 586b 87ba 572e 2fbc 4be7 75be
00000330: de34 06bd cbdf 9d3c 92bf a4bc 2702 0a3f
00000340: 2310 42bb 6ecc 25bc 3d19 edbc 2034 dd3c
00000350: c995 b03c fba1 07bf 007b 553f 033d fa3b
00000360: 6517 373a bfde bdbe 0d19 e53c a716 2ebc
00000370: 4dd6 cd3c 7428 84bc 0777 16bf 98e3 67bc
00000380: b851 953c 7e6a 6dbc a6d1 01bd e38e 313f
00000390: f8a7 d33c c63e 7b3b 19d3 a8bb 72c1 82bc
000003a0: 48e1 fc3a 59ce 0a3f 27b7 b8bb 3b57 88bb
000003b0: 6dbd 79be 03c2 71bc 1f4a 98bc 296a babc
000003c0: 94e3 643b 237f 0f3f d471 58bc 618c 4abb
000003d0: 7bbb a0bc eaec 78be ed1c 0dbf 9de5 60be
000003e0: fa02 fcbc fc21 993c e2bf b33c b25e 76bc
000003f0: 8a11 91bf 3f62 923c 23b9 aabe 59f1 96bc
-1.1474316 0.008215052 -0.018099371 0.018292021 0.029969 0.02672393 -0.0012106864 0.016530858
-0.02387053 -0.012936484 0.017084286 -0.800573 0.0053007877 0.0022453878 0.0012097801 -0.022307046
0.3081491 0.0023836456 -0.030001683 -0.02230789 -0.50557154 -0.03057013 0.009933574 -0.8580004
0.06619032 0.017813338 -0.018533077 0.030229896 0.6994294 0.84174484 -0.0062166224 -4.0645242e-05
-0.028777596 0.0069244383 0.013159769 0.20169327 -0.66561073 -1.5171589 -0.0011823374 -0.6567877
0.0064639617 0.025065541 -0.012131414 0.019559078 0.23614624 -0.025840564 -0.028282803 -0.019845832
-0.0050717425 -0.028532945 0.0008820896 -0.026857996 0.01294534 -0.29156184 0.010263118 -0.32398176
-0.026994478 -0.026543401 0.02679254 -0.010109585 0.016997106 0.013452709 -0.017851643 0.015201024
1.0643954 -0.023236172 -0.00043124455 -0.8841832 0.025921587 -0.0075351507 -0.033887353 -0.025675736
-0.01517429 0.0034066415 -0.0074845813 -0.51981366 -0.028323684 -0.00039291196 -0.022819903 -0.0050412044
-0.029993344 0.02607644 -0.0033977726 0.012790216 -0.024807995 0.002155402 -0.023937816 -0.00042073295
0.020310044 -0.026331726 -0.021169737 -1.2742188 0.035971913 -0.01862856 -0.023138277 0.17888147
-0.0044333027 -0.00089875184 -0.030883616 -0.001723217 -0.030677404 -0.28349906 0.7622057 0.015553731
0.2115267 0.08275866 0.002903701 0.020087874 -0.0030961256 0.00501381 -0.035806984 0.02026253
0.0032775127 0.023272842 0.019901628 0.0032551247 0.020041691 -0.009167913 -0.007376613 0.20479031
0.02334472 0.294255 0.022265414 0.015270916 0.014250961 -0.0025766506 -0.012479584 0.0017138182
0.0038797804 0.15998785 -0.57163197 0.009756432 0.025428277 0.030217316 -0.5407127 -0.022274846
-0.0054899757 -0.13161904 -0.002131702 -0.028428894 -0.2053947 -0.023321943 0.00911337 0.029223524
0.015454726 0.29848272 0.0051884092 -1.4169909 -0.24498163 0.22563909 0.48108235 0.015374817
-0.39797136 -0.005207513 0.032101016 0.010632006 0.29294035 0.023370598 -0.028250452 -0.67027444
0.025713993 0.025310704 0.5644331 -0.021382432 0.01042637 0.25865608 0.0005605692 0.017419176
0.0039997506 -0.022407936 -0.02777753 -0.005266132 0.030406645 0.013893699 -0.024525288 -0.35138163
0.031479053 -0.3603746 0.13473496 -0.21377076 -0.18804869 -0.007859132 -0.019980682 -0.19296345
-0.34653574 -0.49965084 0.00076411717 -0.43237376 -0.028080896 0.01132561 0.2918738 0.028272303
0.012241172 0.07745149 0.7448999 -0.016318098 -0.30626124 0.34180987 0.24656212 0.013093907
-0.01709565 -0.0010331674 -0.010692201 -0.24014013 -0.03276526 0.019271752 -0.02011088 0.53909534
-0.002961167 -0.010119541 -0.028942699 0.027002394 0.021555798 -0.5298154 0.8339081 0.0076366677
0.0006984382 -0.37084004 0.027966047 -0.010625518 0.0251266 -0.01613257 -0.5877537 -0.014153384
0.018227443 -0.014490722 -0.031694077 0.6935865 0.02583693 0.0038336976 -0.005152118 -0.015961383
0.0019293213 0.5422111 -0.005637068 -0.0041607893 -0.24388666 -0.014755729 -0.018590031 -0.0227557
0.0034925686 0.5605337 -0.0132107325 -0.0030906426 -0.019620648 -0.24309126 -0.5512226 -0.2196259
-0.030763138 0.018692963 0.021942083 -0.015037226 -1.1333477 0.017869113 -0.33344373 -0.01842563
