Tennis/Nets/checkpoint_critic600.pth (torch_old, 526870 bytes, 9 tensors)

bn1.weight f4 [24]
0	0x3f1079ce	0.5643586
1	0x3ecc1ba4	0.39864838
2	0x3ecf7ba6	0.40524024
3	0x3eb776ee	0.35832924
4	0x3f4682ac	0.7754314
5	0x3f2689a1	0.65053755
6	0x3ea739db	0.32661328
7	0x3d314674	0.04328008
8	0x3ef3e277	0.47633716
9	0x3dc4e3fd	0.09613798
10	0x3ed1c3de	0.40969747
11	0x3eb19b09	0.34688595
12	0x3ef09648	0.46989655
13	0x3f6fe39c	0.9370668
14	0x3ecb16d3	0.3966585
15	0x3ee8c0d4	0.45459616
16	0x3f191d60	0.5981045
17	0x3e3200cd	0.17383118
18	0x3e39d469	0.18147434
19	0x3f4b1ad5	0.7933782
20	0x3e3d0296	0.18458018
21	0x3f0311fa	0.51199305
22	0x3ec16f31	0.37780145
23	0x3f1e6251	0.6186877

bn1.bias f4 [24]
0	0xbd0f76e6	-0.0350255
1	0x3c1c0de5	0.009524797
2	0xbd71f9c1	-0.059076075
3	0xbd8d1cef	-0.06890284
4	0x3d02bf93	0.03192098
5	0x39e8f440	0.0004443247
6	0xbd1374ed	-0.03600018
7	0xbd4fd75f	-0.050742503
8	0xbd4ed0a0	-0.05049193
9	0x3d12425f	0.035707828
10	0xbd96f5c8	-0.07371098
11	0xbc390a59	-0.011293971
12	0x3c36434d	0.011124444
13	0x3bb17374	0.0054153744
14	0xbcc56bd3	-0.024099266
15	0xbcf735bc	-0.03017699
16	0xbd1c809e	-0.038208596
17	0x3d153be6	0.036434077
18	0xbc1d1eba	-0.009589845
19	0xbd179ccf	-0.03701478
20	0x3d05184f	0.032493886
21	0x3b2ad409	0.0026066324
22	0xbd80dbe4	-0.06291941
23	0xbdb3486e	-0.08754049

bn1.running_mean f4 [24]
0	0xc0f100cd	-7.5313478
1	0xbfa9d00a	-1.3266613
2	0x3f5f44ac	0.8721416
3	0x3e7066c7	0.23476706
4	0x3ea96834	0.33087313
5	0x403d9eb9	2.9628127
6	0x3f5f44ac	0.8721416
7	0x3e7066c7	0.23476706
8	0xc101e0cc	-8.117382
9	0xbfb2ceed	-1.3969399
10	0x3f889ab7	1.0672215
11	0x3ebb8000	0.36621094
12	0x3eb60fbf	0.35558888
13	0x4038494a	2.8794732
14	0x3f889ab7	1.0672215
15	0x3ebb8000	0.36621094
16	0xc10b9a36	-8.725149
17	0xbfb9e4cf	-1.4522952
18	0x3f9993ea	1.1998265
19	0x3f0a8cc1	0.54121023
20	0x3eccce3c	0.40001094
21	0x40300629	2.750376
22	0x3f9993ea	1.1998265
23	0x3f0a8cc1	0.54121023

bn1.running_var f4 [24]
0	0x4194642d	18.548914
1	0x3f215258	0.6301627
2	0x4304896c	132.5368
3	0x40390977	2.8912027
4	0x4227a133	41.90742
5	0x40afff55	5.4999185
6	0x4304896c	132.5368
7	0x40390977	2.8912027
8	0x41732d2c	15.198528
9	0x3f123544	0.57112527
10	0x430f9f29	143.62172
11	0x406ff57b	3.749358
12	0x42361337	45.518764
13	0x40c9465f	6.28984
14	0x430f9f29	143.62172
15	0x406ff57b	3.749358
16	0x412f5584	10.958378
17	0x3f05c44c	0.5225265
18	0x431e8a4e	158.54025
19	0x4098cef5	4.7752633
20	0x42451c55	49.277668
21	0x40f56a16	7.6692
22	0x431e8a4e	158.54025
23	0x4098cef5	4.7752633

fcs1.weight f4 [400, 24]
0	0x3cde4c0f	0.027135877
1	0xbd7b4c3b	-0.061351996
2	0xbb4b6c8b	-0.0031040038
3	0x3c9bd657	0.019023104
4	0xba9c43b5	-0.0011922034
5	0x3d95aecd	0.07308731
6	0xbb94bd93	-0.0045392006
7	0x3be6eae9	0.0070470464
8	0x3c75efa0	0.015010744
9	0xbd7c2fa6	-0.06156888
10	0xbcb79988	-0.022412077
11	0xbcb50956	-0.022099178
12	0xbd0e47ee	-0.034736566
13	0x3c95bab0	0.018277496
14	0xbd36277c	-0.04447125
15	0x3cd5cb3a	0.026097883
16	0x3c43a9d9	0.01194235
17	0xbcf7deb6	-0.030257564
18	0xbd949523	-0.07255008
19	0x3c6bf463	0.014401528
20	0x3d6871b9	0.05674908
21	0x3db9f5b6	0.09080069
22	0x3c36f1fc	0.011166092
23	0x3b72a7bc	0.0037026247
24	0xbd24e979	-0.04026172
25	0x3e0fe608	0.14052594
26	0x3cd15985	0.025555382
27	0xbcea7f43	-0.028625136
28	0x3decd252	0.11563553
29	0x3d324282	0.043520458
30	0xbc528e58	-0.01285132
31	0xbc928d16	-0.01788954
32	0xbd1566c2	-0.03647495
33	0x3cf683b3	0.030092096
34	0x3db3357a	0.08750434
35	0x3c0fd258	0.008778177
36	0x3e743368	0.23847735
37	0x3e57caef	0.21073507
38	0x3d474c6a	0.04865686
39	0x3d151723	0.036399018
40	0x3cf315da	0.029673506
41	0x3d8d8167	0.06909447
42	0x3a687809	0.0008867984
43	0xbbb10414	-0.0054020975
44	0x3e6d044b	0.23146169
45	0x3e9f59b1	0.31123117
46	0xbcbdf7c2	-0.02318943
47	0xbd2a730e	-0.04161363
48	0x3d92df03	0.07171442
49	0x3d115382	0.03548003
50	0x3c59cd79	0.013293617
51	0x3e28e2ba	0.1649274
52	0xbd0ea8ec	-0.034829065
53	0xbe7f38e8	-0.24924052
54	0x3d8ba4f2	0.0681857
55	0x3df1fc31	0.1181568
56	0xbb529b85	-0.0032136154
57	0xbd688e85	-0.056776542
58	0xba95e468	-0.0011435868
59	0x3d72cff3	0.059280347
60	0x3d97545f	0.073891394
61	0x3e83c08d	0.25732842
62	0x3d72529c	0.059160814
63	0x3d09a450	0.033603966
64	0xbd72345f	-0.059131976
65	0x3cac6205	0.021042833
66	0xbda8a6fb	-0.08234974
67	0x3cfdc384	0.030977018
68	0x3bd128e2	0.0063830474
69	0x3ee09eb9	0.43871096
70	0xbddeca93	-0.10878482
71	0x3dab39aa	0.08360608
72	0x3c877074	0.016533114
73	0x3c1aaab8	0.009440117
74	0xbcbec844	-0.023288853
75	0x3ce701f0	0.028199166
76	0xbc0fc9e6	-0.008776164
77	0x3d162adf	0.03666198
78	0xbd34e238	-0.04416105
79	0xbc818481	-0.015810253
80	0xbc505b32	-0.012717055
81	0xbc8daedd	-0.017295295
82	0xbdaef4ff	-0.08542823
83	0x3d60f539	0.054921363
84	0xbc426ade	-0.011866299
85	0x3b922a38	0.0044605993
86	0xbc418c09	-0.011813172
87	0xba8b093a	-0.0010607608
88	0x3c96cd47	0.01840843
89	0x3c91fb14	0.017819919
90	0xbc962773	-0.018329358
91	0xbc468bb8	-0.0121182725
92	0xbc5bc78b	-0.013414274
93	0x3d579eb1	0.052641574
94	0xbc97a45b	-0.018510988
95	0x3cc8edac	0.024527393
96	0xbcc6c5c5	-0.024264226
97	0xbdbec864	-0.09315565
98	0xbd19e6cd	-0.037573624
99	0x3d0992d8	0.033587307
100	0x3e35b724	0.17745644
101	0x3d889290	0.066685796
102	0xbd6b750f	-0.057484683
103	0x3d80679b	0.06269761
104	0xbd94d015	-0.07266251
105	0xbd871e88	-0.0659762
106	0xbd0db627	-0.034597542
107	0xbca1f1c6	-0.019768607
108	0x3e330bc0	0.17484951
109	0x3d9e5e0c	0.07732782
110	0xbcc8409a	-0.024444867
111	0x3a5182f4	0.0007992231
112	0xbcc68b61	-0.024236383
113	0xbccbd829	-0.024883347
114	0x3d3611e8	0.04445067
115	0x3cf48382	0.029847864
116	0x3dc48be6	0.09596996
117	0x3dfa8ab5	0.122334875
118	0x3cce5699	0.025187777
119	0xbc84c9ef	-0.01620957
120	0x3a8b2d5c	0.0010618377
121	0xbd5cb75c	-0.053885803
122	0x3d112d08	0.035443336
123	0x3d1800b5	0.03711005
124	0xbcc90e44	-0.024542935
125	0xbc2efa6a	-0.010679821
126	0x3c5a3cea	0.013320187
127	0xbd1506dd	-0.0363835
128	0xbadcef0a	-0.0016855907
129	0xbd6c3efd	-0.057677258
130	0xbc14c7db	-0.009080852
131	0x3c4096c3	0.011754694
132	0x3b8dadb5	0.004323686
133	0x3d0036d4	0.03130229
134	0xbb56af72	-0.0032758382
135	0x3bd5a01b	0.00651933
136	0x395c8110	0.00021028914
137	0x3b5272d1	0.0032111893
138	0x3bb65fa7	0.005565602
139	0xbc278c8b	-0.010226379
140	0x3d976c1a	0.073936656
141	0x3d01e56f	0.031712946
142	0x3c377f47	0.011199779
143	0x3d66d2af	0.056353267
144	0x3d834756	0.064100906
145	0xbd274357	-0.040835705
146	0x3d1267ff	0.03574371
147	0x3db0c4bb	0.08631273
148	0xbd3dd7bd	-0.046348322
149	0xbd932fd4	-0.07186857
150	0x3d6b5c40	0.057461023
151	0x3dd09300	0.10184288
152	0x3cbdcf07	0.023170007
153	0x3d1462f0	0.036227167
154	0xbcb4d542	-0.022074345
155	0x3dace70d	0.08442507
156	0xbd4988fe	-0.04920291
157	0xbd6f4e8d	-0.05842452
158	0xbc604f34	-0.0136907585
159	0x3ac5549e	0.0015055125
160	0x3d7c007c	0.0615239
161	0x3d4254b1	0.04744405
162	0xbca59a1b	-0.020215085
163	0x3d4d2e48	0.050092965
164	0xbca02640	-0.019549489
165	0x3c5c6dcd	0.013453913
166	0x3d5975ea	0.053090967
167	0x3d78ebd2	0.06077177
168	0x3dac0c13	0.084007405
169	0x3db9811c	0.09057829
170	0xbad45814	-0.0016200566
171	0xbd0be271	-0.0341515
172	0xbcb26f64	-0.02178163
173	0x3d9219db	0.07133838
174	0xbd6ac5c1	-0.0573175
175	0x3d4f97f1	0.050682012
176	0xbc9971f6	-0.018731099
177	0x3af54123	0.0018711429
178	0xbcea099c	-0.028569035
179	0x3d25237d	0.040317047
180	0x3d81c11c	0.06335661
181	0x3cdc68f4	0.026905514
182	0xbcfe3d34	-0.031035043
183	0xbd10466c	-0.03522341
184	0xbd91669b	-0.070996486
185	0xbdbe632d	-0.0929626
186	0xbd8fd70b	-0.07023438
187	0xbc1c5961	-0.009542794
188	0xbdc401dd	-0.09570668
189	0x3dd90cf2	0.10598172
190	0xbde727c9	-0.11286885
191	0x3cba5164	0.022743888
192	0x3d12af6e	0.035811834
193	0x3c5ac683	0.013352993
194	0xbb323b8a	-0.0027196133
195	0xbbe91e30	-0.0071141943
196	0xbd1be5a4	-0.0380608
197	0x3cd51e87	0.026015533
198	0xbd03e7f4	-0.03220363
199	0x3d7ac2cf	0.06122094
200	0x3d271498	0.040791124
201	0xbbdfbc72	-0.0068278844
202	0xbd6e55b4	-0.0581872
203	0x3c67d82b	0.01415066
204	0xbb246955	-0.0025087197
205	0x3d22ce86	0.039747737
206	0xbc90d157	-0.017677946
207	0xbc9d197e	-0.019177195
208	0x3caf04c1	0.021364572
209	0x3d05e2e1	0.03268707
210	0xbc12163a	-0.008916432
211	0xbace7031	-0.0015749988
212	0x3cb79252	0.022408638
213	0x3dbcfafd	0.0922756
214	0x3cfd717c	0.030937903
215	0x3d1c3a0a	0.038141288
216	0xbafb89c1	-0.0019190834
217	0x3c6636c4	0.014051143
218	0xbc3633dd	-0.011120764
219	0xbcf57111	-0.02996114
220	0x3d581165	0.052750964
221	0x3d39c21e	0.04535114
222	0xbd08b3be	-0.03337454
223	0xbcc224fb	-0.023699274
224	0x3c35aea3	0.011089
225	0xbd616e60	-0.055036902
226	0xbbba23cd	-0.0056805373
227	0x3c0f5a3d	0.008749542
228	0x3ab8259c	0.0014049294
229	0x3d650e8e	0.055922084
230	0xbc8bc505	-0.01706172
231	0x3c1ac5fe	0.009446619
232	0xbaa77e84	-0.0012778793
233	0xbd6f06b6	-0.05835601
234	0x3b97cad5	0.0046323338
235	0xbd2dbcb1	-0.04241628
236	0x3d955579	0.07291693
237	0xbc842781	-0.016132118
238	0xbb77d34b	-0.003781515
239	0xbd0a5bcb	-0.033778947
240	0xbde21fc9	-0.11041219
241	0xbd8ac509	-0.06775863
242	0x3d4383bd	0.047733057
243	0x3d0f0d73	0.034924936
244	0xbce6773a	-0.028133024
245	0xbd7e0df8	-0.06202504
246	0x3da9f71e	0.08299087
247	0x3d174f82	0.03694106
248	0xbd77ab3b	-0.060466032
249	0xbcaa57d6	-0.020793837
250	0x3d6804da	0.05664525
251	0x3d074dc8	0.033033162
252	0x3c2148e6	0.0098440405
253	0xbd415393	-0.047198843
254	0x3ddf9945	0.10917906
255	0x3d67b659	0.056570385

fcs1.bias f4 [400]
0	0x3d382bcc	0.044963643
1	0xbdfa17f6	-0.122116014
2	0xbe0a96a3	-0.13534026
3	0xbd73af9b	-0.059493642
4	0xbe258935	-0.16165622
5	0x3d055264	0.032549277
6	0xbe3d67b7	-0.18496595
7	0x3dd46f22	0.103727594
8	0x3c9c1c74	0.019056536
9	0x3e2f9f70	0.17150664
10	0xbe0b0ef1	-0.13579918
11	0xbe6884ce	-0.22706911
12	0x3e2c0b66	0.16801223
13	0xbe6a1a3f	-0.22861575
14	0xbb38bd21	-0.0028188901
15	0xbe579ad1	-0.21055152
16	0x3cfb8852	0.030704651
17	0xbe2de8c9	-0.16983332
18	0x3e222d16	0.15837511
19	0x3da3eec8	0.08004528
20	0xbd6f3883	-0.058403503
21	0xbdaafd58	-0.08349103
22	0x3dbf67aa	0.09345944
23	0x3dbcd4f7	0.09220307
24	0x3ddb40b8	0.107057035
25	0x3deb9a11	0.11503995
26	0x3dc4da86	0.096119925
27	0x3dbe95bb	0.093059026
28	0xbd86127b	-0.065464936
29	0xbe6fe61e	-0.23427626
30	0x3d5a0311	0.05322558
31	0x3dc38de0	0.09548545
32	0xbd9a5d33	-0.075373076
33	0xbe4c7d52	-0.19969681
34	0x3dd40d5a	0.10354109
35	0xbdf94296	-0.121709034
36	0x3ce933cb	0.02846708
37	0xbe64f937	-0.22360693
38	0xbe3cca1d	-0.18436475
39	0x3d37416a	0.044740118
40	0x3d5140e3	0.05108727
41	0xbd7f54ff	-0.062336918
42	0x3d18ae0b	0.037275355
43	0x3d9a17e7	0.0752409
44	0xbdfe7557	-0.124247245
45	0x3e07a2ce	0.13245699
46	0x3d8db65a	0.069195464
47	0x3e122f60	0.14275885
48	0xbb5290a6	-0.0032129674
49	0x3d80397b	0.062609635
50	0xbdedb32d	-0.11606441
51	0xbdf83804	-0.12120059
52	0xbe441271	-0.1914766
53	0x3dcc9fb1	0.09991396
54	0x3d091a3f	0.033472296
55	0x3e3926e6	0.18081245
56	0x3dfb4080	0.12268162
57	0xbdbcb13a	-0.09213491
58	0x3c0b86c0	0.008516014
59	0x3e01c089	0.12671103
60	0xbe193a99	-0.1496376
61	0x3e1b3816	0.15158114
62	0xbca0310a	-0.019554634
63	0xbe8867a2	-0.26641566
64	0xbe4017a2	-0.18759015
65	0x3c88beb7	0.016692502
66	0xbe4163f2	-0.18885782
67	0x3d0093bf	0.0313909
68	0x3e1948a5	0.14969118
69	0x3c73b700	0.014875174
70	0xbd785afc	-0.060633644
71	0x3a9a3d46	0.0011767528
72	0x3d294b5f	0.041331645
73	0x3e0a1f6e	0.13488552
74	0x3d916953	0.07100167
75	0xbe505a3c	-0.20346922
76	0x3df902ef	0.12158763
77	0xbce32082	-0.027725462
78	0xbc9d8789	-0.019229667
79	0xbe57422f	-0.21021341
80	0x3e001dd8	0.12511384
81	0x3c1f0faa	0.009708324
82	0x3d3e71d4	0.046495274
83	0x3e1dcda3	0.15410475
84	0xbe03cb34	-0.12870485
85	0x3e10d324	0.14143044
86	0x3b4d54fc	0.0031331172
87	0xbe5610e3	-0.2090488
88	0xbe378754	-0.17922717
89	0xbcf59345	-0.02997745
90	0xbe3d0ee0	-0.18462706
91	0xbe8a7041	-0.27038768
92	0xbd4f6704	-0.050635353
93	0x3d3c6b91	0.04600102
94	0xbe16c585	-0.14723785
95	0xbe349f6a	-0.17638937
96	0x3c91b63f	0.017787097
97	0xbd59ddf7	-0.053190198
98	0xbe766e9a	-0.24065629
99	0xbe4f96e6	-0.20272407
100	0xbe24f823	-0.16110282
101	0xbe3bc110	-0.18335366
102	0x3d92be54	0.071652085
103	0x3c84c28a	0.016206045
104	0xbda4ac02	-0.080406204
105	0xbe182d51	-0.14861037
106	0x3de2c5b0	0.11072862
107	0x3c2a9c75	0.010413279
108	0xbe2cd5b9	-0.16878404
109	0x3c051c96	0.008124491
110	0x3e0109a4	0.12601334
111	0x3c3e140b	0.011601458
112	0x3c2dcad7	0.010607443
113	0xbd66628a	-0.056246318
114	0xbb79944f	-0.0038082784
115	0xbe0e3aa2	-0.13889554
116	0x3cc3ccde	0.0239014
117	0xbe5a6b2d	-0.21329947
118	0xbe1a8ec8	-0.15093529
119	0xbe22fdf9	-0.15917195
120	0xbe09c4e0	-0.13454008
121	0x3de59660	0.112103224
122	0xbe6efab3	-0.23337822
123	0x3be5d55c	0.00701396
124	0x3cb9acd5	0.02266542
125	0xbddcf937	-0.107897215
126	0x3df6a9e8	0.12044126
127	0xbd705479	-0.05867431
128	0xbde1ccd5	-0.11025397
129	0xbe90bfd0	-0.2827134
130	0xbe1a59c4	-0.15073305
131	0xbce636c3	-0.028102284
132	0x3e19a6a6	0.15004978
133	0x3d0805f4	0.033208802
134	0x3da85cc8	0.082208216
135	0xbdb0e01b	-0.08636495
136	0xbde47517	-0.111551456
137	0xbc840644	-0.016116269
138	0xbe62d836	-0.2215279
139	0x3c64973d	0.013952074
140	0x3ca7799a	0.020443726
141	0x3d471fed	0.04861443
142	0xbe05e3e8	-0.1307522
143	0xbe8021ac	-0.2502569
144	0x3d818840	0.06324816
145	0x3c80f0ce	0.015739825
146	0xbe32dac2	-0.17466262
147	0x3c2b7ef8	0.010467283
148	0x3da1308b	0.07870587
149	0xbd7a60a7	-0.06112733
150	0xbe5509cc	-0.20804518
151	0xbddb1a3c	-0.10698363
152	0xbba74fc0	-0.0051059425
153	0x3cec30f0	0.028831929
154	0xbe289e3f	-0.16466616
155	0xbe4a2ece	-0.19744417
156	0xbbd4c306	-0.006492975
157	0xbd9fe624	-0.07807568
158	0xbe675554	-0.22591144
159	0xbe4f939a	-0.2027115
160	0x3d85ef94	0.065398365
161	0x3e1cf36d	0.15327235
162	0xbe102598	-0.14076841
163	0xbe1f69de	-0.15567729
164	0xbe35789c	-0.1772179
165	0xbdc66220	-0.096866846
166	0x3dab45ff	0.0836296
167	0xbdc40e6f	-0.095730655
168	0x3daaabba	0.083335355
169	0xbc967c5b	-0.018369844
170	0xbe0969ac	-0.13419217
171	0x3d4631cf	0.048387345
172	0xbe47c173	-0.19507389
173	0xbe2b03c9	-0.16700663
174	0xbe097306	-0.13422784
175	0xbcf13b4e	-0.029447224
176	0x3acc2ca3	0.0015577268
177	0xbd273026	-0.040817402
178	0x3dfd4783	0.123671554
179	0x3e066685	0.13125046
180	0x3d9b0750	0.07569754
181	0xbe627e56	-0.22118506
182	0x3e135294	0.1438697
183	0xbd9f65db	-0.07783099
184	0x3e215c7e	0.15757939
185	0x3e001f42	0.12511924
186	0x3dccc433	0.099983595
187	0xbe0f51dd	-0.13996072
188	0x3df572b7	0.11984771
189	0x3d3c4743	0.045966398
190	0xbe36838f	-0.17823623
191	0xbdd772be	-0.10519932
192	0xbcf7b387	-0.030236972
193	0x3d80cd0a	0.06289108
194	0xbe450ae2	-0.19242433
195	0x3dee3bd5	0.11632506
196	0xbe8feccd	-0.28110352
197	0x3da156bb	0.07877871
198	0xbce2ae58	-0.027671024
199	0xbd0b48bb	-0.034004908
200	0x3db96f29	0.09054405
201	0xbd744bea	-0.05964271
202	0xbe26fc6a	-0.16307226
203	0xbd3d4286	-0.04620602
204	0x3d4f1a82	0.05056239
205	0xbdeab498	-0.11460227
206	0xbe1f1457	-0.15535103
207	0xbe68617d	-0.22693439
208	0xbd81254e	-0.063059434
209	0x3e3fec8b	0.18742578
210	0x3d9aeca1	0.07564665
211	0x3df435fa	0.11924358
212	0x3c8f525d	0.017495329
213	0xbe43b961	-0.19113685
214	0x3e2484d5	0.16066296
215	0x3db5a0fa	0.088685945
216	0x3e46d191	0.1941588
217	0xbd2c6bd6	-0.042095028
218	0x3d8d4a27	0.06898909
219	0xbc391751	-0.011297063
220	0x3d643741	0.055716757
221	0x3e1d2f70	0.15350127
222	0x3e026e36	0.12737355
223	0x3e1b9a9c	0.15195698
224	0xbd516532	-0.051121898
225	0xbe50df7e	-0.20397756
226	0xbe748ceb	-0.23881881
227	0xbe461a6b	-0.19346015
228	0xbe7fa866	-0.24966583
229	0x3d87501b	0.06607076
230	0x3d29b2ce	0.041430287
231	0xbd6e472e	-0.05817335
232	0xbe8e58f1	-0.27802232
233	0xbceba4c0	-0.028765082
234	0xbe07cdf1	-0.13262154
235	0x3d9e82f8	0.07739824
236	0x3db315f0	0.087444186
237	0xbcfb7e40	-0.03069985
238	0x3d655d63	0.055997264
239	0x3dc56e7a	0.09640212
240	0x3dd97680	0.10618305
241	0xbe3adb1c	-0.18247646
242	0xbded7ea9	-0.11596424
243	0xbd0d2de1	-0.03446758
244	0x3df42d01	0.11922646
245	0xbe52e0ec	-0.20593613
246	0xbc807732	-0.015681837
247	0x3d96b357	0.07358425
248	0xbe6567a6	-0.2240282
249	0x3db671e3	0.08908441
250	0x3e370321	0.17872287
251	0xbde6b00f	-0.11264049
252	0xbca8bad2	-0.020596895
253	0xbb9e7bbd	-0.004836528
254	0xbc3d6ea3	-0.011562022
255	0xbe71e8e6	-0.23624

fc2.weight f4 [300, 402]
0	0xbcf8f732	-0.03039131
1	0x3cbb7423	0.022882527
2	0xbc392c0f	-0.011302008
3	0x3c9f6b6d	0.019460404
4	0x3d12af6c	0.035811827
5	0xbcdeeea7	-0.027213408
6	0xbb9aac1f	-0.0047202255
7	0x3d063da4	0.03277363
8	0xbd89506a	-0.06704791
9	0xbcbdd78b	-0.023174068
10	0x3d4819d7	0.048852768
11	0x3d7d20ff	0.061799046
12	0xbd243924	-0.040093556
13	0x3d2e1572	0.04250092
14	0x3c4df386	0.012570268
15	0xbcd1997a	-0.025585879
16	0x3d300d6c	0.04298155
17	0xbe04dfbf	-0.12975977
18	0x3cdd6102	0.027023796
19	0xbce35ab4	-0.027753212
20	0xbd0b22e6	-0.03396883
21	0xbd643b5f	-0.055720683
22	0xbd81ccd5	-0.06337897
23	0x3bb6cf3a	0.0055789026
24	0x3cee2b47	0.02907337
25	0xbd51dff8	-0.051238984
26	0x3b088849	0.0020833185
27	0xbc896384	-0.016771086
28	0x3d332e00	0.04374504
29	0xbd41f934	-0.0473568
30	0xbd926dac	-0.071498245
31	0x3d2e74d7	0.042591896
32	0xbd91bd82	-0.07116224
33	0xba3c4678	-0.00071821315
34	0xbd84cf81	-0.06484891
35	0x3c8dac6a	0.017294127
36	0xbc331fc8	-0.01093287
37	0xbd9b217d	-0.07574747
38	0xbde364bd	-0.11103199
39	0xbd563095	-0.052292425
40	0xbd8e3bdc	-0.06945011
41	0x3ce9bf86	0.028533708
42	0xbd0e4ef5	-0.034743268
43	0x3c30cb81	0.010790707
44	0xbd4d2563	-0.050084483
45	0xba418fca	-0.0007383792
46	0xbd5fe418	-0.054660887
47	0xbc0df680	-0.008664727
48	0xbe16ff65	-0.14745863
49	0x3d233617	0.039846506
50	0xbdc3a361	-0.095526464
51	0x3d25e0a1	0.040497426
52	0xbca691b0	-0.020333141
53	0x3c03d24f	0.008045747
54	0xbb8a6b15	-0.004224191
55	0xbd96f190	-0.07370293
56	0x3c752b7a	0.014963979
57	0x3da6b24d	0.08139477
58	0xbd7a1931	-0.06105918
59	0x3cf9ea79	0.030507313
60	0x3c3e95d6	0.011632403
61	0x3bca75cf	0.0061785947
62	0x3c42fd8d	0.0119012715
63	0x3cbe7336	0.023248296
64	0xbd5dc3dc	-0.054141864
65	0x3d2368ce	0.03989487
66	0x3ce6481b	0.028110554
67	0xbd3c65fa	-0.04599569
68	0xbde39a78	-0.11113447
69	0x3cfeb45a	0.031091858
70	0xbd102644	-0.035192743
71	0xbb3e20a6	-0.002901116
72	0x3d3424a8	0.04398027
73	0x3cb7c7f4	0.022434212
74	0xbda740df	-0.0816667
75	0xbd9ac5a8	-0.07557231
76	0x3c406814	0.011743564
77	0xbc26017f	-0.010132193
78	0x3ba908a1	0.0051584993
79	0x3ba928a1	0.005162314
80	0x3d0eb6cb	0.034842294
81	0xbd7b4cb5	-0.06135245
82	0xbda20457	-0.07910984
83	0x3c9028fd	0.01759767
84	0xbe309242	-0.17243293
85	0x3c115da1	0.0088724205
86	0xbd80c440	-0.06287432
87	0x3b9a4829	0.004708309
88	0x3b8351a1	0.0040075337
89	0x3ce5e138	0.028061494
90	0x3bf6c806	0.007531169
91	0x3ce0a2b2	0.02742133
92	0x3c699ccc	0.014258575
93	0xbc9f7a7c	-0.019467585
94	0xba889e8a	-0.0010423225
95	0x3bb6d86f	0.00558
96	0xbccedce8	-0.02525182
97	0x3cb6157c	0.022227041
98	0xbd757eca	-0.05993537
99	0x3de70749	0.112806864
100	0x3ca49c1e	0.020093974
101	0x3d47c980	0.04877615
102	0xbd8220dc	-0.06353924
103	0x3b186680	0.0023254454
104	0x3cd64503	0.026155954
105	0xbd39c71c	-0.0453559
106	0x3d250890	0.04029137
107	0x3bde54ad	0.0067849965
108	0x3c7b7e6f	0.015349968
109	0xbd6f92db	-0.05848966
110	0xbceeed04	-0.029165752
111	0xbd2dc7af	-0.04242676
112	0xbd0cf413	-0.034412455
113	0xbd2205cd	-0.039556313
114	0xbc8f6697	-0.017504973
115	0x3b640e0a	0.0034798407
116	0xbc49f728	-0.012326993
117	0xbd1df017	-0.038559046
118	0x3d7d534f	0.061847027
119	0x3d0e24bd	0.034703005
120	0x3ce59558	0.028025314
121	0x3c172f73	0.009227621
122	0xbd8e7745	-0.069563426
123	0xb9d7045e	-0.0004101125
124	0x3c52d63b	0.012868459
125	0xbd2285b3	-0.039678287
126	0xbcea0bbc	-0.028570049
127	0xbd592f6c	-0.05302374
128	0x3cf2eef8	0.029654965
129	0xbcc24b70	-0.023717612
130	0x3c56f407	0.013119704
131	0x3d0f4029	0.034973297
132	0xbd2955e9	-0.041341696
133	0xbcbc82a8	-0.02301152
134	0xbcc6b461	-0.024255933
135	0xbd0820e9	-0.03323451
136	0x3d30edba	0.043195464
137	0x3c1aa737	0.009439281
138	0xbced01cc	-0.02893152
139	0xbc35ba57	-0.01109179
140	0xbc57153d	-0.013127622
141	0xbdd87cc9	-0.10570676
142	0x3d21657b	0.03940342
143	0x3d4c6f0e	0.049910598
144	0x3c816dac	0.015799366
145	0xbd188e81	-0.037245277
146	0xbe0e96c4	-0.139247
147	0x3d6382f1	0.055544797
148	0xbc5b155c	-0.013371792
149	0x3d39d31c	0.045367345
150	0x3d28c2d8	0.041201442
151	0x3b844d26	0.004037517
152	0x3c61f71e	0.0137918275
153	0xbd3cf78d	-0.04613452
154	0x3dee44ec	0.116342396
155	0x3cf8d154	0.030373253
156	0x3a48a051	0.00076532835
157	0xbda8e4e8	-0.082467854
158	0x3c841152	0.01612154
159	0x3d33f635	0.043935973
160	0x3c707fb7	0.014678887
161	0xbe01e00d	-0.12683125
162	0x3d18ffa0	0.037353158
163	0x3d318303	0.043337833
164	0xbd0ecb3f	-0.0348618
165	0xbc546e93	-0.012965816
166	0xbd204ed8	-0.03913769
167	0xbcfe0d5d	-0.031012231
168	0xbd27c307	-0.040957477
169	0x3d0fd96a	0.03511945
170	0x3cff847e	0.031191107
171	0x3d058d23	0.0326053
172	0x3c97fc3c	0.018552892
173	0x3c96a0d8	0.018387243
174	0xbc3a28b5	-0.011362244
175	0x3d0df25f	0.03465497
176	0xbd83fb70	-0.06444442
177	0xbb640bc9	-0.0034797064
178	0xbd138af8	-0.036021203
179	0xbdd29777	-0.10282796
180	0xbda5a31a	-0.0808775
181	0xbca277b7	-0.019832475
182	0xbd1549e8	-0.036447436
183	0x3c9a2a51	0.018819006
184	0x3ca56d57	0.020193739
185	0xbd2e02a8	-0.042483002
186	0xbd28e37f	-0.041232582
187	0x3d8891b7	0.06668418
188	0xbd68fd08	-0.056881934
189	0x3d551f5b	0.052031856
190	0x3e077f69	0.13232197
191	0xbb5725fe	-0.0032829042
192	0xbd0c4fbd	-0.03425573
193	0xbe4ba907	-0.19888698
194	0x3d55f0f0	0.05223173
195	0xbd84526b	-0.064610325
196	0xbd8baf11	-0.06820501
197	0xbd681712	-0.056662627
198	0x3d273d8d	0.040830184
199	0x3d8047cf	0.062636964
200	0xbd1665cb	-0.03671817
201	0xbcec8521	-0.028872075
202	0x3d5cc294	0.0538965
203	0x3d400347	0.046878126
204	0xbbf33186	-0.007421675
205	0xbc15ec62	-0.009150596
206	0xbdd777c9	-0.10520894
207	0xbd6cc3dc	-0.057803974
208	0x3d595b5a	0.053065635
209	0xbd9e2716	-0.07722299
210	0x3b2b4b17	0.0026137286
211	0xbcb4659a	-0.022021104
212	0xbc738b37	-0.014864734
213	0xbbaf7b48	-0.0053552724
214	0xbcb66eda	-0.022269655
215	0xbcd16e4d	-0.02556529
216	0xbd9cf0f9	-0.076631494
217	0xbd3e13bf	-0.04640555
218	0xbd8223f9	-0.063545175
219	0xbb5a6411	-0.0033323804
220	0x3d206fc5	0.03916909
221	0xbd9876de	-0.07444547
222	0xbd6c70b2	-0.057724662
223	0x3cc4f0c5	0.02404059
224	0x3c823eee	0.015899148
225	0xbccccd32	-0.025000188
226	0xbd699ad4	-0.05703242
227	0x3d960399	0.07324905
228	0xbd1a122d	-0.03761499
229	0xbd79c690	-0.06098038
230	0x3c83aeb5	0.016074518
231	0x3d15098e	0.036386065
232	0xbd8bafb9	-0.06820626
233	0x3cba58c6	0.022747409
234	0x3cbf9ced	0.023390258
235	0xbda11995	-0.078662075
236	0xbd73a961	-0.059487704
237	0x3c34e7b4	0.01104157
238	0xbd4c4ed4	-0.049879864
239	0x3cad0e30	0.02112493
240	0xbd5f8caa	-0.054577507
241	0x3d8c7a9e	0.06859325
242	0xbd02ed27	-0.031964447
243	0x3c7c6485	0.015404825
244	0x3d2de2a5	0.042452473
245	0xbe867f05	-0.26268783
246	0xbce88291	-0.028382571
247	0xbd37bb6e	-0.04485648
248	0xbd6172c0	-0.055041075
249	0x3d54fe74	0.052000478
250	0xbda3b2f2	-0.079931155
251	0x3c1dd1f0	0.0096325725
252	0xbd988b75	-0.07448474
253	0x3cca12cd	0.024667168
254	0x3cc51368	0.024057105
255	0xbd9ac6e1	-0.075574644

fc2.bias f4 [300]
0	0xbcd3dd90	-0.025862485
1	0xbc463cd9	-0.012099468
2	0xbd7fbe0e	-0.06243711
3	0x3d029a3b	0.031885367
4	0xbd00e819	-0.031471346
5	0x3cca6f67	0.024711324
6	0xbd8085f7	-0.06275552
7	0xbd085a52	-0.03328926
8	0xbcee02c3	-0.029054051
9	0xbd05e06b	-0.032684725
10	0xbd09d958	-0.03365454
11	0x3d2da9a6	0.042398117
12	0xbda1dee5	-0.07903842
13	0xbd0964f2	-0.033543535
14	0xbc49eb19	-0.012324118
15	0xbcf4b857	-0.029873056
16	0xbd7a074c	-0.061042115
17	0xbd7a0aaa	-0.061045326
18	0xbd29b6d5	-0.041434128
19	0xbc538c73	-0.012911904
20	0xbcdfe1c3	-0.027329331
21	0xbd7dacdb	-0.061932426
22	0xbd207387	-0.039172675
23	0x3d173979	0.036920045
24	0xbc4b6804	-0.012414936
25	0x3cd25afc	0.02567815
26	0x3c771117	0.015079758
27	0xbd931c5f	-0.07183146
28	0xbd1fcd9b	-0.03901444
29	0x396d4d08	0.00022630778
30	0xbb630861	-0.0034642445
31	0xbd1d852d	-0.038457084
32	0x3c948437	0.018129451
33	0xbc656425	-0.014000927
34	0xbabf4361	-0.0014592224
35	0xbca9af60	-0.020713508
36	0xbd6d9aca	-0.058008946
37	0xbb580f74	-0.0032968195
38	0xbd338005	-0.04382326
39	0xbb575b2d	-0.0032860741
40	0xbbadd55b	-0.005304975
41	0xbd1d4ffb	-0.038406353
42	0xbd3e0c91	-0.046398703
43	0x3cba8334	0.02276764
44	0x3d200820	0.03907025
45	0xbd7e0e8b	-0.062025588
46	0xbb749d8f	-0.0037325358
47	0xbbf5c278	-0.007499989
48	0xbd90686a	-0.070511654
49	0xbd19eabd	-0.03757738
50	0xbc8a2f6e	-0.01686832
51	0xbd15aafa	-0.03654001
52	0x3c797740	0.015226185
53	0xbd481100	-0.048844337
54	0x3c0c9bd0	0.0085820705
55	0x3cc5b579	0.024134384
56	0xbd894deb	-0.06704315
57	0xbbd01f74	-0.0063514058
58	0x3b967b3c	0.0045923274
59	0xbcfc449e	-0.030794438
60	0xbd87f3ee	-0.06638323
61	0x3ce165ac	0.027514301
62	0x3c1a6a6c	0.009424787
63	0xbd2cac82	-0.042156704
64	0x3ce71189	0.028206604
65	0x3ba7da06	0.005122426
66	0xbd68ffc1	-0.05688453
67	0x3bf8d74f	0.007594026
68	0xbd484108	-0.048890144
69	0xbd047e08	-0.032346755
70	0xbd710e30	-0.05885142
71	0xbcd30da2	-0.025763337
72	0xbc71f5ab	-0.014768044
73	0xbcceea73	-0.025258278
74	0xbd973904	-0.07383922
75	0xbd165bb7	-0.03670856
76	0x3af6cb42	0.0018828886
77	0x3c5f2d33	0.013621616
78	0xbc857cf7	-0.01629494
79	0xbd553c75	-0.05205961
80	0xbd336ea4	-0.043806687
81	0x3c5f38cf	0.013624384
82	0xbb9b1ac9	-0.0047334176
83	0xbc624a65	-0.013811682
84	0xbcbda430	-0.02314958
85	0x3d2a980b	0.041648906
86	0xbd68755f	-0.05675256
87	0xbc96c414	-0.018404044
88	0xbd590b09	-0.05298904
89	0xbd40ddbe	-0.04708647
90	0xbb23e7bb	-0.0025009948
91	0x3c38e39c	0.011284735
92	0x3ccae777	0.024768574
93	0xbc69ee4a	-0.014278004
94	0x3bc3a705	0.005970838
95	0x3d1e3d17	0.03863248
96	0xbc989b79	-0.018628823
97	0xbc5c8493	-0.0134593425
98	0x3c422db7	0.01185172
99	0xbd33b179	-0.043870423
100	0xbd084218	-0.033266157
101	0x3d511aa8	0.051050812
102	0x3d35b94c	0.044366166
103	0xbbfea37e	-0.0077709546
104	0xbc8aa906	-0.0169263
105	0xbb14958b	-0.0022672142
106	0xbcb156bd	-0.021647805
107	0xbca86420	-0.020555556
108	0x3ba7eb1e	0.0051244637
109	0xbd948706	-0.07252316
110	0x3d7a40ae	0.06109684
111	0xbbe10abb	-0.0068677342
112	0xba2cd24c	-0.0006592616
113	0xbb9852d5	-0.004648546
114	0xbd290111	-0.041260783
115	0xbd2a09d8	-0.041513294
116	0xbd426354	-0.047458008
117	0x3b991967	0.0046722176
118	0xbbaaf584	-0.005217256
119	0xbc9c8c00	-0.019109726
120	0xbd08b89e	-0.03337919
121	0xbd3b656d	-0.045751024
122	0x3cf39696	0.02973489
123	0x3cb38a3b	0.0219165
124	0x3c627521	0.013821871
125	0xbc435ee6	-0.011924481
126	0xbd8b742e	-0.06809269
127	0xbcc13842	-0.023586396
128	0xbd3986e0	-0.045294642
129	0x3d0d31b4	0.03447123
130	0x3cf04967	0.029331876
131	0xbab0e123	-0.001349483
132	0x3d230a2c	0.039804623
133	0xbd2f7d72	-0.042844243
134	0x3c9aa194	0.018875875
135	0x3bc3cb9d	0.0059752003
136	0xbb22a828	-0.0024819467
137	0x3cc50338	0.024049386
138	0x3b5128da	0.0031915219
139	0x3d09e372	0.033664174
140	0xbc3182c2	-0.010834398
141	0x3d150d4a	0.036389627
142	0xbca2549e	-0.01981574
143	0xbcb608d6	-0.02222101
144	0xba42ef04	-0.0007436129
145	0xbd7877c7	-0.060661104
146	0xbc9596ed	-0.018260444
147	0xbd2204a5	-0.03955521
148	0xbd114aaa	-0.035471596
149	0xbc015392	-0.00789346
150	0xbc7c28b1	-0.015390561
151	0x3c79abc5	0.015238707
152	0xbb892c38	-0.0041861795
153	0xbce83a8d	-0.028348232
154	0x3d5fac48	0.05460766
155	0xbb972cf1	-0.0046135117
156	0x3d1f8cf6	0.03895279
157	0x3c8ade92	0.016951833
158	0xbc0bbb8d	-0.008528602
159	0xbd38b971	-0.045098726
160	0x3b79b1c6	0.0038100346
161	0x3caaef0e	0.020865943
162	0xbd472f35	-0.048629005
163	0xbc8eb90e	-0.017422225
164	0xbd7d0a91	-0.061777655
165	0xbba3b92b	-0.004996439
166	0x3c5ace76	0.013354888
167	0xbc81d658	-0.015849277
168	0xbd1fd5b6	-0.03902217
169	0xbc70a467	-0.014687634
170	0xbd8517bc	-0.064986676
171	0x3a93e431	0.0011283216
172	0xbd3e5bc5	-0.046474237
173	0x3d45e3eb	0.048313063
174	0xbb7e2be2	-0.003878348
175	0xbb5fba50	-0.003413815
176	0x3d13e91e	0.03611099
177	0xbb1ae2ff	-0.0023633835
178	0xbd9b2117	-0.07574671
179	0x3c8b15b8	0.01697813
180	0x3d916fe2	0.07101418
181	0xbc699be1	-0.014258356
182	0xbd0e812e	-0.034791164
183	0x3d849868	0.06474382
184	0x3d6f3055	0.058395702
185	0x3d019afd	0.03164195
186	0xbc347289	-0.011013635
187	0xbc34a089	-0.011024603
188	0xbc836a72	-0.016041968
189	0xbd0c8959	-0.034310672
190	0xbc5ece38	-0.013598971
191	0xbd08379a	-0.03325615
192	0x3cb83409	0.02248575
193	0xbdccc250	-0.09998
194	0x3a541110	0.0008089701
195	0x3caf2cd5	0.021383682
196	0xbc6b2a31	-0.014353321
197	0xbb4b3701	-0.0031008127
198	0x3d015a2c	0.031580135
199	0x3c93d0bd	0.01804387
200	0xbd726a0e	-0.059183173
201	0xbd275965	-0.040856738
202	0xbd976142	-0.07391597
203	0xbd5df1a4	-0.054185525
204	0x3c55c390	0.013047114
205	0x3cf846a4	0.030307122
206	0xbd2eeb0c	-0.042704627
207	0x3cd6b8d6	0.026211184
208	0xbcfb055a	-0.0306422
209	0x3d2ab2d2	0.041674443
210	0x3cf0efb3	0.029411172
211	0xbcf3ac57	-0.029745264
212	0xbd5ae76a	-0.05344335
213	0xbcb59b49	-0.022168772
214	0x3c294b94	0.010332961
215	0xbc445aa8	-0.011984505
216	0xbd34ca39	-0.044138167
217	0x3d09eb92	0.033671923
218	0xbd616fa3	-0.055038106
219	0xbbf4e1a1	-0.007473186
220	0xbd5d03a8	-0.053958565
221	0xbc5f68cc	-0.013635825
222	0xbb9d343f	-0.004797488
223	0xbc15ed0d	-0.009150756
224	0xbcba0c77	-0.022711022
225	0x3ca903f2	0.020631764
226	0x3b9f5516	0.004862438
227	0x3cb7308f	0.022362022
228	0x3c3fa152	0.011696177
229	0xbc64ba57	-0.0139604425
230	0xbd404d66	-0.046948813
231	0x3c284390	0.010270014
232	0x3c834338	0.016023263
233	0x3c8e6212	0.017380748
234	0x3add3757	0.0016877454
235	0xbce94309	-0.028474348
236	0xbc031c0c	-0.008002292
237	0xbd2ea47a	-0.042637326
238	0xbd6b68fd	-0.05747317
239	0x3d04f17d	0.032456864
240	0xba59652b	-0.0008292968
241	0xbd9d5a95	-0.07683293
242	0xbd43c884	-0.04779865
243	0xbc698cc1	-0.01425475
244	0x3c326a95	0.010889669
245	0xbaa3e389	-0.0012503724
246	0xbc184c97	-0.009295604
247	0xbd581adb	-0.052759986
248	0x3c07f5a9	0.008298316
249	0x3d4d08c3	0.050057184
250	0xbd346d13	-0.044049334
251	0xbd1d337b	-0.038379174
252	0xbc9037a9	-0.017604666
253	0x3c316d46	0.0108292755
254	0xbc3e1706	-0.011602169
255	0xbd0d3e8c	-0.034483477

fc3.weight f4 [1, 300]
0	0xbc3adaff	-0.011404752
1	0x3a5ac618	0.00083455583
2	0xbc3f38a4	-0.011671219
3	0xbba8caea	-0.0051511424
4	0xbb9c59e8	-0.00477146
5	0x3c4e92ce	0.012608243
6	0x3ba48828	0.005021114
7	0xbb38f26d	-0.002822067
8	0xbba94f2d	-0.005166909
9	0xbac86dd2	-0.0015291518
10	0xbc38822c	-0.011261504
11	0xbd07acd5	-0.03312381
12	0x3d039756	0.032126747
13	0x3c9fd5b2	0.019511078
14	0x3ba21e2f	0.004947446
15	0xbc9545d2	-0.01822177
16	0x3c021068	0.007938482
17	0x3bcc43ad	0.0062336535
18	0x3ba720b8	0.005100336
19	0xbc83e031	-0.016098114
20	0x3ab16a67	0.0013535739
21	0x3be9ba36	0.007132794
22	0x3bdb8f3c	0.0067004245
23	0xba92428d	-0.001115875
24	0x3b8d6780	0.0043153167
25	0xbc4ed560	-0.012624115
26	0x3ba82533	0.0051313876
27	0xbcd0ffdd	-0.02551263
28	0x3d20f6f9	0.03929803
29	0x3c586c77	0.013209454
30	0xbcd86c9f	-0.026418982
31	0x3b3c16af	0.0028700044
32	0xbb60367a	-0.0034212158
33	0x3cdba91e	0.02681404
34	0xbc2a25e0	-0.010385007
35	0xbb9eab70	-0.0048422143
36	0x3bcb1239	0.0061972407
37	0xbb9ec66f	-0.0048454325
38	0xbb8d076f	-0.0043038647
39	0x3bdfb80b	0.0068273596
40	0xbc95bd31	-0.01827869
41	0xbba2d286	-0.004968944
42	0xbcd114bb	-0.02552258
43	0x3ada46f2	0.0016653223
44	0x3b9dcc5e	0.0048156222
45	0xbc28c07f	-0.010299801
46	0xba4c39ce	-0.0007790596
47	0x3ca49172	0.020088885
48	0xbb576029	-0.0032863712
49	0x3b67a32b	0.0035345058
50	0xba2eb444	-0.0006664435
51	0xb93b8012	-0.0001788142
52	0x3c1abb65	0.009444092
53	0x3c6e2243	0.014534536
54	0xbb53a33a	-0.0032293336
55	0x3ac9f0c2	0.0015406834
56	0xbca82ac0	-0.020528197
57	0x3b1cfa01	0.0023952725
58	0xb8f0badb	-0.00011478896
59	0xbc2e3a48	-0.0106340125
60	0xbad46621	-0.0016204753
61	0x39fb0be1	0.000478833
62	0x3bbe1062	0.005800293
63	0x3baba4b3	0.0052381395
64	0x3b67a4fe	0.0035346146
65	0xbbcd8e99	-0.0062731025
66	0xbb517be7	-0.003196472
67	0xbb19df88	-0.0023479182
68	0x3be2d29c	0.0069220793
69	0xbb902183	-0.004398526
70	0x3cb0c93b	0.02158033
71	0x3c65b720	0.014020711
72	0xbcd56fc6	-0.026054274
73	0x3b8914c9	0.004183386
74	0xbae57ad5	-0.001750792
75	0xbb849bb3	-0.004046881
76	0x3b22661d	0.0024780103
77	0xb9fdb10f	-0.0004838784
78	0x3bc28587	0.005936328
79	0x3d8d976c	0.06913647
80	0xbad3cae4	-0.0016158489
81	0xbb4ff874	-0.0031733783
82	0x39bef132	0.00036419329
83	0xbcdfc369	-0.027314859
84	0x3abacdf0	0.0014252048
85	0x3c45d343	0.0120742945
86	0xbc13d660	-0.009023279
87	0x3aa88843	0.0012857992
88	0xbc06f569	-0.008237221
89	0xbc2590bd	-0.010105309
90	0xbade734e	-0.0016971619
91	0xb9ba3328	-0.000355148
92	0xbc9f9a99	-0.019482898
93	0x39bb731c	0.00035753183
94	0xbb335b6e	-0.0027367729
95	0x3dabf92b	0.083971344
96	0xbb1b0eb8	-0.0023659896
97	0x3c3fe99f	0.011713414
98	0xbab3f2d1	-0.0013728981
99	0x3afd0e41	0.0019306616
100	0xbba0b035	-0.004903818
101	0xbce7f557	-0.02831523
102	0xbbe72d03	-0.0070549264
103	0x3a46c561	0.00075825123
104	0x3b80c6ba	0.00392994
105	0x3c2b6d81	0.0104631195
106	0xbc09b47a	-0.008404845
107	0xbb519d7d	-0.003198474
108	0xbbae30b6	-0.0053158654
109	0xbb54be6e	-0.0032462138
110	0x3cdbd546	0.026835095
111	0xbb8bb2ea	-0.0042632716
112	0x3b64fe9f	0.0034941805
113	0x3b924be6	0.004464614
114	0xb923bd12	-0.00015615326
115	0xbc42e660	-0.011895746
116	0x3b3d781a	0.0028910697
117	0x3c95c6ab	0.018283209
118	0x3b3da986	0.0028940155
119	0x3b0dd382	0.002164096
120	0x3c561a1a	0.013067747
121	0x3ba8dbd5	0.005153159
122	0x3a972703	0.0011532012
123	0xbc1e16b7	-0.00964897
124	0x3abaf3b9	0.0014263309
125	0xbb8eb77d	-0.0043553696
126	0x3b724f10	0.0036973394
127	0xbaaa222d	-0.0012980156
128	0x3b821dfe	0.0039708605
129	0x3a36ab7a	0.0006968301
130	0xbac3a459	-0.0014926299
131	0xbb874bbb	-0.004128901
132	0xbc1e5afd	-0.009665248
133	0xbbdafdcd	-0.0066830874
134	0xbc44fa95	-0.012022634
135	0xbc409932	-0.011755275
136	0xbc12396b	-0.008924822
137	0xbc894e05	-0.016760835
138	0x3b5548e1	0.003254466
139	0x3a062a02	0.0005117954
140	0xbb0f5d8e	-0.0021875831
141	0x3c590f7b	0.01324832
142	0x3b8b10c6	0.004243943
143	0xbbfb4f9b	-0.007669402
144	0x3bf8ac70	0.0075889155
145	0x3be4b2c4	0.0069793183
146	0xbb5a63f6	-0.0033323742
147	0xbc22e0a0	-0.00994125
148	0xbc953e27	-0.018218113
149	0x3b2d1b77	0.0026414075
150	0x3bb493ae	0.005510769
151	0xbb0e805c	-0.0021743989
152	0xbb879bb6	-0.0041384352
153	0xb99c6871	-0.00029832454
154	0xbba2c48a	-0.004967277
155	0x3b4149e7	0.0029493512
156	0x3cd223b0	0.025651783
157	0x3bf97a7e	0.007613479
158	0x3be9f7d6	0.00714014
159	0xbdaae36f	-0.08344161
160	0x3aae92ed	0.0013318934
161	0xbbbcbac3	-0.0057595684
162	0x3b456c64	0.003012442
163	0x39d36810	0.0004032259
164	0xbbec3de7	-0.007209528
165	0x3c0c6d08	0.008570917
166	0xba32b082	-0.0006816463
167	0xbc9ed862	-0.019390289
168	0x39f01424	0.00045791373
169	0xbb7b74dc	-0.0038369214
170	0xbcf2160d	-0.02955153
171	0xbc1f6909	-0.009729632
172	0xbc3b1fa8	-0.011421122
173	0xbb6a2205	-0.0035725844
174	0x3bdff508	0.00683463
175	0xbb9a42d1	-0.004707672
176	0x3c85ad47	0.016317977
177	0xb9859073	-0.0002547536
178	0xba86ef76	-0.0010294754
179	0xba31c73a	-0.0006781701
180	0xbc82ad43	-0.015951758
181	0xbb260c59	-0.002533695
182	0x3cc27a5c	0.023739986
183	0xbc6d395e	-0.014479009
184	0xbb97b493	-0.0046296804
185	0x3b4000fc	0.0029297462
186	0xb8190539	-3.6482907e-05
187	0xbc51c578	-0.012803428
188	0x3b357bca	0.0027692192
189	0xbcfec63c	-0.031100385
190	0x3c91e4cf	0.0178093
191	0xbb66ecb8	-0.003523631
192	0x3c149a99	0.009070062
193	0x3c459514	0.012059469
194	0x394f2dae	0.00019758075
195	0x3bc5a960	0.006032154
196	0xbc98af45	-0.018638263
197	0x3a8d4447	0.0010777795
198	0xba15b1bf	-0.0005710385
199	0xbc1f567f	-0.009725212
200	0xbcd51d1d	-0.026014859
201	0x3b270792	0.002548669
202	0x3cb92e40	0.022605062
203	0xba520808	-0.0008012061
204	0x3ad20630	0.0016023573
205	0x3b0a4c16	0.002110248
206	0xbbb10d2c	-0.0054031815
207	0x3b37100d	0.002793315
208	0xbc2422b2	-0.010018038
209	0x3b5bae4e	0.0033520642
210	0x3b97aa55	0.0046284595
211	0x3b83659a	0.0040099146
212	0xbb988322	-0.004654304
213	0x3b9b028a	0.0047305273
214	0xba670e71	-0.00088141026
215	0xbc3fc5f8	-0.011704914
216	0xbaa8dd22	-0.0012883286
217	0xbc5a534b	-0.013325523
218	0x3ca476bf	0.020076154
219	0x3c2bbc4b	0.010481904
220	0xbc7098a4	-0.01468483
221	0xbb8f23a7	-0.0043682638
222	0x3c6339d1	0.013868765
223	0x3b10ea93	0.0022112473
224	0xbb3a1dfb	-0.0028399217
225	0x3b2c0600	0.0026248693
226	0x3b847217	0.004041921
227	0x3bc88bd3	0.006120184
228	0x3b05dd02	0.002042592
229	0xbba9078f	-0.0051583718
230	0xbbcc18de	-0.0062285503
231	0x3b6658cb	0.003514814
232	0xbc28c157	-0.010300002
233	0x3b80e3c0	0.0039334
234	0x3c989f37	0.018630607
235	0x3bf5a7b1	0.007496797
236	0xbaa70849	-0.0012743558
237	0xbb30ef4f	-0.0026998108
238	0xbc743a0f	-0.01490642
239	0xb980ba62	-0.00024552929
240	0x3b6217e5	0.0034499106
241	0x3c0206b1	0.007936166
242	0xbca49cbc	-0.020094268
243	0x3b59f79e	0.0033259164
244	0xbb8e72e8	-0.004347194
245	0x3b572f03	0.0032834418
246	0xbc4eaa44	-0.012613837
247	0x397f3fca	0.00024342458
248	0xbd1d0af8	-0.03834054
249	0xbba5c5f0	-0.0050589964
250	0xbbd8a5c5	-0.006611558
251	0x3bcec4e0	0.0063100904
252	0xbb19954d	-0.0023434937
253	0x3b64be98	0.0034903642
254	0x3bccb764	0.006247448
255	0x3ccc17bf	0.024913667
