Tennis/Nets/checkpoint_critic1700.pth (torch_old, 526870 bytes, 9 tensors)

bn1.weight f4 [24]
00000000: 85ad 933e 6629 c53e 6c1f 303e c0eb 923e
00000010: 80a6 4d3f 6447 243f 16e2 413e 7081 823d
00000020: d90e 3f3e 3ec0 bc3d 1502 5f3e 0762 d93d
00000030: 83bd 0a3f 4402 2b3f 7a2e 803e 8529 723e
00000040: b396 073f 871a 203e 7de1 803e 860b fd3e
00000050: d347 1a3f f98b 313f 44c9 ac3e ade1 853e
0.28843322 0.38508147 0.17199486 0.28695488 0.80332184 0.64171433 0.18933901 0.063723445
0.18658008 0.09216355 0.21778138 0.106144 0.5419542 0.6680033 0.2503546 0.23648651
0.52964324 0.1563512 0.25172034 0.49422854 0.60265845 0.69354206 0.33747303 0.2614874

bn1.bias f4 [24]
00000000: 7858 9cbb f804 50bd a2b0 b13c 0fd4 7abd
00000010: 0674 453e 6032 dbbd 38cd 203d a794 89be
00000020: 7247 b43b 5475 de3d 8b33 e83b 9c40 48bc
00000030: 35bc f43d bab1 c5bd 765b ad3d cd7f 65bd
00000040: 01e0 073d cfe3 f33d dc7e 043e e01d f9bc
00000050: 4250 253e 7672 52bc fe78 ebbb 52ad b7bd
-0.0047712885 -0.05078599 0.02169067 -0.06123739 0.1928254 -0.10702968 0.03925821 -0.26871225
0.005501681 0.10862222 0.0070862225 -0.012222435 0.1194996 -0.09653039 0.084647104 -0.056030083
0.03317261 0.119086854 0.12939018 -0.030409753 0.16143897 -0.012844672 -0.0071860543 -0.08968605

bn1.running_mean f4 [24]
00000000: 4d0c aec0 d422 30bf 0363 8f40 6e91 c03e
00000010: 8f55 1e3e 376b 4940 0363 8f40 6e91 c03e
00000020: cef1 b8c0 e8ee 38bf 8733 9940 31c1 cf3e
00000030: ab9c 123e 0244 4a40 8733 9940 31c1 cf3e
00000040: 6d97 c2c0 8049 3ebf 57bd a340 8f01 fd3e
00000050: c476 0f3e d360 4740 57bd a340 8f01 fd3e
-5.4390016 -0.68803144 4.4808364 0.37610954 0.15462326 3.1471689 4.4808364 0.37610954
-5.779517 -0.7223954 4.78754 0.4057708 0.14317577 3.1604009 4.78754 0.4057708
-6.0809846 -0.743309 5.116863 0.49415252 0.14010149 3.1152847 5.116863 0.49415252

bn1.running_var f4 [24]
00000000: 770e 8a41 5283 853f 2b84 b443 07ee 0841
00000010: e714 2942 1f83 8d40 2b84 b443 07ee 0841
00000020: e011 8441 8856 873f 0033 bb43 3aed 1c41
00000030: f44f 3b42 aad3 9540 0033 bb43 3aed 1c41
00000040: a33d 7a41 ba03 893f 404c c643 bd43 2e41
00000050: b3df 4e42 852d ab40 404c c643 bd43 2e41
17.257063 1.0430701 361.03256 8.558112 42.270412 4.422256 361.03256 8.558112
16.508728 1.0573282 374.39844 9.807917 46.82808 4.682088 374.39844 9.807917
15.640048 1.0704262 396.5957 10.891538 51.718456 5.3493066 396.5957 10.891538

fcs1.weight f4 [400, 24]
00000000: 5f6a 993b 848f 05be f1af 19bd fd0e 81bd
00000010: cead 7abe 8872 0a3e 40dd 23bd 5413 003d
00000020: 4c84 01bd 6fe5 f3bd ecdb 1bbe a0bb c23d
00000030: 2c6a fabd 7bc5 a43d 1d81 51be abab 0d3e
00000040: 28de b4bc c929 f9bd 6b3f 08bd 24f9 04be
00000050: 812b 123e 4d40 293e 07a4 a03d c6f4 f2bd
00000060: 8a14 bbbd a06a 543e fcbd 0c3e 738d 6a3d
00000070: fd0b 243e 8b0c 2bbe b061 b23d bc5f 643d
00000080: 11ce 06be b120 8ebb cc08 703c 515a c3bb
00000090: b452 6e3e 40d8 14bd 6aee 16bd e9a7 ea3c
000000a0: 816b 813c a698 1e3e 4072 17bd cf63 7f3d
000000b0: e5f8 313e 1171 c13e e56d 153c 5071 7a3d
000000c0: 5b92 a3bc fa3d 05bc 66b7 bb3d 9177 913e
000000d0: ca0c 213d bfbd 65be 2fb1 133e 4c84 0c3e
000000e0: 8a6c b7bb e230 ceba d114 b93d 13ea 513e
000000f0: 3560 733d 8374 563e f211 073e c596 553e
00000100: a11a 89bd 854b da3d 4fc8 afbd 7112 023e
00000110: fa0f dcbd 06ca d23e d23e ebbd f239 463e
00000120: 9938 ee3d bc9a 8a3c 39f8 67be 4184 afbd
00000130: 302e 48bb d767 06be 2e15 8cbe 61e5 d83d
00000140: fdde 0c3e 2931 64bd 9000 a1bd 3c00 8abd
00000150: 5547 d33d ca46 3bb9 fcee 68bc 5264 d1bd
00000160: 40ce e03c 5c69 86bd 204e 61be a5a9 edbc
00000170: 16b1 963e 329e 583e aba1 fdbd 49ea 9f3c
00000180: 6580 53bd 6c91 2cbc af14 cd3d a7cd 03be
00000190: e892 033e 3adc 103e 77a5 b93d e64e 053e
000001a0: 7aeb 3cbe 64a4 0abe 76d1 85be b663 153b
000001b0: 9254 163e 3ec2 0f3d 8f2c d4be a00e 233d
000001c0: 1ceb 8bbe 69cc 79bd c870 c6be beb3 393a
000001d0: a749 763d 7945 0e3e 3ce3 2ebe b8eb bfbc
000001e0: 8b9d 7ebd c64e 70be 5dec 383e 389f 8f3c
000001f0: f7a6 a1bd 913e 803d 2a4f 213e fd23 813d
00000200: 4399 56bd 2b61 4abe f7bd e53d c88b 083e
00000210: 9cee 433c aaa6 fa3d 191a eb3d a8ac 043e
00000220: 79cd a8bd f01e 09be 0a59 2dbd 006c 043e
00000230: 4f51 f23d 702f 763e 76c7 2dbd eec5 483e
00000240: 064b e03a 9748 8dbd 2757 92bd 8501 463d
00000250: d0ce 2bbe de44 fdbd cf9b 52bd 19fd 723d
00000260: 6bd0 36bc 3906 8cbb 2957 80bd 5b4b 253d
00000270: c904 88bd af16 24be b39f 6cbd 2ad7 2fbd
00000280: 3659 b4bb fcec 463d a2a8 a6bd f8c2 5a3e
00000290: 1f61 303e f68b 133b 39d0 81bb cb4d 6f3e
000002a0: b57e 503d 2f13 013e 01db b9bd 4d62 b5bd
000002b0: 1ae4 9fbd de71 0e3e 1791 29be e73f b83d
000002c0: fc57 8dbd 05d9 3fbd d28c debc 916a e23d
000002d0: e03d c03b d302 b43d 7623 67bd d20a bc3c
000002e0: 430a e2bd 97a3 08be 151d 2c3d 8894 47be
000002f0: 4f3f 52be be04 133e dbf8 51bc b8d9 d2bd
00000300: 4880 5c3e 0fa9 063e 4323 22bd 4b3b 88bd
00000310: 1ea6 5ebd 66e0 133e 013e 81bd 0bda b63d
00000320: b1af 0d3e be88 e53c c339 57be cfc0 19bd
00000330: 6597 f73c 8b7a a93d 6369 51be 520c 7dbd
00000340: 661b 95bc c5f7 903d e2f8 6ebe e89d 893c
00000350: 0924 803e e13a ed3d b740 2ebe ee16 6d3d
00000360: b06e a9bd e2fb 34bd dbba 1ebe 6c94 17ba
00000370: dfab 3b3e 8e09 143e bb7c 4fbe c085 833d
00000380: 6964 e0bb 717b e0bd b4ca 0e3e c6b0 a33d
00000390: 07fc e3b9 9d69 fe3d 02a4 f23d ab2a b23d
000003a0: 7c53 89bd 350f 0dbe deb4 86bc bc8b d2bd
000003b0: 4f9e 31be e0e2 203b e918 cdba 47d7 a3bd
000003c0: 03aa 0bbe 3f80 9cbd 00c4 db3c 455d df3c
000003d0: c3fd aa3c 0e9b 24be c975 a93d a9e1 e53d
000003e0: 1165 f5bd 614d 4dbe f193 b9bb 1c8c 123e
000003f0: 3dd7 b73d a730 f8bd d8b8 acbb acde 3f3e
0.00468187 -0.13043028 -0.037521306 -0.06301687 -0.24480364 0.13520253 -0.040005922 0.031268433
-0.03162031 -0.11908995 -0.15220612 0.09508443 -0.12227282 0.08045479 -0.20459409 0.13835017
-0.022078589 -0.12166173 -0.033263605 -0.12985665 0.14274408 0.16528435 0.07843786 -0.11863093
-0.09134777 0.20743799 0.13744348 0.057263803 0.16020198 -0.16704004 0.08710039 0.055755362
-0.13164546 -0.004337393 0.014650535 -0.0059616943 0.23273736 -0.036339045 -0.036848463 0.028644519
0.015798332 0.15487918 -0.03697419 0.062351044 0.17380102 0.37781575 0.009120439 0.06114322
-0.019967249 -0.008132452 0.0916584 0.28411534 0.039318837 -0.22435664 0.14423059 0.13722342
-0.0055976557 -0.0015731121 0.090371735 0.20499448 0.059417922 0.20942883 0.1319044 0.20858295
-0.06694532 0.106589355 -0.08583128 0.12702347 -0.10745235 0.41169757 -0.114865914 0.19358042
0.11631889 0.016919486 -0.22653283 -0.08570147 -0.0030545108 -0.1312555 -0.2735991 0.105906256
0.13756938 -0.055710945 -0.078614354 -0.06738326 0.1031634 -0.0001786008 -0.014217135 -0.10224213
0.027442098 -0.065630645 -0.22002459 -0.029011557 0.2943198 0.21154097 -0.12384351 0.019520896
-0.05163612 -0.010532718 0.10013711 -0.12871419 0.12849009 0.1414651 0.09064763 0.13018379
-0.18449202 -0.13539273 -0.2613637 0.0022795028 0.14680699 0.035097353 -0.41440246 0.03980887
-0.27327812 -0.060985956 -0.3875792 0.00070839736 0.060128834 0.13893689 -0.1707887 -0.02342783
-0.062161963 -0.2346755 0.18058915 0.017531976 -0.07893174 0.062619336 0.15752855 0.06305692
-0.052392256 -0.19763629 0.112178735 0.13334572 0.011958744 0.1223882 0.11479587 0.12956488
-0.08242316 -0.13390708 -0.042321242 0.12931824 0.11831915 0.24041533 -0.04242655 0.19606754
0.0017112202 -0.06898611 -0.07145529 0.048341293 -0.16778111 -0.12366651 -0.051418122 0.059323404
-0.011158089 -0.0042732027 -0.062666245 0.040355068 -0.06641538 -0.16024278 -0.05776949 -0.042929806
-0.005503799 0.04856585 -0.08137633 0.21363437 0.17224549 0.0022513843 -0.0039615897 0.2336952
0.050902087 0.12604974 -0.09074975 -0.0885664 -0.07807179 0.13910624 -0.16559254 0.089965634
-0.06901547 -0.046837825 -0.027166758 0.11055482 0.005866751 0.08789601 -0.056430303 0.022954378
-0.110371135 -0.13343655 0.042019922 -0.19490254 -0.20531963 0.14357278 -0.012815679 -0.10295433
0.2153331 0.13150428 -0.03958441 -0.06651934 -0.05435764 0.1444107 -0.063106544 0.08928307
0.13836552 0.028019305 -0.21018128 -0.037537392 0.030223558 0.08275326 -0.20450358 -0.061779328
-0.018201541 0.07078508 -0.23337129 0.016798928 0.25027493 0.11583496 -0.17016874 0.057883196
-0.08273065 -0.044185527 -0.15500967 -0.00057823095 0.18327282 0.1445677 -0.20262425 0.06421995
-0.0068479073 -0.109610446 0.13944513 0.07992701 -0.0004348459 0.12422488 0.11847688 0.086995445
-0.067053765 -0.13775332 -0.016443666 -0.102805585 -0.17345546 0.002454929 -0.0015647683 -0.08000045
-0.13639073 -0.076416485 0.026826859 0.027266154 0.020872956 -0.16074774 0.08274419 0.11224682
-0.119821675 -0.20049049 -0.005663388 0.1431126 0.089766 -0.12118655 -0.0052710585 0.18737286

fcs1.bias f4 [400]
00000000: 96bf 523c c403 37be 59ef a8bd 64a3 4ebe
00000010: c1b3 85be b055 efbc e8f9 31be 2fe6 183d
00000020: 0a0a b9bc 2a4c d93d 735b 67be 8ff7 89be
00000030: fa93 873c 558e 66be 53fa 3cbe d19a 57be
00000040: 050d 13be 40a2 abbe aed0 853d a861 a8bd
00000050: 65d6 5abe d8fe 44be 70c9 aa3d ece5 283c
00000060: de05 52bc 0866 80bc a10c 79bd 0390 abbd
00000070: 119f 28be d4cc aebe 3b3b a6bd 6e85 743d
00000080: 513f d4bd 5f25 66be c23f 0a3d 52f2 99be
00000090: 0a69 19be 4bc6 9abe 093b 90be c5f3 c73b
000000a0: 133b 433d 3c01 2fbe 9820 51bd 4c4d 16bd
000000b0: a0d9 1dbe b936 b43d 3751 6c3d 7ab6 7f3d
000000c0: 7cc4 933c bd3e 4ebd 273f 4abe 6ce1 10be
000000d0: 7112 44be c97b 4dbd f930 8dbd d095 0f3d
000000e0: eecc 88bd 2aaa 68be 4726 03be 9b41 02bc
000000f0: 9c47 55be 73c3 d53c a9fc 41be b064 c0be
00000100: a217 40be 3cca 64bd a68a a5be ec90 e4bd
00000110: 2d8c fd3d 61f1 efbd 2ad0 4ebe 6da2 0cbe
00000120: 8436 82bd c195 0b3d f74b a0bc 6dc4 9ebe
00000130: 4269 643d 0518 71bd 17a4 17be 9aff 96be
00000140: 2c93 f93c dd25 18be 331c 9abc 3238 ba3d
00000150: 60a4 99be 6e30 c03d 0853 01be f53e 83be
00000160: 350a 9bbe 1911 ddbd 7353 b6be 2169 90be
00000170: 3f6c 6cbe 36d2 75bd 146f 41be f14e 95be
00000180: d197 14be 96c2 7abe 2a2d 78be da4c 82be
00000190: 7c75 25be 10c1 3bbe 376a 123c 621b 78bd
000001a0: 18a0 53be 52d1 85be cab3 303d ef2e 0bbd
000001b0: d851 43be f87c f1bd 3247 193d 5b0b d1bd
000001c0: 3ffb 0dbe 9432 73be 83f0 97bd 7081 97be
000001d0: 358e dd3c 862f dabe aedb 7bbe 24d7 64be
000001e0: 729a a6be 15f6 153d 2434 9ebe 01ac 1c3c
000001f0: aadb 5dbd 1970 c1be 1e22 ae3d 2842 d9bd
00000200: 2d13 65be 73ef b3be c459 1abe d4e2 47be
00000210: 4d19 9ebc 962b 01be abfc 7dbd 689f 4cbe
00000220: fe90 5ebe 3477 3fbe 6307 98be 658e 88bd
00000230: 663b e83c ad5f 0dbd 22a1 1cbe fbe6 97be
00000240: cf44 fd3a d148 8cbd cb06 9bbe f365 45be
00000250: f435 cebc 46c3 12be ae78 9fbe d2cd 44be
00000260: 1b89 07be c2f2 4fbe 0212 5dbe ce2e 4abe
00000270: 5731 b3bd a543 82be 0292 acbe 7bd5 88be
00000280: 3e14 9abd 8002 283e b5d5 90be de69 1fbe
00000290: 6706 62be 678c 35be 1824 233d 77fd 9dbe
000002a0: 2a4b f73b 72d2 b9bd e56e 45be bad0 58bd
000002b0: 2d99 a2be d81b 81be 594d 9bbe 57d7 ffbd
000002c0: bd45 debd 7bee 46be ddc8 a8bd 0e6a ed3d
000002d0: e61c 37bd 567e 62be 6f53 ee3d 1815 24be
000002e0: 945f a43b 8649 053d cefb 903c 4172 3fbe
000002f0: 546e 113d 302c 6abd e4b1 9ebe 4123 61be
00000300: 0196 1cbe 9391 d2bb 3e9f b6be ea48 ed3c
00000310: 0ae5 9dbe e587 a83c 755a 70be e461 19be
00000320: d95a 9fbd 7377 fabd 8e14 41be 9034 29be
00000330: 51e9 abbd dff0 4fbe 7790 8cbe f320 78be
00000340: e5e3 09be 7d00 04bd 1302 83bd d414 0f3d
00000350: 782f b5bd 61b9 43be b57e 5b3d 0fcb 29bc
00000360: cf8a 4b3e 120d 2cbe 1965 7dbd e763 c6bd
00000370: fc3b 05be 777e 353d c481 253d a72b c53d
00000380: 0b5b 27be 7edf 50be 8ac5 a3be 5302 9cbe
00000390: 00b6 f1be 6262 2b3b b68f e63b b1f5 16be
000003a0: f04e afbe 885b fcbd f891 9cbe b691 223c
000003b0: 17a1 433d 3795 6abe e106 d5bd 7835 7d3c
000003c0: c2e1 4abd 45ad a6be 8763 0cbe 32bb dfbd
000003d0: b96a 9fbd 68ff 6fbe c86d ecbd d900 b1bc
000003e0: be81 abbe 36b5 113c e1ad ef3d 9564 99be
000003f0: 693f 733b 65b2 60be 409f 1ebe 12d6 93be
0.01286306 -0.1787253 -0.08248777 -0.20179516 -0.26113704 -0.029215664 -0.17380488 0.037328895
-0.022587795 0.1061023 -0.22593479 -0.26946685 0.016550053 -0.22515233 -0.18454866 -0.21055152
-0.14360435 -0.33522224 0.06533943 -0.082217515 -0.21370848 -0.1923784 0.083392024 0.010308724
-0.012818782 -0.015673652 -0.06080306 -0.083770774 -0.16466929 -0.34140646 -0.08116766 0.05969756
-0.10363639 -0.22475193 0.03375221 -0.30067688 -0.14981475 -0.3022941 -0.2817004 0.0061020576
0.04766376 -0.17090315 -0.051056474 -0.03669481 -0.15415049 0.087995 0.05769464 0.062429883
0.018038027 -0.0503528 -0.19750653 -0.14148492 -0.1914766 -0.05016688 -0.068941064 0.03505498
-0.06679712 -0.22721162 -0.1280757 -0.007950212 -0.20828098 0.026094174 -0.18944038 -0.37576818
-0.18759015 -0.05585693 -0.32332343 -0.11160454 0.12380252 -0.11715961 -0.20196596 -0.13733836
-0.06358054 0.034078363 -0.019567473 -0.31009236 0.055764444 -0.058860797 -0.14808689 -0.29491884
0.030465685 -0.14858194 -0.018812275 0.0909275 -0.3000822 0.09384237 -0.1262933 -0.2563397
-0.30281225 -0.10794277 -0.35610542 -0.28205207 -0.23088168 -0.060014926 -0.18890029 -0.2916179
-0.14511038 -0.24488291 -0.24235979 -0.25449258 -0.16158098 -0.18335366 0.008936456 -0.06057299
-0.2066654 -0.2613626 0.04314021 -0.033980306 -0.1907419 -0.11791414 0.037421413 -0.10207244
-0.13865374 -0.23749763 -0.07418921 -0.2959094 0.027045349 -0.42614383 -0.2459552 -0.22347695
-0.32539707 0.036611635 -0.30899155 0.009562493 -0.054164566 -0.37780836 0.08502601 -0.106083214
-0.22370596 -0.35143623 -0.15073305 -0.19520122 -0.019299174 -0.12614283 -0.06200854 -0.19982684
-0.21734998 -0.18697816 -0.29693136 -0.066677846 0.028348636 -0.03451507 -0.15295842 -0.29668412
0.0019322875 -0.06849826 -0.3027862 -0.19277172 -0.025172211 -0.14332303 -0.3114676 -0.19219139
-0.13235895 -0.20307449 -0.215889 -0.19744417 -0.08749645 -0.25442234 -0.33705145 -0.26725373
-0.07523392 0.16407204 -0.28288046 -0.15567729 -0.22072755 -0.1772934 0.039829344 -0.3085744
0.007546802 -0.090733424 -0.19280584 -0.052933432 -0.3175749 -0.25216556 -0.3033245 -0.12492245
-0.10853145 -0.1942691 -0.08241437 0.11592494 -0.044705294 -0.22118506 0.116370074 -0.16023672
0.0050162766 0.03254082 0.017698195 -0.18695928 0.035505608 -0.057171047 -0.30995095 -0.21986105
-0.15291597 -0.006426045 -0.35668367 0.028965432 -0.30838805 0.020572612 -0.23472007 -0.14978749
-0.07781 -0.122298144 -0.18855497 -0.16523957 -0.08394111 -0.20306729 -0.27453968 -0.24231319
-0.13465841 -0.03222703 -0.0639688 0.034931973 -0.088469446 -0.19113685 0.053587634 -0.010363354
0.1987717 -0.16801861 -0.061863992 -0.096870236 -0.13011163 0.04431006 0.040406957 0.09627467
-0.16343324 -0.20397756 -0.31986648 -0.30470523 -0.47209167 0.002615117 0.0070361746 -0.14742161
-0.34239912 -0.12322146 -0.30580115 0.0099224355 0.04776105 -0.22908483 -0.10401703 0.0154546425
-0.049531706 -0.3255407 -0.13709842 -0.109243765 -0.077840276 -0.23437274 -0.115443766 -0.02160685
-0.33497423 0.008893302 0.11703087 -0.2995955 0.0037116653 -0.21943052 -0.15490437 -0.2887426

fc2.weight f4 [300, 402]
00000000: 0e49 91be 89e3 b3bc 1e87 9abd 18e6 43be
00000010: dcbd 0e3c 87e0 debc 1eef 4d3e c0b3 3f3e
00000020: c2fc 29bf 698e 9dbe 7f93 d83d 0d23 48be
00000030: e245 3abe 57ad 2e3e a7bb 1c3d 7a99 d1bc
00000040: 407d 16be b2c1 d5bd ac6a 203e d805 ca3d
00000050: c324 f3bd 1900 cfbd 2ddf 20bd 215f c83c
00000060: 749e a43d 0873 36bd a04e f93c a533 c9bd
00000070: 37ad fb3d e6f6 8b3c a3aa bf3d 2334 f43d
00000080: 037e d43d 52ac 0bbf 411c 16be b7f8 18be
00000090: 1328 89bc 926e d63c 37d8 2dbe 592a 50bd
000000a0: e95b a5be e849 2a3e 804b bd3d f8e3 8a3c
000000b0: 459f 3dbe c73e 09bd b952 04be f4d7 40be
000000c0: 4b3b 0a3c 1ffb 2cbd 8fb4 aebe a1e0 253d
000000d0: b091 a6bc 45a0 8b3e 1fa1 09be 22e2 5bbd
000000e0: 535f b3be afb8 34be e9d2 aabd f6f6 983d
000000f0: 8060 0d3d 9bad 833d af4e 80be 4e2b 88be
00000100: dcc3 5dbd 0109 433d 9ee3 30be a82a b0bd
00000110: 2f21 36be 0877 f83c 9793 07bd 77e6 e1bc
00000120: e7ac e03c 020f 023d b184 71be faca 9e3d
00000130: 0790 223e 81e1 44be 8822 afbb 6c22 0e3d
00000140: ba76 87be dbc6 983e 5704 a2bd 4c09 733c
00000150: 4689 92be 3877 adbe 40c4 80bd 9e64 4bbe
00000160: a151 833b 3b6a 933d 30af 15be e395 b43c
00000170: 38b7 a6bd 21b4 70bd c2db dfbc 6d1d 7ebe
00000180: 06ee c0be ba70 2dbd ca7e 75bd c7e4 b5bd
00000190: 418e aabd 80c9 473d 5b17 1abe f3da 98bd
000001a0: 1e9f 6e3d 9694 a7be 189a 783d e9f0 f6bd
000001b0: 6f7e 7b3c 4368 f2bc 2fa5 51be b642 54be
000001c0: f088 4cbd b31e 1cbd a71c 83bd 3e40 3abd
000001d0: 9830 763d 4be4 26bd fa27 263d bd24 0e3d
000001e0: 506b 16bd 845d 493e 420e c0be 4068 64bd
000001f0: a2de 283e b54d b23e fe00 71be 2050 21be
00000200: 4951 eabd fbbf 56be 07f4 563c 2940 0f3d
00000210: 6980 2bbd db1f 7cbd 5a61 9a3d 6bfc 993d
00000220: 319c 04be db76 01be 01b0 8bbe d587 74bc
00000230: b997 18be e424 57be d7ed 4bbe 248f 763e
00000240: 4613 02be c184 21bd e76b 72be b15f 683d
00000250: 6adf 04be 69b7 c83c d5b6 5bbd e72b 88bd
00000260: 4042 25bd b835 9abc b32b 4b3e 54d1 f83c
00000270: c9a8 20be 4e70 f0be 77c3 d33d 1b42 e9bd
00000280: 9ee6 663b 73a5 c5be f2c5 db3e 0383 313d
00000290: d123 8bbd da9e cf3d 961d 54bd 0ac8 d4bd
000002a0: 8f9d 4ebd 136b 163e 7e84 ff3c 209d 093d
000002b0: bb91 7dbe d49d 0bbe ed97 ad3d fce2 e33c
000002c0: af4d 143c e2bf 09bc 43c1 fbbd 6179 4cbd
000002d0: ef8f a4bd b777 a2bc 19ba f7bd 2015 78be
000002e0: 70f9 6b39 29fd a63d 4c19 703d 2a33 373e
000002f0: c0cd 3bbc 92a1 4a3d 53ec b93d a1ef 01bf
00000300: 75b9 0f3e c718 0dbf b9d0 ee3d f272 35be
00000310: 530b 29bd 0aa4 2dbe 82b5 e3be 939b 4abd
00000320: c73c 14bd bf77 03be 1bb3 27be 880c 473d
00000330: 6f67 4bbb e722 80be 178f b6bd dcc3 6cbd
00000340: 7599 6fbe ff1b e1be ecad 2abe c1cd babc
00000350: bbe2 233e 487b afbb b309 9fbd 2234 8bbc
00000360: 1a82 6cbe 3f75 b1bc 3b7e ad3d bd5e f63c
00000370: 3355 41bd d75c c3bc 8803 ef3d 7617 55be
00000380: 9dbe b1bc 32cd ccbc 7b72 9f3a edd6 43bd
00000390: e2d4 bbbe 7fac fdbd 5314 32bd d93e 963d
000003a0: f745 26be c7cb 373d c22e 143d c042 f6bd
000003b0: fe2f 12be d486 a9be 4bf7 70bd a276 3c3b
000003c0: c036 15be 7ad5 4cbe 27ed 02bd e298 21bd
000003d0: 24b0 aa3d 9aa5 7abf d8c5 403d 36be 37bd
000003e0: 3dee a4bd 3aa9 a23d 187f e6bd ecc6 b0bb
000003f0: 83e7 0a3d 71ff 18be e221 25be 2f5c 63be
-0.2837605 -0.021959083 -0.07545303 -0.19130743 0.008712258 -0.027206672 0.20110747 0.18720913
-0.664013 -0.30772713 0.10575008 -0.19544621 -0.1819072 0.17058311 0.038264897 -0.025585879
-0.14696217 -0.10437335 0.15665692 0.09864396 -0.11872246 -0.101074405 -0.039275337 0.024459423
0.08038035 -0.044543296 0.030433 -0.098243035 0.122888975 0.017085504 0.09358718 0.11924007
0.10375597 -0.54559815 -0.14659216 -0.14938627 -0.016742742 0.02617577 -0.1697701 -0.050821636
-0.32296684 0.16629755 0.09242916 0.016954407 -0.18517788 -0.033507135 -0.12922181 -0.1883238
0.008436988 -0.042231675 -0.3412213 0.040497426 -0.020333141 0.27270713 -0.13440369 -0.053682454
-0.35033664 -0.17648576 -0.08341009 0.07468979 0.034515858 0.06429597 -0.2506003 -0.2659554
-0.054141864 0.04761601 -0.17274329 -0.08601886 -0.17786096 0.030330196 -0.033099737 -0.027575715
0.027426196 0.031752594 -0.23585774 0.077535585 0.15875255 -0.19226648 -0.0053446926 0.034700796
-0.2645777 0.29839215 -0.07910984 0.0148337595 -0.28620356 -0.3388002 -0.06287432 -0.19862601
0.0040075337 0.07197996 -0.1461761 0.022044128 -0.08140415 -0.058765534 -0.027326468 -0.24815913
-0.37681597 -0.042343833 -0.05993537 -0.088815264 -0.08327914 0.04877615 -0.15047972 -0.07463636
0.058257215 -0.3273055 0.06069383 -0.12057669 0.015349968 -0.029590731 -0.20473169 -0.20728573
-0.04993528 -0.038115215 -0.064019494 -0.045471422 0.060104936 -0.04074506 0.04056547 0.034703005
-0.036723435 0.1966458 -0.37510878 -0.055763483 0.16491178 0.3482491 -0.23535535 -0.15753222
-0.11441285 -0.20971672 0.013119704 0.034973297 -0.04187051 -0.061553817 0.075380996 0.07518848
-0.12950207 -0.12642996 -0.27282718 -0.014924963 -0.14901628 -0.21010166 -0.19914947 0.24078041
-0.12702665 -0.039433245 -0.23673974 0.056731883 -0.1297585 0.02450152 -0.05364116 -0.06648999
-0.040346384 -0.018824443 0.19840889 0.030373253 -0.15689386 -0.46960682 0.10340016 -0.11389562
0.0035232673 -0.3860279 0.42924458 0.043337833 -0.06793941 0.101377204 -0.051786028 -0.10389717
-0.05044323 0.14689283 0.031191107 0.03359711 -0.24762623 -0.13634425 0.08476243 0.027818196
0.009051724 -0.008407565 -0.12292721 -0.049920443 -0.08035266 -0.019832475 -0.12096042 -0.24226809
0.00022504269 0.08153755 0.058617875 0.17890611 -0.011462629 0.04947049 0.090782784 -0.5075627
0.1403559 -0.5511593 0.116609044 -0.1771963 -0.041270565 -0.16957107 -0.44474417 -0.049464773
-0.036190774 -0.12838648 -0.16376917 0.048595935 -0.0031036993 -0.25026628 -0.08914011 -0.057803974
-0.23398383 -0.43966672 -0.16667908 -0.02280319 0.1600446 -0.0053552724 -0.07765522 -0.016992632
-0.23096505 -0.021662353 0.08471342 0.030074472 -0.047200393 -0.02384798 0.116705954 -0.20809731
-0.021697337 -0.025000188 0.0012164855 -0.04781239 -0.36685854 -0.12386417 -0.043476414 0.07336206
-0.16237627 0.04487207 0.036177404 -0.1202445 -0.1427612 -0.33110678 -0.058829587 0.0028757234
-0.14571667 -0.2000331 -0.031964447 -0.03945244 0.083343774 -0.9790894 0.04706368 -0.044859134
-0.08053253 0.07942434 -0.1125471 -0.005394807 0.033912193 -0.14941193 -0.16126207 -0.22203134

fc2.bias f4 [300]
00000000: c554 bc3d db20 e3bc 0ebe 7fbd 843b 153c
00000010: cbe6 85bd 230d 313d 7057 93bd 30c8 45bd
00000020: ded0 84bd 77a0 6fbd 58d9 09bd f441 133d
00000030: e5de a1bd 90d1 2e3d 50b6 14bd 57b8 f4bc
00000040: 827d aebd 290b d4bd 5e29 91bd 738c 53bc
00000050: 8fea 18bd 1a94 463c 8773 20bd 0e81 923c
00000060: 7a20 51bd 55fc 0dbe e8c9 20bd 5f1c 93bd
00000070: d784 573c eaed 523d 6108 63bb 2414 b4bd
00000080: 50ae 603b 1ae6 1f3d f6a7 1bbd a2a2 4d3d
00000090: ca9a 6dbd 3703 02bd 653e 53bd 3592 30bd
000000a0: 1f6b 17bd 0b1c 80bd 2f59 90bd 977d 7cbc
000000b0: 3d3c a9bc 8b0e 7ebd ff6b 02bc 80a6 20bd
000000c0: 6a68 90bd 8a68 9bbd 84be ffbc a800 94bd
000000d0: 0600 f93b 9c0e 94bd 11e5 e1bb 9d26 93bc
000000e0: eb4d 89bd 741f d0bb 204b aebc e3e1 03bd
000000f0: 615c c4bd 27e0 1d3a 05ee 7abd a6d1 39bd
00000100: c851 05bc 06da a73b 0fb8 c4bd 3f9a 94bc
00000110: 3044 6fbd 1d54 81bd c162 8dbd a20d d3bc
00000120: bace 04bd cf1c 36bd 0439 97bd a32c 67bd
00000130: 80f0 5b3b 28d8 dbbc a763 13bd 926a 713d
00000140: 7f64 6fbd c003 cbbc 14cf b3bd 5464 3abd
00000150: d2ca 0b3e 8ec8 223c 3c9d b4bd 3f70 37bd
00000160: be88 82bd a6b6 5ebd 60a8 63bd 079e d5bc
00000170: 4834 65bc 7563 37bd 47e6 febc 2075 843d
00000180: 1a5d 09bd 7d3c 15bd c3a6 abbc 0f20 3cbd
00000190: 5381 6dbd a24e d23d fcf3 c03d f74c 11bd
000001a0: abca 1c3d 4b81 00bd fd25 4cbd bea1 2a3b
000001b0: c591 30bc 0687 94bd 3d0a 373d abda 1fbd
000001c0: 3b1f 96bc 0d24 74bd 20bf 2ebd 50dd 12be
000001d0: 3dbf 95bd 6719 993b 5d2d 94bc 39bd 51bd
000001e0: 0c11 7fbd ffb1 9ebd a5f5 493b 3f74 cd3c
000001f0: 2fef 03bc 3ca9 3dbd 2e74 8bbd 0650 50bd
00000200: bffd 65bd dd6c 13bc 30ce 563c 3c9b 0bbd
00000210: 6e06 82bd 5644 98bd 778b f93a 2be5 94bc
00000220: 735c 41bd 6aa1 053e e604 86bd 193e 743c
00000230: dfe5 92bc 9b93 fc3c e849 a23c 428f 54bd
00000240: f003 19bc 9a7b 3abc b346 a5bd e4d9 3abd
00000250: f8d0 133c 8306 56bd fe20 103d 2aea e9bc
00000260: 42a4 a93c eecc 80bd 7e5d 903d 6049 36bd
00000270: c468 c2bc f771 f9bd 8dbb 0bbc 7842 b5bd
00000280: e8c6 adbc 0e16 30bc 77bc 98bd 0da5 e0bc
00000290: ca64 b0bd 1563 8abc c0e4 97bc 215c 593c
000002a0: b6d5 1fbd cf16 4bbd bc17 85bd efca 613d
000002b0: 01d8 71bd c180 da3d 60fc 25bd 8647 f7bd
000002c0: c890 d83a aacc d3bc 6f70 a5bd 4fb0 1bbd
000002d0: f915 953d b5db 75bd 2777 74bd 8474 5f3d
000002e0: 174a a23d 1ca0 b63b a577 4abd 89a0 34bc
000002f0: 1572 75bd 9299 83bd c512 a5bd 9a37 08bd
00000300: 5084 1ebd 2537 8abe 8770 35bd 4e10 1fbd
00000310: 7d7e 15bd 9cc2 13bd acef bfba 695a c4bc
00000320: 92f1 9ebd 6559 27bd 1c69 d8bd 0274 aebd
00000330: a1dc 173b 06a6 dbbc e769 c3bd aebd 30bc
00000340: 50ab 5ebd 3c76 5dbb 8171 843b bbdf 63bd
00000350: 9b43 65bd fe49 33bd c6a6 20bd 57c5 ac3d
00000360: 556e 34bd 2322 0dbd a36f 61bd 068d f2bc
00000370: 0f85 03be cc68 5fbc def3 e1bd 5c74 843c
00000380: 9fda 5dbd 4295 68bd 91b5 27bc a5f1 b4bc
00000390: de2b 3cbd 68d8 62bd 192e b6bd ffbe 043c
000003a0: 71af 09bb da05 4cbc 05f2 4abd 739c 46bc
000003b0: 5bda 7bbd 3390 80bd fd68 6bbd 8f31 65ba
000003c0: 0bfb 2cbc 00d7 3cbd 85f6 87bd 9312 35bd
000003d0: 468d a7bc 8083 12bd d11c ee3c 682c c1bd
000003e0: 942f 023e 4aac a5bd 9e8b a9bd a848 76bd
000003f0: 2d8b ccbc bba6 c2bc 6677 98bd 57fc 83bd
0.09195856 -0.027725628 -0.06243711 0.009108428 -0.06538161 0.04322542 -0.07194412 -0.048286617
-0.06485151 -0.05850264 -0.03365454 0.03595157 -0.07903842 0.042680323 -0.03630668 -0.029873056
-0.085200325 -0.10353691 -0.07087968 -0.012911904 -0.037333068 0.012120271 -0.039172675 0.017883804
-0.051056363 -0.13865788 -0.039255053 -0.07183146 0.01315423 0.051496424 -0.0034642445 -0.08792904
0.0034283586 0.0390378 -0.038001977 0.050203927 -0.058008946 -0.031741347 -0.051573176 -0.043108184
-0.036967393 -0.06255349 -0.070482604 -0.015410802 -0.020658607 -0.062025588 -0.007960319 -0.039221287
-0.070511654 -0.075882986 -0.031218775 -0.07226688 0.0075988797 -0.07229349 -0.006893762 -0.017962748
-0.06704315 -0.0063514058 -0.021276057 -0.032197844 -0.095879324 0.0006022476 -0.06126215 -0.045365952
-0.008137174 0.005122426 -0.09605419 -0.018139957 -0.058414638 -0.063148715 -0.069036014 -0.025763337
-0.032423712 -0.044461068 -0.07383922 -0.056439053 0.0033560097 -0.02683647 -0.035983708 0.058939524
-0.05844545 -0.024782062 -0.087797314 -0.045505837 0.13651589 0.009935511 -0.088190526 -0.04478478
-0.06373738 -0.054373406 -0.055580497 -0.02607633 -0.013989516 -0.044772584 -0.031115664 0.06467652
-0.033536054 -0.03643464 -0.020953542 -0.04592901 -0.05798466 0.10268904 0.09421536 -0.03547379
0.038279217 -0.031373303 -0.049840916 0.0026036347 -0.010776942 -0.07252316 0.0446875 -0.039026897
-0.018325439 -0.059604693 -0.04266274 -0.14342237 -0.073118664 0.0046722176 -0.018088037 -0.051205847
-0.062272117 -0.07748794 0.0030816582 0.025079845 -0.008052631 -0.046303973 -0.06809269 -0.050857566
-0.056150194 -0.008998123 0.013110682 -0.03408359 -0.063488826 -0.07434909 0.0019038756 -0.018175682
-0.047207307 0.13049856 -0.06543903 0.014907383 -0.017931877 0.030832103 0.019810632 -0.051894434
-0.009339318 -0.011382008 -0.080701254 -0.045617953 0.00902199 -0.052252304 0.035187714 -0.028554041
0.020708207 -0.06289087 0.07049082 -0.04450357 -0.023731597 -0.1217994 -0.008528602 -0.088505685
-0.02121301 -0.010747446 -0.07457822 -0.027422452 -0.08612974 -0.01689295 -0.018541694 0.013266594
-0.03902217 -0.0495823 -0.064986676 0.055125173 -0.059043888 0.10669089 -0.040523887 -0.12074189
0.001652264 -0.025854427 -0.08078086 -0.038009938 0.072795816 -0.060023982 -0.059683945 0.054554477
0.07924288 0.0055732857 -0.04943051 -0.011024603 -0.05992325 -0.064257756 -0.08060221 -0.03325615
-0.0387004 -0.26995197 -0.044296768 -0.03883391 -0.03649758 -0.036074266 -0.0014643571 -0.023968892
-0.0776092 -0.040856738 -0.10566923 -0.085182205 0.0023172277 -0.026812565 -0.09541684 -0.010787411
-0.054362595 -0.0033792397 0.004041851 -0.055633288 -0.055972677 -0.043771736 -0.039221548 0.08436077
-0.044050533 -0.034456383 -0.055038106 -0.02960826 -0.12843727 -0.013635825 -0.11032842 0.016168766
-0.05416357 -0.05678297 -0.01023616 -0.022087881 -0.045940273 -0.055382162 -0.08895511 0.008102178
-0.0021009112 -0.012452567 -0.049547214 -0.012122261 -0.061487537 -0.06277504 -0.05747317 -0.00087430415
-0.0105579 -0.046103477 -0.06638817 -0.044207167 -0.020453107 -0.03576994 0.029066475 -0.09432298
0.12713462 -0.08089502 -0.08278583 -0.060127884 -0.024968708 -0.023761144 -0.074446484 -0.064446144

fc3.weight f4 [1, 300]
00000000: 6b0c 9abd 5c7d 17ba a438 3fbc 4ff4 df3b
00000010: 00cd 083d 2103 2f3e acee 833b 7529 fb3b
00000020: b262 b53b 9796 ffbc 2c82 38bc 1516 18be
00000030: 5697 033d b7ed 233e 99b5 9e3b d245 95bc
00000040: e71e 7e3d 8ffd bcbb eeab a63b 31e0 83bc
00000050: 1b43 dcb9 cf13 c33d 3c8f db3b 8916 ccba
00000060: 5199 05bc 3fb4 4cbd 6b4c 833e ddff d0bc
00000070: 05ff 533e 24d7 9c3e 9f6c d8bc 73a1 6a3c
00000080: 9dcc 80bb ecdb 243e a1a7 3ebd 6f95 9bbd
00000090: 3912 cb3b f566 7ebc 7513 9cbb bc0d b8bb
000000a0: 8272 79bc d535 e43c 198d 5bbd 91cf 1ab8
000000b0: 3199 463e 7fc0 28bc a02a 423e 8f91 dabb
000000c0: 2960 57bb 63d8 94bc 3e87 7a3a d515 bbbb
000000d0: e20b be3d 5415 33bc 3ceb da3b cd0c 913c
000000e0: c02a a8bc 01fa 1c3b e441 b3ba b50f 2ebc
000000f0: d55c 143c 60d7 fb3d 5e4e 7e3e 6492 ab3b
00000100: 153c 5a3b 998e cdbb 6058 493c 6c49 ea3b
00000110: dc14 77bc 55fb 1a3b 4078 b23a 20b7 653c
00000120: 69fd 103c a9cd ccbc d57a e5ba 010c 85be
00000130: fc47 403d dcaa f0bb 152c b73b 4803 193e
00000140: 5c42 de3c bf67 29bb 1ea3 37bc aabf d3bc
00000150: afca d73d 6bc4 2b3c b733 07bc 88d4 853b
00000160: 680c 97bc 0706 a1bd bd12 a53c bfae bd3b
00000170: 1877 77bc 80e8 e23c 26f8 a23e 6387 a33d
00000180: d5f8 aeba b2f0 22bb 89cb 903b 9363 fb3a
00000190: 12f5 bf3c 63c5 32bd 9bd3 3fbd 1e0e d83c
000001a0: 62f7 f03d 0de1 8fba 061a 043b cb8c 2dbe
000001b0: 87a0 94bb 6ebe 54bb e99a 2a3e 549a 5cbc
000001c0: 0180 923b 704a 29bd 571b 30b9 f6b5 b4bd
000001d0: 556e ecbc abc6 953c 945b 093b 9db3 3e3c
000001e0: d436 4a3c 3e1d d9bc a370 0fbd b4fc debd
000001f0: 2170 94bb 6e7e d73c 104f 723b e628 e23c
00000200: 8ec7 86bc 24c0 3cbb 901b 0e3e a731 313b
00000210: 2c18 39be c52e 2b3c 04b7 64be ea1b b23c
00000220: 1315 debd 326d 4ebd c8c3 893d a795 babc
00000230: 6357 7cbe 27f1 743d ea93 bb3d 1659 e13c
00000240: d473 f53b 5820 a43e 6f4f 53bc 40fb 69bd
00000250: 19af 55bd 0d07 ac3c 6d8c 5b3e 3280 0c3b
00000260: 467d b7bd 84b7 22ba 4bdd 30bd 7c97 31b7
00000270: cf08 323e 62e3 103d d6f7 e93b 3552 9ebd
00000280: 8991 9bbc 496b 443c 368a 69bb a913 4fbb
00000290: 6932 a23c 7d29 a23b 5c1b 123d aae0 40bd
000002a0: 2414 f039 704b 633c 0d16 f2bc d788 bfbd
000002b0: dc0c 44bb 0e07 af3d fb00 a13b 9b12 adbd
000002c0: 462a 743e 2229 c6bd b469 82ba adeb 353c
000002d0: 0e83 51bd 5310 a5bc d7fc c13c c0e7 11bd
000002e0: 5b3d 2fbd e1ec 523c 2482 f53c 78c5 51bc
000002f0: 31e7 d1ba 3006 b0bd 4fdb 893e b8ec 66bb
00000300: ab1f 05bd 4a56 843d 91cf c03b 7756 393e
00000310: 1de7 403c eb3d 1bbb 1bfe f1bc 8934 23bc
00000320: aa00 cb3a 9207 273b 5753 14bc bc5f 1ebc
00000330: 7c96 813b a72f 1ebd fb2d bfb9 d310 b9bb
00000340: ada3 64bb 38fc 1dbc c79d 873b 7fca cfbc
00000350: d52d 8fbb a726 963b 2a04 9dbb 885f 33bd
00000360: 2b52 a9ba 05f6 34be bf76 a43c 925b 773b
00000370: ca38 1ebc a723 8fbb dccb ca3d 7152 ed3d
00000380: da02 30ba a013 c23d b115 cc3a e745 823e
00000390: 58bd 8d3a 57be a93c 3079 c6bc e50e 3e3b
000003a0: 74c2 3cbb ff32 90bc 1457 163c 78bf 033e
000003b0: bbb1 453b 0707 b33c 0f3a 74bc c5af 4cbb
000003c0: c4df df3c 6d1d 6c3d 21b5 a3bc 56f8 18bc
000003d0: 1b17 48bb ed62 1fb8 f8a2 3ebd 4315 01ba
000003e0: f81c a5bd 80cf f2bd 4b53 01bd 4fd4 ebbc
000003f0: 80a7 cebd 433c 8ebc 41b5 e43d d34f 803b
-0.075219 -0.0005778873 -0.011671219 0.006834544 0.03339863 0.17091037 0.0040262546 0.007664854
0.005535447 -0.031199737 -0.011261504 -0.14852174 0.032126747 0.1600865 0.0048434255 -0.01822177
0.06204119 -0.005767531 0.0050864136 -0.016098114 -0.00042011667 0.095252626 0.0067004245 -0.0015570681
-0.008154229 -0.049976584 0.2564424 -0.02551263 0.20702751 0.3063289 -0.026418982 0.014320719
-0.003930642 0.16099519 -0.046546582 -0.075968616 0.0061972407 -0.015527477 -0.0047630616 -0.0056168716
-0.015225055 0.0278577 -0.053601358 -3.6909772e-05 0.19394375 -0.010299801 0.18961573 -0.006670184
-0.0032863712 -0.018169587 0.0009556896 -0.0057093897 0.0927961 -0.010930378 0.006680874 0.0177063
-0.020528197 0.0023952725 -0.0013676253 -0.010623862 0.009055336 0.12296939 0.24834582 0.005235957
0.0033299972 -0.0062731025 0.012289137 0.007149866 -0.015080657 0.002364834 0.001361616 0.014020711
0.00884948 -0.02500041 -0.001750792 -0.2598572 0.04694365 -0.007344587 0.005589972 0.14942658
0.027131252 -0.002584919 -0.011208324 -0.025848228 0.10536706 0.010483841 -0.008252076 0.0040841736
-0.018438533 -0.07862478 0.020150537 0.0057886536 -0.015104078 0.027698755 0.31829947 0.07984807
-0.0013349304 -0.0024862704 0.0044187945 0.0019179456 0.023432288 -0.043645274 -0.046832662 0.02637392
0.117659345 -0.0010977105 0.0020157113 -0.1694824 -0.004535738 -0.0032462138 0.16660656 -0.013464529
0.0044708257 -0.041330755 -0.00016794853 -0.08823769 -0.028861204 0.018283209 0.0020959126 0.011639503
0.012342174 -0.026503202 -0.035019528 -0.10888043 -0.0045299684 0.026305404 0.0036973394 0.027607393
-0.016452577 -0.0028801048 0.13877702 0.0027037652 -0.18075627 0.010448162 -0.2233544 0.021741826
-0.10843863 -0.050397106 0.067267954 -0.022776438 -0.2464271 0.059800293 0.09159072 0.0275083
0.0074906144 0.32055926 -0.012897356 -0.057124376 -0.05216894 0.020999456 0.21440287 0.0021438715
-0.08959441 -0.00062071555 -0.04317979 -1.0585292e-05 0.17386173 0.0353731 0.00714014 -0.077305235
-0.018990295 0.011988469 -0.0035635359 -0.0031597412 0.019799428 0.0049487934 0.035670623 -0.047089256
0.00045791373 0.013872966 -0.02955153 -0.09352272 -0.0029914891 0.085462674 0.004913447 -0.08450814
0.23844251 -0.09675814 -0.0009949715 0.011103553 -0.051150374 -0.020149386 0.023680134 -0.035621405
-0.042783123 0.012873859 0.029969282 -0.012803428 -0.0016014335 -0.0859493 0.26925132 -0.003523631
-0.032500904 0.06461771 0.005884119 0.1809939 0.011773852 -0.002368803 -0.029540112 -0.009961256
0.0015487869 0.002548669 -0.009053073 -0.00966638 0.0039547067 -0.038619664 -0.00036464617 -0.0056477576
-0.0034887597 -0.009642653 0.0041386816 -0.025365112 -0.0043694773 0.0045822444 -0.004791756 -0.043792278
-0.0012918165 -0.17671974 0.020076154 0.003774379 -0.009657094 -0.0043682638 0.09902164 0.1158799
-0.0006714292 0.094763994 0.0015570429 0.25443956 0.0010813875 0.020720644 -0.024227709 0.0029000577
-0.0028802427 -0.017602442 0.0091760345 0.12866008 0.003016575 0.021853937 -0.01490642 -0.0031232696
0.02732838 0.05764525 -0.01998383 -0.009336552 -0.003053135 -3.8000686e-05 -0.046542138 -0.0004924128
-0.08062166 -0.11855984 -0.031573575 -0.02878776 -0.10090542 -0.01736272 0.11167384 0.003915766
