Tennis/Nets/checkpoint_actor400.pth (torch_old, 525671 bytes, 10 tensors)

bn1.weight f4 [24]
000000 c1 17 1b 3f 9c 7f 10 3f 66 70 17 3f b2 52 00 3f
       0.6058312 0.56444716 0.5915588 0.50126183
000010 34 2d 57 3f 2b 25 3c 3f 09 88 ce 3e 30 55 e5 3d
       0.8405335 0.73494214 0.40338162 0.11197889
000020 4f d0 1a 3f 6c 0c 87 3e fc 40 18 3f 39 50 01 3f
       0.60474104 0.26376665 0.5947416 0.50513035
000030 d0 19 0c 3f ff 7d 81 3f a9 4d 0f 3f 3d 23 2a 3f
       0.54726887 1.0116576 0.55977875 0.6646002
000040 eb 0e 4c 3f 86 ba d0 3e cb 8f f8 3e 46 77 71 3f
       0.79710263 0.40767306 0.48547205 0.9432262
000050 f2 a5 d9 3d fd 93 1a 3f 8f c1 25 3f df 81 59 3f
       0.10627355 0.6038206 0.6474847 0.8496379

bn1.bias f4 [24]
000000 18 0e 72 bd 26 ad 8f bd fe ac 41 3d 26 81 0a 3d
       -0.059095472 -0.07015447 0.04728412 0.03381457
000010 bd e5 9d 3d 11 3b d8 3d 79 e8 06 3d 6b 4a 1d 3c
       0.07709835 0.10558141 0.032936547 0.009600262
000020 9f 6b 23 bd b3 a5 8c bd f5 ae 8e 3d 05 0a 9c 3d
       -0.039897557 -0.06867542 0.06966964 0.076190986
000030 88 80 86 bc 2a 98 ec 3d 37 d6 4b 3d d1 ef 9a 3d
       -0.01641871 0.115524605 0.049764838 0.075652726
000040 e3 77 51 3d fd 03 0c bd 1e 90 73 3d 15 b7 c2 3c
       0.051139724 -0.03418349 0.059463613 0.023768941
000050 6f d4 ef 3d 52 4e c5 3d d7 86 65 3d d9 34 00 bc
       0.1171044 0.09634079 0.056036796 -0.0078251

bn1.running_mean f4 [24]
000000 b4 f3 88 c0 10 1c 42 be 33 51 2c 41 76 7b 5c 3f
       -4.279749 -0.18956017 10.769824 0.86125886
000010 c6 39 16 3d 49 aa 41 40 33 51 2c 41 76 7b 5c 3f
       0.03667619 3.0260184 10.769824 0.86125886
000020 e1 89 92 c0 d2 89 53 be f7 1b 3f 41 9b c0 20 3f
       -4.579331 -0.20658043 11.944327 0.6279389
000030 4c b4 27 3a cd 21 3b 40 f7 1b 3f 41 9b c0 20 3f
       0.0006397411 2.923938 11.944327 0.6279389
000040 5e f4 9a c0 c0 4a 7d be 9a ad 53 41 22 c5 b7 3e
       -4.84233 -0.24735546 13.229883 0.35892588
000050 74 06 25 3c cc 22 30 40 9a ad 53 41 22 c5 b7 3e
       0.010072339 2.7521238 13.229883 0.35892588

bn1.running_var f4 [24]
000000 b1 41 9c 41 f8 84 67 3f 95 17 95 43 b4 17 c8 40
       19.532076 0.9043727 298.18423 6.2528934
000010 11 ba 29 42 0f 3d b0 40 95 17 95 43 b4 17 c8 40
       42.431705 5.5074534 298.18423 6.2528934
000020 3a 12 9d 41 3a c3 6e 3f 83 4d 9b 43 d9 16 f4 40
       19.6339 0.9326664 310.60556 7.627789
000030 dd b7 37 42 0b fd c8 40 83 4d 9b 43 d9 16 f4 40
       45.929554 6.280889 310.60556 7.627789
000040 64 64 9c 41 e2 a4 75 3f f7 f2 9c 43 e5 60 17 41
       19.549019 0.95954716 313.89816 9.461156
000050 84 83 45 42 ba b2 f4 40 f7 f2 9c 43 e5 60 17 41
       49.378433 7.646817 313.89816 9.461156

fc1.weight f4 [400, 24]
000000 2e 62 ab bc 89 65 8c bc 4b ec db bc 8a cf 73 bc
       -0.02092084 -0.01713826 -0.026846072 -0.014881024
000010 6c a8 bf 3c 76 7c 81 3d 7a 87 53 bc 0d b4 2b bd
       0.02339574 0.06322567 -0.012910718 -0.041919757
000020 1c e2 a0 bc 75 ac 9c 3c fc 35 5e 3d 1b 1f 7f 3c
       -0.019639067 0.019125203 0.054250702 0.015571381
000030 5c 8c 90 bd 43 4d 0e 3e ca ee a0 bc 4d ac bd bb
       -0.070580214 0.1389666 -0.019645113 -0.005788362
000040 98 83 d7 3c 2b a2 db bc 2b ba 54 bd 8f 75 36 bd
       0.026307866 -0.026810726 -0.051935356 -0.044545706
000050 2e 2b c6 3d e0 e7 18 3e 3f 8a 99 3c 26 48 38 bd
       0.096762046 0.14932203 0.018742679 -0.04499068
000060 aa 77 05 3e 36 23 d4 3d 27 10 4d bd fe 4f 52 bd
       0.1303393 0.103582785 -0.050064232 -0.051345818
000070 56 b7 35 3d 25 4e 05 be c7 43 a4 bd fe 03 ba bb
       0.044364296 -0.13018091 -0.0802074 -0.0056767454
000080 9b ad ef 3d ab 4e 58 bc 54 66 f4 bd 30 6d 02 bd
       0.117030345 -0.01320235 -0.1193358 -0.03184241
000090 7f 91 b5 be bb 75 4a 3d 15 33 18 be 8e d4 dd bb
       -0.35462567 0.049428683 -0.14863236 -0.0067697233
0000a0 2d 0e a1 bd e4 8e 62 bd 09 35 26 be 7b 01 95 bc
       -0.07864032 -0.055312052 -0.16231169 -0.018189183
0000b0 21 b7 58 be 27 a0 17 3e d4 a6 48 be 5d 8a bd bd
       -0.21163608 0.14807187 -0.1959489 -0.09254906
0000c0 34 99 94 3c 62 e7 d1 bd 1a a0 3f bd 09 7a 71 bc
       0.01813946 -0.10249211 -0.046783544 -0.014738568
0000d0 59 d7 86 3e 3f c1 f2 3d bd 87 77 bd 6a eb e2 bc
       0.26336172 0.11853265 -0.060432184 -0.027700145
0000e0 3a 7e 21 3d 94 cb e8 bd 5c c0 41 bc 1f c3 47 3d
       0.03942702 -0.113669544 -0.011825647 0.048770066
0000f0 e6 03 70 3e 4a 14 a5 3c 34 9a 83 bd d0 bb 06 3d
       0.23438987 0.020151276 -0.06425896 0.032893956
000100 f6 a9 5c bd c5 44 a7 bc 83 32 a9 bc 84 38 82 bd
       -0.053873025 -0.020418534 -0.020653969 -0.06358436
000110 55 da b7 3d 29 8a b6 bd 96 54 96 bd e8 38 8b 3c
       0.089771904 -0.08913071 -0.07340352 0.016994908
000120 25 7c 33 3d 8f ec 56 3d 35 8a 72 3c 11 f8 86 ba
       0.043819565 0.052471694 0.014803459 -0.0010297318
000130 37 58 57 bc 85 74 e4 bd 80 49 93 3c 51 92 01 bd
       -0.013143591 -0.11155037 0.017979383 -0.03163368
000140 80 40 9b 3d 08 0f 13 3d 32 f3 94 bb 31 ab be bc
       0.07580662 0.035903007 -0.0045455927 -0.02327499
000150 55 29 9c 3d 63 20 f6 bd 54 45 04 3d 6d ee b8 3b
       0.07625071 -0.12017896 0.03229268 0.005643657
000160 58 73 75 3d bb 8a 72 3d 49 75 f4 3c 6a 88 ff bc
       0.059924453 0.059214335 0.029841082 -0.031192977
000170 3c 3e 04 bd 78 7b bb bc 2d b6 99 3d 2f 41 84 bd
       -0.032285914 -0.022886023 0.075054504 -0.06457745
000180 06 aa 40 3d 1d 4a 6c be 47 72 9d bd 2c ad 42 bd
       0.047037147 -0.23075147 -0.07687812 -0.04752843
000190 d3 3b 1c 3c ab 0c a7 bd 03 99 33 bd 20 99 32 bd
       0.009535748 -0.08156713 -0.043847095 -0.043603063
0001a0 c2 4b 26 3d 99 63 59 be d8 8a 3b bd 61 c9 b0 bc
       0.040599592 -0.212294 -0.04578671 -0.0215804
0001b0 84 06 0c 3d b8 3f 26 bd dc 6b 6d 3c 23 f1 0d bd
       0.0341859 -0.04058811 0.014491048 -0.034653794
0001c0 67 e3 92 3d 54 70 55 be 33 b2 b5 bd 81 5a 8d bc
       0.0717228 -0.20843631 -0.088718794 -0.01725507
0001d0 03 86 fe bc a8 a3 8d bd e2 1b d4 bd 3b 57 4a bd
       -0.031069761 -0.069159806 -0.10356881 -0.049399596
0001e0 66 b9 c5 bc 41 ab 49 bd e4 92 f0 bc cf ea a5 3d
       -0.024136256 -0.049235586 -0.029366918 0.08101427
0001f0 df 63 93 bc 11 fc cf 3d 34 51 0a 3c 27 67 1c 3d
       -0.017991958 0.101555 0.008442212 0.03818431
000200 8d 81 27 bd 6f 96 2b 3a 70 1b c4 ba 66 d8 0a 3d
       -0.040895034 0.00065455487 -0.001496179 0.03389778
000210 08 35 fe 3d f8 d2 8c 3d b8 ca 25 bc c6 7c d7 3c
       0.12412459 0.068761766 -0.010119133 0.026304614
000220 ae e8 d6 3c 17 a2 a2 bc e0 08 9f 3d 68 51 1f 3c
       0.026233997 -0.019852681 0.07765365 0.009723999
000230 55 2a b7 3d ce 9c 00 3d dd e2 ac 3d 62 cd 41 bd
       0.08943621 0.03139954 0.08441708 -0.04731501
000240 c5 a3 4a 3d a6 d8 a4 3c 72 4e f6 3c fd 77 36 bd
       0.04947259 0.020122837 0.030066703 -0.044548023
000250 9b 2b 53 3c a3 d8 2c bb f4 37 9e 3c ba 49 6b 3c
       0.012888814 -0.0026374243 0.01931379 0.0143608395
000260 9e 11 f9 3c 30 f8 16 bc 87 97 af bb 51 46 0e bd
       0.030403908 -0.009214446 -0.0053586396 -0.034735028
000270 4b c6 d1 bc bd f2 00 3d 1e 08 7d bc 3c ad 58 3c
       -0.025607249 0.031481493 -0.01544383 0.013224896
000280 3b 5d 17 bd e9 e8 3d bb 05 2f 86 3c 57 2a 2d 3b
       -0.036954146 -0.0028977937 0.016379843 0.0026422942
000290 0e e4 d4 3c e9 9a 8c 3c 95 04 06 bd 3f eb fb bc
       0.025987651 0.01716371 -0.032719214 -0.030751823
0002a0 f7 a4 bc 3c c0 6d 13 3e 7e 1c 05 bd 7a 76 09 3c
       0.02302788 0.14397335 -0.032497875 0.008390063
0002b0 41 6a 13 3d ce 14 d9 3d 21 13 d8 3c 3f 59 59 3d
       0.035990003 0.10599671 0.026376309 0.053063627
0002c0 2a 16 c2 3c 68 06 19 3e ac a9 73 3c cb e8 ca bc
       0.02369221 0.1494385 0.014871996 -0.024769207
0002d0 ad a7 2d bd bd 3b 03 3e 54 de b6 3c 61 e8 2c bd
       -0.042396236 0.12815757 0.022322811 -0.0422138
0002e0 54 2f dc bc b9 78 be 3d c5 bc 86 bc 7d 3c 66 bd
       -0.026878037 0.0930037 -0.016447434 -0.05621003
0002f0 14 92 3a bb 8d 51 21 3d 59 c6 7b 3c f8 a7 b3 bd
       -0.0028468417 0.039384414 0.015367114 -0.08772272
000300 72 2b 78 3d 92 60 4b 3c f3 61 f6 bc 71 a0 33 bd
       0.060588308 0.012413161 -0.030076003 -0.04385418
000310 2f 33 24 3e 86 5b f8 3d df eb 7f bd 5d a8 ec bc
       0.1603515 0.12126832 -0.062480804 -0.028888876
000320 50 3e 7c 3d 7c 9a 6c bc 80 da ed bd 76 99 a8 3c
       0.061582863 -0.014441129 -0.11613941 0.020580988
000330 a2 5f 46 3e f7 92 b9 3d 0d ed 3f bd 82 6d 81 3d
       0.19372419 0.090612344 -0.04685693 0.06319715
000340 9e 3a 39 bd a2 19 91 bd 3c 56 af bd c3 19 ce 3b
       -0.045221917 -0.07084967 -0.0856137 0.006289692
000350 cb 8f f2 3d 7a 9b 78 3d 45 c0 01 be b2 fb 52 3d
       0.118438326 0.06069515 -0.12671001 0.051509567
000360 1d f8 8c 3c ea e3 8c 3b f9 ab 07 3d 37 48 cc bb
       0.017208153 0.0042996304 0.03312299 -0.0062341946
000370 14 e1 cc 3b b8 0d cb 3d bb b2 34 3c a8 1a 6f 3c
       0.0062524173 0.09914726 0.011028941 0.014593758
000380 5f 21 20 3c 78 b8 ab bc 94 94 30 3d 78 dd 1d ba
       0.009773581 -0.020961985 0.043110445 -0.0006022076
000390 d4 99 ef bc 56 0e c2 3d ce 1f fc 3c c4 1e cc bc
       -0.029248156 0.094753906 0.030776884 -0.024917014
0003a0 f9 c3 ad 3c 90 f8 b6 3d 0b 53 82 bc df c2 2c 3d
       0.021211611 0.08934128 -0.015908739 0.04217803
0003b0 7d bb 4e 3d 7a a1 df 3d e8 41 0c 3d 76 f8 ec bc
       0.05047177 0.10919471 0.03424254 -0.02892707
0003c0 a4 08 36 3e 7e 4e 1f bd bf 26 17 be 52 e6 14 bc
       0.17776734 -0.038893215 -0.14760874 -0.009088116
0003d0 51 fb 6b 3e 0f b0 c1 b9 94 80 3e be 75 bc a3 bb
       0.23045088 -0.00036943002 -0.18603736 -0.004996831
0003e0 12 89 ae 3d c9 7b 65 bc 21 f2 1f be 37 0e 37 3c
       0.08522238 -0.014006563 -0.15619709 0.011172823
0003f0 ab dd 8d 3e 03 7b ba bc 02 b9 e3 bd 88 32 fb 3c
       0.27708182 -0.022763735 -0.11119272 0.030663744

fc1.bias f4 [400]
000000 c4 83 1f 3e 68 af c2 bd bb c8 26 bd 8e ef 87 bd
       0.15577608 -0.09506112 -0.040718775 -0.06637488
000010 79 3a 64 be 62 f7 b5 3d 49 44 53 be 99 cc 3f 3e
       -0.2228793 0.08885075 -0.20631517 0.18730392
000020 6d 32 69 3d b2 52 7d 3e 4c c0 fa bd 02 a7 c2 bd
       0.056932855 0.24738577 -0.12243709 -0.095045105
000030 44 78 31 3e ce 36 c4 be b3 96 92 3d e2 a0 13 be
       0.17331034 -0.38323063 0.0715765 -0.1441684
000040 08 f6 c3 3d 48 c9 02 be 23 35 6d 3e 44 1b 52 3e
       0.09568411 -0.12772095 0.23164801 0.20518214
000050 d3 1c 3f bd c8 a7 be bd 70 07 43 3e e7 8a 08 3e
       -0.04665835 -0.093093455 0.19045806 0.13334237
000060 32 77 4e 3e 2d 3d 1a 3e 29 dd 4f 3e 59 9a 56 3e
       0.20162657 0.15062399 0.2029921 0.20957316
000070 c7 33 03 be 86 33 99 be 68 c8 db 3d 06 7d 1f 3e
       -0.1281272 -0.29922122 0.10731584 0.15575036
000080 8d 55 f9 bd fe 39 a1 bd b2 42 0b 3e b6 cd d4 bd
       -0.12174521 -0.07872389 0.13599661 -0.10390799
000090 36 ec d6 3d 0c 53 48 be 35 5c fa bd 87 5f 91 3d
       0.104942724 -0.1956293 -0.12224618 0.070982985
0000a0 87 92 1c 3e 2a d4 af bd d1 dc f4 3d 1f df a0 3d
       0.15290271 -0.08585389 0.1195618 0.07855057
0000b0 2c 6c 3d bd a6 39 3d 3e a0 71 90 3d e2 16 56 3e
       -0.04624574 0.18479022 0.07052922 0.20907167
0000c0 be a0 4f bd 71 13 2a 3c e9 4e 00 bc ed 37 bb bd
       -0.050690405 0.010380612 -0.007831314 -0.09141526
0000d0 cf 7d 89 bd f5 da 26 3e 34 30 ef 3d 26 8d 24 3e
       -0.06713449 0.16294463 0.11679116 0.16069469
0000e0 2a 8c 94 3e 65 7b c3 3c 41 12 06 3e cd c2 33 3e
       0.29013187 0.02386255 0.13092901 0.1755478
0000f0 da 6d 0e be b4 0e 33 3e fd 37 91 3d be 34 7c be
       -0.13909093 0.17486078 0.07090757 -0.24629495
000100 65 6b 44 be fd 8f 01 3e 83 d3 8a bc 79 f7 89 3d
       -0.19181593 0.12652583 -0.01694656 0.06736655
000110 a0 97 13 3e ec 71 1d 3e e4 65 80 bd 37 4f 1d 3c
       0.14413309 0.15375489 -0.06269434 0.009601406
000120 e5 e7 20 3d 46 82 83 3e fe 42 00 3e 3c 71 4b be
       0.03928365 0.25685328 0.12525555 -0.19867414
000130 56 e6 fa 3d da 90 c9 bd 8b 93 b7 3d 6e 9c 5d bd
       0.12250964 -0.09842081 0.089636885 -0.05410426
000140 ef 19 17 3e d8 28 ef 3d 6c e2 16 3e ad 08 81 3e
       0.14755987 0.11677712 0.1473481 0.25201932
000150 dc 01 bb bd e8 5b 59 3e 8e 36 b1 3d a0 c1 45 be
       -0.09131214 0.21226466 0.086529836 -0.19312143
000160 d4 e4 64 be 9e 77 a3 3d e3 bb ef bc c0 23 15 bd
       -0.22352916 0.079817995 -0.029264396 -0.036411047
000170 79 3b 14 bd 7a 77 b4 3d 9c 58 1d be 25 ea 1c 3d
       -0.03618953 0.08811851 -0.15365833 0.038309235
000180 5a ef bc 3d 7d 52 43 bd fb 07 ad bd 0d 3b 43 be
       0.0922534 -0.04768609 -0.08448788 -0.19065495
000190 95 cf 91 3c a8 2f 4d be c2 de 60 3e a6 97 9b 3d
       0.017799178 -0.2003771 0.21959975 0.07597284
0001a0 30 a0 cd 3c 77 e9 cf 3b 3f 4e 68 3e f1 9e d8 3d
       0.025100797 0.00634497 0.22686099 0.10577191
0001b0 c3 12 22 be b9 33 32 3d 00 b9 49 3e 01 23 f8 3d
       -0.1582747 0.043506358 0.19699478 0.121160515
0001c0 ca 52 1b 3d 49 36 f9 bd 47 99 73 bc 48 af de bd
       0.03792075 -0.12168557 -0.014868087 -0.10873276
0001d0 e2 af 0a 3e b9 70 84 be 87 ac bd bd 4a 09 bc bd
       0.13543656 -0.2586725 -0.092614226 -0.09181459
0001e0 0e 3d fa bd f3 90 59 3e d5 52 2c be 60 aa 20 3d
       -0.122186765 0.212467 -0.16828473 0.039224982
0001f0 b8 79 a3 3d b2 52 41 bd 34 31 29 3e 54 2c 9c 3d
       0.079822004 -0.047198005 0.16522676 0.076256424
000200 24 ef f7 3b f6 34 50 be 69 b0 05 be 9e 53 fe bc
       0.0075663496 -0.20332703 -0.13055576 -0.031045731
000210 ca 49 79 3e 8f bc 75 3d 37 19 10 3e 9b c9 45 be
       0.24344555 0.059994277 0.14072119 -0.19315188
000220 94 07 91 3d 2a b2 04 3d ec ae 94 be dd c1 97 3c
       0.070815235 0.032396473 -0.29039705 0.018525058
000230 45 dc 3b 3c a2 7e f8 3d be e1 db bd 7d b9 4a be
       0.011466091 0.12133528 -0.10736416 -0.1979732
000240 22 cf 0d 3e c0 08 02 3d 8d 08 60 be ee 44 81 3d
       0.13848546 0.031746626 -0.21878262 0.063119754
000250 fe b0 45 3e a0 97 89 bd 18 da 57 be 33 75 1d bd
       0.19305798 -0.06718373 -0.2107929 -0.038441848
000260 81 07 8d bc 19 e1 73 3d ab 08 ee bd 06 aa f3 bd
       -0.017215492 0.05954084 -0.11622747 -0.11897664
000270 b2 63 75 3d 03 ed 22 be 20 75 3c be b8 04 c3 bd
       0.05990953 -0.15910725 -0.18404055 -0.095223844
000280 cf c5 09 3e a5 79 21 3e 89 b9 8b ba 5d 85 7c be
       0.13454364 0.1576906 -0.0010660152 -0.24660249
000290 9d 86 2a be 14 0d ce bb 86 51 82 3d 26 89 80 bd
       -0.16652913 -0.00628818 0.063632056 -0.06276159
0002a0 53 40 2f 3e 27 75 f4 3c 85 6f 2e be 6e b4 85 3c
       0.17114381 0.029841019 -0.17034729 0.016321387
0002b0 98 df 13 bd 78 44 39 be 76 b6 21 be f8 b6 13 3b
       -0.036101907 -0.18092525 -0.1579226 0.0022539478
0002c0 22 a4 07 3d 97 7f 01 bc f0 74 5c 3e e2 09 e2 3d
       0.033115514 -0.007903955 0.21528983 0.11037041
0002d0 c5 6b 09 3e b4 6a d7 3c 8b 36 6a 3e 05 61 b1 3d
       0.13420017 0.026295997 0.22872369 0.08661083
0002e0 19 80 3c 3e 09 56 54 3e 21 97 48 3e a5 cb 85 bd
       0.1840824 0.20735945 0.19588901 -0.06532983
0002f0 69 42 1e 3e a4 f9 18 3e e6 5e 30 be 6b 97 45 3d
       0.15455021 0.1493898 -0.17223701 0.048240107
000300 e7 b1 e7 bc e9 de 46 3c f0 86 19 be b9 22 60 3e
       -0.028283073 0.012138107 -0.14992881 0.21888246
000310 e2 f2 7f be 95 5a 20 3e db bf 0a be 67 18 a6 3a
       -0.24994996 0.15659554 -0.1354975 0.0012672067
000320 09 6c cb 3d e2 49 a9 bd 80 f3 85 3c c9 c7 8c 3d
       0.099327154 -0.08266045 0.016351461 0.068740435
000330 8a dd eb 3d 13 83 82 be d0 92 97 be 15 c0 08 be
       0.115168646 -0.25490627 -0.29604197 -0.13354523
000340 d1 cf 52 3b de 26 69 3e d5 ac 3f 3e d9 3b 2c 3e
       0.0032167325 0.22768733 0.18718274 0.16819705
000350 36 10 6b 3d 63 f6 4d be ac cb 6c 3e 56 0f 13 3c
       0.057388507 -0.2011352 0.2312457 0.008975824
000360 26 cd 1d 3e 26 d8 16 be 2a 01 09 3d 01 a8 8b 3c
       0.15410289 -0.14730892 0.033448376 0.017047884
000370 c9 2a 31 3e 7a f0 5d 3e c0 5e 43 3e 3c a1 58 3e
       0.17301477 0.21673766 0.19079113 0.21155256
000380 4d 0c fa bc 52 f1 2c be 33 55 84 be 83 d7 70 be
       -0.030523444 -0.16888931 -0.25846252 -0.23519711
000390 11 8b 47 be 78 97 39 3e a7 b6 48 3e 69 70 13 be
       -0.19486643 0.18124187 0.19600926 -0.1439835
0003a0 2e 82 ac be 42 7d e9 bd 75 ce 50 bd 85 f4 6c bb
       -0.3369307 -0.11400844 -0.050978143 -0.0036156487
0003b0 c5 c0 ac 3d a8 0f 77 bc ec 7c 12 3e 4b b9 75 3e
       0.08435205 -0.015079416 0.14305466 0.23996465
0003c0 f0 9f 44 3e 0f 00 29 be 56 f1 38 bb 7d 80 a3 bc
       0.19201636 -0.16503929 -0.002822002 -0.019958729
0003d0 dd a2 31 3e 33 a5 2a be b3 c6 04 3c 20 43 9a 3d
       0.17347284 -0.16664581 0.008104014 0.07532334
0003e0 78 7e 57 be a9 5e 25 3e d5 90 74 3e 92 56 ae bc
       -0.21044338 0.16149391 0.23883374 -0.021281514
0003f0 13 44 07 3d b0 91 2b 3e 9b c7 05 3e a5 c3 50 be
       0.033023905 0.16754794 0.13064425 -0.20387132

fc2.weight f4 [300, 400]
000000 6d 86 41 bb b1 8c 3c 3e e9 cc 98 3d 90 32 9d bb
       -0.0029529587 0.18413045 0.074609585 -0.0047972873
000010 c9 e5 7d bd c7 d2 e5 bd 68 59 83 3b 4d e5 05 3e
       -0.06198672 -0.11221843 0.004008461 0.13075753
000020 a5 f5 ba bd 70 ac f3 bb 0f 78 9d 3d 5a a0 ba bd
       -0.09128884 -0.0074363276 0.07688915 -0.09112616
000030 83 8b 7d bc 10 d9 81 3d 23 d7 4f 3d c2 4e 3d bd
       -0.015475157 0.063402295 0.05074228 -0.046217687
000040 f9 df 1a 3e b1 a5 ab bd 13 6f 94 3d 6d b7 1a bb
       0.15124501 -0.083812125 0.07247748 -0.0023607865
000050 f8 ec 44 bb 54 d3 84 bc c2 37 92 bd 86 86 29 3e
       -0.003004847 -0.01621405 -0.07139541 0.16555223
000060 06 27 34 3d 56 12 c1 bc 03 cd 63 bc 71 b6 7b bd
       0.04398253 -0.023568314 -0.013903859 -0.061453287
000070 3d 72 93 bd 13 f6 21 be a1 55 b1 bc fb 33 ba 3d
       -0.071995236 -0.15816526 -0.021647276 0.09091946
000080 d7 70 54 3d e4 3e d9 bd 07 0f 05 3e 8d 6e 49 3d
       0.051865425 -0.106076986 0.12994014 0.049177695
000090 83 85 0e 3e 46 6f 22 3d e1 cc e2 bd a5 fd 84 bc
       0.13918118 0.0396569 -0.11074234 -0.016234228
0000a0 b7 02 bb bc 41 6f 4f bc 68 9b af bd 7e cf dd 3c
       -0.022828443 -0.012660802 -0.08574563 0.027076479
0000b0 0f 9f 54 bd 89 d8 73 bc 29 65 51 bd 7a 18 fd 3c
       -0.051909503 -0.014883169 -0.051121864 0.03089546
0000c0 39 0a 39 bd ec 6e a9 3d 88 8a 80 bd d8 ff 2e be
       -0.045175765 0.0827311 -0.06276423 -0.17089784
0000d0 5b d4 91 bd 2e b8 ee 3d 87 2d 22 bc f4 20 c2 bc
       -0.07120582 0.11656223 -0.00989855 -0.023697354
0000e0 8e af dd 3d 69 70 92 bd 8b 28 4c 3d e9 12 e7 bc
       0.108245 -0.07150347 0.049843352 -0.02820726
0000f0 7c 11 0f 3d f1 69 68 3d 0c a6 0e 3d fb 82 d7 3c
       0.034928784 0.05674166 0.034826323 0.026307574
000100 70 4d e3 3c c0 bb 10 3d 5f ef 9c bd ee 4d 4b 3d
       0.027746886 0.035335302 -0.07662844 0.049634866
000110 f8 e6 ad 3d 7a 2c 0b bc 6d d8 28 bd 2b 68 8d bc
       0.084913194 -0.008494491 -0.041222025 -0.017261585
000120 00 69 9f bc 97 2f 01 3d 51 f2 81 3d cb 60 f1 bc
       -0.019459248 0.031539526 0.06345046 -0.0294651
000130 c4 e3 4e bd ff 3b 94 bd d5 01 9f bd ba 71 18 bd
       -0.050510183 -0.07238006 -0.07764021 -0.037217833
000140 b6 fd 58 bb 7f 3f 9e 3c 42 1d f8 3c 87 49 86 3d
       -0.0033110208 0.019317387 0.030287389 0.06556993
000150 61 64 ca bc 2a a3 a6 bd 81 c0 d8 3d ae 30 6c 3d
       -0.024706068 -0.0813659 0.10583592 0.057663612
000160 57 5a 9c bc 08 3d f5 3c 63 69 30 be 23 ad 88 3e
       -0.019086046 0.029936329 -0.17227702 0.26694593
000170 15 51 6a bd 9b 48 41 bb 5e a4 67 bd ad 7d 23 be
       -0.057206232 -0.002949274 -0.056553237 -0.1596591
000180 f9 4a 53 3d 76 fa 95 3c d7 9f 50 bc 08 64 df 3c
       0.05158517 0.018307906 -0.012733421 0.027269378
000190 1e 44 84 bd 1c 1b 16 be 9b e6 74 3d 24 26 2b bd
       -0.06458305 -0.14658779 0.059790235 -0.04178442
0001a0 c6 41 a9 3c c8 51 1f 3e 1e d3 bf 3d 61 33 b7 bc
       0.020661246 0.15558541 0.09366439 -0.022363367
0001b0 25 05 c8 3c fc c7 b3 3d 85 12 18 3d 01 e0 4a be
       0.024416516 0.08778378 0.037127037 -0.19812013
0001c0 18 83 60 bd fc a3 88 bd a3 93 4d bd 44 06 1b 3d
       -0.05481252 -0.066719025 -0.050189625 0.037847772
0001d0 20 cc cf bd 2a c1 1a be df 96 90 3d a5 16 2e 3e
       -0.10146356 -0.15112749 0.070600264 0.17000826
0001e0 1a 7c 06 3d a2 4c cc bc 2b 44 c7 bd 72 43 eb 3d
       0.032833196 -0.024938885 -0.09729799 0.114874735
0001f0 d1 3e 93 3c 39 4a 1d bd 5f 99 29 bd 94 34 8e bd
       0.01797429 -0.038400862 -0.04140603 -0.06943622
000200 0c ae df 3d c6 41 54 bd 3c 07 92 be 70 c0 5a 3d
       0.10921869 -0.05182054 -0.28521144 0.05340618
000210 33 f4 19 3d f2 54 3e bd 88 82 0b 3e e8 f8 a6 3a
       0.037586402 -0.04646773 0.13624012 0.0012738975
000220 9e 61 74 bd 61 39 b4 bd 90 bd 41 3d f6 87 86 bd
       -0.059663408 -0.08800007 0.04729992 -0.06568901
000230 b5 cc d5 3c 24 1d fd bc eb 55 97 3d 07 38 83 bb
       0.026098588 -0.030897684 0.073894344 -0.0040044817
000240 de f0 c1 bc 7b e5 da 3b 63 9d bb bd 93 d0 72 3d
       -0.023674425 0.0066801882 -0.091608785 0.059280943
000250 6d c4 b5 3d 63 bc 0c 3d 94 0a 8b be 0e e5 10 3d
       0.08875356 0.034359347 -0.27156508 0.035374694
000260 80 52 a5 bd a3 b2 2c 3e 44 2a b0 bd 41 36 e3 3d
       -0.08072376 0.1686502 -0.086018115 0.110943325
000270 68 7c 15 be 45 af d8 bd 1e 84 bb bb 08 c4 fb bd
       -0.14598238 -0.10580305 -0.0057225367 -0.12293249
000280 0c dc 61 bd b8 0e ab 3d 65 a1 1a 3c 2a c3 ab bd
       -0.055141494 0.08352417 0.0094378935 -0.08386834
000290 b2 38 b3 bc 27 39 5d bd 3b e0 07 3e 31 46 d2 3d
       -0.02187762 -0.054009583 0.13269131 0.10267294
0002a0 2d c5 2a bd 45 62 f4 3c e9 b3 0e be f3 36 9e 3d
       -0.041691948 0.029832015 -0.13935818 0.077253245
0002b0 1c 3b 00 be d6 8f 8a bc 8f e9 77 be 46 32 f1 bd
       -0.12522548 -0.01691429 -0.2421019 -0.11777167
0002c0 37 71 de ba 00 fd ed bd 96 0c fe 3d a2 12 19 bd
       -0.0016970997 -0.116205215 0.12404744 -0.037371285
0002d0 5c 1a 1e be a5 05 69 bd c2 8f f9 3d 03 49 8e bd
       -0.15439743 -0.05689015 0.12185623 -0.0694752
0002e0 35 23 b2 bd 64 d5 61 3d 85 b4 90 3d c0 63 51 3e
       -0.086981215 0.055135146 0.07065681 0.20448208
0002f0 f3 1f ea 3a fc ae fb bc e6 d1 8e bd d2 4c 99 bd
       0.0017862305 -0.030723087 -0.06973629 -0.074853554
000300 c9 91 06 3c c9 51 2f bd fd d5 f5 bd eb 27 57 3d
       0.008213469 -0.042802606 -0.12003706 0.052528303
000310 62 6b ba bd 96 d3 40 3b 32 1e d2 3b b6 4e a3 bd
       -0.09102513 0.002942299 0.006412291 -0.07973997
000320 eb df 0f bb 0a 42 84 bd bb 22 c2 bd bc 39 37 bd
       -0.0021953534 -0.064579085 -0.094792806 -0.044732794
000330 14 00 d3 3b 0f d9 66 be 86 36 88 3d 45 b5 b5 bc
       0.0064392183 -0.22543739 0.066510245 -0.022181163
000340 a8 ce 04 3e ab b7 e2 3d 5c 18 0b 3e fe d8 0c bd
       0.12969458 0.11070188 0.13583511 -0.034386627
000350 41 82 dd bd ac 4a 84 bd 61 ad f3 3d 79 8a 0c 3d
       -0.108158596 -0.06459555 0.11898304 0.034311745
000360 ce a7 91 bc d4 43 80 bc 65 dd ed 3c 88 58 90 3d
       -0.01778021 -0.015657343 0.029036233 0.07048136
000370 09 13 8b 3b 06 e3 24 3d 1b 51 0e 3d 3b dc 84 3b
       0.0042442125 0.04025557 0.034745317 0.004054574
000380 f6 8e 2f be 7e 81 5b bd 7b 56 29 be 8b 9b 0c be
       -0.17144379 -0.05359029 -0.16536896 -0.1373121
000390 6a 4c bf 3c 91 66 3b 3d 70 c9 9a 3d e7 62 db bc
       0.023351867 0.04575211 0.075579524 -0.026780559
0003a0 f0 22 b2 3c 47 c0 f6 bd eb 25 df bd bd 1b 83 3c
       0.021745175 -0.12048393 -0.10895904 0.016004438
0003b0 8d 22 11 3b b7 9e 01 3d 81 13 2a 3d 14 ad 24 3d
       0.0022145838 0.031645503 0.041522507 0.040204123
0003c0 9d 71 11 3d 8b 9a 0c be 34 ab 7e bd 9f 99 d0 3d
       0.03550874 -0.13730828 -0.06217499 0.10185551
0003d0 46 6a 57 be 93 fb 25 bd 3e f7 bf 3d 48 34 25 3d
       -0.21036634 -0.040523123 0.093733296 0.040333062
0003e0 a8 1a b5 3c f0 fb e7 3d 56 94 d7 bb e0 11 19 bc
       0.022107437 0.1132735 -0.0065789623 -0.009342641
0003f0 82 5e b0 3d dc e2 0c bd 8d 78 e7 3c e4 b6 07 3d
       0.08611776 -0.034396037 0.028255725 0.033133402

fc2.bias f4 [300]
000000 b1 56 6c 3c 39 a3 90 3c dd 10 5e 3d 14 0e 4b 3c
       0.014424966 0.017655956 0.0542153 0.012393493
000010 5b 86 80 3d 73 a1 13 bd 3c 9a 81 3d 3c c1 b2 bc
       0.06275626 -0.03604264 0.06328246 -0.021820657
000020 f8 9c c8 3c 11 f8 12 be 26 c7 90 bd b4 d5 c5 3d
       0.024488911 -0.14352442 -0.070692345 0.09659901
000030 56 1a 3e 3d 41 c7 3c 3c bd 46 12 3b 0f dc 2b 3c
       0.046411835 0.011522115 0.0022319995 0.010489478
000040 3b 97 44 3d 3e 39 29 bd 6f 48 a0 3c aa 12 d2 3c
       0.047995787 -0.041314356 0.019565789 0.025643665
000050 28 dd 88 3c 7f 2b 74 3d bd 95 65 bd 07 98 1d bc
       0.016707018 0.059611794 -0.056051005 -0.009618766
000060 26 bc 40 3d 30 84 80 bd d3 f4 67 bd f6 b7 bf 3d
       0.047054432 -0.06275213 -0.056629967 0.0936126
000070 71 6b d5 bc 3f 70 a8 bc 62 20 6a ba 83 57 19 3a
       -0.026052209 -0.020561336 -0.0008931217 0.0005849527
000080 6b 88 26 3c 16 9c df 3d ec 91 3a 3c 49 0b 9c bc
       0.0101643605 0.10918443 0.01138733 -0.01904835
000090 8f 5a 80 3d 6c fa d1 3c a6 2e 35 3d 77 6a 64 3d
       0.06267273 0.025632106 0.04423394 0.055765595
0000a0 12 48 ee 3c fb 33 a7 bb 09 ea da bd b2 3a d2 bb
       0.0290871 -0.005102632 -0.1068917 -0.0064156884
0000b0 34 9f d7 3c de c7 b2 3b 74 41 25 3d 02 9b 78 3d
       0.026321031 0.005455955 0.040345624 0.060694702
0000c0 f3 02 43 3b f2 c7 1a 3b fa 17 91 3c 33 60 7e bc
       0.0029756397 0.0023617712 0.017711628 -0.015525865
0000d0 52 e7 29 bb 46 7c 01 bd b7 3b c6 bc 84 cd 2d 3d
       -0.0025925231 -0.031612657 -0.024198396 0.042432323
0000e0 18 6b f5 3c 62 6d 35 3d ad a0 ca bd af 04 8e 3b
       0.029958293 0.04429377 -0.09893928 0.0043340544
0000f0 29 aa 08 3d 67 47 ca bb bc e6 2a 3c 1d 9d 33 bd
       0.033365402 -0.0061730626 0.010430988 -0.043851007
000100 e4 c0 3a bd f7 62 2c 3c 22 56 47 3d 02 0f 02 bb
       -0.04559411 0.010521642 0.048666127 -0.001984537
000110 96 c4 bb bb 28 d1 aa bc 41 3f 31 3d 10 a2 84 3d
       -0.005730222 -0.020851687 0.043273214 0.064762235
000120 ae e0 82 bc 5a 3d 22 3d d0 e5 94 bc 68 03 f9 3c
       -0.015976276 0.03960929 -0.01817599 0.030397132
000130 0c 6c 5f bc 64 a6 84 3d 9f 00 fa bc 98 38 12 bd
       -0.0136366 0.06477049 -0.030517874 -0.035698503
000140 b0 7f 54 3d bd 84 58 bb b1 7c b2 bd 16 ab c2 3b
       0.051879585 -0.0033038103 -0.08715189 0.005940805
000150 7f 24 46 3d f7 15 ab b9 51 96 43 3d 12 32 18 3d
       0.04837465 -0.00032632027 0.047750775 0.037157126
000160 16 6a 62 bd 57 76 71 bc 94 12 65 bc 8c f9 11 3d
       -0.055276953 -0.014737687 -0.01398148 0.035638377
000170 6f bd ba 3d 99 c7 80 bd ae f4 be 3b 19 4f 0c 3c
       0.09118163 -0.0628807 0.005827508 0.00856378
000180 6d 61 e6 3b 80 f3 6e 3d 94 e9 e1 3b f8 2f e5 bb
       0.007030657 0.05833769 0.0068942998 -0.0069942437
000190 94 7b a1 3b fb 4d 24 3c a5 99 86 3c 63 02 7d bd
       0.0049280617 0.010028358 0.016430685 -0.061769854
0001a0 8d b4 38 3d 8f dd c6 bc ef 2d 1d 3d 73 ed 94 bc
       0.04509406 -0.02427557 0.038373884 -0.01817963
0001b0 5a 06 ff bc 2c c1 cb bc 61 a6 7c bd e5 1c 86 3c
       -0.031130958 -0.024872385 -0.06168211 0.0163712
0001c0 57 b0 85 bd a3 a2 03 bb 96 c3 33 bd 52 57 6c 3d
       -0.06527775 -0.0020085953 -0.043887697 0.057700463
0001d0 dc 1b 2e 3d 43 57 84 3c 25 1f ee 3c bb 32 f9 3c
       0.042507038 0.01615489 0.029067585 0.030419698
0001e0 5a 77 d4 3c a5 ad b1 3b 8e d9 da bc 42 b1 1b bd
       0.025935818 0.0054223114 -0.026715066 -0.038010843
0001f0 d6 03 0b 3d ab a8 b0 3c d7 70 f8 3c 6f 2b ae 3d
       0.033939205 0.021564802 0.030327244 0.08504378
000200 40 3d b7 bc b2 e4 e1 3d 03 16 a8 bc cd 10 29 3a
       -0.022368073 0.11029948 -0.020518309 0.0006449342
000210 e9 f1 48 bc 35 89 6c bc 07 14 d3 3b 99 95 ab 3d
       -0.012264707 -0.01443701 0.0064415964 0.08378143
000220 aa 33 36 3d 74 3f 78 bc cc f4 40 3c 2d a7 44 bd
       0.044482864 -0.015151847 0.011777114 -0.048010994
000230 3a 1f ad 3a 65 a3 a7 3d 15 66 9e ba 86 b7 0e bb
       0.0013208159 0.08185462 -0.0012084866 -0.002177687
000240 6f 05 d1 3b d1 48 92 3b f5 33 91 3d f1 a7 ad 3a
       0.0063788216 0.004464247 0.07089988 0.0013248903
000250 67 8e 10 3c 66 c2 54 bc 1b 8a b7 bc e3 45 f5 3c
       0.008823014 -0.012985801 -0.022404721 0.029940551
000260 de a2 e8 3c 16 7a 70 ba 24 93 2c 3c 91 db 92 bc
       0.028397974 -0.00091734657 0.010533128 -0.017926963
000270 45 03 cd 3d fc ba 21 be d8 0e 81 3b 7d 40 1f 3d
       0.10010389 -0.15793985 0.003938537 0.03887986
000280 c5 eb 8d bd 7b 91 e8 3b 11 f8 3f 3d 0a b0 7b 3d
       -0.06929735 0.0070974207 0.046867434 0.06144718
000290 81 d8 2d 3d 9f 79 70 bd 4d d7 85 3c 80 58 ca 3c
       0.042442802 -0.058709737 0.016338015 0.024700403
0002a0 ec e8 3f 3d 5d ea d2 3c 7d 60 b9 3b ee cf b6 3c
       0.04685299 0.025746519 0.0056572543 0.022315945
0002b0 13 ab db 3c 57 c5 84 3d c0 10 37 bd 81 a7 ca 3c
       0.026814973 0.06482952 -0.04469371 0.024738075
0002c0 7a 6b 36 3d 58 59 ef bb a8 f4 d3 3c 30 34 ba 3c
       0.04453609 -0.007304352 0.025873497 0.022729963
0002d0 f4 e0 81 bd ef a6 81 3c 45 6c de 3c 1d f6 75 bb
       -0.063417345 0.01582667 0.027151236 -0.0037530728
0002e0 6c ed 1a bd 4a 79 33 bd da fb f8 3c 2a d0 07 3d
       -0.03782408 -0.043816842 0.03039353 0.033157505
0002f0 cd 33 14 bd ab 68 08 bd b4 c4 f0 bc d4 57 26 bd
       -0.036182214 -0.033302944 -0.02939067 -0.040611103
000300 eb 5e 53 3c 75 0d 9f 3d 85 5d e5 bb 6e 8d 35 bc
       0.012901048 0.077662386 -0.006999674 -0.011081083
000310 c4 d7 cf 3c 33 9c d4 bb 13 f0 5b 3d c8 45 c8 bd
       0.02537144 -0.006488347 0.05369575 -0.09778935
000320 6a e9 f6 3a 20 b0 12 3e 89 7e da bc de 57 76 bc
       0.0018837873 0.14324999 -0.026671665 -0.015035598
000330 77 da df b9 80 c4 ef 3c 3b 18 1d 3c b9 f4 32 bd
       -0.00042696644 0.029268503 0.0095882965 -0.043690417
000340 c0 fc 79 3d 65 59 0c 3d 08 4e 8b bd 8b bb 8f 3b
       0.061032057 0.03426494 -0.06801993 0.0043863705
000350 ad 77 80 3c 7a 62 d7 3c 34 9f 12 3d 24 42 07 bd
       0.015682066 0.026292074 0.03579636 -0.03302206
000360 7d 6e bb bb ba 37 a8 ba 1d 02 d9 3d f1 5b 55 3d
       -0.0057199583 -0.0012833991 0.10596106 0.052089635
000370 1b e2 34 bc d2 f6 12 3d c0 c4 39 bd 88 28 17 bc
       -0.011040236 0.035879917 -0.04535365 -0.009225972
000380 5b 99 ad 3d 05 c1 62 bb 0a 11 b6 3d e6 1c 71 bc
       0.08476516 -0.0034599912 0.08889969 -0.014716363
000390 6c 17 21 3d c7 b1 b6 bd 28 cb 09 3d f7 c8 90 3d
       0.039328977 -0.08920627 0.03364101 0.07069581
0003a0 18 6b 06 bd 06 90 e2 bb 86 67 55 3d ce b7 44 3d
       -0.032816976 -0.0069141416 0.05210068 0.048026852
0003b0 03 41 0f 3d 92 12 b9 b8 a8 fc 26 3d 26 ea ba 3c
       0.03497411 -8.8249464e-05 0.040768296 0.022816729
0003c0 04 3d ae 3c 16 06 86 bc 0f 57 c4 bc 8e 9c 0f 3c
       0.021269329 -0.016360324 -0.023967294 0.008765353
0003d0 a9 c0 11 bd f6 cf 73 bc 93 e7 d1 3c 21 60 39 bd
       -0.035584126 -0.014881125 0.025623119 -0.04525769
0003e0 f7 99 91 bc 7d ef d3 3b fd 1e a0 3d c3 e0 98 3d
       -0.017773611 0.006467758 0.078184105 0.07464745
0003f0 7d 34 c9 bc dc 46 2c bd ea e2 c1 3b c9 ed c8 bc
       -0.024561161 -0.042059764 0.005916943 -0.024527447

fc3.weight f4 [2, 300]
000000 e4 5a 12 be 52 ff 43 be 52 2c 09 be e1 94 0b 3d
       -0.14292485 -0.19140366 -0.13395813 0.03407753
000010 88 1b 26 bd 6f 1a 7b bd fa 8a d8 bd 2c 5f 9e 3c
       -0.0405536 -0.061304506 -0.10573383 0.01933249
000020 00 04 ec bc 88 d3 f2 be ab b4 37 bd af 7c e6 3e
       -0.028810501 -0.4742701 -0.044850033 0.45017
000030 8f 16 dd bd 81 43 b0 3d b2 c8 2f 3d 99 47 5d 3d
       -0.10795318 0.08606625 0.042916007 0.05402336
000040 cc 26 05 be ef 07 81 bc e0 59 26 bd ad d9 6c 3d
       -0.13003081 -0.015750853 -0.040613055 0.05782478
000050 7f aa 95 be 90 7c 82 bc 42 a2 56 bd 2c 01 5c bd
       -0.2923164 -0.015928537 -0.052400835 -0.053712055
000060 3c 96 06 be 96 bb 24 bd b2 bd e6 3c a8 25 a5 3e
       -0.13143247 -0.04021796 0.028166626 0.32255292
000070 5c 57 94 bd ea f7 a8 bc 59 3a 44 bd d9 df ea bd
       -0.07243225 -0.020626027 -0.047907207 -0.11468477
000080 0a 03 21 bd 73 cb cd bc 3f 69 16 be a4 ca 8d bc
       -0.03930954 -0.025121426 -0.14688586 -0.01730854
000090 0d 51 41 3d 6d d9 00 bd 6e 9c 2e be 4d 14 08 3f
       0.047196437 -0.031457353 -0.1705186 0.53155977
0000a0 3a 42 a0 bd c0 b9 34 3c bf 39 1f 3d 03 20 88 3d
       -0.07825132 0.011030614 0.03887343 0.06646731
0000b0 8e 50 83 3d ea e2 35 bd 94 d1 ae bc 64 6b 84 bd
       0.06411849 -0.044405855 -0.021340169 -0.06465796
0000c0 52 3c a4 3c a0 0f f2 bd b7 f2 15 bc f0 c2 cc ba
       0.020048294 -0.118193865 -0.009152106 -0.0015622061
0000d0 c6 60 bb bd 77 6a a3 bc 2a 2c 36 bd 60 6f 50 3d
       -0.091493174 -0.019948227 -0.044475712 0.050887465
0000e0 2a 8a 0a be 8c 02 07 3e f5 79 10 3f b2 d4 3d be
       -0.13529268 0.13184565 0.5643609 -0.18538168
0000f0 41 01 5c 3d 7c 6f fc 3d ed d1 2e bd 42 4a 25 bd
       0.053712133 0.123259515 -0.04268067 -0.04035402
000100 65 46 02 3e 29 94 9d bc 13 4d 1c 3d 37 a8 12 bd
       0.12722166 -0.019235687 0.03815944 -0.035804953
000110 c0 d7 ba bd bf 10 16 bd fb a3 0b be a6 0b e9 bd
       -0.09123182 -0.036637064 -0.13636772 -0.11379175
000120 c0 d3 02 3c 96 14 0a be 15 43 3b 3e f2 9d ab bb
       0.007985055 -0.13484415 0.18287309 -0.0052373344
000130 7d d4 52 3d 4b fc 17 be e6 f1 50 bc 80 61 47 bd
       0.051472176 -0.14842336 -0.012752986 -0.048676968
000140 f4 d6 d2 bc 7e 28 83 bb 5b 81 ea be 51 e7 60 bc
       -0.025737263 -0.00400263 -0.45801815 -0.013727025
000150 e8 41 a6 bd eb 76 10 bd 29 ed 4b 3b 07 a1 ea bd
       -0.08118039 -0.03526966 0.00311167 -0.11456495
000160 c9 07 25 3a 1d fa bc bc e3 07 2c 3d a8 f8 27 be
       0.00062954106 -0.023068482 0.04199971 -0.16403449
000170 4a c4 85 bd 36 c6 34 be c7 0f bb 39 07 93 81 3d
       -0.0653158 -0.17653736 0.00035679174 0.06326871
000180 18 8f 51 3b 9f 86 fb 3d b7 e7 53 3b 5f 91 aa bd
       0.003197616 0.12281536 0.0032334158 -0.083285086
000190 0c 83 81 bd 79 5f 0c 39 61 4f e6 3d 03 31 15 3e
       -0.06323823 0.00013387007 0.11245609 0.14569478
0001a0 a7 c7 15 bd 1d c1 b5 bc 89 67 8d bd d7 2f 11 be
       -0.036567356 -0.02218681 -0.069045134 -0.14178406
0001b0 b5 8f a9 bd 93 31 50 bd 33 96 bb be 64 92 e5 bc
       -0.08279363 -0.050828528 -0.3663803 -0.028023906
0001c0 ec 16 e6 bd be ef c5 3c 7d 62 d7 bb 35 ba e2 bd
       -0.11234841 0.02416217 -0.00657302 -0.110706724
0001d0 48 72 f8 bc de 87 a8 bc 0d 71 2f bd b4 7f 73 be
       -0.030327931 -0.020572599 -0.042832423 -0.23779184
0001e0 6a ed 0f be b4 b3 3d 3e f4 be b7 3e 08 83 0a bd
       -0.1405541 0.18525583 0.35887873 -0.033816367
0001f0 3c c6 aa bd c4 9e 8e 3d 63 eb 4a bd 9a af 6a bd
       -0.083385915 0.06963876 -0.04954089 -0.057296373
000200 7c 75 2f bd 85 b9 84 3e 34 ee 1a bd 58 47 07 be
       -0.04283665 0.2592279 -0.037824824 -0.13210809
000210 de cb cd 3c 9c 9c 25 bd 43 a6 14 bd 67 eb 10 3e
       0.025121626 -0.040432557 -0.036291372 0.14152299
000220 fc 4b 33 bd ea de 18 be 5c 5b 80 3d 49 11 eb bc
       -0.043773636 -0.14928785 0.062674254 -0.028694766
000230 bf 47 f0 3d e5 67 b1 bd 05 68 0e 3e f8 36 1b 3c
       0.117324345 -0.086623944 0.13906868 0.009473555
000240 ee 53 42 bc 92 c0 5c 3d 6b aa f3 3a e0 58 a0 bd
       -0.011860831 0.053894587 0.0018590217 -0.078294516
000250 1c 64 8b bc 59 ff 58 bc c4 21 14 bd 10 24 bb 3c
       -0.01701551 -0.013244473 -0.036165014 0.022844344
000260 89 aa 3d bc 2d 4e b5 3c 73 5f 37 bd 47 6f a6 bc
       -0.011576303 0.022132004 -0.04476876 -0.020316733
000270 ea b6 51 3d 01 de 13 bf 8e 2b 86 3d f5 e6 a6 3d
       0.05119983 -0.57760626 0.06551276 0.0814952
000280 33 d7 f1 bd 4a cf a8 bc b5 00 6f bd 1b c5 3c bd
       -0.11808624 -0.020606656 -0.058350284 -0.046086412
000290 08 ac e5 bc 90 6b c0 bd de 13 6e bd 62 1b 61 bd
       -0.028036132 -0.09395516 -0.058124416 -0.054957755
0002a0 d2 7c da bc ee 43 9e bb c5 39 d2 3c 6e 0f 5f 3d
       -0.026670847 -0.004829875 0.025662312 0.054458074
0002b0 1f 2a e8 bc cd fe 76 3d 90 de a0 bb 9c 7a 5c 3d
       -0.028340397 0.06030159 -0.004909344 0.053827867
0002c0 ff 4a 10 bc c9 bf cf bc ff b6 a8 bd 2e 91 24 bd
       -0.008806943 -0.025360005 -0.08238029 -0.040177517
0002d0 39 e9 62 3c 8a 2b a0 3d 74 8a 17 bc 87 c8 8e 3d
       0.01384955 0.078208044 -0.009249318 0.06971841
0002e0 81 45 04 be 3a 71 dc bc 0c de 14 3d d6 15 3b 3d
       -0.12917139 -0.02690946 0.036344573 0.04567512
0002f0 0e 5b 4c bd b5 62 c4 3c 88 e1 6f bd f6 c0 13 bd
       -0.049891524 0.023972848 -0.058564693 -0.036072694
000300 b3 1c b2 bc 41 20 7f 3d 9d 43 9b 3b fe 9b c8 bd
       -0.0217422 0.06228662 0.0047382847 -0.09795378
000310 4c df 13 bd e0 25 00 bd ac 0f de bd fc 1c 1f be
       -0.036101624 -0.03128612 -0.10842833 -0.155384
000320 79 69 9c bc dd 56 15 3f ea d0 e4 3c 54 e6 cc bc
       -0.019093262 0.5833567 0.02793165 -0.025012173
000330 c8 df 6a 3d b9 cc e9 bd 59 e0 ae bd 59 33 28 bc
       0.05734232 -0.11416001 -0.08538885 -0.0102661485
000340 01 be 83 bc cb 49 d5 bd 85 44 26 be c9 da 03 3e
       -0.016081812 -0.104144655 -0.16237076 0.12876429
000350 98 9d 04 bd 9f 71 d2 bc bd 67 af bc 8b cb 57 3d
       -0.032376856 -0.025688944 -0.021411771 0.052684348
000360 52 8f da 3c 61 3f fb bd 37 ee 02 3f 4f e7 3e bd
       0.026679669 -0.12267948 0.51144737 -0.04660731
000370 7a 9b 16 bd df 29 a1 3d ae 5a ce bb ff 64 4b bd
       -0.036769368 0.078693144 -0.006297431 -0.049656864
000380 4c 0d 0b be 52 bd 69 bc 42 f0 69 be ee 29 45 bd
       -0.13579291 -0.014266329 -0.22845557 -0.04813569
000390 4f 49 30 3c ec 31 0f 3d 78 39 91 bd 85 fb 3f be
       0.010759666 0.03495972 -0.070910394 -0.18748291
0003a0 9f bb 48 bd aa 2a 4f 3d 26 cb d2 bd bf 3f a7 3d
       -0.049007054 0.050577797 -0.10292654 0.081664555
0003b0 48 1a 81 bc 3f 8b 06 bb 93 6b 91 bc 82 ec ef bc
       -0.015759602 -0.0020529774 -0.01775149 -0.02928758
0003c0 6b 89 26 bd e4 f9 3f bc 40 dc 5e bd ab 90 d0 bd
       -0.040658396 -0.011717293 -0.054409266 -0.10183843
0003d0 30 92 38 be 85 7d 07 bc af 2d df bc 2d 20 fa bc
       -0.18024516 -0.008269672 -0.027243463 -0.03053292
0003e0 6a 7a c6 bd 8b 2c 08 3d 9a c8 4f bc 89 c2 10 3f
       -0.096913174 0.033245604 -0.0126821045 0.5654684
0003f0 ba eb 15 3c f1 5d ce bc 36 ce 77 3d cd 70 4a bc
       0.00915044 -0.02519128 0.060499392 -0.012355995

fc3.bias f4 [2]
000000 f4 b2 a8 bc bb bd 1d bc
       -0.020593144 -0.009627755
