Tennis/Nets/checkpoint_critic2100.pth (torch_old, 526870 bytes, 9 tensors)

bn1.weight f4 [24]
0.21367885 0.35795397 0.10823319 0.2641504 0.7817741 0.61025417 0.11851825 0.057860985
0.07202099 0.074149154 0.14221522 0.049600203 0.47628394 0.5160909 0.19178735 0.21277627
0.4904738 0.1546633 0.20187742 0.41068152 0.65806884 0.7358498 0.24330403 0.18643129
00000000: a1ce 5a3e be45 b73e 5da9 dd3d b93e 873e
00000010: 5922 483f 9e39 1c3f b2b9 f23d a4ff 6c3d
00000020: be7f 933d 83db 973d dea0 113e 9529 4b3d
00000030: 7ddb f33e 891e 043f e763 443e 06e2 593e
00000040: 621f fb3e 0e60 1e3e f4b8 4e3e d944 d23e
00000050: 3377 283f a760 3c3f b124 793e d8e7 3e3e

bn1.bias f4 [24]
-0.039541632 -0.059133943 -0.010930148 -0.079950675 0.23462145 -0.14635628 0.009002976 -0.27248672
-0.030173969 0.11244608 -0.03605498 -0.016155494 0.15938362 -0.12405163 0.03842784 -0.07317354
0.02181079 0.10813386 0.11896417 -0.09273931 0.18580279 -0.008149272 -0.024443073 -0.11393847
00000000: 68f6 21bd 6f36 72bd 5d14 33bc 2ebd a3bd
00000010: 9b40 703e 6cde 15be 3881 133c 6183 8bbe
00000020: 662f f7bc 214a e63d 63ae 13bd 8758 84bc
00000030: 7635 233e c80e febd 8366 1d3d 02dc 95bd
00000040: 8bac b23c 4975 dd3d 7da3 f33d 1bee bdbd
00000050: 1643 3e3e 8684 05bc d73c c8bc 9358 e9bd

bn1.running_mean f4 [24]
-5.593264 -0.62258285 4.1491513 0.27669188 0.07685319 3.1477637 4.1491513 0.27669188
-5.855094 -0.6449104 4.388195 0.31079376 0.08281402 3.1548493 4.388195 0.31079376
-6.1124787 -0.6641679 4.716424 0.37501216 0.07468774 3.1506495 4.716424 0.37501216
00000000: 05fc b2c0 9761 1fbf d9c5 8440 8faa 8d3e
00000010: 3565 9d3d f674 4940 d9c5 8440 8faa 8d3e
00000020: ee5c bbc0 d918 25bf 186c 8c40 5c20 9f3e
00000030: 669a a93d 0de9 4940 186c 8c40 5c20 9f3e
00000040: 6d99 c3c0 e806 2abf f2ec 9640 9801 c03e
00000050: e3f5 983d 3ea4 4940 f2ec 9640 9801 c03e

bn1.running_var f4 [24]
16.561468 1.0126748 369.02057 10.405813 37.46802 3.8582194 369.02057 10.405813
15.637851 1.0324404 387.12674 11.117967 40.863937 4.0273595 387.12674 11.117967
14.7494955 1.050885 403.05127 11.904576 44.830532 4.466903 403.05127 11.904576
00000000: e37d 8441 549f 813f a282 b843 367e 2641
00000010: 41df 1542 11ed 7640 a282 b843 367e 2641
00000020: a334 7a41 0227 843f 3990 c143 31e3 3141
00000030: ac74 2342 21e0 8040 3990 c143 31e3 3141
00000040: effd 6b41 6683 863f 9086 c943 2579 3e41
00000050: 7752 3342 dff0 8e40 9086 c943 2579 3e41

fcs1.weight f4 [400, 24]
-0.0030804274 -0.13351366 0.040710766 -0.07297853 -0.29619482 0.01028986 0.043577764 0.045341104
-0.021183725 -0.17011102 -0.13600966 0.13626255 -0.14273365 0.08778708 -0.20591581 0.17903319
-0.022981087 -0.21571527 -0.08094946 -0.14399065 0.22293043 0.20516378 0.04353197 -0.12740016
0.02379622 0.04216905 0.29311928 0.0026509184 0.05749199 -0.15997998 0.20795265 0.15188847
-0.09417961 -0.2217812 -0.12481768 -0.11166646 0.2325289 -0.16207029 -0.21068528 -0.09424852
0.022438174 -0.084820226 -0.12429358 0.16614826 0.26190752 0.3221482 -0.027555462 0.21510193
-0.01467169 0.05405258 0.06550046 0.29777682 0.0035436808 -0.2398375 0.11250268 0.16342703
0.01834876 -0.0013638632 0.074293 0.24913535 0.020696418 0.21478483 0.114906885 0.2869005
-0.028292567 0.1255887 -0.03693656 0.21227342 -0.13307752 0.46372977 -0.03766908 0.33507726
0.014307671 0.02428483 -0.025776753 -0.14174259 -0.10511287 -0.11287727 -0.0682247 0.14421651
0.15218209 -0.090536565 -0.0431916 -0.24152976 0.0878806 -0.07408286 -0.022626814 -0.28399616
0.122628935 -0.104932636 -0.05908228 -0.041361466 0.45375165 0.1966577 0.02882939 0.025641963
-0.016809277 -0.017219013 -0.0234917 -0.1747644 0.10344176 0.20916186 -0.057853922 0.16366254
-0.14748785 -0.17494354 -0.2836788 -0.013271821 0.14593071 0.061075907 -0.47628924 0.03211167
-0.26063654 -0.15438652 -0.4802813 -0.08370071 0.044220705 0.023506695 -0.19813745 -0.07653729
0.013073392 -0.1915491 0.1664089 -0.16999623 -0.06700849 0.12415073 0.13244788 0.11962824
-0.009955149 -0.29452467 0.119986214 0.14716667 0.038572934 0.095902145 0.07786734 0.14063779
-0.03598703 -0.22270206 -0.07670881 0.122701295 0.18511437 0.2828335 0.0034036918 0.23158613
0.025111236 -0.066686705 -0.056677233 -0.047501974 -0.20418666 -0.060537923 -0.03847588 0.06377822
0.051477987 -0.065648355 -0.0802205 -0.009217257 -0.07851995 -0.16332622 -0.07794919 -0.1015337
-0.01818058 0.03284592 -0.13708472 0.23469082 0.23601027 -0.036020216 -0.06546645 0.2630618
-0.035088137 0.12909926 -0.12796372 -0.10422659 -0.051982958 0.055545732 -0.22450344 0.15294465
-0.13998203 -0.11528813 -0.011970159 0.070560955 0.01814007 0.09668362 -0.07562094 -0.021477677
-0.16533583 -0.17399633 0.0054910197 -0.13589674 -0.18809144 0.17260818 0.00077352603 -0.028247748
0.3040488 0.1889429 -0.030369168 -0.084278 -0.0888045 0.13795833 -0.047266312 0.075487174
0.103413075 0.056179628 -0.23275611 -0.031262394 -0.012473082 0.057329983 -0.22630362 -0.065215416
-0.052173045 0.105126895 -0.1997897 0.074681565 0.3057006 0.11198757 -0.15713115 0.095920466
0.0017809019 -0.027836112 -0.1374175 0.014783292 0.2659705 0.17318882 -0.19815315 0.0964326
0.044059508 -0.11251101 0.12554926 0.026128849 0.027922554 0.10132945 0.09435828 0.038089275
-0.040372357 -0.15028979 -0.09968811 -0.11574488 -0.27574965 -0.03321414 -0.056958552 -0.07593839
-0.17088181 -0.11531881 0.0867489 0.063797764 0.006763672 -0.19067557 0.20765232 0.116607785
-0.14684288 -0.25904015 0.005379387 0.15546633 0.14500403 -0.13025823 0.017801056 0.20927133
00000000: ffe0 49bb ceb7 08be 55c0 263d c475 95bd
00000010: d9a6 97be cd96 283c 997e 323d 98b7 393d
00000020: 7e89 adbc 9531 2ebe 1e46 0bbe 6988 0b3e
00000030: c528 12be b6c9 b33d 98db 52be 7a54 373e
00000040: d542 bcbc 77e4 5cbe d5c8 a5bd 4972 13be
00000050: e047 643e 7416 523e 944e 323d 3075 02be
00000060: 4af0 c23c 74b9 2c3d bb13 963e 08bb 2d3b
00000070: b97c 6b3d cbd1 23be 8af1 543e a788 1b3e
00000080: 3de1 c0bd 9c1a 63be 69a0 ffbd 63b1 e4bd
00000090: 0e1c 6e3e c1f5 25be e2bd 57be 5e05 c1bd
000000a0: 43d0 b73c 3ab6 adbd a28d febd c522 2a3e
000000b0: be18 863e 9cf0 a43e febb e1bc ae43 5c3e
000000c0: 8761 70bc 3d66 5d3d 1b25 863d 3476 983e
000000d0: 193d 683b f697 75be ce67 e63d 6a59 273e
000000e0: 2450 963c a8c3 b2ba ee26 983d 561d 7f3e
000000f0: 898b a93c 8ef0 5b3e 4d54 eb3d 9fe4 923e
00000100: d0c5 e7bc 539a 003e ca4a 17bd 345e 593e
00000110: 7945 08be fd6d ed3e e54a 1abd 3f8f ab3e
00000120: b96a 6a3c fbf0 c63c c529 d3bc f824 11be
00000130: 6b45 d7bd 332c e7bd 64b9 8bbd 7ead 133e
00000140: 9fd5 1b3e 3c6b b9bd ade9 30bd 9453 77be
00000150: befa b33d c1b8 97bd de5b b9bc f267 91be
00000160: e124 fb3d ece6 d6bd 4300 72bd a46a 29bd
00000170: 2352 e83e a360 493e 9d2b ec3c 180f d23c
00000180: 9cb3 89bc e30e 8dbc aa71 c0bc 70f5 32be
00000190: 46d9 d33d 872e 563e 3cf8 6cbd 2797 273e
000001a0: 0e07 17be 6624 33be 593e 91be 0d72 59bc
000001b0: dc6e 153e bb2a 7a3d 2fdc f3be 8787 033d
000001c0: 2772 85be 8017 1ebe 6ee7 f5be 476b abbd
000001d0: c520 353d 1d91 c03c 8be4 4abe 95bf 9cbd
000001e0: c831 563c 7325 44be 1867 2a3e 7e13 2ebe
000001f0: bf3b 89bd bd42 fe3d 6ba0 073e a7ff f43d
00000200: ec1a 23bc f0cb 96be 55bb f53d dcb2 163e
00000210: a7fe 1d3d 5868 c43d e978 9f3d 5a03 103e
00000220: 2367 13bd 020c 64be 8219 9dbd d14a fb3d
00000230: 9f8e 3d3e 8dcf 903e 7910 5f3b ea24 6d3e
00000240: 14b6 cd3c 0a93 88bd 6326 68bd 6e91 42bd
00000250: 4f16 51be 9df6 77bd e298 1dbd 289e 823d
00000260: 95da 523d a572 86bd a54a a4bd fa03 17bc
00000270: 11cf a0bd fd3e 27be d3a3 9fbd e7f0 cfbd
00000280: 71ef 94bc 7289 063d f05f 0cbe ca52 703e
00000290: adac 713e ef89 13bd 4613 86bd 09b0 863e
000002a0: 94b8 0fbd 9932 043e ec08 03be c074 d5bd
000002b0: 15ec 54bd ec83 633d 3be4 65be 869d 1c3e
000002c0: 7357 0fbe 2f1c ecbd 7c1e 44bc 4382 903d
000002d0: 7c9a 943c 1002 c63d 27df 9abd f4f1 afbc
000002e0: cc4d 29be 182c 32be 03ee b33b 8428 0bbe
000002f0: 0b9b 40be 33c0 303e 74c6 4a3a d267 e7bc
00000300: 49ac 9b3e 3f7a 413e c3c8 f8bc f299 acbd
00000310: 22df b5bd f344 0d3e 529a 41bd 0599 9a3d
00000320: 3cca d33d 9c1c 663d 9e57 6ebe ff0c 00bd
00000330: e65b 4cbc d8d2 6a3d 23bc 67be a98f 85bd
00000340: 67b3 55bd c54c d73d ac95 4cbe a6f2 983d
00000350: ca84 9c3e bd59 e53d fde6 20be f371 c43d
00000360: 276d e93a 8f08 e4bc 2cb7 0cbe 9f35 723c
00000370: 492d 883e 6958 313e a9e8 4abe 747e c53d
00000380: be77 343d 2c6c e6bd fc8f 003e 2b0c d63c
00000390: d7bd e43c d185 cf3d ea3e c13d 8003 1c3d
000003a0: 7c5d 25bd 91e5 19be 4829 ccbd a70b edbd
000003b0: 0f2f 8dbe 8d0b 08bd 5f4d 69bd 9685 9bbd
000003c0: a4fb 2ebe 452c ecbd 68a9 b13d 67a8 823d
000003d0: cba1 dd3b 7540 43be cfa2 543e 10d0 ee3d
000003e0: fb5d 16be e9a0 84be 9245 b03b 9132 1f3e
000003f0: f07b 143e 6a62 05be 85d3 913c 394b 563e

fcs1.bias f4 [400]
0.0031159078 -0.28329286 -0.0868205 -0.2588652 -0.3064294 -0.13446517 -0.1870001 -0.043152325
-0.004743388 0.075021 -0.22822097 -0.33661348 0.017065525 -0.22803244 -0.15473941 -0.21055152
-0.15153776 -0.4148866 0.066996664 -0.07651777 -0.3229226 -0.20967439 0.04670568 -0.028693251
-0.005148098 -0.038806118 -0.075997174 -0.08994426 -0.13677996 -0.32569373 -0.0715082 0.01834426
-0.1636676 -0.22452481 -0.04961157 -0.2964004 -0.15630595 -0.33943772 -0.31096137 -0.030981744
0.027255174 -0.27656025 -0.11099908 -0.04555983 -0.14339888 0.08622099 0.03699627 -0.013434547
-0.04274386 -0.08890765 -0.26921833 -0.14148492 -0.1914766 -0.073685735 -0.13209856 0.0030090697
-0.17204542 -0.27500334 -0.16886222 -0.05327617 -0.21857502 0.021904446 -0.21348074 -0.39058754
-0.18759015 -0.05613248 -0.37722763 -0.10721344 0.13831694 -0.12801087 -0.22042666 -0.16640496
-0.1113939 0.006554618 -0.040369548 -0.36077872 0.008783374 -0.09090785 -0.19256313 -0.3267572
-0.004383824 -0.09794718 -0.036638696 0.06359542 -0.3811768 -0.019039718 -0.1852537 -0.24942434
-0.32527226 -0.16739535 -0.36835825 -0.2865197 -0.32942167 -0.14332892 -0.2269911 -0.3409801
-0.15359643 -0.31556138 -0.24235979 -0.27935416 -0.18550509 -0.18335366 -0.047797073 -0.12342657
-0.29811022 -0.28478506 0.017622322 -0.13530704 -0.1907419 -0.14293392 0.031512912 -0.20817159
-0.16585658 -0.273829 -0.13362485 -0.3111117 0.004756252 -0.49052352 -0.24814777 -0.29654282
-0.32198492 0.025695663 -0.31512517 -0.05784401 -0.11730082 -0.4107877 0.14701462 -0.14465477
-0.22688036 -0.38428286 -0.15073305 -0.18916279 -0.07909318 -0.16683243 -0.07224756 -0.250735
-0.2520711 -0.17423189 -0.33603767 -0.13854222 -0.0011599394 -0.07179204 -0.1190927 -0.31033927
-0.07143917 -0.03459756 -0.30389223 -0.26883766 -0.16261551 -0.16182768 -0.34410393 -0.18143387
-0.20714931 -0.25717226 -0.28037477 -0.19744417 -0.15022698 -0.28954405 -0.35031146 -0.3104324
-0.08328849 0.1453636 -0.2871684 -0.15567729 -0.22072755 -0.18122043 0.058251318 -0.38576078
-0.020430094 -0.104835875 -0.19280584 -0.080639906 -0.3626735 -0.24568176 -0.28847596 -0.17357749
-0.12916347 -0.2326767 -0.06958588 0.13295144 -0.060452644 -0.22118506 0.07508487 -0.17783518
-0.05050484 -0.056162495 0.0075707226 -0.17302704 0.040774986 -0.12493764 -0.3209096 -0.27416793
-0.14690948 -0.018805562 -0.42712086 0.004694993 -0.3363607 -0.0031503052 -0.28152302 -0.17559767
-0.081335396 -0.2470606 -0.2085918 -0.2033329 -0.1803024 -0.16929285 -0.25260517 -0.24231319
-0.1903472 -0.07257465 -0.049795784 0.011554285 -0.089548975 -0.19113685 0.020800749 0.0046193562
0.19484895 -0.22569428 -0.07003387 -0.094788425 -0.20595403 0.057628065 -0.050888903 0.10501541
-0.21606328 -0.20397756 -0.3009619 -0.32915616 -0.48535907 -0.04065354 0.033645745 -0.17521778
-0.39533117 -0.15641755 -0.35839477 -0.04725222 0.012423644 -0.29472974 -0.15171768 0.026116814
-0.036540747 -0.4054975 -0.13709842 -0.13518956 -0.16257739 -0.2609028 -0.20161429 0.025763642
-0.329031 -0.011500382 0.097081594 -0.35559937 -0.041996527 -0.2319753 -0.19272251 -0.25618345
00000000: 4234 4c3b c30b 91be f2ce b1bd fb89 84be
00000010: 50e4 9cbe 3db1 09be f47c 3fbe 7ec0 30bd
00000020: 6c6e 9bbb 9ca4 993d c2b2 69be 9a58 acbe
00000030: 00cd 8b3c 5681 69be 0274 1ebe d19a 57be
00000040: b72c 1bbe 046c d4be 8c35 893d 59b5 9cbd
00000050: 1c56 a5be e2b4 56be 754e 3f3d 1c0e ebbc
00000060: 60b1 a8bb 2af3 1ebd 68a4 9bbd b234 b8bd
00000070: 0c10 0cbe 54c1 a6be e472 92bd b446 963c
00000080: 7b98 27be d5e9 65be 8035 4bbd cbc1 97be
00000090: ab0e 20be c8ca adbe 5436 9fbe 6dcd fdbc
000000a0: 3e46 df3c 4e99 8dbe 7c53 e3bd f29c 3abd
000000b0: 28d7 12be a194 b03d 6789 173d 931c 5cbc
000000c0: 3014 2fbd 3715 b6bd fcd6 89be 6ce1 10be
000000d0: 7112 44be 8ce8 96bd d844 07be d033 453b
000000e0: ad2c 30be 3dcd 8cbe 38ea 2cbe 1d38 5abd
000000f0: 21d2 5fbe f470 b33c b29a 5abe 17fb c7be
00000100: a217 40be 2ceb 65bd fb23 c1be b892 dbbd
00000110: f5a2 0d3e 4815 03be 87b7 61be 1066 2abe
00000120: 7c22 e4bd 1fc8 d63b 8a5a 25bd fdb7 b8be
00000130: 24e8 0f3c e52d babd 452f 45be b84c a7be
00000140: 2ea6 8fbb 8898 c8bd 7512 16bd 513e 823d
00000150: 9b29 c3be 2ff9 9bbc 25b3 3dbe 1869 7fbe
00000160: 168a a6be b069 2bbe 7499 bcbe b6b2 92be
00000170: f5a9 a8be d1c4 12be 5b70 68be f294 aebe
00000180: 6248 1dbe 4391 a1be 2a2d 78be 8207 8fbe
00000190: 0cf5 3dbe 10c1 3bbe ddc6 43bd 12c7 fcbd
000001a0: e7a1 98be 59cf 91be b05c 903c ee8d 0abe
000001b0: d851 43be 455d 12be af13 013d ef2a 55be
000001c0: 4fd6 29be 5133 8cbe f4d4 08be 084a 9fbe
000001d0: 55da 9b3b e625 fbbe 731a 7ebe 76d4 97be
000001e0: 35db a4be b67f d23c 1658 a1be d7ed 6cbd
000001f0: 6a3b f0bd c452 d2be 008b 163e 6120 14be
00000200: 5353 68be b9c0 c4be c459 1abe e4b3 41be
00000210: 9bfb a1bd 1fd6 2abe 87f6 93bd 5760 80be
00000220: 770f 81be d869 32be 210d acbe 03de 0dbe
00000230: 1c09 98ba b407 93bd e0e6 f3bd cae4 9ebe
00000240: b34e 92bd 2cb6 0dbd c397 9bbe 17a5 89be
00000250: ae84 26be 28b6 25be 642e b0be cdc9 39be
00000260: f31e 54be 15ac 83be 488d 8fbe ce2e 4abe
00000270: 1ad5 19be 1e3f 94be 065c b3be fff0 9ebe
00000280: 2893 aabd 32da 143e bd07 93be de69 1fbe
00000290: 6706 62be d991 39be ef98 6e3d 7082 c5be
000002a0: 035d a7bc 31b4 d6bd e56e 45be 8926 a5bd
000002b0: 57b0 b9be 0094 7bbe 1fb3 93be 4cbe 31be
000002c0: 6e43 04be cd42 6ebe 0b83 8ebd 6c24 083e
000002d0: 319d 77bd 567e 62be 19c6 993d 6d1a 36be
000002e0: 2ade 4ebd a50a 66bd d313 f83b 002e 31be
000002f0: ac03 273d 4edf ffbd 434e a4be bd5f 8cbe
00000300: 706f 16be 1f0e 9abc 96af dabe 75d8 993b
00000310: 7837 acbe 5a75 4ebb c923 90be e0cf 33be
00000320: 2c93 a6bd 74fd 7cbe 1799 55be 8036 50be
00000330: 31a1 38be 1b5b 2dbe 7755 81be f320 78be
00000340: 60ea 42be 05a2 94bd aaf6 4bbd 2f4e 3d3c
00000350: 7465 b7bd 61b9 43be 5566 aa3c f85d 973b
00000360: 7c86 473e 671c 67be eb6d 8fbd 6f20 c2bd
00000370: 9de5 52be 680b 6c3d e270 50bd 5212 d73d
00000380: b13f 5dbe 7edf 50be ae17 9abe 2887 a8be
00000390: fc80 f8be 5484 26bd 1fd0 093d 4a6c 33be
000003a0: d968 cabe ec2b 20be 857f b7be 8b8b 41bd
000003b0: 8a8c 4b3c d1e6 96be e15b 1bbe eef2 d53c
000003c0: c0ab 15bd 5e9d cfbe 8763 0cbe 226f 0abe
000003d0: b07a 26be 0d95 85be fa73 4ebe 460e d33c
000003e0: c076 a8be 196c 3cbc b7d2 c63d 1f11 b6be
000003f0: 8d04 2cbd ef8a 6dbe 0d59 45be 7a2a 83be

fc2.weight f4 [300, 402]
-0.008530842 0.19552097 -0.066207744 -0.3697776 0.07381888 -0.3484947 0.22550216 0.31146184
-0.5559392 -0.392564 0.10313213 -0.15283902 -0.33451995 0.19306652 0.088706754 -0.025585879
-0.102974094 -0.07623728 0.22600687 -0.0706575 -0.19392836 -0.11018988 -0.2722681 0.066171035
-0.30295578 -0.055364057 -0.06442672 -0.11625116 0.4071272 -0.16590138 0.16272804 0.13921987
0.17354533 -0.4521501 -0.15899307 -0.14938627 0.1884061 0.043645266 -0.14904961 -0.03938972
-0.58857584 0.078621395 0.06572726 -0.19846168 -0.25536868 -0.10877115 -0.21288088 -0.24203192
0.19389004 0.15992898 -0.4372282 0.040497426 -0.020333141 0.4758523 -0.07228622 0.09861991
-0.31387976 -0.21852826 -0.10064366 0.11265516 -0.14691837 -0.10813117 -0.28542435 -0.1004471
-0.054141864 -0.20520352 0.008254498 0.14378104 0.0094979 0.069522 0.3283451 -0.06296959
0.059203755 0.06822319 0.012293008 -0.12941861 0.29007024 -0.41107324 0.119995944 0.16516684
-0.27836064 0.23437001 -0.3436244 0.14190619 -0.1687529 0.062345307 -0.06287432 0.061578378
0.04692381 -0.035620987 0.049006686 0.13201843 -0.04427092 0.004577374 -0.35754067 -0.91026276
-0.25788367 -0.13160096 -0.05993537 -0.49474683 -0.07027128 0.04877615 -0.1642468 -0.186956
-0.029571522 -0.38113058 -0.07805909 0.04230761 0.015349968 -0.042619195 -0.3751078 -0.12744932
-0.024690764 -0.04734881 -0.21906522 -0.2035626 -0.016528854 0.2708277 0.06929835 -0.0339874
-0.058278523 0.14307545 -0.6453571 -0.023600772 0.3220928 -0.3637897 -0.3701297 -0.08755417
-0.064852186 -0.20971672 0.013119704 0.1679044 0.12820211 0.21086761 0.28760666 0.25109676
-0.08370609 -0.19054113 -0.4398994 -0.014924963 -0.37902263 -0.3113712 -0.36371255 0.089908324
-0.31748372 -0.11290667 -0.54105514 0.16448395 -0.3127821 -0.29188198 -0.021656634 -0.064537436
-0.16143581 0.058550082 -0.06723356 0.030373253 -0.03229765 -1.0269914 0.3916375 -0.36010274
-0.48880917 -0.7114207 0.40052697 0.043337833 -0.06793941 0.3102407 -0.25133178 -0.011657066
-0.005553631 0.37326732 0.031191107 -0.116544746 -0.002504774 -0.109652855 0.30879706 0.047324937
-0.029615082 -0.13165313 -0.31963894 0.023492837 0.04153545 -0.019832475 -0.21226355 0.16286477
-0.5243928 0.299176 0.12912393 0.09775566 0.18777175 -0.027854403 0.13376507 -0.106533274
0.17076133 -0.8450051 0.19741759 -0.23095876 -0.23365942 0.16117541 -0.52101386 -0.2611721
-0.030706758 -0.41447133 0.058602132 0.1567369 0.19500074 -0.18509977 -0.056048192 -0.057803974
0.01713375 -0.16045785 -0.3819917 0.2925006 0.39102244 -0.0053552724 -0.41217613 0.026117973
-0.33467636 0.008527453 -0.0731152 -0.11649666 0.24879448 0.05016807 0.19047259 -0.89203835
-0.10528331 -0.025000188 0.08225571 -0.1117191 -0.3819436 -0.3977196 0.18207124 -0.26936275
-0.10413768 0.25714585 -0.2329628 0.24114512 -0.06570956 -0.5308746 0.0058730925 -0.592093
-0.043595057 -0.23342167 -0.031964447 -0.04001943 -0.070931464 -0.7277778 0.18903473 0.09594008
-0.23185346 0.023941288 -0.10189646 -0.048154995 0.12115826 0.051776983 -0.22950728 -0.051223677
00000000: f2c4 0bbc a636 483e ed97 87bd 7d53 bdbe
00000010: 5a2e 973d e66d b2be 0aea 663e ed77 9f3e
00000020: 0852 0ebf 26fe c8be f036 d33d d581 1cbe
00000030: 3346 abbe 3bb3 453e e3ab b53d 7a99 d1bc
00000040: 15e4 d2bd 4b22 9cbd 586e 673e e1b4 90bd
00000050: 2895 46be 3bab e1bd b966 8bbe ae84 873d
00000060: 051d 9bbe 6cc5 62bd 28f2 83bd 1715 eebd
00000070: fa72 d03e 0de2 29be 2ea2 263e a78f 0e3e
00000080: deb5 313e 3880 e7be 14cf 22be b7f8 18be
00000090: 87ed 403e 61c5 323d 76a0 18be 1d57 21bd
000000a0: e8ac 16bf 4104 a13d 049c 863d 8a39 4bbe
000000b0: afbf 82be 69c3 debd 72fd 59be 37d7 77be
000000c0: 1c8b 463e 6cc4 233e 60dc dfbe a1e0 253d
000000d0: b091 a6bc eaa2 f33e cc0a 94bd 3cf9 c93d
000000e0: d9b4 a0be dfc5 5fbe 431e cebd c0b7 e63d
000000f0: c571 16be e073 ddbd 2423 92be 36b7 cdbd
00000100: dcc3 5dbd df20 52be e03d 073c 563b 133e
00000110: 149d 1b3c 8d61 8e3d d91c a83e 33f6 80bd
00000120: a37f 723d 9ab8 8b3d 9d68 493c 5086 04be
00000130: 1684 943e 3178 d2be 6fc0 f53d 7f21 293e
00000140: 4985 8ebe b1fe 6f3e 8aef afbe db4f 113e
00000150: 8fcd 2cbe cb5d 7f3d 40c4 80bd 9c39 7c3d
00000160: 2e33 403d 50e7 11bd 3cbb 483d d72f 073e
00000170: 6d55 35bd ccfd 953b 920f b7be fb06 69bf
00000180: 5409 84be 67c2 06be ca7e 75bd 754f fdbe
00000190: 64ea 8fbd 80c9 473d 5030 28be 6571 3fbe
000001a0: fa3f f2bc 8c23 c3be 72dd 9fbd bf4a 2d3d
000001b0: 6f7e 7b3c 7791 2ebd 210e c0be 1382 02be
000001c0: 4944 cabc d3f0 41bd a252 60be b772 50be
000001d0: 8567 87bc eea9 8a3e 4bec 8d3d 5f36 0bbd
000001e0: 76b5 6ebd 5f82 123e 1f36 25bf 6856 c1bc
000001f0: 59e9 a43e a542 babe a481 bdbe 9a4f b3bd
00000200: 39d1 84bd fbbf 56be 07f4 563c 22ef 2b3e
00000210: 6a47 033e aeed 573e 2e41 933e c18f 803e
00000220: 196e abbd 371d 43be 7f3a e1be d587 74bc
00000230: 410f c2be 0c6c 9fbe 8838 babe db21 b83d
00000240: 3a8d a2be 9d3b e7bd 9782 0abf 7b6e 283e
00000250: fa24 a0be 8e71 95be 4169 b1bc 342c 84bd
00000260: 6e4f 25be 36d2 6f3d c0b1 89bd 54d1 f83c
00000270: 8a4a 04bd 7474 83bf b684 c83e 635f b8be
00000280: 3245 fabe ab1f 36bf df11 cd3e 0383 313d
00000290: d123 8bbd ded7 9e3e 8fae 80be 47fd 3ebc
000002a0: 3cfb b5bb e51c bf3e 7e84 ff3c 03af eebd
000002b0: 2227 24bb ad91 e0bd a61a 9e3e cbd7 413d
000002c0: 549b f2bc 14d0 06be b7a7 a3be 0d74 c03c
000002d0: 1321 2a3d b777 a2bc 9e5b 59be 06c6 263e
000002e0: 9b3e 06bf 992d 993e 1039 043e 1f34 c83d
000002f0: 3d47 403e eb2e e4bc b6f9 083e 1e2e dabd
00000300: 0fdc 2e3e 4152 58bf d627 4a3e 7480 6cbe
00000310: 6a44 6fbe 2b0b 253e 2a61 05bf 59b8 85be
00000320: bd8c fbbc 9635 d4be ca08 703d a37f 203e
00000330: 46ae 473e cb8a 3dbe ca92 65bd dcc3 6cbd
00000340: 145c 8c3c 104f 24be 6b94 c3be a3c2 953e
00000350: 1834 c83e 487b afbb c008 d3be 5cf5 d53c
00000360: b35a abbe bbb6 0b3c 6cbd 95bd cd95 eebd
00000370: fbc3 7e3e 097d 4d3d 3f0b 433e a05c 64bf
00000380: c79e d7bd 32cd ccbc af75 a83d fccc e4bd
00000390: 1d8e c3be e7a1 cbbe e270 3a3e eae9 89be
000003a0: 2346 d5bd 9fa8 833e cd8d 6ebe bfee 763e
000003b0: bc92 86bd 66e7 07bf 1273 c03b 6893 17bf
000003c0: bb90 32bd 1706 6fbe 27ed 02bd 6aeb 23bd
000003d0: 8444 91bd a54f 3abf 5292 413e 3c7c c43d
000003e0: fe6a 6dbe 8520 c43c 17af d0bd 2c3e 45bd
000003f0: d221 f83d 1a14 543d f503 6bbe ebcf 51bd

fc2.bias f4 [300]
0.16337687 -0.05866568 -0.06243711 -0.0026438811 -0.06538161 0.06189054 -0.10363479 -0.048286617
-0.06485151 -0.05850264 -0.03365454 0.048746765 -0.07903842 0.053124685 -0.03630668 -0.029873056
-0.11984767 -0.10353691 -0.07087968 -0.012911904 -0.06663104 -0.025503643 -0.029232003 0.017883804
-0.051056363 -0.12087688 -0.035201877 -0.07183146 -0.0023854808 0.041234218 -0.0034642445 -0.08792904
-0.017680468 0.039221983 -0.028511373 0.097521685 -0.12872472 -0.031741347 -0.08298598 -0.032550626
-0.036967393 -0.06255349 -0.043437935 -0.015410802 -0.0769252 -0.062025588 -0.028152881 -0.039221287
-0.070511654 -0.075882986 -0.031218775 -0.10396095 0.022108443 -0.07229349 -0.038578454 -0.04969315
-0.105056494 -0.0379731 -0.021276057 -0.06842123 -0.095879324 0.024560766 -0.13763513 -0.084733665
-0.008137174 -0.026556293 -0.09605419 -0.018139957 -0.058414638 -0.063148715 -0.084023714 -0.025763337
-0.032423712 -0.044461068 -0.07383922 -0.051700532 -0.00029053094 -0.02683647 -0.035983708 0.008347172
-0.05844545 -0.04674675 -0.087797314 -0.045505837 0.04297324 -0.003243163 -0.088190526 -0.04478478
-0.07737822 -0.12397251 -0.0739204 -0.02607633 -0.032548185 -0.06984039 -0.01860397 0.073437616
-0.033536054 -0.057912506 -0.020953542 -0.04592901 -0.05798466 0.22458403 0.24810274 -0.03547379
0.0195123 -0.050815284 -0.08140634 -0.04953669 -0.010776942 -0.07252316 0.047459435 -0.06379926
-0.018325439 -0.059604693 -0.06937564 -0.17304994 -0.073118664 0.0046722176 -0.064160526 -0.051205847
-0.062272117 -0.07748794 0.0030816582 0.012128118 -0.039182276 -0.046303973 -0.06809269 -0.050857566
-0.056150194 -0.008998123 -0.030679418 -0.03408359 -0.013617895 -0.07434909 -0.0017868306 -0.018175682
-0.12060293 0.3225491 -0.100144476 0.014907383 -0.00013072697 0.044932466 0.02888906 -0.051894434
-0.041088343 -0.03168216 -0.080701254 -0.11047322 -0.0108766435 -0.078152224 -0.029992169 -0.028554041
0.035490725 -0.06289087 0.08839287 -0.04450357 -0.10181857 -0.27101588 -0.008528602 -0.088505685
-0.0043564327 -0.010747446 -0.10607958 -0.027422452 -0.08612974 -0.049318932 -0.018541694 0.014989299
-0.03902217 -0.0495823 -0.064986676 0.07658116 -0.059043888 0.09704724 -0.0686762 -0.15973748
-0.05849304 -0.010715419 -0.08078086 -0.038009938 0.14169647 -0.060023982 -0.059683945 0.08139647
0.16678138 0.0055732857 -0.04943051 -0.011024603 -0.05992325 -0.035420187 -0.1497213 -0.064988874
-0.0387004 -0.4065957 -0.075772084 -0.01803007 -0.05946351 -0.036074266 -0.033214558 -0.05525659
-0.0776092 -0.072161764 -0.10566923 -0.085182205 -0.028326642 -0.026812565 -0.09541684 -0.04217643
-0.054362595 -0.03512508 0.004041851 -0.055633288 -0.08548928 -0.043771736 -0.039221548 0.2219573
-0.07553094 -0.0177696 -0.055038106 -0.02960826 -0.12843727 -0.013635825 -0.15809026 -0.01601753
-0.05416357 -0.13153243 -0.01023616 -0.042349413 -0.07383486 -0.055382162 -0.08895511 0.0200693
0.058013614 -0.012452567 -0.049547214 -0.055809747 -0.061487537 -0.06277504 -0.05747317 -0.021072881
0.01829716 -0.066084854 -0.06638817 -0.06875505 -0.05206697 -0.044835288 0.053475205 -0.09432298
0.15914701 -0.13354897 -0.08278583 -0.060127884 -0.019332765 -0.023761144 -0.03127599 -0.064446144
00000000: 444c 273e 6d4b 70bd 0ebe 7fbd f744 2dbb
00000010: cbe6 85bd ef80 7d3d 7a3e d4bd 30c8 45bd
00000020: ded0 84bd 77a0 6fbd 58d9 09bd b0aa 473d
00000030: e5de a1bd 4599 593d 50b6 14bd 57b8 f4bc
00000040: b272 f5bd 290b d4bd 5e29 91bd 738c 53bc
00000050: db75 88bd 04ed d0bc f477 efbc 0e81 923c
00000060: 7a20 51bd 4c8e f7bd d82f 10bd 5f1c 93bd
00000070: ba55 1cbb 36e5 283d 6108 63bb 2414 b4bd
00000080: a1d6 90bc 3ba7 203d af90 e9bc 73b9 c73d
00000090: 6ad0 03be 3703 02bd 8ef4 a9bd ce53 05bd
000000a0: 1f6b 17bd 0b1c 80bd faeb 31bd 977d 7cbc
000000b0: f68a 9dbd 8b0e 7ebd dfa0 e6bc 80a6 20bd
000000c0: 6a68 90bd 8a68 9bbd 84be ffbc 7be9 d4bd
000000d0: c41c b53c 9c0e 94bd 7104 1ebd 0b8b 4bbd
000000e0: dc27 d7bd ae89 1bbd 204b aebc 6e20 8cbd
000000f0: 615c c4bd a933 c93c 39f0 0cbe d888 adbd
00000100: c851 05bc 958c d9bc 0fb8 c4bd 3f9a 94bc
00000110: 3044 6fbd 1d54 81bd a014 acbd a20d d3bc
00000120: bace 04bd cf1c 36bd 0439 97bd f0c3 53bd
00000130: 6752 98b9 28d8 dbbc a763 13bd 94c2 083c
00000140: 7f64 6fbd 8579 3fbd 14cf b3bd 5464 3abd
00000150: b504 303d 3f8b 54bb 3c9d b4bd 3f70 37bd
00000160: 7978 9ebd 4de5 fdbd 9463 97bd 079e d5bc
00000170: 3f51 05bd 7a08 8fbd 5a67 98bc 7666 963d
00000180: 1a5d 09bd aa35 6dbd c3a6 abbc 0f20 3cbd
00000190: 5381 6dbd 5bf9 653e a50e 7e3e f74c 11bd
000001a0: 42d8 9f3c b023 50bd 5eb8 a6bd fce6 4abd
000001b0: c591 30bc 0687 94bd d364 423d 30a9 82bd
000001c0: 3b1f 96bc 0d24 74bd d114 8ebd 0134 31be
000001d0: 3dbf 95bd 6719 993b 9866 83bd 39bd 51bd
000001e0: 0c11 7fbd ffb1 9ebd a5f5 493b 04b5 463c
000001f0: 987d 20bd 3ca9 3dbd 2e74 8bbd 0650 50bd
00000200: bffd 65bd dd6c 13bc 6753 fbbc 3c9b 0bbd
00000210: 971d 5fbc 5644 98bd 1634 eaba 2be5 94bc
00000220: abfe f6bd 2825 a53e 8c18 cdbd 193e 743c
00000230: c113 09b9 1b0b 383d c0a8 ec3c 428f 54bd
00000240: 404c 28bd 27c5 01bd b346 a5bd c93f e2bd
00000250: f333 32bc 460e a0bd 23b2 f5bc 2aea e9bc
00000260: b95e 113d eecc 80bd 5207 b53d 6049 36bd
00000270: 4186 d0bd 98c2 8abe 8dbb 0bbc 7842 b5bd
00000280: 68c0 8ebb 0e16 30bc 4040 d9bd 0da5 e0bc
00000290: ca64 b0bd a602 4abd c0e4 97bc ad95 753c
000002a0: b6d5 1fbd cf16 4bbd bc17 85bd 95d6 9c3d
000002b0: 01d8 71bd b4c0 c63d 1ca6 8cbd 3992 23be
000002c0: 6696 6fbd ba8f 2fbc 6f70 a5bd 4fb0 1bbd
000002d0: e118 113e b5db 75bd 2777 74bd 31b3 a63d
000002e0: bdc8 2a3e 1ca0 b63b a577 4abd 89a0 34bc
000002f0: 1572 75bd c214 11bd 8a50 19be e318 85bd
00000300: 5084 1ebd 502d d0be 652e 9bbd ccb3 93bc
00000310: 0290 73bd 9cc2 13bd fd0b 08bd bc54 62bd
00000320: 92f1 9ebd 8cc9 93bd 1c69 d8bd 0274 aebd
00000330: 460d e8bc 06a6 dbbc e769 c3bd 31c1 2cbd
00000340: 50ab 5ebd 51df 0fbd 8171 843b bbdf 63bd
00000350: 0115 afbd fe49 33bd c6a6 20bd c648 633e
00000360: f7af 9abd 8d91 91bc a36f 61bd 068d f2bc
00000370: 0f85 03be cc68 5fbc 6ae2 21be 3237 83bc
00000380: 9fda 5dbd 70b0 06be 91b5 27bc 9476 2dbd
00000390: bb36 97bd 68d8 62bd 192e b6bd 5f68 a43c
000003a0: af9f 6d3d da05 4cbc 05f2 4abd c398 64bd
000003b0: 5bda 7bbd 3390 80bd fd68 6bbd 09a1 acbc
000003c0: ede3 953c 7f57 87bd 85f6 87bd 73cf 8cbd
000003d0: 2d44 55bd 35a5 37bd d108 5b3d 682c c1bd
000003e0: 6ff7 223e 10c1 08be 9e8b a9bd a848 76bd
000003f0: bf5f 9ebc bba6 c2bc 411b 00bd 57fc 83bd

fc3.weight f4 [1, 300]
-0.10644058 0.030585455 -0.011671219 0.19492114 0.03339863 0.124435045 -0.009161318 0.007664854
0.005535447 -0.031199737 -0.011261504 -0.17548619 0.032126747 0.11524651 0.0048434255 -0.01822177
0.09252615 -0.005767531 0.0050864136 -0.016098114 0.0033080534 0.1817289 0.087108605 -0.0015570681
-0.008154229 -0.06750677 0.18583277 -0.02551263 0.19694585 0.32701904 -0.026418982 0.014320719
0.013581506 0.09908255 -0.11867988 -0.08255868 0.09508834 -0.015527477 0.0017505257 -0.019615162
-0.015225055 0.0278577 -0.09290093 -3.6909772e-05 0.10737328 -0.010299801 0.19648202 -0.006670184
-0.0032863712 -0.018169587 0.0009556896 0.022292307 0.16032882 -0.010930378 -0.022035548 -0.0054568276
0.00133154 -0.028650025 -0.0013676253 -0.027610322 0.009055336 0.11634147 0.17240238 -0.0076713176
0.0033299972 0.02481611 0.012289137 0.007149866 -0.015080657 0.002364834 -0.011596228 0.014020711
0.00884948 -0.02500041 -0.001750792 -0.15408708 0.18400598 -0.007344587 0.005589972 0.11226226
0.027131252 0.030596232 -0.011208324 -0.025848228 0.07832455 -0.0027882084 -0.008252076 0.0040841736
0.022984162 -0.2075991 0.016159086 0.0057886536 -0.05602571 0.01099726 0.30906385 0.11695791
-0.0013349304 -0.01422496 0.0044187945 0.0019179456 0.023432288 -0.06399496 -0.087046854 0.02637392
0.11708087 0.02499321 -0.029687844 -0.22939344 -0.004535738 -0.0032462138 0.07573921 0.016731625
0.0044708257 -0.041330755 0.00021434744 -0.14049955 -0.028861204 0.018283209 -0.013831272 0.011639503
0.012342174 -0.026503202 -0.035019528 -0.11242021 0.02662268 0.026305404 0.0036973394 0.027607393
-0.016452577 -0.0028801048 0.16842496 0.0027037652 -0.1257222 0.010448162 -0.21392494 0.021741826
-0.3372849 -0.09260799 0.2020026 -0.022776438 -0.23185636 0.1808344 0.13382673 0.0275083
-0.024216155 0.26833612 -0.012897356 -0.11009446 -0.22793785 0.021387827 0.3515915 0.0021438715
-0.10434264 -0.00062071555 -0.10433618 -1.0585292e-05 0.14632446 0.10242927 0.00714014 -0.077305235
-0.046277393 0.011988469 0.027682101 -0.0031597412 0.019799428 -0.015838372 0.035670623 -0.09966665
0.00045791373 0.013872966 -0.02955153 -0.17424054 -0.0029914891 0.25924492 -0.0012252545 -0.09418003
0.17076722 -0.08631733 -0.0009949715 0.011103553 -0.10070681 -0.020149386 0.023680134 -0.03921605
-0.07276947 0.012873859 0.029969282 -0.012803428 -0.0016014335 -0.103380345 0.23251587 0.028212985
-0.032500904 0.10018198 -0.0021347934 0.20221469 -0.020953607 -0.002368803 -0.014721486 0.023810199
0.0015487869 -0.027435487 -0.009053073 -0.00966638 -0.004972083 -0.038619664 -0.00036464617 -0.004091022
-0.0034887597 0.022022411 0.0041386816 -0.025365112 -0.00411008 0.0045822444 -0.004791756 -0.09341029
0.025759222 -0.1781641 0.020076154 0.003774379 -0.009657094 -0.0043682638 0.1608268 0.26218382
-0.0006714292 0.14376414 0.0015570429 0.41399705 -0.008840703 0.020720644 -0.024227709 -0.101322055
-0.18257996 -0.017602442 0.0091760345 0.24722455 0.003016575 0.021853937 -0.01490642 0.025852064
0.07043857 0.16362926 -0.01998383 0.041355398 0.027171398 0.0014080948 -0.09554859 -0.0004924128
-0.102737226 -0.096574865 -0.031573575 -0.02878776 -0.1280951 -0.01736272 0.14856732 0.003915766
00000000: 85fd d9bd 598e fa3c a438 3fbc 6899 473e
00000010: 00cd 083d cdd7 fe3d 5a19 16bc 7529 fb3b
00000020: b262 b53b 9796 ffbc 2c82 38bc a7b2 33be
00000030: 5697 033d 5d06 ec3d 99b5 9e3b d245 95bc
00000040: 5a7e bd3d 8ffd bcbb eeab a63b 31e0 83bc
00000050: edcb 583b 2417 3a3e ff65 b23d 8916 ccba
00000060: 5199 05bc fd40 8abd f24a 3e3e ddff d0bc
00000070: 2cac 493e 0a6f a73e 9f6c d8bc 73a1 6a3c
00000080: f784 5e3c cbeb ca3d 700e f3bd 8614 a9bd
00000090: adbd c23d f566 7ebc e571 e53a faaf a0bc
000000a0: 8272 79bc d535 e43c d842 bebd 91cf 1ab8
000000b0: 86e6 db3d 7fc0 28bc 9532 493e 8f91 dabb
000000c0: 2960 57bb 63d8 94bc 3e87 7a3a 5b9e b63c
000000d0: 3d2d 243e 5415 33bc e583 b4bc 30cf b2bb
000000e0: 1287 ae3a 75b3 eabc e441 b3ba 0b2f e2bc
000000f0: d55c 143c 7044 ee3d 408a 303e ad5f fbbb
00000100: 153c 5a3b 284b cb3c 6058 493c 6c49 ea3b
00000110: dc14 77bc 55fb 1a3b 1bfe 3dbc 20b7 653c
00000120: 69fd 103c a9cd ccbc d57a e5ba 01c9 1dbe
00000130: 106c 3c3e dcaa f0bb 152c b73b c1e9 e53d
00000140: 5c42 de3c f3a4 fa3c 1ea3 37bc aabf d3bc
00000150: 9f68 a03d 60ba 36bb b733 07bc 88d4 853b
00000160: 4849 bc3c dc94 54be 0f60 843c bfae bd3b
00000170: 377b 65bd da2d 343c 9e3d 9e3e a187 ef3d
00000180: d5f8 aeba ce0f 69bc 89cb 903b 9363 fb3a
00000190: 12f5 bf3c ca0f 83bd 9f45 b2bd 1e0e d83c
000001a0: 18c8 ef3d 8fbe cc3c ec33 f3bc 1de6 6abe
000001b0: 87a0 94bb 6ebe 54bb 291d 9b3d c310 893c
000001c0: 0180 923b 704a 29bd 74c2 6039 1ddf 0fbe
000001d0: 556e ecbc abc6 953c 8f9c 62bc 9db3 3e3c
000001e0: d436 4a3c 3e1d d9bc a370 0fbd 913c e6bd
000001f0: ce17 da3c 6e7e d73c 104f 723b e628 e23c
00000200: 8ec7 86bc 24c0 3cbb 9877 2c3e a731 313b
00000210: 52bd 00be c52e 2b3c 240f 5bbe ea1b b23c
00000220: 9bb0 acbe 42a9 bdbd c5d9 4e3e a795 babc
00000230: c16b 6dbe a72c 393e e009 093e 1659 e13c
00000240: f560 c6bc 5a63 893e 6f4f 53bc 3479 e1bd
00000250: 8a68 69be 8635 af3c cd03 b43e 3280 0c3b
00000260: 98b1 d5bd 84b7 22ba 35ae d5bd 7c97 31b7
00000270: 14d6 153e 70c6 d13d d6f7 e93b 3552 9ebd
00000280: 5d8d 3dbd 496b 443c 93c5 e23c a913 4fbb
00000290: 6932 a23c 79bf 81bc 5c1b 123d 071e ccbd
000002a0: 2414 f039 704b 633c 0d16 f2bc 1d6c 32be
000002b0: dc0c 44bb c0bb 843e b898 a0ba 76e1 c0bd
000002c0: 9add 2e3e 24c7 b0bd b469 82ba adeb 353c
000002d0: 5f3f cebd 5310 a5bc d7fc c13c 02a1 20bd
000002e0: 2908 95bd e1ec 523c 2482 f53c 78c5 51bc
000002f0: 31e7 d1ba 13b9 d3bd a418 6e3e eb1e e73c
00000300: ab1f 05bd 362c cd3d e4e7 0bbb 5e11 4f3e
00000310: e6a6 abbc eb3d 1bbb 6332 71bc 9b0d c33c
00000320: aa00 cb3a 63c0 e0bc 5753 14bc bc5f 1ebc
00000330: dbec a2bb a72f 1ebd fb2d bfb9 fb0d 86bb
00000340: ada3 64bb 5868 b43c c79d 873b 7fca cfbc
00000350: daad 86bb a726 963b 2a04 9dbb e54d bfbd
00000360: 0105 d33c a670 36be bf76 a43c 925b 773b
00000370: ca38 1ebc a723 8fbb c8af 243e f53c 863e
00000380: da02 30ba e836 133e b115 cc3a 6cf7 d33e
00000390: 99d8 10bc 57be a93c 3079 c6bc f081 cfbd
000003a0: 3ef6 3abe ff32 90bc 1457 163c 6f28 7d3e
000003b0: bbb1 453b 0707 b33c 0f3a 74bc b5c7 d33c
000003c0: 1942 903d 6e8e 273e 21b5 a3bc 4764 293d
000003d0: 8d96 de3c d28f b83a fbae c3bd 4315 01ba
000003e0: e567 d2bd 0bc9 c5bd 4b53 01bd 4fd4 ebbc
000003f0: 5d2b 03be 433c 8ebc 0822 183e d34f 803b
