Tennis/Nets/checkpoint_actor600.pth (torch_old, 525671 bytes, 10 tensors)

bn1.weight f4 [24]
0	0x3f2d8329	0.6777826
1	0x3ef3765a	0.47551233
2	0x3f3f58b6	0.7474474
3	0x3f1e0ce4	0.6173842
4	0x3f5c602a	0.86084235
5	0x3f4002c7	0.7500424
6	0x3f0cd186	0.5500721
7	0x3e191159	0.14948024
8	0x3f3754fa	0.7161404
9	0x3e8783c0	0.26467705
10	0x3f289f0e	0.658677
11	0x3f29aab7	0.66276115
12	0x3f03fc99	0.5155731
13	0x3f854e0e	1.0414445
14	0x3f1ea107	0.6196446
15	0x3f518263	0.8183958
16	0x3f50ae19	0.8151565
17	0x3ee9687b	0.45587525
18	0x3eebda19	0.46064833
19	0x3f8733b0	1.0562649
20	0x3df71c5f	0.12065958
21	0x3f1b7eb1	0.6074019
22	0x3f1ee2a2	0.62064564
23	0x3f671c9b	0.90278023

bn1.bias f4 [24]
0	0xbdbce0b2	-0.09222545
1	0xbbb196ad	-0.0054195733
2	0x3d6e6a0f	0.058206614
3	0x3d13d3e4	0.036090747
4	0x3d6b3596	0.05742415
5	0x3c850a4a	0.016240258
6	0x3d141065	0.036148448
7	0xbd1077fd	-0.03527068
8	0xbe1767de	-0.14785716
9	0x3cb2d454	0.021829762
10	0xbcc1fd46	-0.02368034
11	0x3caf641b	0.021410039
12	0x3c7dcc8a	0.01549066
13	0x3bd9d1a0	0.0066473037
14	0xbd1e5b52	-0.03866131
15	0x3cf38372	0.029725764
16	0xbd1d496d	-0.038400102
17	0x3bdc4f11	0.0067232926
18	0x3cc12dea	0.023581464
19	0xbd738f49	-0.05946282
20	0x3d5fa98e	0.05460506
21	0xbc17dbb6	-0.009268692
22	0x3cde9238	0.027169332
23	0xbde5d4e0	-0.11222243

bn1.running_mean f4 [24]
0	0xc0f153bb	-7.541471
1	0xbfaa407f	-1.3300933
2	0x3f674811	0.9034434
3	0x3e6f184d	0.23349114
4	0x3eafc70b	0.34331545
5	0x403eba19	2.9801085
6	0x3f674811	0.9034434
7	0x3e6f184d	0.23349114
8	0xc101fdc6	-8.124456
9	0xbfb328e1	-1.399685
10	0x3f898a62	1.0745356
11	0x3eb9fe66	0.36326903
12	0x3ec3448e	0.3813824
13	0x403912ba	2.891768
14	0x3f898a62	1.0745356
15	0x3eb9fe66	0.36326903
16	0xc10b7126	-8.715124
17	0xbfb9f202	-1.452698
18	0x3fa20ca6	1.266011
19	0x3f083a1b	0.5321366
20	0x3ed82444	0.42215168
21	0x402fe714	2.748479
22	0x3fa20ca6	1.266011
23	0x3f083a1b	0.5321366

bn1.running_var f4 [24]
0	0x4193871c	18.440971
1	0x3f20d1e2	0.62820256
2	0x4305a61f	133.64891
3	0x403abeb2	2.917889
4	0x4228250c	42.03618
5	0x40af61ec	5.4807034
6	0x4305a61f	133.64891
7	0x403abeb2	2.917889
8	0x417238dd	15.138883
9	0x3f11ee75	0.5700448
10	0x431130ff	145.19139
11	0x406fc22d	3.7462265
12	0x42367bec	45.621017
13	0x40c85b2c	6.2611294
14	0x431130ff	145.19139
15	0x406fc22d	3.7462265
16	0x41310898	11.064598
17	0x3f0678c0	0.52528
18	0x431e3b4d	158.23164
19	0x409770e5	4.732531
20	0x4245298b	49.29057
21	0x40f411e6	7.627185
22	0x431e3b4d	158.23164
23	0x409770e5	4.732531

fc1.weight f4 [400, 24]
0	0xbd13e262	-0.036104567
1	0xbd5b8aba	-0.053599097
2	0xbcd65f92	-0.026168618
3	0xbd313a96	-0.043268763
4	0x3d1d3640	0.038381815
5	0x3d44e9eb	0.048074644
6	0xbc4200b4	-0.011840988
7	0xbdcfc8e6	-0.1014574
8	0xbd4b287e	-0.049599163
9	0xbb0a1054	-0.0021066861
10	0x3da2df15	0.07952706
11	0x3bd4a3a1	0.0064892326
12	0xbc44dd54	-0.012015659
13	0x3db41f97	0.08795088
14	0x3c0c7b52	0.008574324
15	0xbc720138	-0.014770798
16	0xbca11853	-0.019664919
17	0xbd70286d	-0.058632303
18	0x3b3db535	0.002894712
19	0xbdaa3cb3	-0.08312359
20	0x3d47a22a	0.048738636
21	0x3d578286	0.05261471
22	0x3da1056c	0.07862362
23	0xbddbde9e	-0.1073582
24	0x3ccfd4bd	0.025369996
25	0xbde608e0	-0.112321615
26	0xbce02651	-0.02736202
27	0xbd231d92	-0.039823122
28	0xbe87c0c6	-0.26514262
29	0x3ebe03b8	0.37112212
30	0xbd8d63b7	-0.06903785
31	0xbc20741e	-0.0097933095
32	0x3dbc25e3	0.09186914
33	0xbc1a5295	-0.009419103
34	0xbdae9703	-0.08524897
35	0x3d8e4c00	0.069480896
36	0xbe967b65	-0.29391018
37	0x3ecffbae	0.40621704
38	0xbdf40cea	-0.11916526
39	0x3dbd6da2	0.092494264
40	0x3df7c4dd	0.120980956
41	0x3d1aa93d	0.037759054
42	0x3dc197b5	0.09452764
43	0x3e5d31bf	0.21601008
44	0xbe3d9c56	-0.18516669
45	0x3ebbcc07	0.36679098
46	0x3d8366d7	0.064160995
47	0x3e008953	0.12552385
48	0xbdd455c5	-0.10367922
49	0xbdf0f130	-0.11764753
50	0xbab5ef60	-0.0013880543
51	0x3d1b9e97	0.03799304
52	0x3e75a999	0.23990478
53	0x3c6152d0	0.013752654
54	0xbc91bf0d	-0.017791295
55	0xbcf28645	-0.02960504
56	0xbda6c4e1	-0.081430204
57	0xbdced3e0	-0.10099006
58	0xbe1e1465	-0.15437467
59	0x3e19a142	0.15002921
60	0x3e290eb9	0.16509522
61	0x3c0df777	0.008664957
62	0xbe54eb8e	-0.20792982
63	0x3e054868	0.13015902
64	0xbe3750dc	-0.17901939
65	0xbcb9f95d	-0.022701913
66	0xbe053f06	-0.13012323
67	0xbcb874c2	-0.022516612
68	0x3d9f6b14	0.077840954
69	0xbd45c85f	-0.048286792
70	0xbe3811f9	-0.17975606
71	0x3d517d4e	0.05114489
72	0x3c3c279b	0.011484052
73	0x3dddc4c8	0.10828549
74	0x3d59cfa4	0.053176537
75	0x3c8994f8	0.016794667
76	0x3dabb89e	0.08384822
77	0xbc615413	-0.013752955
78	0x3d6c12ed	0.057635237
79	0x3d18c9d5	0.037301857
80	0x3d775700	0.060385704
81	0x3dac13ad	0.0840219
82	0x3b7f16be	0.0038923468
83	0xbcec33e9	-0.028833346
84	0x3dceff40	0.10107279
85	0xbd607cea	-0.054806627
86	0x3d202800	0.039100647
87	0xba7f281c	-0.0009733455
88	0x3dc1e97f	0.09468364
89	0x3e3518fd	0.17685314
90	0x3d9f417a	0.077761605
91	0xbd0a7cc7	-0.033810403
92	0xbc6a015d	-0.014282552
93	0xbb6c7d8f	-0.003608558
94	0x3df6b84c	0.120468706
95	0xbd5103af	-0.051028904
96	0xbd286334	-0.041110232
97	0x3e88b773	0.2670246
98	0x3d71a86b	0.058998507
99	0xbcb1fe4f	-0.02172771
100	0x3d23132e	0.039813213
101	0x3ddea1a9	0.10870678
102	0x3db55f23	0.088560365
103	0x3c2bdadf	0.010489195
104	0xbd5cd631	-0.053915206
105	0x3e9d1765	0.3068191
106	0x3d64bc09	0.055843387
107	0xbb799a93	-0.0038086518
108	0x3d264a9b	0.040598493
109	0x3dc55dbe	0.096370205
110	0x3de9ac53	0.11409821
111	0xbc2f09c9	-0.010683485
112	0xbd94ea0c	-0.072712034
113	0x3e9c45d9	0.3052204
114	0xbdf1d94b	-0.118090235
115	0xbdbb837c	-0.09155938
116	0x3c25fe00	0.010131359
117	0x3d4928f8	0.049111336
118	0xbe0ad400	-0.13557434
119	0xbdf10bcd	-0.11769829
120	0x3de47b9c	0.11156389
121	0xbd09b19c	-0.033616647
122	0x3c384eb2	0.011249231
123	0x3e1a5ece	0.15075228
124	0x3d908f50	0.07058585
125	0x3e201944	0.15634638
126	0x3d552f51	0.052047078
127	0x3c7c575e	0.015401689
128	0x3daaf8a2	0.08348204
129	0x3cb28b9a	0.021795083
130	0xbd2c865e	-0.04212033
131	0x3c7b5506	0.015340095
132	0x3daffc00	0.08592987
133	0x3df39972	0.11894502
134	0xbd4aa006	-0.049469016
135	0x3c2b3976	0.0104507115
136	0x3dfb38d5	0.12266699
137	0x3d4623df	0.048374053
138	0x3d12c4d3	0.035832237
139	0x3de1b963	0.11021688
140	0x3d1537d5	0.0364302
141	0x3d76c048	0.060241967
142	0x3d3baf2e	0.04582136
143	0x3d70f987	0.058831718
144	0x3e322cc7	0.17399894
145	0xbe199cd4	-0.15001231
146	0x3ddf61f5	0.10907356
147	0x3d1de077	0.038544144
148	0x3ead2e9a	0.33824617
149	0xbdb1b80f	-0.086776845
150	0x3dafe156	0.08587901
151	0xbd28cb2f	-0.041209396
152	0x3e56d501	0.20979692
153	0xbe029e85	-0.12755783
154	0x3e4349f4	0.1907118
155	0x3e0054e2	0.1253238
156	0x3e8e23ee	0.27761787
157	0xbdc029f6	-0.093830034
158	0x3e36b22c	0.17841405
159	0x3e273cdd	0.16331811
160	0x3e5520c5	0.20813282
161	0xbd94339a	-0.07236405
162	0x3e87654a	0.26444465
163	0xbb90e2e7	-0.00442158
164	0x3e6b9250	0.23005033
165	0xbe0bac11	-0.13639857
166	0x3e69ee29	0.22844757
167	0xbd50a0c7	-0.05093458
168	0x3c852f17	0.016257806
169	0xbcfb8941	-0.030705096
170	0xbd97d4f4	-0.074136645
171	0x3d1cf688	0.038321048
172	0x3bb538c8	0.0055304505
173	0x3d583f7e	0.052794926
174	0xbc857fb7	-0.01629625
175	0x3d813173	0.0630826
176	0x3d026b79	0.031840775
177	0xbd8ef3a5	-0.06980065
178	0xbd06af01	-0.03288174
179	0x3c6ae175	0.01433598
180	0xbce185e0	-0.027529657
181	0x3d8ae9c1	0.06782866
182	0xbcc9fbff	-0.024656294
183	0xbad94464	-0.0016576168
184	0xbcc6b379	-0.024255501
185	0xbd91f3e9	-0.071266
186	0xbd85a558	-0.065256774
187	0x3c40975b	0.011754836
188	0x3c1494f4	0.009068716
189	0xbd0f0875	-0.034920175
190	0xbd093db7	-0.03350612
191	0xbc8d0e49	-0.017218726
192	0xbd850ba1	-0.06496359
193	0x3d9b334b	0.07578143
194	0x3c2e1958	0.01062616
195	0x3c9b7ead	0.018981302
196	0xbdad5565	-0.08463553
197	0xbd3330cf	-0.04374772
198	0xbcb941d5	-0.022614399
199	0x3d471d8c	0.048612162
200	0xbc5073ca	-0.012722919
201	0x3dea6c7c	0.11446473
202	0xbd63d7c9	-0.05562571
203	0x3cf77c70	0.030210704
204	0xbdb0dea6	-0.08636217
205	0xbdcede04	-0.1010094
206	0x3c38601b	0.011253382
207	0x3d996a43	0.07490971
208	0xbdf00bcd	-0.11721001
209	0x3d53cc3d	0.05170845
210	0xbd7eff22	-0.062255032
211	0xbdf73938	-0.120714605
212	0xbc39b160	-0.011333793
213	0xbdb9055b	-0.090342246
214	0xbdd16efd	-0.102262475
215	0xbd979db8	-0.07403129
216	0x3dbd56fa	0.09245105
217	0xbc7e4277	-0.015518776
218	0x3ab995b9	0.0014159001
219	0xbd2e1bf0	-0.042507112
220	0xbd02b685	-0.031912345
221	0x3e065f3e	0.1312227
222	0xbc9c6e82	-0.019095663
223	0x3ba58c76	0.0050521446
224	0x3db7cb7d	0.08974359
225	0xbd97b37d	-0.074072815
226	0x3d4cb678	0.049978703
227	0x3d1a2901	0.03763676
228	0xbd0f77c8	-0.03502634
229	0x3debe498	0.1151821
230	0x3d282186	0.041047595
231	0x3c7fe74c	0.01561911
232	0x3d8a12d4	0.067418724
233	0x3ccd6f3f	0.02507746
234	0xbd243a84	-0.040094867
235	0x3dd561f0	0.10419071
236	0xbd163462	-0.03667105
237	0x3e0e8424	0.13917595
238	0x3c6c881d	0.014436749
239	0x3d22c224	0.03973593
240	0xbe093c86	-0.13401994
241	0x3da51be4	0.0806196
242	0xbdbc9e73	-0.09209909
243	0x3dd39d49	0.10332734
244	0x3d463b7c	0.048396572
245	0xbdc09226	-0.094028756
246	0xbe18e897	-0.14932476
247	0xbc8336dc	-0.01601737
248	0xbe29d6cf	-0.16585849
249	0x3e240aff	0.1601982
250	0xbdcce46b	-0.10004505
251	0x3d4d1730	0.05007094
252	0x3bf53e2d	0.0074842186
253	0xbe2189e7	-0.15775262
254	0xbd8af9b8	-0.06785911
255	0x3d921300	0.0713253

fc1.bias f4 [400]
0	0x3dd7d592	0.10538782
1	0xbdab8943	-0.0837579
2	0x3cdeccbf	0.02719724
3	0xbd0847b9	-0.033271525
4	0xbe3c9463	-0.1841598
5	0x3d6072e4	0.05479707
6	0xbdab1d24	-0.083551675
7	0x3e34d95f	0.17661045
8	0x3d02acaf	0.031902965
9	0x3e11a2cf	0.14222263
10	0x3a0c87dc	0.0005360821
11	0x3e0b48f4	0.13602048
12	0x3e22c802	0.1589661
13	0xbe8897d3	-0.26678333
14	0x3d4b586c	0.049644873
15	0xbe168b04	-0.14701468
16	0x3e060577	0.13088022
17	0xbe08029f	-0.1328225
18	0x3e4ca407	0.19984446
19	0x3e2a8582	0.16652492
20	0xbd0d9e92	-0.034575053
21	0x3c522d07	0.012828118
22	0x3dd71d67	0.10503655
23	0x3dc6b59b	0.09702607
24	0x3e3cbbe1	0.18431045
25	0x3e044c02	0.1291962
26	0x3e1b7d8a	0.15184608
27	0x3e467aa1	0.19382717
28	0xbd903f2d	-0.070433
29	0xbe557dd6	-0.20848784
30	0x3ddc66d5	0.10761801
31	0x3d91b809	0.0711518
32	0xbd17da4d	-0.037073422
33	0xbd981433	-0.07425728
34	0x3de033b9	0.10947365
35	0x3ca8862a	0.020571787
36	0x3dc64ca4	0.09682587
37	0xbe9944e0	-0.2993536
38	0xbda18f1d	-0.07888625
39	0x3c4d83bc	0.012543615
40	0x3d86da0b	0.06584557
41	0xbc04e062	-0.008110138
42	0x3d9f459c	0.07776949
43	0x3d887bd7	0.066642456
44	0xbc6c5464	-0.014424417
45	0x3e1e1f20	0.15441561
46	0x3de98acd	0.11403427
47	0x3e4511e8	0.19245112
48	0xbc24445d	-0.010026065
49	0x3ddec9d4	0.108783394
50	0xbd9e6206	-0.0773354
51	0xbd8a9a59	-0.06767721
52	0xbd6117e8	-0.05495444
53	0x3e1339c3	0.14377503
54	0x3d0dfd64	0.03466548
55	0x3e467a42	0.19382575
56	0x3e7811a7	0.24225484
57	0xbd6590d4	-0.056046322
58	0x3dc7a169	0.097475834
59	0x3e2183d2	0.15772942
60	0xbe95d75f	-0.29265878
61	0x3e30498a	0.17215553
62	0x3ddfd8c3	0.10930016
63	0xbe75e67d	-0.24013706
64	0xbe477f9d	-0.19482274
65	0x3dec6c1c	0.11544058
66	0xbdb30549	-0.087412424
67	0x3db1762e	0.08665119
68	0x3e0bd929	0.13657059
69	0x3d9f2df0	0.07772434
70	0x3ab0073d	0.0013429892
71	0x3ceee5fc	0.0291624
72	0x3dcd4073	0.10022058
73	0x3e3aec87	0.1825429
74	0x3e0be31d	0.13660856
75	0xbe6cd488	-0.23127949
76	0x3e084cf8	0.13310611
77	0xbc8266e5	-0.015918205
78	0xbcb6cd39	-0.022314655
79	0xbe336e3a	-0.17522517
80	0x3e10779b	0.14108126
81	0x3d79f959	0.061028812
82	0x3e05ac7d	0.1305408
83	0x3e5b4124	0.21411568
84	0xbe7c77b6	-0.24655041
85	0x3db5c72c	0.0887588
86	0x3da1ab39	0.07893986
87	0xbe892691	-0.26787236
88	0xbd223f3b	-0.039611083
89	0x3d5c8619	0.053838823
90	0xbc3aa13a	-0.0113909785
91	0xbe49b559	-0.19698085
92	0xbcbb4653	-0.022860682
93	0x3d970f66	0.07375984
94	0xbe01db21	-0.12681247
95	0xbcb17486	-0.021662008
96	0x3dcd79dc	0.100330085
97	0xbda961d1	-0.0827061
98	0xbdea88d7	-0.114518814
99	0xbdfbdcd2	-0.122979775
100	0xbde03e89	-0.10949428
101	0xbe2ae476	-0.16688713
102	0x3d8e7878	0.06956571
103	0x3cfbd83d	0.030742759
104	0xbd67edf4	-0.056623414
105	0xbd03b1ee	-0.03215211
106	0x3e281f81	0.16418268
107	0xbc1fe9c6	-0.009760326
108	0xbe259902	-0.16171649
109	0x3d9f65fc	0.07783124
110	0x3dc670d9	0.09689493
111	0xbc40e3bc	-0.011773046
112	0x3deaef32	0.11471404
113	0xbd8dd5c0	-0.06925535
114	0xbc61482a	-0.013750115
115	0xbd9c8210	-0.07641995
116	0x3d882764	0.06648138
117	0xbe914444	-0.28372395
118	0xbcc500c7	-0.024048222
119	0xbe10098e	-0.14066145
120	0xbd5e1997	-0.054223623
121	0x3e301813	0.17196684
122	0xbe12e3af	-0.14344667
123	0x3c354e28	0.011065997
124	0x3d3674ec	0.0445451
125	0xbe1dc494	-0.1540702
126	0x3e1efcc1	0.15526105
127	0x3d8ce0ce	0.068788156
128	0xbd8f7bfe	-0.070060715
129	0xbeaa3626	-0.33244437
130	0xbd802d9f	-0.062587015
131	0xbc7c7a49	-0.015410014
132	0x3e36b8fb	0.17844002
133	0x3d73d8e1	0.059533004
134	0x3d4f380f	0.05059057
135	0xbe376217	-0.17908512
136	0x3b3c2ea8	0.0028714333
137	0x3dcade02	0.09905626
138	0xbe04ec2a	-0.12980714
139	0x3ba90599	0.005158138
140	0x3d87d068	0.06631547
141	0x3deb3e8a	0.11486538
142	0xbd626c45	-0.055279035
143	0xbe0563e1	-0.13026382
144	0x3dec50fb	0.11538883
145	0x3e0679da	0.1313242
146	0xbdeeec66	-0.11666183
147	0x3d8421df	0.06451773
148	0x3daa015c	0.083010405
149	0xbdad66ca	-0.08466871
150	0xbe4b7485	-0.19868667
151	0xbd92a278	-0.07159895
152	0xbca32e8d	-0.019919658
153	0x3d7d1108	0.06178382
154	0xbd957508	-0.072977126
155	0xbe17a5a4	-0.1480928
156	0x3dbbff1b	0.09179517
157	0xbb78ee94	-0.0037984
158	0xbe51209f	-0.204226
159	0xbdbc63d8	-0.09198731
160	0x3e02e0ae	0.12781021
161	0x3e13f088	0.14447224
162	0xbdb104f0	-0.0864352
163	0xbe1b063e	-0.151391
164	0xbe2ad871	-0.16684128
165	0x3b8c5204	0.004282238
166	0x3dea2771	0.11433304
167	0xbd1e09cc	-0.03858356
168	0x3dc38330	0.095465064
169	0x3cd00932	0.02539501
170	0xbdc6991d	-0.09697173
171	0x3db7a0d0	0.089662194
172	0xbe53ecbf	-0.2069578
173	0xbe0c1d47	-0.13683043
174	0xbca21051	-0.01978317
175	0x3d08c8a7	0.033394482
176	0x3d1de4f4	0.038548425
177	0xbd218e32	-0.03944225
178	0x3e186e20	0.1488576
179	0x3e04a36d	0.12952967
180	0x3e1fdd36	0.15611729
181	0xbdbb76c2	-0.09153511
182	0x3e2220b4	0.15832788
183	0x3e1bcc6e	0.15214702
184	0x3e58c507	0.2116891
185	0x3e3896d8	0.18026292
186	0x3dba27a3	0.09089591
187	0xbe077aa9	-0.13230385
188	0x3e03887d	0.12845035
189	0x3daac180	0.083376884
190	0xbd830fcf	-0.063994996
191	0xbcc9af88	-0.024619833
192	0xbc5d583e	-0.013509808
193	0x3c9bf8fd	0.019039625
194	0xbdb6fa41	-0.08934451
195	0x3e0d6849	0.13809313
196	0xbc803ba4	-0.015653439
197	0x3df2ff59	0.1186511
198	0xbbb79e3e	-0.0056035807
199	0x3d1c9f39	0.038237784
200	0x3dd86653	0.10566392
201	0xbcbfc5f5	-0.023409823
202	0x3d32a086	0.04361012
203	0xbd0bbd54	-0.034116104
204	0x3d8b27fe	0.06794737
205	0xbe1a75b7	-0.15083967
206	0xbe1bb148	-0.15204346
207	0xbdb2aaf1	-0.08724011
208	0xbda50263	-0.08057096
209	0x3e486123	0.19568305
210	0x3e1f6fe2	0.15570024
211	0x3debb8b1	0.115098365
212	0x3da6a39d	0.081366755
213	0xbe348c1a	-0.1763157
214	0x3e21441b	0.15748636
215	0x3de1eaaf	0.110310905
216	0x3e252b97	0.1612991
217	0xbcdf8632	-0.027285669
218	0x3d86472e	0.06556545
219	0x3be89620	0.0070979744
220	0x3e19187a	0.14950743
221	0x3e34dafd	0.17661662
222	0x3e5d05f3	0.215843
223	0x3e4284dd	0.18995996
224	0xbd12271a	-0.03568182
225	0xbe2b428e	-0.16724607
226	0xbe054ef4	-0.130184
227	0xbe296a84	-0.16544539
228	0xbe15aacd	-0.14615937
229	0x3e37f1fb	0.17963402
230	0x3e0e5384	0.13899046
231	0xbdcba87e	-0.09944247
232	0xbe107ee4	-0.14110905
233	0xbc8784cf	-0.01654282
234	0xbde783e4	-0.11304453
235	0x3cb80447	0.022462977
236	0x3dba3156	0.09091441
237	0xbcf4f268	-0.029900745
238	0x3e2170d9	0.15765704
239	0x3e48ce30	0.19609904
240	0x3e193ac0	0.14963818
241	0xbe15c77b	-0.14626877
242	0xbcb4d4e5	-0.022074172
243	0x3cbeac62	0.023275558
244	0x3e1d4ec9	0.15362085
245	0xbe1d9b4f	-0.15391277
246	0x3d50f5e0	0.051015735
247	0x3dc7d87e	0.097580895
248	0xbe25086e	-0.16116497
249	0x3e046cb8	0.12932098
250	0x3e44145b	0.1914839
251	0x3c5db814	0.013532657
252	0x3db3b15d	0.08774064
253	0x3da60d5f	0.08108019
254	0x3e1b45ac	0.15163296
255	0xbe130ddb	-0.14360754

fc2.weight f4 [300, 400]
0	0xbcecef1c	-0.02892261
1	0x3c0ae239	0.008476787
2	0x3d1c0014	0.038086012
3	0xbd216b7a	-0.03940914
4	0x3b7eff56	0.0038909516
5	0xbd7f0a8f	-0.06226593
6	0xbd947f22	-0.07250811
7	0x3c639bcb	0.013892124
8	0xbd68de3d	-0.056852568
9	0xbd0b9212	-0.03407485
10	0xbd7d480d	-0.06183629
11	0x3cb43a21	0.022000374
12	0x3cf53320	0.029931605
13	0xbccea0de	-0.025223192
14	0xbd74345c	-0.059620246
15	0xbd75d955	-0.060021717
16	0x3cb37bd3	0.02190963
17	0xbc7ca824	-0.015420947
18	0x3be8c047	0.0071029994
19	0xbb041f94	-0.0020160424
20	0xbd8b25a9	-0.067942925
21	0xbd6ea175	-0.058259446
22	0xbd88342e	-0.066505775
23	0x3ce7da92	0.028302465
24	0x39eb9dd2	0.00044940278
25	0xbd33899b	-0.043832403
26	0xbcc8b778	-0.024501547
27	0xbda8df3d	-0.08245704
28	0xbca049fa	-0.019566525
29	0xbd3e502d	-0.04646318
30	0x3c256c13	0.010096568
31	0xbd0878ed	-0.03331845
32	0xbc104782	-0.008806111
33	0x3d5f0606	0.054449104
34	0x3b99cf23	0.004693882
35	0xbcc766df	-0.024341045
36	0xbd97d2c4	-0.07413247
37	0x3c7f0b80	0.015566707
38	0xbd20aae8	-0.03922549
39	0x3cd8068c	0.02637031
40	0x3d8c53ea	0.06851943
41	0xbcf53121	-0.029930653
42	0x3d54ea13	0.051981043
43	0xbcc543c8	-0.024080172
44	0xbd9dc642	-0.0770383
45	0xbd1dc7b3	-0.038520526
46	0xbd1ede12	-0.038786
47	0x3c3cff69	0.011535504
48	0x3c994968	0.01871176
49	0x3d03072f	0.031989273
50	0x3d864088	0.06555277
51	0xbd34d5ab	-0.044149082
52	0xbd1cc0d9	-0.03826985
53	0xba158a36	-0.0005704494
54	0x3b72478a	0.003696891
55	0xbd08139e	-0.033221833
56	0x3c8d7e27	0.017272068
57	0x3d010e1e	0.031507604
58	0x3b9a2091	0.0047035892
59	0xbd63f34a	-0.05565194
60	0xb9b75ffe	-0.00034976
61	0x3b977174	0.004621679
62	0xbbbf64a8	-0.0058408566
63	0xbc03fde8	-0.008056141
64	0x3cdfbcfd	0.027311796
65	0xbc8c6c58	-0.017141506
66	0xbd6b18f3	-0.05739684
67	0xbd47dc92	-0.048794337
68	0x3d15cab3	0.036570262
69	0xbb0da2de	-0.002161197
70	0x3cb7a154	0.022415794
71	0xbd1c5414	-0.03816612
72	0xbd9a8fb6	-0.07546942
73	0x3c197ec8	0.009368606
74	0xbd250ba1	-0.040294293
75	0xbd56c56f	-0.05243438
76	0xbd1d7a5a	-0.03844676
77	0xbd01a1f5	-0.031648595
78	0xbd455738	-0.04817888
79	0x3d5027cd	0.050819207
80	0xbd8a47c1	-0.06751967
81	0x3b8eb370	0.0043548867
82	0x3d27770b	0.040885013
83	0xbc839823	-0.016063755
84	0xbccdad80	-0.025107145
85	0xbd2c22e3	-0.042025458
86	0x3b493258	0.0030700173
87	0x3d8bc9f3	0.06825628
88	0x3d1eaae0	0.038737178
89	0x3c61eda4	0.013789568
90	0xbca060fa	-0.019577492
91	0xbd12d044	-0.03584315
92	0xbcf5a891	-0.029987605
93	0x3c3c8427	0.011506117
94	0xbd4aab33	-0.049479675
95	0xbdb934c9	-0.09043271
96	0x3cbfcd5e	0.023413356
97	0x3ba9f638	0.0051868223
98	0xbcd5a714	-0.026080646
99	0xbc2f0878	-0.010683171
100	0x3cc64cf3	0.024206614
101	0xbda60e4e	-0.08108197
102	0x3c6444f6	0.013932457
103	0xb9f3e206	-0.00046516972
104	0x3cfbb866	0.030727576
105	0xbd982b3e	-0.07430123
106	0x3d8665c7	0.06562381
107	0xbd204638	-0.039129466
108	0x3b8ff11b	0.0043927557
109	0x3c8f586c	0.017498218
110	0x3d569cdf	0.052395698
111	0xbd79be47	-0.06097248
112	0xbcf0d0dc	-0.029396467
113	0xbd0b4353	-0.033999752
114	0xbc761270	-0.015019044
115	0x3d91f20c	0.07126245
116	0x3cdebe6a	0.027190406
117	0x3d1c772f	0.0381996
118	0x3cfd489d	0.030918414
119	0x3d0bb924	0.03411211
120	0xbd48eea9	-0.04905573
121	0xbd6fec65	-0.058575053
122	0xbd3c51bb	-0.04597638
123	0xbd135719	-0.035971735
124	0xbc4323f9	-0.011910432
125	0x3cc89ed0	0.02448979
126	0xbc9e5732	-0.019328687
127	0x3d414bf0	0.04719156
128	0xbdb43fdf	-0.08801245
129	0xbd59e201	-0.05319405
130	0xbd9e8593	-0.07740321
131	0x3bbb837b	0.005722461
132	0xbd764efa	-0.06013391
133	0x3c3c452f	0.011491104
134	0x3da11213	0.078647755
135	0xbd540341	-0.051760916
136	0x3cc5b9e8	0.024136499
137	0xbd249a9f	-0.04018652
138	0x3caaf5b2	0.02086911
139	0xbcd100d9	-0.0255131
140	0x3d0dcb4f	0.03461772
141	0xbd81d4af	-0.06339394
142	0xbc69fd9e	-0.014281658
143	0xbd02b01e	-0.03190624
144	0xbad42b3f	-0.0016187205
145	0x3be4f52b	0.006987234
146	0xbc7aa73a	-0.015298659
147	0xbd0992f2	-0.033587404
148	0xbd198637	-0.037481513
149	0xbd4f96e6	-0.050681017
150	0x3cbdffe7	0.023193313
151	0xbd76383a	-0.060112216
152	0xbd8cb8bc	-0.06871173
153	0x3cff46ae	0.031161632
154	0xbcec51f3	-0.02884767
155	0xbbb267d7	-0.0054445076
156	0xbd673070	-0.056442678
157	0xbd08102a	-0.03321854
158	0x3dc1ea0e	0.094684705
159	0xbd494b92	-0.049144335
160	0xbd0596f9	-0.032614682
161	0x3cf27e31	0.029601188
162	0x3c884557	0.016634626
163	0xba7ccfb4	-0.0009643987
164	0xbcb33339	-0.02187501
165	0xbc573ac2	-0.013136568
166	0xbb85b3c9	-0.00408027
167	0x3c986981	0.018604996
168	0xbd072e83	-0.03300334
169	0xbb813652	-0.003943243
170	0xbcf86f5e	-0.030326542
171	0xbc2a59c0	-0.010397375
172	0x3d5d9833	0.054100227
173	0xbd66b381	-0.056323532
174	0xbd827188	-0.063693106
175	0xbd3d065b	-0.04614864
176	0x3c89a2ea	0.016801316
177	0xbd80054e	-0.06251012
178	0x3cb1b7c7	0.021694077
179	0xbd21a632	-0.039465137
180	0xbd95ef5a	-0.07321043
181	0xbd2d5e72	-0.0423264
182	0x3c9356ff	0.017985819
183	0x3cb15746	0.02164806
184	0xbd0aaf85	-0.033858795
185	0xbd40d10d	-0.047074366
186	0x3d412f8d	0.04716449
187	0x3d3f0fc0	0.04664588
188	0x3c810ec9	0.01575412
189	0xbcfcfb25	-0.030881474
190	0xbd22b66b	-0.03972475
191	0xbd3d031b	-0.04614554
192	0xbd2e0433	-0.042484473
193	0xbaef97af	-0.0018279458
194	0x3c8a6c15	0.01689724
195	0x3d8eb96a	0.06968959
196	0xbd884890	-0.06654465
197	0x3bcaf71a	0.0061940076
198	0xbd74a03f	-0.059723135
199	0xbbe32a64	-0.0069325436
200	0x3c3117d2	0.010808902
201	0xbd8df76c	-0.069319576
202	0xbbb9714f	-0.0056592594
203	0xbd974cad	-0.073876716
204	0x3bb7921d	0.005602135
205	0xbd32e010	-0.043670714
206	0xbc006252	-0.007835941
207	0xbd17e5dd	-0.03708445
208	0xbd8b890c	-0.06813249
209	0x3d289c4d	0.041164685
210	0x3d15a1c5	0.03653123
211	0x3aa567e3	0.0012619462
212	0xbd8c6b37	-0.06856387
213	0xbdb43a16	-0.088001415
214	0x3c5e3c95	0.013564249
215	0x3c38c6db	0.01127788
216	0xbd4ee0e1	-0.05050743
217	0xbd3ac0e6	-0.04559412
218	0x3c629f71	0.013831959
219	0x3cd8d3cd	0.026468182
220	0xbd8b138d	-0.067908384
221	0xbd3b0f80	-0.04566908
222	0xbcde053a	-0.027102102
223	0xbd849c25	-0.06475095
224	0xbd4a17dc	-0.04933916
225	0xbd570433	-0.05249424
226	0xbd381262	-0.044939406
227	0x3b032b31	0.0020014758
228	0xbb60fc58	-0.0034330096
229	0x3d0ef70f	0.034903582
230	0xbc05dabc	-0.008169826
231	0xbd2230c3	-0.039597284
232	0x3d55890d	0.052132655
233	0xbcaca057	-0.02107255
234	0x3d18ac4e	0.037273698
235	0xbd2b110f	-0.041764315
236	0xbd21a6f1	-0.03946585
237	0xbd1496f3	-0.03627677
238	0xbd40511d	-0.046952356
239	0xbc9902d3	-0.018678105
240	0xbd07cfa0	-0.03315699
241	0xbcc89eb4	-0.024489738
242	0xbc953bf6	-0.018217068
243	0x3cc198c0	0.023632407
244	0xbd5bcea0	-0.05366385
245	0xbd28dcbd	-0.041226137
246	0x3d8a7735	0.06761018
247	0x3c42b07f	0.0118829
248	0xbd3458f2	-0.044030137
249	0xbb5000bb	-0.0031738717
250	0x3c1571a9	0.009121337
251	0x3d8ae507	0.06781965
252	0xbc10d8a1	-0.008840711
253	0xbd91afe6	-0.07113628
254	0x3cb493d2	0.022043142
255	0x3c50bde8	0.01274059

fc2.bias f4 [300]
0	0xbd74b120	-0.059739232
1	0x3b2e5c44	0.0026605288
2	0xbc83ae87	-0.016074432
3	0x3cdd6daa	0.027029831
4	0x3d1e5d57	0.038663235
5	0xbc4c1797	-0.012456796
6	0x3d0bcab7	0.03412887
7	0xbc9fd9b1	-0.019512983
8	0x3d9ddc80	0.07708073
9	0xbb831f2f	-0.00400152
10	0xbdb7d1ca	-0.08975561
11	0x3d94a3d1	0.07257808
12	0x3d229f90	0.039702952
13	0xbd5389b7	-0.051645007
14	0x3cb82d2d	0.022482479
15	0xbd24d34d	-0.040240575
16	0x3b869d4d	0.004108107
17	0xbd413bf0	-0.0471763
18	0x3c7644b6	0.01503103
19	0xba312150	-0.0006756978
20	0x3da82ce8	0.0821169
21	0x3d5ed52f	0.054402526
22	0xbd37c92f	-0.044869598
23	0xbc78c666	-0.015184021
24	0x3dbe759f	0.09299778
25	0xbd794549	-0.06085709
26	0xbd1b7b6b	-0.037959497
27	0xbd23f649	-0.040029798
28	0xbc87a223	-0.016556805
29	0xbd36a1ae	-0.044587784
30	0xbc3c6da6	-0.011500752
31	0xbd9ceb67	-0.07662087
32	0x3d24f4d5	0.040272553
33	0x3d61841c	0.05505763
34	0xbd6cbc3c	-0.0577967
35	0xbbf5693a	-0.0074893506
36	0x3db5f6d1	0.08884967
37	0x3d264843	0.040596258
38	0xbc4050fd	-0.011738059
39	0xbd70a27c	-0.058748707
40	0xbc1f184b	-0.009710382
41	0xbcd0f0cd	-0.025505448
42	0xbd08759e	-0.033315293
43	0xbd194852	-0.037422486
44	0x3cfe88c6	0.031071078
45	0xb8c54260	-9.406055e-05
46	0xb9fa5158	-0.00047744322
47	0x3cef0219	0.029175805
48	0xbda272aa	-0.07932027
49	0xbca39338	-0.01996766
50	0x3cf79f41	0.030227305
51	0xb9c0a154	-0.00036741293
52	0xbc813334	-0.015771486
53	0xbd4efea1	-0.0505358
54	0xbd4242d3	-0.04742701
55	0xbd688ce8	-0.056775004
56	0x3b880eb3	0.004152143
57	0x3c9df098	0.019279763
58	0x3d7aef2d	0.061263252
59	0xbd3425f2	-0.0439815
60	0x3d5fce1e	0.054639928
61	0xbca2b75a	-0.01986282
62	0x3dc252b4	0.094884306
63	0xbd1f823b	-0.038942557
64	0xbd1cc466	-0.038273238
65	0xba92fb03	-0.0011213723
66	0x3cc1a23c	0.02363693
67	0xbb904e94	-0.0044038985
68	0xbd5a041b	-0.05322657
69	0x3bad5536	0.005289699
70	0x3d85aaa1	0.065266855
71	0xbcacf462	-0.021112625
72	0x3baac708	0.0052117147
73	0xbc712fa0	-0.014720827
74	0xbcd5b632	-0.026087854
75	0x3d5fbaf6	0.05462166
76	0xbd1660f0	-0.03671354
77	0x3d335bf0	0.04378885
78	0xbd31101b	-0.04322825
79	0xbcf62912	-0.03004888
80	0x3dac6222	0.08417155
81	0x3bbc2ead	0.005742869
82	0xbd3d6c32	-0.04624576
83	0xbb84190e	-0.004031307
84	0x3d3f740a	0.046741523
85	0x3d01688b	0.03159384
86	0x3d7442d4	0.059634045
87	0xbcfae7c4	-0.030628093
88	0x3bf37a98	0.007430386
89	0xbcad361b	-0.021143964
90	0xbcbaa24b	-0.022782465
91	0xbbf41665	-0.0074489587
92	0x3cee562e	0.029093828
93	0xbd1b37c2	-0.03789497
94	0x3c864c47	0.016393794
95	0xbc4d52ba	-0.012531931
96	0x3ba59f1b	0.0050543672
97	0x3d0b3ff2	0.03399653
98	0xbc0a29f6	-0.008432856
99	0xbd0330e2	-0.03202904
100	0xbca62e1d	-0.02028566
101	0xbc9a15c2	-0.018809203
102	0x3cf18e77	0.029486878
103	0xbba07404	-0.0048966426
104	0xbca86b10	-0.020558864
105	0xbd03f19a	-0.03221283
106	0x3dd42387	0.10358339
107	0xbd6ac803	-0.057319652
108	0xbc3c23eb	-0.011483173
109	0xbc16ab4a	-0.009196112
110	0xbd8c26ad	-0.06843314
111	0xbd393597	-0.045217123
112	0xbd61dda8	-0.05514303
113	0x3cee8e05	0.029120455
114	0xbd31545f	-0.043293353
115	0x3d1a994c	0.03774385
116	0x3d482d96	0.0488716
117	0x3b835042	0.00400737
118	0x3a9e66b5	0.0012085052
119	0xbdd7d7e2	-0.10539223
120	0xbb0235d3	-0.0019868508
121	0x3da5313c	0.08066031
122	0xbdd423df	-0.10358404
123	0xbd19d589	-0.03755716
124	0xbcfaed6a	-0.030630786
125	0x3b12692c	0.002234052
126	0x3d4af921	0.049553994
127	0x3d9a0279	0.07520003
128	0x3c08d2f8	0.00835108
129	0x3cf0cd65	0.029394815
130	0xbbea8c0a	-0.0071578072
131	0xbd42809f	-0.047485944
132	0xbce97b5c	-0.028501205
133	0xbd022257	-0.03177103
134	0xbb8d844d	-0.00431875
135	0x3d9705e3	0.0737417
136	0x3cc9e049	0.02464308
137	0xbd6ae1fe	-0.05734443
138	0xbc72da0c	-0.014822494
139	0x3c4c2a80	0.012461305
140	0xbcca5360	-0.02469796
141	0x3ceca8d9	0.028889107
142	0x3cae6441	0.02128804
143	0xbd26a195	-0.04068144
144	0xbce67a4a	-0.028134484
145	0x3d5f06d0	0.054449856
146	0x3e0ce2bb	0.13758366
147	0x3c9a1b7f	0.01881194
148	0xbca275d2	-0.019831572
149	0x3d3ff834	0.046867564
150	0x3cc7c751	0.024387034
151	0x3c869f92	0.01643351
152	0xbc9755e2	-0.01847357
153	0xbca4b92f	-0.020107834
154	0x3d3da0d6	0.046295963
155	0x3cc3a770	0.023883551
156	0x3cf7d45e	0.030252632
157	0x3c958e58	0.018256351
158	0x3d3c8b81	0.04603148
159	0xbb0161c2	-0.0019742106
160	0xbd33c855	-0.043892223
161	0x3ca2f2e2	0.019891206
162	0x3b0fa894	0.0021920549
163	0x3c43212a	0.011909762
164	0xbbc3d96b	-0.005976846
165	0xbdade72e	-0.0849136
166	0x3cc69f34	0.024245836
167	0x3cfdc62e	0.030978289
168	0x3cae8b9a	0.021306802
169	0x3d867a7b	0.0656633
170	0xbd7b86ee	-0.061407976
171	0x3d4b9a39	0.049707625
172	0x3d682019	0.056671236
173	0xbcfc3c24	-0.030790396
174	0xbd2cf9fb	-0.042230587
175	0xbb95b4d9	-0.004568678
176	0x3d951b86	0.0728064
177	0xbbf14542	-0.0073629925
178	0x39de9d80	0.00042460486
179	0x3d4d2933	0.05008812
180	0xbd1c18c1	-0.038109545
181	0x3da98c20	0.0827868
182	0x3d844643	0.06458714
183	0xbd9afe04	-0.07567981
184	0xbd3636f7	-0.044486012
185	0xbcd817f8	-0.026378617
186	0x3cd0c790	0.025485784
187	0x3cf67570	0.030085295
188	0xbcdedc61	-0.027204694
189	0xbd3f5bcd	-0.046718407
190	0xbb942f30	-0.0045222268
191	0xbd5f6a9b	-0.054545026
192	0x3db041a8	0.08606273
193	0x3d1ecf97	0.03877219
194	0xbd161474	-0.0366406
195	0xbd9197f3	-0.0710906
196	0xbcced4a2	-0.025247876
197	0xbd5870d2	-0.05284197
198	0x3c9b4010	0.018951446
199	0xbdd621be	-0.104556546
200	0xbd2f061d	-0.04273044
201	0x3c959ff4	0.018264748
202	0xbd0780cb	-0.03308181
203	0xbc5fa79d	-0.013650802
204	0xbc0968e9	-0.008386829
205	0x3c5ad5b9	0.0133566195
206	0xbcf87525	-0.030329296
207	0x3d863fb7	0.065551214
208	0xbd68a445	-0.056797285
209	0x3cab6f1d	0.020927006
210	0xbd471ea7	-0.048613217
211	0x3e0539a6	0.13010272
212	0x3d5297df	0.051414367
213	0x3d26c626	0.040716313
214	0x3cdb63d7	0.026781006
215	0xbc3235a2	-0.010877045
216	0x37984546	1.815207e-05
217	0xbb4ca46e	-0.0031225937
218	0xbd7a5ff0	-0.06112665
219	0x3d748e81	0.059706215
220	0x3a18b334	0.0005825043
221	0x3cc6e7f9	0.024280535
222	0xbcaf88b2	-0.021427486
223	0xbc012f9f	-0.007884889
224	0x3d88c110	0.06677449
225	0x3b6b0807	0.003586294
226	0xbc5e6da3	-0.013575944
227	0xbd97362c	-0.07383379
228	0x3bcb599f	0.006205752
229	0xbd0ac000	-0.03387451
230	0xbcb7aedd	-0.022422248
231	0x3c816aff	0.01579809
232	0xbcbcbb41	-0.023038508
233	0x3d453817	0.048149195
234	0x3c9bb6b0	0.01900801
235	0x3d401da2	0.04690326
236	0x3dc52409	0.09626014
237	0xbd40c3b8	-0.047061652
238	0xbd148b92	-0.036265917
239	0x3d48780e	0.048942618
240	0x3d44fd1a	0.04809294
241	0xbbd586cb	-0.0065163127
242	0xbd1bf826	-0.03807845
243	0xbc376f8f	-0.011196031
244	0xbd25085f	-0.040291186
245	0x3cffc941	0.031223895
246	0x3d29dfe2	0.041473277
247	0x3b804bb9	0.003915277
248	0xbc815431	-0.015787216
249	0x3d33a5ab	0.043859165
250	0x3cd4afad	0.025962675
251	0x3c969ec5	0.018386254
252	0xbcbf3ff5	-0.023345927
253	0xb9145dd4	-0.00014149334
254	0x3d33fd2b	0.04394261
255	0xbd788517	-0.0606738

fc3.weight f4 [2, 300]
0	0xbc727f5b	-0.014800872
1	0xbe1485c3	-0.14504151
2	0xbd04150b	-0.03224663
3	0xbd51212a	-0.05105702
4	0xbe0b1f96	-0.13586268
5	0xbcc2b95f	-0.023770032
6	0xbbb0eea5	-0.0053995424
7	0xbd7fda09	-0.062463794
8	0xbbea3698	-0.0071476214
9	0xbb9d2f1c	-0.0047968756
10	0xbd1f2f88	-0.03886369
11	0xbd0dd4b1	-0.034626666
12	0x3b22aba4	0.0024821544
13	0x3dcf1654	0.101116806
14	0xbe58fde3	-0.211906
15	0xbe363e3f	-0.17797183
16	0xbc81cd9f	-0.015845118
17	0xbcde7669	-0.027156072
18	0xbc8ba734	-0.017047502
19	0xbd93af0f	-0.07211124
20	0xbd899919	-0.06718654
21	0xbd12e318	-0.035861105
22	0xbd3b7547	-0.04576614
23	0xbc291da9	-0.010322013
24	0xbe00c668	-0.12575686
25	0xbe486f24	-0.19573647
26	0xbc42a2bb	-0.011879618
27	0x3d7b152c	0.061299488
28	0xbc93d0b5	-0.018043855
29	0xbcdf489f	-0.027256308
30	0xbcd4e78a	-0.025989313
31	0x3e8da3a5	0.27663913
32	0xba665830	-0.00087869447
33	0xbdbd4335	-0.09241334
34	0xbd5c8318	-0.05383596
35	0xbbdb4e0e	-0.0066926545
36	0xbd107ed7	-0.035277214
37	0xbc520a40	-0.012819827
38	0xbb378f48	-0.0028008986
39	0x3c074423	0.008255991
40	0x3da51f7d	0.080626465
41	0xbd0d016b	-0.03442518
42	0x3d2727e1	0.040809516
43	0xbd9d178e	-0.07670508
44	0xbaf90330	-0.0018998142
45	0xbc3c14f1	-0.011479602
46	0xbcfe8366	-0.031068515
47	0xbc96d989	-0.018414276
48	0xbe78031f	-0.2421994
49	0x3d9a9250	0.07547438
50	0xbc3f6c4b	-0.011683534
51	0x3d5e8d0d	0.054333735
52	0x3d3e2ff9	0.04643247
53	0xbc0502cb	-0.008118342
54	0xbd08007a	-0.03320358
55	0xbd2f0fb6	-0.042739592
56	0xbe37ac24	-0.1793676
57	0xbde6781e	-0.11253379
58	0xbd98fbd3	-0.07469907
59	0xbe5ce09d	-0.21570058
60	0xbc8aa7e0	-0.016925752
61	0xbde14ffb	-0.11001583
62	0xbda1937c	-0.078894585
63	0xbe4a66fa	-0.19765845
64	0xbe25e58d	-0.16200848
65	0xbca9adfa	-0.020712841
66	0x3c5b9913	0.013403195
67	0xbc97a22d	-0.018509949
68	0xbc0ddbe6	-0.008658385
69	0x3d9b52fa	0.07584186
70	0xbe2f4147	-0.17114745
71	0xbc3a8ff7	-0.011386863
72	0xbbc2a413	-0.0059399693
73	0xbc079380	-0.008274913
74	0xbe0d4502	-0.13795856
75	0xbda3b063	-0.079926275
76	0x3ca1e690	0.019763261
77	0x3c52e40d	0.012871754
78	0xbdb2ccdf	-0.08730482
79	0xbd8f90d4	-0.07010046
80	0x3a93940c	0.0011259331
81	0xbe3bd744	-0.18343836
82	0x3c136fbf	0.00899881
83	0xbcee6dcd	-0.029105091
84	0xbbbb70e2	-0.005720244
85	0xbc3eabbc	-0.011637624
86	0xbe679826	-0.22616634
87	0xbee24421	-0.44192603
88	0xbe5335b0	-0.20625949
89	0xbd46cc8f	-0.048534926
90	0x3c226f47	0.009914226
91	0xbc9a46a8	-0.01883252
92	0xbd237426	-0.03990569
93	0xbcc2a02f	-0.023758022
94	0xbd4dbf6c	-0.050231382
95	0x3c82d93f	0.015972732
96	0xbd834225	-0.064091004
97	0x3d1b372a	0.037894405
98	0x3db7028e	0.08936034
99	0xbd57a62a	-0.0526487
100	0xbdcd3a0b	-0.100208364
101	0x3bd29567	0.0064265016
102	0xbc019375	-0.007908692
103	0xbcaaaf90	-0.020835668
104	0xbd912382	-0.07086851
105	0xbdaa6f66	-0.08322029
106	0xbca0306c	-0.01955434
107	0xbbeac7a2	-0.0071649114
108	0xbbed4ab2	-0.0072415704
109	0xbda4cd33	-0.08046951
110	0xbf3743a8	-0.7158761
111	0xbd1a30a9	-0.037644062
112	0xbe8ccf6f	-0.2750201
113	0xbe9c0dcb	-0.30479273
114	0xbb19dde4	-0.0023478204
115	0xbcf80c85	-0.030279407
116	0xbcef998c	-0.029248022
117	0xbdc0e865	-0.09419326
118	0xbcc3ea03	-0.023915296
119	0xbe49f2b5	-0.19721492
120	0xbcd8bd35	-0.026457408
121	0xbd68e006	-0.05685427
122	0x3f209299	0.6272369
123	0xbe232d93	-0.15935354
124	0xbdb9292f	-0.09041058
125	0x3d785aa2	0.06063331
126	0xbd5f1f03	-0.054472934
127	0xbe2bf255	-0.16791661
128	0xbe03c259	-0.12867106
129	0x3d8a8594	0.06763759
130	0xbb92c93d	-0.004479556
131	0xbe994651	-0.2993646
132	0x3c6e72d4	0.014553744
133	0xbca3b6a5	-0.019984553
134	0xbdb25766	-0.08708076
135	0x3dbfcac2	0.09364845
136	0xbc7ea0d1	-0.015541271
137	0xbc62b4c8	-0.013837047
138	0xbe8aa916	-0.27082127
139	0xbd5cb059	-0.053879116
140	0x3daea300	0.085271835
141	0xbda43fb5	-0.08019964
142	0x3dadee7a	0.084927514
143	0xbc4a9ccb	-0.012366484
144	0x3bbaba74	0.0056984965
145	0xbd4fa69d	-0.050696004
146	0xbdb4b3a5	-0.08823327
147	0x3bde9f12	0.006793865
148	0xbc26458b	-0.010148416
149	0xbdf01ac0	-0.11723852
150	0xbe7713ac	-0.24128598
151	0xbc5b5847	-0.013387746
152	0xbc68f342	-0.014218153
153	0x3c3c32f2	0.011486756
154	0xbd12b9e8	-0.035821825
155	0xbe4bf9db	-0.19919531
156	0xbeabaae3	-0.33528814
157	0x3dbb972f	0.09159695
158	0xbd789fc7	-0.06069925
159	0xbe6ea711	-0.23305918
160	0xbe507f6c	-0.20361108
161	0xbcd77537	-0.02630101
162	0xbb9a12b6	-0.0047019375
163	0xbd3bf16d	-0.04588454
164	0xbd94c300	-0.07263756
165	0xbe1a9e3c	-0.15099424
166	0xbca21a4b	-0.019787928
167	0xbc41e328	-0.011833943
168	0xbcfdb363	-0.030969327
169	0xbd0736c5	-0.033011217
170	0xbea8cf67	-0.32970735
171	0xbba738a2	-0.0051031867
172	0xbbbfb4d3	-0.0058504133
173	0xbd3b38d3	-0.04570849
174	0xbcd19cdb	-0.02558749
175	0xbd85cd78	-0.06533331
176	0xbd13dc7a	-0.036098935
177	0xbc9a063a	-0.018801797
178	0xbb83a56a	-0.0040175216
179	0x3b07a5c9	0.002069818
180	0xbc2d90bd	-0.01059359
181	0xbdf0f9be	-0.117663845
182	0x3dab23b9	0.08356423
183	0xbe787fc4	-0.24267489
184	0xbc51f4c5	-0.012814705
185	0x3c6caa8f	0.014444961
186	0x3d983ba0	0.074332476
187	0xbd990c97	-0.074731044
188	0xbc754ab3	-0.014971423
189	0xbd87eb35	-0.06636659
190	0xbd9587cd	-0.073012926
191	0xbd1cb1c8	-0.038255483
192	0xbc9145f8	-0.017733559
193	0x3c80006a	0.015625197
194	0xbd6a5443	-0.057209264
195	0xbd908a7b	-0.07057663
196	0xbd9bb06d	-0.0760201
197	0xbd6898c6	-0.05678632
198	0xbc13dd5d	-0.009024945
199	0xbe20c15a	-0.15698758
200	0xbe962dfd	-0.2933196
201	0x3e07bb88	0.13255131
202	0xbbe09020	-0.0068531185
203	0xbcb22d4f	-0.02175012
204	0x3d1fed84	0.039044872
205	0xbe22f4ed	-0.15913744
206	0xbc24dc26	-0.010062253
207	0xbe39e864	-0.18155056
208	0xbe024b31	-0.12723996
209	0xbd21c8b8	-0.03949806
210	0xbe09c2c0	-0.13453197
211	0xba4ca781	-0.00078069424
212	0xbcd371b9	-0.025811063
213	0xbb6cdafc	-0.0036141267
214	0xbd3cdafb	-0.046107274
215	0xbc9094df	-0.017649112
216	0x3d935a02	0.07194902
217	0x3d750129	0.05981556
218	0xbdefb83c	-0.11705062
219	0xbd83bfd5	-0.064330734
220	0xbe1dbb44	-0.15403467
221	0xbead6d97	-0.33872673
222	0xbca1602a	-0.019699175
223	0xbd953a7a	-0.07286544
224	0xbd6d22d8	-0.057894558
225	0xbc931d97	-0.017958445
226	0xbeaf9981	-0.34296802
227	0xbdb82368	-0.08991128
228	0xbc01428c	-0.007889401
229	0xbe1d464a	-0.15358844
230	0xbcf362cc	-0.029710196
231	0xbcb6ba85	-0.022305736
232	0xbd004ae3	-0.031321418
233	0xbe4cfd4d	-0.20018502
234	0xbcbc51c5	-0.02298821
235	0x3a9c924b	0.0011945454
236	0xbc8aa709	-0.016925352
237	0xbde780bd	-0.11303852
238	0xbd6a7a67	-0.05724564
239	0xbcb7a38c	-0.022416852
240	0xbc5b8579	-0.013398522
241	0x3cce09b2	0.025151107
242	0xbd466003	-0.048431408
243	0xbda302a9	-0.07959492
244	0x3a41ca4c	0.00073925103
245	0x3d8880ed	0.06665216
246	0xbb3be43f	-0.002866998
247	0xbcbb24c3	-0.022844678
248	0xbe49189b	-0.19638292
249	0x3db6863b	0.08912321
250	0xbe42d340	-0.19025898
251	0x3e1cbde5	0.15306814
252	0xbcb86a32	-0.022511575
253	0xbcb21c20	-0.021741927
254	0xbdd8a4ef	-0.105783336
255	0xbe263c77	-0.16234003

fc3.bias f4 [2]
0	0xbcba7169	-0.022759156
1	0xbb5f22cf	-0.0034047847
