Tennis/Nets/checkpoint_actor2200.pth (torch_old, 525671 bytes, 10 tensors)

bn1.weight f4 [24]
00000000: baa4 233f e44b 2e3f 9934 273f 9ff1 473f
00000010: 6f7d 843f 6ca9 533f a623 eb3e d1c4 a73e
00000020: 48a1 1d3f bfe1 c83e d0aa 193f ba8b 133f
00000030: 523f 383f 5ef8 863f 4aa4 123f 55ff 3b3f
00000040: 70e2 5f3f 7bda 0a3f a46b 013f 6d09 893f
00000050: b591 363f 6815 883f eeb1 293f 6a78 6e3f
0.6392323 0.6808455 0.6531463 0.7810306 1.0350779 0.8268039 0.45925635 0.32767347
0.6157422 0.3923473 0.60026264 0.5763508 0.7197162 1.0544546 0.57281935 0.7343648
0.8745489 0.54239625 0.5055487 1.0706002 0.7131608 1.0631533 0.66287124 0.9315249

bn1.bias f4 [24]
00000000: 5839 adbd b663 ff3d f8a1 b03d 6fb4 a63d
00000010: 398f 123e cfd5 efbb a70b a73d b5ed 5c3d
00000020: 9942 26be cbf6 893e 42ee 9d3c 7039 f1bd
00000030: 690c d33d 5473 66bd 8c01 acbc 6ae9 c2bd
00000040: b3f7 af3d aad9 9d3e b350 063e efd3 34bd
00000050: 071f 0d3e 457c a7bd 2534 173e dd0d ecbd
-0.08458203 0.1247019 0.08624643 0.08139884 0.14312448 -0.007319189 0.081565194 0.053937633
-0.16236342 0.269461 0.01927865 -0.117785335 0.103051014 -0.05626233 -0.020996831 -0.095171764
0.08592167 0.30830127 0.13116722 -0.044147428 0.13781367 -0.081779994 0.14765985 -0.11526082

bn1.running_mean f4 [24]
00000000: d8ac b1c0 fc12 1dbf af89 8840 a46c 663e
00000010: 74e6 723c d70c 4d40 af89 8840 a46c 663e
00000020: 9da8 b8c0 5714 23bf c8ff 9140 19cb 6b3e
00000030: d722 b53c eedc 4d40 c8ff 9140 19cb 6b3e
00000040: 24b2 bec0 ab11 26bf 0b9f 9540 5984 913e
00000050: d174 1d3d fe68 4b40 0b9f 9540 5984 913e
-5.552349 -0.6135709 4.266807 0.2250238 0.014825452 3.2039087 4.266807 0.2250238
-5.7705827 -0.6370291 4.5624733 0.23026694 0.02211134 3.2166095 4.5624733 0.23026694
-5.9592457 -0.6487071 4.6756644 0.28421286 0.038441483 3.1782832 4.6756644 0.28421286

bn1.running_var f4 [24]
00000000: 113d 7d41 98f0 813f 6481 bf43 fc70 3141
00000010: 10c9 1142 ab33 6840 6481 bf43 fc70 3141
00000020: 12ad 7341 5a60 843f f6d9 c643 fea7 3b41
00000030: 6fe1 1e42 2e8d 7140 f6d9 c643 fea7 3b41
00000040: ab8e 6941 4257 863f 226b ce43 3027 4641
00000050: a4e0 2c42 18b1 8540 226b ce43 3027 4641
15.827409 1.0151548 383.01086 11.090084 36.44635 3.6281536 383.01086 11.090084
15.2297535 1.0341904 397.70282 11.728514 39.72015 3.774242 397.70282 11.728514
14.597331 1.0495379 412.83698 12.384567 43.219376 4.177868 412.83698 12.384567

fc1.weight f4 [400, 24]
00000000: be4a 0cbd eb29 18be 7f64 4dbd 4c3c 103d
00000010: 0750 78bc 0cb2 8d3e bf19 23bd acfa 8dbd
00000020: b269 143d 5ae1 16be f37d 9f3d d39a 413e
00000030: c16e a2bd aae8 ae3e b55c 8b3c 51fa 193e
00000040: 7232 8cbd 7304 2abe cf5a 51be 7783 96bc
00000050: ddbe f0bd 21c7 e03e 380d ffbd a06e 4dbc
00000060: 92ea c83d ffe1 44be 6b24 c63d aa80 e0bd
00000070: f938 cfbe 65ea 203e 1b85 593d 6c08 9fbd
00000080: adc1 443e e6cc aabd 4008 4dbd 69f7 8e3d
00000090: 8112 a2be 29b6 803e 87be a3bd de86 af3d
000000a0: 8c60 713e 8c6d 93bc 9fde 873d f4bc 473e
000000b0: 5458 12be c396 a73e 00cb 1d3d bc2f e53d
000000c0: 009c 29be 8e0c 3abe 2dce c13d 44a3 bc3d
000000d0: e5e6 b23e 8dfb 883e 3c6b a53d 875e 0b3d
000000e0: 1617 19be 29ef c3bd b427 c5bd 2db6 183e
000000f0: 187d b53e 198e 203d 1be3 20be e22d 0a3e
00000100: d04a b5be 803f 723d 007c 5bbe 4e0c a63d
00000110: 6b40 cc3e d463 27be ae5e 87be 1e5e 1f3e
00000120: 7524 77be 201c 393e 207d a8be 982b 1dbd
00000130: 8c8b adbe 3819 e43e a308 a8be 0de1 c83b
00000140: 9066 82bd 04c1 0d3e eb76 ef3d b93a 51be
00000150: 50be 0ebe 0a40 323e 695d 1c3e 77b7 42be
00000160: f8cf 8cbd cdd7 bb3d 843c 31bd aa08 8dbe
00000170: 5445 01be d913 613e 7f43 f23b 0c47 8dbe
00000180: aa09 08be cb10 c33e 35c6 293c 048a acbd
00000190: 4763 a5bc 5586 f23e 2129 233d 3c3a 6cbd
000001a0: 5d82 a4bd 0b09 dd3e 7c2d b23d 9d89 b7bd
000001b0: 33fa fe3c 089a a13e 2097 133e 382c bdbd
000001c0: 06e8 52be c3c6 d93e 8435 64be 164c 91bd
000001d0: 70c5 013d d537 593e b09f 77be d66e dabd
000001e0: 676a 32bd c6e6 c8bd 8b8a 293e 7e45 85bd
000001f0: 061d 093d 4a44 e23e c320 563e f536 43be
00000200: a9e6 3ebe 09eb a6bd 7820 2e3d 501d b4bd
00000210: e86f 013e 60b3 893e 890a cd3c 5fd5 b4bd
00000220: 803c d7bd 9864 85bd c012 293e 2eed 863d
00000230: 5eb2 123e 79d3 c8bc 32f7 2d3e 0899 a9ba
00000240: 1fbf d13d b4ad 69be 9d41 c73a 72e7 643d
00000250: b326 9a3e 9d84 eebc 4432 a3bc 56a5 d6bb
00000260: dae1 2b3e c366 49be a2ae a13e 9990 103e
00000270: fd16 8c3e 754c 38bc ba07 a03e 6ae5 303e
00000280: a0ea 4a3e 97b9 dabd 6b9c 763e c9e1 74bd
00000290: 67c9 953e ddb8 29be 8a0d 5e3e 53a1 d3bd
000002a0: 6faa 2d3d caac 683d 0b93 2e3e c528 2d3e
000002b0: 5778 3b3e ceb3 313e b368 6a3e 2083 7e3e
000002c0: 2a3f a13c 71d0 0abd 69f1 00be 8b66 a13d
000002d0: c85b ef3d 3d30 9a3e 682e e9bd e7ac 763d
000002e0: 8449 1fbe 687d 81bd 3b53 c1be bea7 003c
000002f0: 0cef 203e 466c 2a3e a5c7 acbe fb23 3dbc
00000300: 0d5e e03c 44c0 723e 8353 ea3d 962d c93d
00000310: b6fe 283e 4d5f b03e 78ce 9f3d ce6f 2f3e
00000320: 7e91 eabc 8930 623e 0e87 41be 9a2a 293b
00000330: b1e0 8c3e df1d a13d 1d22 f6bd f9b9 3a3d
00000340: 526e 9ebd 23a8 e53d 6645 223e de0f 5dbe
00000350: 9d8c d03e 7d5e 6dbe 46c0 fa3d 05ea 24be
00000360: fad1 f9bb fed9 92bd 0816 30bd 9c38 60bd
00000370: af0f e2bd aec0 653e 90bf 87bd 72f8 9bbc
00000380: 9865 1f3d b96e 1cbe ee2b 56bd dc92 e8b9
00000390: 78e4 14be fcb7 913e 0c19 5fbd 8c32 e8bc
000003a0: d78b dab9 eb13 01be 488d 97bb 5041 a6bd
000003b0: 3d95 85be 6878 df3e 2802 623d 6200 06be
000003c0: 1c12 22bd 50bf 1b3e 034a 943c 9529 043e
000003d0: f65b e7bd c6b9 813d d7bc 32bd a933 083c
000003e0: 37d7 d4bd f606 2f3e 932a 9bbd 49ca b53d
000003f0: 2b06 bc3a 9fc8 31be 0288 08bd 1b23 c73d
-0.034250967 -0.1485974 -0.05014467 0.035213754 -0.015155799 0.276749 -0.039819475 -0.069325775
0.03623361 -0.14734402 0.07787695 0.18906717 -0.07931281 0.34161884 0.01701198 0.15036894
-0.06845559 -0.1660326 -0.20444797 -0.018373234 -0.11755154 0.43901923 -0.12453693 -0.012538582
0.09810366 -0.19226836 0.09674915 -0.10962041 -0.40473154 0.15714414 0.053105455 -0.07765278
0.19214506 -0.083398625 -0.050056696 0.069807835 -0.31654742 0.25138977 -0.079953246 0.08570646
0.23571986 -0.017996572 0.066342585 0.19505674 -0.14291507 0.3273221 0.038523674 0.11190745
-0.16563416 -0.18168852 0.09463153 0.09210828 0.34941784 0.26754418 0.08077094 0.034025695
-0.14950213 -0.095671006 -0.096267134 0.14913245 0.35447 0.039198015 -0.15711634 0.13494065
-0.3540864 0.05914259 -0.21434021 0.08107816 0.39892897 -0.16346675 -0.26439422 0.15563247
-0.24135001 0.18077135 -0.32907963 -0.038371652 -0.33895528 0.4455049 -0.3281909 0.006130344
-0.063672185 0.13843161 0.11692604 -0.20432557 -0.13939786 0.17407241 0.15270008 -0.19015299
-0.068756044 0.0917202 -0.043270603 -0.27545673 -0.12624103 0.21980228 0.0073933 -0.27593267
-0.13284937 0.3809875 0.010362198 -0.08424762 -0.02018894 0.47368112 0.039834145 -0.057672724
-0.08032677 0.43170962 0.08700082 -0.089617945 0.031125164 0.3156283 0.14413118 -0.0923695
-0.20596322 0.42534456 -0.2228604 -0.0709459 0.03168243 0.21212704 -0.2418201 -0.106656715
-0.043558504 -0.098096415 0.16556756 -0.06507395 0.033474945 0.44192725 0.20910935 -0.19063933
-0.18642677 -0.08150298 0.042511433 -0.087946534 0.12640345 0.26894665 0.025029438 -0.0882976
-0.10509586 -0.06513327 0.16511059 0.06588207 0.14325854 -0.0245149 0.16988829 -0.0012939284
0.102415316 -0.22820169 0.0015202049 0.055884786 0.3010765 -0.02911597 -0.01992143 -0.0065504713
0.16785374 -0.19668107 0.31578547 0.1411766 0.2736129 -0.0112486975 0.31255895 0.17275015
0.19816065 -0.1067993 0.24083106 -0.059785638 0.2925522 -0.16574426 0.21684852 -0.103335045
0.042398866 0.05680541 0.1704828 0.16910084 0.18307625 0.17353746 0.22891502 0.24854708
0.01968344 -0.03389019 -0.1259209 0.07880887 0.11687428 0.30114928 -0.113858044 0.060223486
-0.15555388 -0.063227475 -0.37758812 0.007852493 0.15716189 0.16642866 -0.33746067 -0.011544223
0.027388597 0.23706156 0.1144171 0.09823148 0.16503415 0.3444771 0.07803053 0.17132494
-0.02863383 0.22088827 -0.18899176 0.0025812746 0.27515176 0.078670256 -0.12018225 0.045587514
-0.07735886 0.1121371 0.15846786 -0.21588084 0.4073228 -0.23180576 0.122437045 -0.16104896
-0.007623908 -0.07170485 -0.04298976 -0.054741487 -0.11038148 0.22436783 -0.066283345 -0.019039366
0.038915247 -0.15276612 -0.05228799 -0.00044359907 -0.14540279 0.2846068 -0.054467246 -0.028344415
-0.0004168439 -0.12605254 -0.0046249963 -0.08117926 -0.26090422 0.4364655 0.055177838 -0.13086084
-0.03956805 0.15209699 0.018101698 0.12906487 -0.11296837 0.063342616 -0.043637123 0.008313098
-0.103926115 0.17092499 -0.0757648 0.088764735 0.00143451 -0.17361687 -0.033332832 0.09723493

fc1.bias f4 [400]
00000000: c196 1dbe 802f 02be 23db 803d 8860 7ebe
00000010: 8a0c 0cbe 7d7b 5d3e 40a6 0fbe a0e3 8a3d
00000020: ab06 05be 5b17 ea3c c4a8 8fbe 6ddd af3d
00000030: 993f 653e f0bc 08be 42c1 94be 9687 2abe
00000040: 6fa8 973d 0cca 1abe 2dd3 073d a2d9 a93d
00000050: f32e d1bd f48b bbbc 986d 8a3c 81f6 ef3c
00000060: 3fab 383c 82b7 2e3e c16b 303e 8bca 0b3e
00000070: 47a0 7cbe 5e5d 68be 02cb b4bd a249 b03a
00000080: 10d7 e3bd ba48 5bbe 86fc e83d 617e f5bd
00000090: 8008 b63c 2f65 ffbe a35c 95be cbde acbd
000000a0: 37ab 803d 1e9e 87bc 4ec4 79bd 5f38 dabd
000000b0: 7f9d 943d 6caa 333e b503 2d3d f3b7 4a3e
000000c0: bdd6 1bbe 1950 fc3d ddc6 92be 6d6b abbe
000000d0: 7fe6 39be f250 393c 4f6d 67be 11b4 423e
000000e0: 043d 2b3e f716 7ebe 42d9 473d 778a 253d
000000f0: f033 88be 7fa8 9e3b 722d 8cbd 71bd 1bbe
00000100: bf99 4cbe aae0 d83d c9a8 39be 0c81 473d
00000110: 7e57 b7bd 29b5 59bb 9372 abbc b38d b83d
00000120: 4a91 0ebe 8a54 3e3e f040 05be 2287 8ebe
00000130: 53d9 033e aaf3 07be 0804 77bd b062 bcbe
00000140: 828b 833d da03 a03d 756b 883d f658 e93d
00000150: f881 a6be b45b 5dbb 2b9d e6bd 7106 a3be
00000160: 78ab 8bbd 163a c7bc c720 04be 29f6 a3be
00000170: 1338 40be 4455 943d f3c6 dfbd c9da 03be
00000180: 61e2 afbd f33d a0be deba c4be ee07 76be
00000190: 1e31 7bbe 08dc 81be c44b 8c3d b71a 56bd
000001a0: 8a51 3dbb 750a 67bd a7f0 e43d 1a62 583d
000001b0: 27a0 ecbd 9507 e5bd 582c b03d 79b9 52bd
000001c0: bd40 d93c 62bb c8bd 6f09 9fbd e358 90bd
000001d0: d917 b73d cddc dabe 4a60 a7bb 6c7c 8fbe
000001e0: 6897 a5be 5bcc 9e3d e3c2 96be fe84 e6bd
000001f0: f1da b5be d0e4 23be 9fdb 9f3d c005 3c3d
00000200: b57c 2abd 243d d1be f79a 95be 5404 81be
00000210: 143f f8bc 3ad4 22be e675 eabc 18b4 3abe
00000220: 91f5 86bd a406 80bc 92c9 75bd 7248 c1bd
00000230: 4b3c 923b b417 113d 49c6 88be 2f48 98be
00000240: 0ae9 8e3a 0c53 ea3d 9c72 b3be 0537 55bd
00000250: d139 57bd 9f5b cdbb 10f7 8dbe f709 f2bd
00000260: f641 ecbd 36b2 69bd 49cb eebe 7305 99be
00000270: d944 af3d 1c8a 0ebd 4fe9 f5bd 8fc2 e7bd
00000280: 1839 303e a84c 423e 95d1 21bd 1057 b2bd
00000290: a280 31be 9073 90be f5ea 4a3e bc75 8abe
000002a0: 29ae f6bb 5e0a 05bd d46c 15bd f9ce 74be
000002b0: 7a46 6abe b791 bbbd 6a5a fdbd 3f3a 6fbd
000002c0: 9fbb 09bc 1ee7 c7bd cb12 69bd 20df 88bd
000002d0: 9577 ba3d 1247 a9be ebe7 343e 0b87 a0bb
000002e0: bbe0 833e c139 053e d3d7 cb3c 89a5 53be
000002f0: 9ce6 cb3b c552 f1bd 06e4 7bbe e4cc 92be
00000300: 3552 bbbe f5f7 29bd 64b1 77be c899 4bbd
00000310: 1c5f 003c 30d3 8abc f949 d4bd 8ff7 f0bd
00000320: 7810 0abd 4e76 a83c 3ded 50be 72cc 4ebe
00000330: 31c3 2cbd f488 a2be 531e 7bbe b3e1 9bbe
00000340: 8395 abbe a4f6 f13d 090b 323c 73f0 3a3d
00000350: 0431 88be f8c9 6dbe ceaf 533e d637 28bd
00000360: b25e 5f3e 9c8c 3fbe 953f 15be f02f 12be
00000370: e8a4 243e 2729 333e 91d2 033e d82c 0a3e
00000380: 1cac cabd 8e42 2bbe 249a 0abe b0c8 7ebe
00000390: 9d88 8cbe abdc 7a3a 4908 d13d 1ab1 18be
000003a0: 9a19 7cbe 8099 fa3c 2cf1 b0be 8ee6 a5bc
000003b0: e6cc 7ebd f103 5fbe 9b98 7dbd bad9 16bc
000003c0: 81ac 5c3b 7493 7bbe 3948 b7bc 6bf3 e9bd
000003d0: 8639 093e 9fea 4fbe c0a1 bf3c 0245 e73c
000003e0: f70c 8cbe 3d02 ba3d 947e 12bd 2b5b 9ebd
000003f0: 725d ca3d 4dc9 183e 5acc f6bd 5509 a9be
-0.1538954 -0.12713432 0.06291797 -0.24841511 -0.13676658 0.21629138 -0.14028263 0.06781697
-0.12990825 0.02857559 -0.28058445 0.085871555 0.22387542 -0.13353324 -0.29053694 -0.16653284
0.07405173 -0.15116137 0.033160377 0.08293463 -0.10214033 -0.022893883 0.016897961 0.029292347
0.011271297 0.1706219 0.17228605 0.13651483 -0.24670516 -0.22691867 -0.08827783 0.0013449679
-0.11125004 -0.21414462 0.1137629 -0.119869955 0.02222085 -0.49881884 -0.2917224 -0.08440932
0.06282657 -0.016554888 -0.060978226 -0.10655283 0.072566025 0.1754548 0.042239863 0.19796734
-0.15218635 0.12319965 -0.28667346 -0.33480397 -0.18154334 0.011310803 -0.22600292 0.19014002
0.16722494 -0.24813448 0.048791178 0.040415253 -0.26602125 0.0048418636 -0.068446055 -0.15208985
-0.19980524 0.10589726 -0.18130793 0.048707053 -0.08952235 -0.0033219552 -0.020928657 0.09011402
-0.13922611 0.18586937 -0.13013053 -0.27837473 0.12875871 -0.13276544 -0.06030658 -0.36794043
0.064230934 0.078132346 0.06661121 0.11393921 -0.32521033 -0.0033776583 -0.11260446 -0.31840852
-0.068198144 -0.02431969 -0.12903129 -0.32023743 -0.1877139 0.072428256 -0.109266184 -0.12876429
-0.085881 -0.31297264 -0.38423818 -0.24026462 -0.24530455 -0.25363183 0.06850389 -0.05227157
-0.0028887712 -0.056406457 0.11178713 0.052827932 -0.11553984 -0.11183087 0.08602208 -0.05144641
0.026520127 -0.098013654 -0.07765471 -0.07048204 0.089400955 -0.42746583 -0.005107914 -0.28024614
-0.32342076 0.077538215 -0.29445562 -0.11255835 -0.35518602 -0.16005254 0.07805561 0.04590392
-0.041622836 -0.4086696 -0.2921979 -0.25198615 -0.030303515 -0.1590127 -0.028620671 -0.18232763
-0.06589807 -0.015628166 -0.060006686 -0.09437646 0.004462754 0.035422996 -0.2671378 -0.29742572
0.0010903191 0.11441621 -0.35048378 -0.052054424 -0.052545372 -0.0062670256 -0.27727556 -0.11818307
-0.115360186 -0.05705472 -0.4663947 -0.2988697 0.085580535 -0.03479968 -0.12007391 -0.11316406
0.1720928 0.18974555 -0.039506514 -0.08708012 -0.17334226 -0.28213167 0.19816191 -0.2704295
-0.0075280857 -0.03248059 -0.03648074 -0.23907079 -0.22878447 -0.09158652 -0.12370761 -0.058405157
-0.008406549 -0.09760879 -0.056902688 -0.06683183 0.0910484 -0.33062035 0.17666595 -0.004898911
0.25757393 0.13010313 0.024883186 -0.20668615 0.006222559 -0.11783365 -0.24598703 -0.28671944
-0.36586156 -0.041496236 -0.24188763 -0.049707204 0.007835176 -0.016946405 -0.10365672 -0.11765968
-0.033707112 0.020564225 -0.20402999 -0.20195177 -0.042178337 -0.31745112 -0.24523287 -0.30445632
-0.33512506 0.11814621 0.010866889 0.045639466 -0.26599896 -0.23221576 0.20672533 -0.041068874
0.21813467 -0.18705982 -0.14575036 -0.14276099 0.16078532 0.17496167 0.12873293 0.13493669
-0.098961085 -0.16724607 -0.13535362 -0.24881244 -0.27447978 0.0009569625 0.102066584 -0.14911309
-0.24619141 0.030590773 -0.34559 -0.020251539 -0.062207125 -0.21778847 -0.061913114 -0.0092071835
0.0033672156 -0.24567968 -0.022373306 -0.114233814 0.1340085 -0.20304345 0.023392558 0.028231148
-0.2735364 0.09082458 -0.035765246 -0.07732233 0.098811045 0.1492054 -0.12050696 -0.33014932

fc2.weight f4 [300, 400]
00000000: 6b20 9d3b 1384 a13d bff5 f4be 23cd 74bd
00000010: 9b6f 133e 98f1 68bd 2d63 00bf 52a2 0bbe
00000020: b0d9 b7be 62f3 613d 255f 68bb 99b1 293e
00000030: 71f2 fd3d 3021 e33d 887d 0ebe 7faa 083e
00000040: d4a6 01be ef88 673e 66e6 28be 0025 033e
00000050: 3464 91be 1b87 803e 1922 31be 7cad 2b3e
00000060: b1ab 34be c60e 13bf 6d70 6cbd 7acb 46be
00000070: 25a8 1abd f72e e6bd 679a 8b3d 4e3c 18be
00000080: 8fef 873e 5fc9 ccbd 04d0 48be b3a9 8d3d
00000090: 44d4 fb3d efa7 583e 6110 2abb 3f90 923d
000000a0: 4cbb b93d e48a 893d 6b6e 20bd 4824 eabd
000000b0: 2bce 6abf 7142 86bd b031 8bbe d9cd a6be
000000c0: 3079 213e 49ac 37be e1fe 503e 0291 253e
000000d0: eb18 7b3e ba1d 41be c2a6 bdbe 5629 d73d
000000e0: 46c0 8abd 5544 1abd ef24 3fbd 9718 ffbe
000000f0: e7f4 333e 66cc 5ebd 45c8 4bbe e65e fe3e
00000100: 4e30 de3c ada3 f73c 2aef 3f3d 0635 fbbb
00000110: 44b8 a1bd 1a7e b6bd dcdd 343d d895 173e
00000120: 902c 99bd f8a3 b4bd f696 93be 549b 8dbe
00000130: 21a1 a2be 2076 4a3e 56a7 49bf e761 063e
00000140: 6a22 153d 8888 1c3e a522 583c 2bb7 073d
00000150: 7fb8 09bf 89da 14bd 4f81 0ebd 05d6 6d3e
00000160: 0ccc 0f3e 9a19 953d 2d79 c33d 7dd8 9cbc
00000170: 874a 1ebf a49d 27bd 6adc 03bf adf6 c6bd
00000180: ea13 a53d e911 9abe 47c5 19bf 0324 aebd
00000190: 310d 843e 0c57 8bbe f1db 163e 6465 debe
000001a0: 7616 8c3d b81d 78bd 4c2f 8abd 8f66 06bf
000001b0: 57bf 3c3e 1e6c 913e 741b a33e b96c 29bd
000001c0: e6eb 15be 6f3a d7bd 154b 91b8 5b35 523e
000001d0: a9cc e5bc 011c af3e 1429 6ebc ebc2 86bd
000001e0: b001 4cbe 9bf4 c2bd 54f6 06bf 21b1 5a3d
000001f0: ca0c 0a3e ce1e 023e 2dcb df3b f0a7 66be
00000200: e323 03be 1541 a33e c066 26be 8b55 f93d
00000210: 920f fcbd 86d9 1dbd 92a4 9f3c 701e 42bf
00000220: d23c ca3d 5cb6 90be 75c1 88be adb5 00be
00000230: 58e7 893d a844 1dbe 544f 753e b046 47be
00000240: 2471 3fbe be4e 0a3d caf9 363e a3f5 563e
00000250: e58f db3b e5b2 03bf 84c7 98bc 1ce0 58be
00000260: 16a9 823e 2c6a ffbd c6e2 60bc af0e 893f
00000270: 47fe bdbe 1c7e 033f 9eab 223c c488 db3d
00000280: 85ce cfbb 363e 62be 14c8 08bd 402b 623d
00000290: 3933 b3bc 7f7c 80bd 5a5c 923d 03ac 5cbe
000002a0: 4abc 01be b803 39be f84c f43d 9ee1 6bbd
000002b0: 5f20 ef3d 96e5 a63d 522c c83d 42a5 c6be
000002c0: 4cb8 f9bd 0528 2bbe bf08 583e e3ec 04be
000002d0: ff5a 17bf 627e 9fbd 5cd3 bfbd cefa c53d
000002e0: f5c6 ecbe 154e 36be fec4 9ebe e600 32be
000002f0: 0637 0abe ecfd adbe 19a9 8cbe 5dc4 81bd
00000300: f476 e1be 7a79 a13d 4aab cfbc 161b 0c3e
00000310: 4b9a c9bd c4a6 debc 1845 e7be 00f8 413f
00000320: 0de9 7ebd fcd4 1d3e 5089 e23e ba19 9ebe
00000330: 2850 103d ec15 ebbd d27b 02bf f012 dcbe
00000340: 7205 383d 6eff 3d3c b601 1dbe 8e35 753d
00000350: 95a5 1b3e 394a 64bf 7a21 a6be 5b1d cc3d
00000360: 8a8c 04be 71d4 f23d b07f 683e 7399 3d3e
00000370: 545f dfbd 9c8b 603c 189f b6be ce35 aabe
00000380: 50ca f3bd 3304 57bd 81ec fe3c 2eaa 233e
00000390: b4ba aabe 77d8 92bd f973 86be afb1 27bf
000003a0: 6dd6 0f3e 1a09 2abd 6a32 c53d e443 b6be
000003b0: d720 293e 0202 e93d 8434 ccbd 06b4 1e3e
000003c0: 56dd 1abd 6020 2bbf bd89 3cbf 10d8 5b3e
000003d0: b8bb 20be 0d41 4fbe 24df 49bd 98b5 febe
000003e0: 1e25 67be f87a 3ebe 00a5 393e 71c3 a2bd
000003f0: ac13 bcbc 4d42 1e3d 78be 2ebe f3e3 203e
0.0047951243 0.07886519 -0.4784374 -0.059765946 0.14398043 -0.056871027 -0.5015133 -0.13636139
-0.3590827 0.05516375 -0.0035457101 0.16571654 0.12399758 0.110903144 -0.13915074 0.13346289
-0.12661296 0.2261083 -0.1649414 0.12807083 -0.2839676 0.25103077 -0.17298163 0.16765398
-0.1764362 -0.5744442 -0.057724405 -0.19413558 -0.03775801 -0.112394266 0.06816559 -0.14866754
0.26549956 -0.09999346 -0.19610602 0.06917133 0.12296346 0.21157812 -0.0025949704 0.07156419
0.09068927 0.067159444 -0.039167803 -0.11432701 -0.9172084 -0.065556414 -0.27186346 -0.32578924
0.15768886 -0.17936815 0.20409729 0.16168597 0.24521224 -0.18858996 -0.3704129 0.10505931
-0.067749545 -0.037662823 -0.046666082 -0.49823448 0.17573892 -0.05439415 -0.19900616 0.49681777
0.027122643 0.030229414 0.046858944 -0.007666233 -0.07896474 -0.08910771 0.044156894 0.14803255
-0.07479203 -0.08820337 -0.28826112 -0.27657568 -0.31763557 0.19771624 -0.7877096 0.13123284
0.036409773 0.15286458 0.013191854 0.033133667 -0.53797144 -0.036341224 -0.034791287 0.23226173
0.14042681 0.07280274 0.09544597 -0.019146198 -0.6183247 -0.040921822 -0.515082 -0.097150184
0.08060439 -0.3009179 -0.60066646 -0.085029624 0.25791314 -0.2721485 0.14732338 -0.4343673
0.068402216 -0.060575217 -0.067473024 -0.5250024 0.18432365 0.284028 0.31856883 -0.04136345
-0.1464077 -0.10509192 -6.928124e-05 0.20528166 -0.028051691 0.34201053 -0.014536161 -0.065801464
-0.19922519 -0.09519311 -0.52719617 0.05339158 0.13481441 0.12707064 0.0068296404 -0.22525
-0.12806658 0.3188559 -0.16250134 0.12174519 -0.12307657 -0.038537525 0.019487653 -0.75827694
0.09874882 -0.2826413 -0.26710096 -0.12569304 0.067335784 -0.15358222 0.23956043 -0.19460559
-0.18695503 0.0337665 0.17868724 0.2099214 0.006700503 -0.51444846 -0.018649824 -0.21179241
0.25519627 -0.124714226 -0.013725942 1.0707606 -0.3710806 0.513643 0.009928612 0.10719445
-0.0063417577 -0.22094044 -0.033393934 0.055217028 -0.02187501 -0.06273746 0.07146521 -0.21549992
-0.12669483 -0.18067825 0.11928743 -0.057588212 0.11676096 0.08149259 0.097740784 -0.38797957
-0.12193355 -0.16714485 0.21097086 -0.1298099 -0.59123224 -0.077877775 -0.093664855 0.09666978
-0.46245542 -0.17803223 -0.31009668 -0.17383155 -0.13497552 -0.3398279 -0.2747276 -0.063362814
-0.44036067 0.07884498 -0.025350232 0.13682207 -0.09843882 -0.02717913 -0.45169902 0.7576904
-0.062233973 0.15413278 0.44245386 -0.30879003 0.035232693 -0.11478791 -0.50970185 -0.42983198
0.044927068 0.011596544 -0.15332684 0.059865527 0.15199883 -0.89175755 -0.32447416 0.099665366
-0.12944236 0.11856926 0.22704959 0.18515567 -0.10906854 0.0137051605 -0.35668254 -0.33244175
-0.119038224 -0.05249424 0.031118633 0.15982887 -0.33345568 -0.07170194 -0.26260355 -0.655055
0.1404664 -0.041512586 0.09628756 -0.3559867 0.16516434 0.11377336 -0.09970954 0.15498361
-0.03780874 -0.66846275 -0.7364767 0.2146914 -0.15696609 -0.20239659 -0.04928507 -0.4974792
-0.22572753 -0.18601596 0.18129349 -0.07947434 -0.022958599 0.038637448 -0.17064846 0.15711956

fc2.bias f4 [300]
00000000: 6531 d2bd e921 eb3d 2310 c9bc d1f7 a13b
00000010: 7e33 f6bc e3cc 2ebd 5bc4 fd3c 7437 9bbc
00000020: 1ed3 1b3e c98a f5bc 6f94 bbbd 3fb7 0dbc
00000030: 83df 913c d0ca 93bb 1dd3 3bbc 40c6 b0bd
00000040: 6a4a f53c 2f5d 41bd f73e d43d aef3 253c
00000050: cc50 143d 7361 6b3d accc e2bd 2a18 cfbc
00000060: 0e6a b13d 6475 093d e189 32bd e6b9 043d
00000070: 4385 1b3d bd42 61bd cb4c 82bd 6394 f0ba
00000080: 7e08 dabd 6732 b13d 7f4c 85bd 47fb 963d
00000090: a9d8 a53d cd0d 0c3d 5aeb 1fbd f94d dabd
000000a0: fd2f 9abd dc5a 32bd 3b98 29bd 3b9b adbd
000000b0: e752 693c 30e4 c7bc 1ac2 80bb 1a5f e93c
000000c0: 6ab8 9bbc c19b f03c 4628 443c e1d3 0d3d
000000d0: 9fba 0fbd 0727 7bbd 0c8b ddbd 1cfe 22be
000000e0: c33f 9e3d c201 abbc 5105 343c 5586 e23c
000000f0: b402 6f3c 6cf8 c33c 068f eb3c 5e4c b5bd
00000100: ebcb 4abc f4ae 2dbd fb1c 9bbd cefb a339
00000110: 0835 7ebd 6ad4 56bc 7cb9 57bc afe8 c5bc
00000120: ba1b 85bd 346c ddbc 326b 613d 1a35 e8bd
00000130: e1a7 0ebe 6350 38bd d659 e4bc c8b0 303d
00000140: be94 053e 4987 9b3d 6e8d 4abd 811e f3bb
00000150: c356 dabd ef85 86bd 707a 9ebd ed5e d23d
00000160: d491 e13c 487e 1c3c 16e1 f0bd ecd5 8bbc
00000170: fbbe 753d a284 273c e539 02bd a127 fcbd
00000180: eb8c 253c 18d0 26bd ec9a 8f3d 518c 8fbd
00000190: 949e 5f3d 9402 b8bd 8fc3 5c3d 1d72 13bc
000001a0: f7ab 5c3c cad4 a63c 561e 453e a2d3 80bd
000001b0: 97ea 6abb 5790 263d a56b 9dbd efa2 57bd
000001c0: ef62 533d e2d7 963d f80f 3cbc 792b 2c3d
000001d0: 3fed d23d f98d 753c d7ca b0bb c435 ebbd
000001e0: e805 1fbc 1915 b43d 2ff8 06be cb8b ac3d
000001f0: a925 06bd e897 513d cb70 84b9 ae30 1a3e
00000200: f60f 00bd a496 673c a5c9 5bbc c6f8 a5bc
00000210: 4af4 1cbe 7b7b 49bd d1b6 86bd 6b5c 6d3d
00000220: 1db7 953d e9fa 77bd 4693 443d 0f24 d23d
00000230: bb63 e03c 355b b8bd 519a a63d 9174 2b3d
00000240: 9095 fdbc 2eb7 fbbc 88d2 a33b 4954 1cbd
00000250: af79 1bbd d1c4 413b d223 e6bd 247a 303d
00000260: 6265 da39 4371 3abe 8479 7e3d aedb 7cbd
00000270: 0814 e43d 2be0 bc3c 66c9 78bd 3282 70bd
00000280: a325 a53d 3f8f 563c 0483 b53d ed26 10bc
00000290: 9203 ad3d b27d 92bd 9c26 203d 298b 673c
000002a0: a6fe 283e cbfe b53c 786d 81bd 629f 343d
000002b0: 388e 9d3d 4f90 f5bb 02d2 4cbd f288 dbbd
000002c0: 75d9 193d 99ab 15bc 8355 acbb 36b3 f13d
000002d0: b72b 75bd 8ca0 393d a1c2 0e3e e432 a9bd
000002e0: 4166 8bbd 5841 9fbc ac0a 433d baf3 e83c
000002f0: d812 0fbd 0808 053d ca6b cb3c 4984 66bd
00000300: 7e9f 293d b591 e43b d1b8 5ebd 749f 2fbe
00000310: 9c69 26bd 1646 81bd ed10 d7bb 9772 c9bc
00000320: 76b2 50bd 8179 4abd e5ba 7ebc 80da 70bc
00000330: 53bd 073c f1c1 e5bd 1bcb d3bc 900a 033c
00000340: 1cb8 f33c 9cb6 ad3d 6660 54bc 7f7f a63d
00000350: a679 5c3c 8663 773d 1934 ea3c 45bb 5fbc
00000360: 2501 323d 2b83 08be 905c e2bd 1c53 3e3c
00000370: f7ae d53d 3c59 953d e7ff 53bd 2d6c e13d
00000380: 1b56 f4bd 3d2c 963a e203 683c 73c2 3fbd
00000390: deef 753c 49d0 843d 7170 fbbc 3b4a 5f3c
000003a0: 6258 03bd 9eb9 9f3d 6ba9 493c afc0 43bd
000003b0: 2d83 dabb 92d7 543d b6d1 51bd 15e0 923b
000003c0: 0b67 73bd 898a f3bd 59a7 633a 35b0 e0be
000003d0: fcd3 78bd 0cb3 9ebc 8694 023e 9aaa 0abd
000003e0: cf29 003d 6c6f 473d b717 043e 9c67 a13d
000003f0: 68c5 02bd b406 883b 7581 9abd e607 95bd
-0.102633275 0.11481077 -0.024543827 0.004942872 -0.03005385 -0.042675864 0.030977419 -0.01894734
0.15217254 -0.029973404 -0.09159171 -0.008649646 0.017806774 -0.004510261 -0.011463908 -0.08631563
0.02994271 -0.047208007 0.10363572 0.010128899 0.036209866 0.05746598 -0.11074194 -0.025280077
0.086628065 0.033559218 -0.043588523 0.03240385 0.037968885 -0.054995287 -0.06362303 -0.001835477
-0.10646151 0.086521916 -0.06508731 0.07372146 0.08097965 0.03419285 -0.039042808 -0.10659403
-0.07528684 -0.04354368 -0.041404944 -0.084768735 0.014240957 -0.0244008 -0.0039293887 0.02848773
-0.019008834 0.029371144 0.011972493 0.03462589 -0.035090085 -0.061316516 -0.10817537 -0.15917248
0.07727005 -0.020874862 0.010987596 0.027651945 0.014588047 0.023922168 0.028754722 -0.088524565
-0.012377719 -0.042403176 -0.07573887 0.00031277392 -0.062062293 -0.013112167 -0.0131667815 -0.024158804
-0.06499429 -0.027029134 0.05503387 -0.11338253 -0.13931228 -0.044998538 -0.027874868 0.04313734
0.13045022 0.07594163 -0.049451284 -0.007419408 -0.1066108 -0.065685146 -0.07738197 0.10272012
0.027535357 0.009551592 -0.11761682 -0.01706978 0.059996586 0.010224493 -0.031793494 -0.12312246
0.010104398 -0.040725797 0.07011971 -0.07009185 0.05459459 -0.08984867 0.053897437 -0.008999375
0.013468734 0.020365138 0.19249853 -0.06290366 -0.0035845393 0.040664997 -0.07686547 -0.05264562
0.051608022 0.07365395 -0.011478417 0.042033646 0.10299157 0.014987462 -0.005395274 -0.11484864
-0.009705998 0.087930866 -0.13180612 0.08425101 -0.03275076 0.05117026 -0.0002526104 0.15057632
-0.03126522 0.014135037 -0.013414775 -0.020260226 -0.15327564 -0.049190026 -0.06577838 0.057949465
0.07310317 -0.06054202 0.047992013 0.10260784 0.027391305 -0.09001771 0.08134902 0.041859213
-0.030955106 -0.030726995 0.0049994625 -0.038166318 -0.037957843 0.0029566775 -0.11237301 0.043085232
0.00041655736 -0.18207268 0.062127605 -0.06173294 0.11136633 0.02305611 -0.060738944 -0.058717914
0.08063819 0.013095676 0.0886288 -0.008798343 0.084479466 -0.07152881 0.03909932 0.014132299
0.1650339 0.022216221 -0.06319708 0.04409731 0.07693142 -0.0074940096 -0.050004967 -0.107194796
0.0375609 -0.00913515 -0.005259217 0.1180176 -0.059856143 0.045319125 0.13941433 -0.0826166
-0.06806613 -0.019440338 0.0476176 0.02843653 -0.03493008 0.032478362 0.024831671 -0.0562785
0.04141187 0.0069753774 -0.054375473 -0.1715067 -0.04062806 -0.06312196 -0.006563297 -0.024590774
-0.050951444 -0.04943228 -0.015547489 -0.014700532 0.0082848845 -0.11218632 -0.025853684 0.007998124
0.029750876 0.084820956 -0.012962436 0.08129787 0.013456738 0.060397647 0.028589295 -0.013655488
0.043458123 -0.13331287 -0.11052811 0.0116164945 0.104337625 0.07292411 -0.05175772 0.11006961
-0.11930486 0.0011457276 0.014161082 -0.0468163 0.015010802 0.0648504 -0.030693265 0.013628538
-0.03206671 0.077990755 0.012308459 -0.04779118 -0.0066684694 0.051963396 -0.051225387 0.004482279
-0.05942444 -0.11891658 0.00086842995 -0.43884435 -0.06074904 -0.019372486 0.1275197 -0.033854105
0.03128987 0.048690245 0.12899671 0.0788109 -0.031926543 0.0041511897 -0.07544223 -0.07276897

fc3.weight f4 [2, 300]
00000000: 984c 54bf 7e7d a7bf 427b bdbc fa59 b7be
00000010: 3182 9bbe 3c38 2ebf 9029 a3ba 173c 81be
00000020: 076e e53e 7f37 063d 735d 1ebd 8ce6 8cbe
00000030: b2f0 bdbd 5c8a 6d3e 853d 37bf 1b19 f2be
00000040: f92c 1dbd 4a74 debc d4fe 283e 8821 7bbe
00000050: da23 e7be 4126 ac3c ff5a 8dbf 15d3 f33b
00000060: b6e4 1abf 8047 34bf 08d4 46bc d392 b33d
00000070: db43 32bf eca1 d1bc 3f66 053c 4da5 6e3e
00000080: 3e26 c8bc a64d f9be f13e 5cbd aeb1 3bbc
00000090: d5ad cdbe e71b b6bf d398 8abc c47c 563c
000000a0: 4961 973e 210b a13e 89ce 5b3c 315d 0abe
000000b0: 5046 fe3e 102e 84bd 2be1 00bc 6c5e 96bc
000000c0: 4b27 a9be a73c 783e 1f64 3bba c88e 9b3d
000000d0: 64b4 cc3d 98fb d9bc 6602 0dbe addc 9ebe
000000e0: 2392 6bbf 67ae a93c b2c2 6e3e 14b9 5cbe
000000f0: adc2 2b3e bbbe 0cbd 3a4a f1bd f9b7 2cbf
00000100: 49bb 90be 108b 23bc 61b4 29be ded1 37bd
00000110: 09fe 57bc 2bef af3d 275e b1be 8eee 38bc
00000120: 9f0e 5c3f 0f8a ac3b 5c29 1ebf bb89 fdbe
00000130: 7a37 aa3d def3 bebc 1880 5fbe 66e2 38be
00000140: ec5b 193e 8528 38bf 1af6 d73e 8d31 08bd
00000150: 30d6 963e fc19 3b3e 519e 8dbf e803 67bf
00000160: f852 36bf 697f 9dbd 3db9 2bbe 3965 6ebc
00000170: a6d1 e7be 0d7f 16bd 94e0 0cbf f0fa c43d
00000180: c6b6 2ebf 603a 8b39 e34d d73d 7f9c 6cbd
00000190: 19cd 77bc 651e 50bd 3839 2a3d 99f6 9dbc
000001a0: 946c 2ebe 0f32 35be 176f b33e c248 c3be
000001b0: 149f d9bc 793e a13b ac07 45bf 77fe 15bd
000001c0: 4eae b6be 0152 3bbe c7b2 203e f082 273f
000001d0: 6278 09be 6463 a4bd 5a0a 9abc 696f 49be
000001e0: ecc7 c1bc b893 4a3d 2ab7 333f e8fb 54bf
000001f0: 1d9e 09be f06c 153e 2036 55be 564d 76bf
00000200: 9bf7 c8be c5bb 8a3e b5a3 cc3d f696 d1be
00000210: 8760 ffbc 63aa f3be d311 13bf c7d3 ed3d
00000220: 106b 61bf fc90 5bbc dc3b 39bf 92ef 1a3e
00000230: 13f6 883d b012 f5be 1c94 093e 890a 963c
00000240: 7cfe 98bb 29b9 823d 9c43 16be 47cf 193e
00000250: 3087 7abd 6033 15be 6d3d 36bf 7be2 32bf
00000260: 96fc 3ebb 9dcb b63d 6325 34bf 3444 92be
00000270: 2c6f 73bf 6d1d c93e 5759 5c3d d67e 96be
00000280: 7142 99bf bbc2 cbbc 544f c53e 1d97 64bc
00000290: 033a d4be a2dd 94be 14ea d63a 5ce1 07bd
000002a0: e33c 17bf 7dd2 a73c 50b7 a8be c25f f83b
000002b0: 8fa9 16bd 47c8 86bd 81ee b5bc 46b5 d83d
000002c0: 7c88 f93d e8db 74bc e97d 083c 5a8d 75bb
000002d0: e0e1 5b3e bf22 4cbd 908c 393e f971 77be
000002e0: 968b 2dbb d516 a73e bc44 b93d 8f42 8abd
000002f0: 60a8 74bc 5721 8fbe 5af9 643b b817 773d
00000300: b075 4a3e 1490 663e 4dd9 23bd 923f 6bbe
00000310: 1625 7ebd 72e0 c5bd d86d 78be afd2 28bf
00000320: 0c19 81be 551b e63d a2e2 9abd 9cbb b0bc
00000330: 67c5 3f3d beb3 28bf b421 063e 9ebd 8bbe
00000340: 10ea a0bf 11b1 a4bf 4dfb 1dbf a183 983c
00000350: 7649 da3c 78e3 e23c 3c29 f33c 85e7 8cbc
00000360: de26 7c3d fa45 e43d fa9e 0fbf 7006 27bd
00000370: 44d1 ccbf 1287 a9be d3e4 aabd a451 bebe
00000380: 0803 e83e 225d 92bc d399 20bf d1c2 73be
00000390: b7ca 98be 026f 4abe 927d 56bc 03f7 9dbc
000003a0: e06c eabc 6f88 abbe c74c bcbc 45fe 65bb
000003b0: 1eaf 2e3e 3273 8fbf f2d1 4abd 76b6 ebbd
000003c0: 478a ff3d 4bee 403e f500 9dbe 3e13 973d
000003d0: 5d82 d13e b52b 6b3e 02d6 f13c 1c31 0ebe
000003e0: 82d2 ffbe 4280 143e 8031 89bf 0cdb 2e3e
000003f0: 8d86 a0be 843d 1abe 89c9 0cbf a575 fcbf
-0.8292937 -1.3085172 -0.023130063 -0.35810834 -0.30372766 -0.68054557 -0.00124483 -0.25241157
0.44810507 0.03276777 -0.03866334 -0.27519643 -0.092744246 0.23197311 -0.71578246 -0.4728478
-0.038372967 -0.02715506 0.16503459 -0.2452451 -0.4514454 0.021014335 -1.1043395 0.0074409344
-0.60505235 -0.704216 -0.012135513 0.08768239 -0.6963479 -0.025589906 0.008142053 0.23305245
-0.024432298 -0.48692054 -0.053770963 -0.011455936 -0.40171686 -1.4227265 -0.016918575 0.01309127
0.2956641 0.31453803 0.013415941 -0.13512112 0.4966302 -0.06454098 -0.007866184 -0.01835557
-0.3303779 0.24241887 -0.0007148403 0.07595593 0.09995344 -0.026609227 -0.13770446 -0.31027737
-0.9201986 0.020713044 0.23316458 -0.21554977 0.16773482 -0.034361582 -0.11781736 -0.6746822
-0.28267887 -0.009981886 -0.16572715 -0.04487788 -0.013183125 0.085905395 -0.34642145 -0.011287345
0.8595981 0.0052654813 -0.6178186 -0.49519143 0.083113626 -0.023309644 -0.21826208 -0.18055114
0.14976472 -0.7193683 0.42179948 -0.03325038 0.29460287 0.18271631 -1.1063939 -0.90240335
-0.7122035 -0.07690317 -0.16769882 -0.014550501 -0.45277137 -0.03674226 -0.5503018 0.09618175
-0.6824764 0.0002655564 0.105129026 -0.057766434 -0.015124583 -0.050810236 0.041558474 -0.019282626
-0.17033607 -0.17694877 0.35045692 -0.38141447 -0.026565112 0.0049207774 -0.7696483 -0.03661963
-0.3567986 -0.18293001 0.15693198 0.6543417 -0.13424829 -0.0802677 -0.018803764 -0.19671406
-0.0236549 0.04945728 0.7020136 -0.8319688 -0.13439222 0.14592338 -0.20821428 -0.96211755
-0.39251408 0.27096382 0.09992162 -0.40935487 -0.031173958 -0.47590932 -0.5744907 0.11612659
-0.8805399 -0.013401266 -0.72356963 0.15130451 0.0668756 -0.4786582 0.13435405 0.01831557
-0.004669009 0.06382973 -0.14674228 0.15020476 -0.06116408 -0.1457038 -0.7118748 -0.6987683
-0.0029142252 0.08925555 -0.7036955 -0.2856766 -0.9509151 0.39280263 0.05379614 -0.29393643
-1.1973401 -0.024873128 0.38537085 -0.013952044 -0.4145051 -0.29075342 0.0016396665 -0.033173904
-0.5907728 0.02048611 -0.32952356 0.0075797746 -0.036782797 -0.065811686 -0.022208454 0.1058145
0.121842355 -0.014945008 0.008330801 -0.0037468285 0.21472883 -0.049837824 0.18120027 -0.24164571
-0.0026480905 0.32634607 0.09046313 -0.06750976 -0.014932722 -0.27955124 0.0034938664 0.060325354
0.19771457 0.22515899 -0.040002156 -0.22973469 -0.062047087 -0.0966195 -0.24260652 -0.6594648
-0.25214422 0.11235682 -0.07562758 -0.021573834 0.046819117 -0.65899265 0.13098794 -0.27293104
-1.257143 -1.2866536 -0.6171158 0.018617453 0.026646357 0.027696356 0.029682748 -0.01720024
0.061560504 0.111461595 -0.56101954 -0.040777624 -1.6001363 -0.33110863 -0.08344426 -0.37171662
0.45314813 -0.017866675 -0.6273472 -0.23804785 -0.2984216 -0.19768909 -0.013091462 -0.019282823
-0.028616369 -0.33502528 -0.022985829 -0.0035094183 0.1705899 -1.120703 -0.049516626 -0.11509411
0.12477546 0.18840902 -0.30664793 0.07376717 0.40919772 0.22965892 0.029520992 -0.13885921
-0.49965292 0.14502051 -1.0718231 0.17075747 -0.31352654 -0.15062529 -0.5499502 -1.9723402

fc3.bias f4 [2]
00000000: c887 6b3d 00ed 81bb
0.057502538 -0.00396502
