Tennis/Nets/checkpoint_actor1700.pth (torch_old, 525671 bytes, 10 tensors)

bn1.weight f4 [24]
00000000: 66ae 1d3f f156 2e3f 9fe4 453f 894a 2c3f
00000010: 92b6 763f 63f7 363f dc11 163f 5b09 783e
00000020: 598a 273f f5de d83e 82eb 2d3f 60e8 153f
00000030: 0154 333f f25e 843f ef66 253f 0191 413f
00000040: 3704 5e3f e39b 0b3f a837 133f 634e 8a3f
00000050: 6e81 f13e 9bc3 5b3f b820 373f 7416 6e3f
0.61594236 0.6810141 0.77301973 0.6730123 0.9637233 0.7147123 0.58621 0.24222319
0.65445477 0.42357603 0.6793748 0.585577 0.70050055 1.0341475 0.6461019 0.75611883
0.8672518 0.5453474 0.575068 1.0805172 0.4716906 0.85845345 0.715343 0.9300301

bn1.bias f4 [24]
00000000: 1f5e 5dbd 5d89 b43d 7ca8 343e 3548 7c3d
00000010: 64ce d03d 92ba 163e 6f60 133e 06ea f83d
00000020: 3f1b 15bd bce3 573e 795d 643d d870 b4bd
00000030: 5a11 1d3d bd5c a43c 1fbe 6c3d 6c56 a9bd
00000040: 047f 3d3e 04f7 7b3e 6ce6 7a3d 3f0e 0a3d
00000050: 826e e93c 6318 ccbd c4bd b03d 85c7 2dbc
-0.05404484 0.088152625 0.17642397 0.0615923 0.10195616 0.14719608 0.14392255 0.121540114
-0.036402937 0.21082968 0.055753205 -0.08810586 0.038346626 0.020063752 0.0577985 -0.08268437
0.18505484 0.24605948 0.061254904 0.033704992 0.028495077 -0.09965589 0.08629945 -0.010606651

bn1.running_mean f4 [24]
00000000: c334 aac0 aaba 0abf b590 ab40 9c41 a03e
00000010: a657 073e 6625 4d40 b590 ab40 9c41 a03e
00000020: e4cc b2c0 c750 12bf fd38 b440 5bae b53e
00000030: 4466 383e 04dc 4c40 fd38 b440 5bae b53e
00000040: 8475 bbc0 d3b5 17bf 10f4 bd40 b8f9 db3e
00000050: 0259 613e 1f8c 4a40 10f4 bd40 b8f9 db3e
-5.3189406 -0.54191077 5.3614144 0.31300056 0.13217029 3.2054076 5.3614144 0.31300056
-5.587511 -0.57154506 5.6319566 0.35484585 0.18007761 3.2009287 5.6319566 0.35484585
-5.858095 -0.59261817 5.936043 0.42963958 0.2200661 3.1648023 5.936043 0.42963958

bn1.running_var f4 [24]
00000000: 8b16 8e41 7f79 833f 23a6 b143 4272 2341
00000010: f1d4 1e42 a665 8740 23a6 b143 4272 2341
00000020: 2508 8941 dfe5 863f fbe4 bb43 6886 3341
00000030: f318 2e42 1d13 9040 fbe4 bb43 6886 3341
00000040: 7fc4 8241 2ffd 883f 8dff c443 5b70 4141
00000050: b1fd 3e42 4aa1 a340 8dff c443 5b70 4141
17.761007 1.0271453 355.29794 10.215395 39.70795 4.2311583 355.29794 10.215395
17.128977 1.0538901 375.7889 11.220314 43.524364 4.502333 375.7889 11.220314
16.345945 1.0702266 393.9965 12.089931 47.747746 5.1134386 393.9965 12.089931

fc1.weight f4 [400, 24]
00000000: 3187 2fbd 8936 8fbe 7244 a3bd de1d eb3d
00000010: 005b cebd 9802 ec3c edf0 85bd 4f2c 9e3c
00000020: 7a44 8bbd 77a9 55be a48a 623d 5ecb 403d
00000030: 8921 04be 9791 ec3d 5730 81bc e900 fc3c
00000040: 5b07 cebc 521a 79be f6d9 ca3c 4741 9ebd
00000050: e8bc c2bd 88df 493e 341d cc3d 5bf4 d8bd
00000060: c78e 4a3d 1d02 e2bd 305e 4d3c 1bfb 4abd
00000070: 786e 8cbe 1ed5 833e ab93 f1bc d2c3 0abd
00000080: c3b5 e33d e7d8 cb3c 3f88 3cbd 8ab6 0e3e
00000090: 1fb8 8dbe 7e21 b83e 95dd a4bd a609 223e
000000a0: eba8 003e 005f 8a3d 5787 ce3d 686e 093e
000000b0: 98bc dcbd 59df e03e b553 8f3d 729e 463d
000000c0: 1bb1 afbb ec2a 4ebe 6fec 923c 33f9 bbbd
000000d0: 5dfc ae3e 769a 0f3d 0d5d 213b 83b2 2dbe
000000e0: 7b63 813d 253d 42be f367 2bbd 6784 0a3e
000000f0: 806e 9e3e 20a4 1bbd a385 bebd c2b6 df3d
00000100: 8303 a3bd f7b1 79bd 1cd6 bebd 8240 993d
00000110: 13e0 893e e530 dbbd 0c61 10be d8c0 253e
00000120: 25ba 76be 607f e03d 5930 95bd 2582 1e3e
00000130: c975 22bd 4276 3c3e 6e58 90bd c63a e83d
00000140: 0a31 4fbd 649c f83d ce1a 623e fd8a 973d
00000150: cb31 c1bc 49ef 1e3e c53a 823e 0078 c33d
00000160: 335b ec3d 739a 5d3e 4ab8 963e 8e61 643c
00000170: 7059 28be a602 973e 4642 ac3e bcd3 ab3a
00000180: fc6a 87be 22f7 6c3e 297d 55be 3ed1 1bbe
00000190: cdc3 a0bb 0289 3a3e ee7b 38be 2d23 08be
000001a0: 5745 83be 52c9 403e 410d e1bc 2be3 42be
000001b0: 0ac1 753d f97e 0a3e 554e 023d 08b7 51be
000001c0: 2965 8bbe 39ab 2f3e 709c b33d 741a 4dbe
000001d0: b818 1d3d 23f2 013d 55a0 883d 66e5 5dbe
000001e0: 8bc7 183d 8e91 d23d b8e0 da3c defc d63d
000001f0: df64 4a3d daee 3a3e 2579 8a3d 71b3 12bd
00000200: 6335 80bd b049 1c3e 9e1b 2fbe 3529 b83d
00000210: ed1c aa3d 5432 7b3e 9c01 36be 2ad0 af3d
00000220: 020e 45bd ccde 413e 7e58 7f3c d7ff 773e
00000230: e808 b0bc 1a79 7e3e bdfa d33c 7e62 463e
00000240: 3df1 bd3d 97fd bebe 1afb 893d 951a db3c
00000250: c303 863e 74b4 a63d 7545 333d 391f 58bd
00000260: 480e 2b3e 5512 c1be 2196 6a3e 1067 b63d
00000270: 3c2d 1a3e 5568 8b3b 4e89 5d3e 4180 033e
00000280: e5ef 803e fcb1 85be 3fa4 6b3e 6d5d 053d
00000290: f7ea 853d 8d1c 58be ecc8 463e ef00 a9bc
000002a0: 6053 563d 3f5a 193d 6983 95be 4e38 1abe
000002b0: 0108 79bd 2e5c 3a3e cdae 6fbe 90f6 1ebe
000002c0: 67fd 403d 2751 89bd 4b66 b539 0e82 43bd
000002d0: 7466 88bd 01a6 803e b63c e43b 9693 94bd
000002e0: d2ae 66bd 9fe4 c4bd e112 86be 570d f6bd
000002f0: 69c0 8fbb 77b2 033e 58df 6cbe 2d0d 08be
00000300: a9b8 7e3d e01a 3f3e c520 79bc ca70 933d
00000310: 893c 4fbd adc2 8ebc 0a98 49bd e364 9f3d
00000320: 71c8 3a3d 2350 2e3e a6f9 91bd 660b e6bc
00000330: 887c cfbd dbd8 e4bd 3596 89bb 02ea 833c
00000340: d986 6abd f22b e43d f4ad 763d 6adb 9abd
00000350: 61ac adbd 1ddd 49be 1610 9c3c 8b46 3abd
00000360: 93b5 97bd 2058 96bd 1e61 4b3d 898a 18be
00000370: dc9e a7bd 7e35 133d acf3 f93c 2402 fbbd
00000380: 2032 163c a092 e6bd c7c3 2d3e 0d5b 803b
00000390: d282 34bd 999d a5bc 9aee 233e 8e10 b4bc
000003a0: 550f 9abc d7e3 c83c 5579 a93c f886 4c3e
000003b0: fb3d 19bd c861 483e a1c3 993d 7f9c 133e
000003c0: d370 61be 98b9 c03c 452b 3cbe 29cb 893e
000003d0: 59c7 24bc 93c6 a73c d298 74be 2fb0 7f3d
000003e0: 01a0 a2be 0c89 b03b ac36 11be 5664 e5bb
000003f0: e0f9 23bd e2aa 91bd a1cb ddbd cd81 103c
-0.042853538 -0.27971295 -0.07972039 0.11480306 -0.100759506 0.02880983 -0.065400936 0.019308237
-0.0680017 -0.20865427 0.055308 0.047068946 -0.12903418 0.115512066 -0.01577012 0.030762153
-0.025149992 -0.24326447 0.024762135 -0.077272944 -0.09508687 0.19714177 0.099665076 -0.10593482
0.04945257 -0.11035559 0.012534663 -0.04955588 -0.2742803 0.25748533 -0.029489359 -0.033878155
0.11118653 0.0248837 -0.046028372 0.1393682 -0.27679536 0.35963053 -0.08050076 0.15823993
0.12564437 0.06756401 0.10084408 0.13421023 -0.10778159 0.439204 0.06998388 0.04849095
-0.005361689 -0.20133561 0.017935006 -0.0917839 0.34176913 0.035059415 0.0024622113 -0.16962628
0.063178025 -0.18968637 -0.04184718 0.1352707 0.3094368 -0.03799832 -0.09302833 0.1092353
-0.07959654 -0.060960736 -0.09318182 0.07483007 0.26928768 -0.10702685 -0.1409952 0.16186845
-0.24094446 0.10961795 -0.07284612 0.15479334 -0.03966311 0.18404487 -0.070481166 0.11339335
-0.050583877 0.12139204 0.22080538 0.07399557 -0.023583313 0.15520968 0.25435463 0.095443726
0.11540832 0.21640949 0.29437476 0.0139392745 -0.16440368 0.29494208 0.33644313 0.0013109366
-0.2644881 0.23141149 -0.20848526 -0.15216538 -0.004906154 0.18216327 -0.18016025 -0.13294668
-0.2563884 0.18826798 -0.02747214 -0.1903197 0.05999855 0.13524999 0.031812984 -0.20479977
-0.27225617 0.1715516 0.087700725 -0.20029622 0.03835365 0.03172506 0.06671206 -0.2166954
0.037299674 0.102816686 0.026718482 0.10497449 0.049412604 0.18255177 0.06761388 -0.03581566
-0.06260183 0.15262485 -0.17100379 0.089922346 0.083062984 0.24530917 -0.17774051 0.08584626
-0.048109062 0.18932647 0.015585063 0.24218689 -0.021488622 0.24850884 0.025876397 0.1937351
0.09274528 -0.3730285 0.06737347 0.026746074 0.26174745 0.081398875 0.04376741 -0.05276415
0.16704667 -0.377093 0.22908832 0.08906376 0.15056318 0.0042543807 0.21634409 0.12841894
0.25183025 -0.26112354 0.23011874 0.0325598 0.065389566 -0.21104641 0.19412583 -0.020630328
0.052325606 0.03743958 -0.2920182 -0.15060541 -0.06079865 0.18199226 -0.23406525 -0.15523744
0.047116663 -0.06704932 0.00034599224 -0.04773145 -0.066601664 0.2512665 0.006965245 -0.07254712
-0.056319065 -0.096139185 -0.26186278 -0.12014263 -0.0043869507 0.12861048 -0.23132074 -0.13286276
0.062187824 0.18662596 -0.015205567 0.07199247 -0.05059484 -0.017426813 -0.04921726 0.077829145
0.045601312 0.17022757 -0.07127695 -0.028081607 -0.10131174 -0.111741744 -0.0041988143 0.016102795
-0.057257507 0.111411944 0.06022449 -0.07561381 -0.08480144 -0.19713254 0.01905064 -0.04547743
-0.074076794 -0.07341027 0.049653165 -0.14896597 -0.08184597 0.035939686 0.0305117 -0.12256268
0.009167224 -0.11258435 0.16969214 0.003917104 -0.044070072 -0.02021675 0.16008988 -0.02198055
-0.018806139 0.024522705 0.020687738 0.19973361 -0.037412625 0.1956855 0.075080164 0.14415167
-0.22015695 0.023525998 -0.18375881 0.2691281 -0.010057294 0.02048043 -0.23886421 0.06242388
-0.31762698 0.005387431 -0.14181012 -0.0070004864 -0.04003322 -0.071126714 -0.10829855 0.008820009

fc1.bias f4 [400]
00000000: 4656 003e 4cc7 11be 0317 b1bd 7f4a e3bd
00000010: 8986 77be 9a06 ef3c 18d6 bd3c c71b 673d
00000020: d6a6 0bbd b987 063b 3464 5cbe 4ce7 d13d
00000030: 5472 b53d 5dfc 19be b5e9 353d 6f74 15be
00000040: 7414 19bc 7395 99be 308d e43d d337 ef3d
00000050: 998a abbd 5569 a3bd 000e 843b 7a36 6f3d
00000060: 308e 653d 39f3 d53d d0eb bc3d c1d7 723e
00000070: 65b0 deb9 9055 73be 8e5d 183d a0d1 be3d
00000080: f983 9abe 2227 a0bc ae7e 3abd 719e 763c
00000090: 2690 903c 1be5 acbe b524 c8bd 8155 91bd
000000a0: ac32 ee3d 896e 81b9 6cac 2a3d 078d c1bc
000000b0: b500 cb3d faf7 863d 4581 92bd c0e8 cc3d
000000c0: c962 01be 8fac 003e d68b 00be 3fac babe
000000d0: 9410 07bd d369 3c3d b56f 32bc c62c 1e3e
000000e0: 3588 ef3d 5925 06be b35e 1f3e 014f be3d
000000f0: c64a dabe d0c6 ab3c d48f 94bd 3ed2 34be
00000100: bf99 4cbe 0adb 003d 8869 9abd a7b0 bc3d
00000110: e3be c43d 6938 893d a9bb a5bd c199 0c3c
00000120: a05b 663c 7828 6a3c 478e 10bd 3dff 36be
00000130: b0b2 843c bfa4 b6bc 000a 8dbd 3749 3abe
00000140: b43f 1f3e 5510 1dbd 18e9 59bc 5205 063e
00000150: 5efb 6ebe c25e f7bc c925 0cbd 813f 91be
00000160: 7e7c f93c 29bf b73d 2266 48be 59b5 49be
00000170: 7c96 2abe 3e74 9c3d 47e4 2fbe 1105 f83d
00000180: 5d86 a8bd 1710 5abe 9450 36be 15a3 8dbe
00000190: 86bb 44be f53f 3bbe ee7b 103c e85e 24be
000001a0: b0d7 c6bd df3f f6bd b867 26bd 34fc 52bb
000001b0: a48f c5bd 5718 9ebd 360a 913c 4b13 543c
000001c0: 2b11 05bd f498 76bd 4fee c2bd 16a3 533b
000001d0: 34fe 0dbe 3314 91be db0b 9fbd fed7 e1bd
000001e0: e166 dabd 3854 b33d 02b7 33be 8604 b9bd
000001f0: 27a3 22be c0f1 12be 765b d03d 4d98 af3c
00000200: 9b7c 10be 62b7 a7be 971f 38be c016 95bd
00000210: e80f 56be 3918 123e eb7e 623d 950b 17be
00000220: e670 c2bd 54aa a3bd 27f1 d5bd f564 9bbd
00000230: 6f90 abbd 0785 18bd abec e1bd 8374 abbe
00000240: 6d54 053e 3330 423d c590 b53c 17f0 2abd
00000250: 2681 9a3a e591 a1bd 5ed5 20be dde6 26be
00000260: 9161 d5bd b9b9 6e3c db01 76be aa6d 2abe
00000270: 8dea 0d3d 0e6b bbbd 5bb1 8bbd 0df2 e63c
00000280: 4536 d63c 47d0 bc3d df3d fbbd 1bed efbd
00000290: 063c 2ebe f54e 56be 6f63 113e bbcf 66bd
000002a0: 6bc1 4d3d 6264 bd3d 760b 08be 7622 a8bd
000002b0: 84f8 2dbe 9f68 15be e826 36be 4325 c63d
000002c0: 1731 e03c 5d2c b8bd c7bb ce3d 7b97 b83c
000002d0: f813 493d 4df8 2bbe 9512 2f3e ad26 e43d
000002e0: 4a29 323e 508b be3d 8a8e 693d d237 18be
000002f0: 8ef9 8c3e 491b db3b 639d 2fbe ea73 f33d
00000300: 1267 b2bd 7789 6b3d 93f3 15be b198 d5bc
00000310: 5ff2 b8bd 2784 54bb 72d5 d0bc b56d cfbd
00000320: 1117 d8bc 8f30 f5bd 5333 6abd 1bcc 51bd
00000330: 3e3f 9e3d ba3c 55be 44ca febd 953a a8be
00000340: 72d1 90bd 5bc4 133e b2ac 283d 9674 603e
00000350: c2ae e0bd 972c 50be 76c0 563e 082d 8d3d
00000360: e98f b23d db6f 653d e467 aa3d 922b 3cbd
00000370: c38e a73d b6ab f33d 35bd 0b3e f2cf ea3d
00000380: 7815 47bd 8e42 2bbe 61c9 30be 38eb a6bd
00000390: 7844 bcbd 5f6c 313d 83d3 f83d 68aa 46be
000003a0: 1aa8 16be 8a54 62bd f4d9 28be 3376 92bc
000003b0: 8cd5 6d3c f23d 5dbe 5d38 6d3b af79 043e
000003c0: 23c0 943d b585 9dbe a1c5 0ebe 6a3a a6bd
000003d0: 5a80 113e eaa1 a2bd 3fd9 93bd f80f 0f3d
000003e0: 5fd3 2fbe 572c 0e3d e2d5 e93d 2023 80bd
000003f0: 8943 043d dce7 ba3c b171 453d 2a85 8fbe
0.1253291 -0.14236182 -0.08646967 -0.110981934 -0.24172415 0.029177953 0.023173377 0.056422975
-0.034094654 0.0020527674 -0.215226 0.102491945 0.08859697 -0.15037675 0.044412334 -0.14595197
-0.009343255 -0.29996833 0.11159742 0.116805695 -0.08376045 -0.07979075 0.0040299892 0.058401562
0.056043804 0.10446782 0.09224665 0.23715116 -0.00042474564 -0.23763108 0.037198596 0.093173265
-0.30178812 -0.01954991 -0.045530967 0.015052424 0.01764686 -0.33768544 -0.09772626 -0.07096387
0.11630759 -0.00024687152 0.04166834 -0.023626817 0.09912244 0.065902665 -0.071535625 0.10005331
-0.1263534 0.12565826 -0.12553343 -0.36459538 -0.032974795 0.04599936 -0.010890891 0.15446767
0.11695901 -0.13100185 0.15563469 0.092924125 -0.42635173 0.020968825 -0.072539955 -0.17658326
-0.19980524 0.031458892 -0.0753966 0.09213381 0.09606721 0.067002125 -0.08092434 0.00858158
0.014059931 0.014291875 -0.035291936 -0.17870803 0.016198486 -0.022295354 -0.06886673 -0.18191992
0.15551645 -0.038345654 -0.013300203 0.13087967 -0.23338076 -0.030196551 -0.034215722 -0.28368762
0.03045487 0.08972008 -0.1957021 -0.19698085 -0.16658968 0.07639359 -0.17176925 0.12110341
-0.08228753 -0.212952 -0.17804176 -0.27663484 -0.1921216 -0.18286116 0.00881861 -0.16051829
-0.09709108 -0.12023901 -0.040626258 -0.0032193782 -0.09646538 -0.07719486 0.017705064 0.012944053
-0.032487076 -0.06020446 -0.0951811 0.0032293252 -0.13866502 -0.28335723 -0.07765933 -0.11027525
-0.10664154 0.08756298 -0.1755028 -0.09034066 -0.1588255 -0.14350033 0.10173695 0.021434927
-0.14110033 -0.32757097 -0.179808 -0.0727973 -0.20904505 0.14267053 0.05529682 -0.14750512
-0.0949419 -0.07991472 -0.10446387 -0.075876154 -0.08377158 -0.03723624 -0.11031469 -0.3348733
0.13020487 0.047409248 0.022163758 -0.041732874 0.0011787757 -0.07889155 -0.15706393 -0.16299005
-0.10419 0.014570647 -0.24024145 -0.16643396 0.034647513 -0.091512784 -0.06820937 0.02819159
0.026148925 0.09219413 -0.1226766 -0.11715146 -0.17015085 -0.20928557 0.14198087 -0.05635045
0.050233286 0.09247662 -0.13285622 -0.08209698 -0.16989332 -0.14590691 -0.17788279 0.09675076
0.027367158 -0.089928366 0.100944094 0.022533169 0.04909131 -0.16793938 0.17096932 0.11140189
0.17398563 0.093039155 0.0570207 -0.14865044 0.27534145 0.0066866023 -0.17149882 0.11887343
-0.08711065 0.057504144 -0.14643697 -0.026073785 -0.090306036 -0.0032427402 -0.025492404 -0.10128347
-0.026378186 -0.119721524 -0.057177853 -0.05122004 0.07726906 -0.20823947 -0.12440923 -0.32857195
-0.070711985 0.14430372 0.04118032 0.21919474 -0.109708324 -0.2032951 0.20971856 0.06893355
0.08718855 0.056014877 0.08320597 -0.04593999 0.081815265 0.11897986 0.13646396 0.11465444
-0.04860446 -0.16724607 -0.1726432 -0.08150333 -0.09192747 0.04331624 0.12149718 -0.19400942
-0.14712563 -0.055256404 -0.16489393 -0.017878627 0.014516246 -0.21605662 0.0036196925 0.12937044
0.0726321 -0.30766073 -0.13942577 -0.0811661 0.14209118 -0.07941039 -0.07219171 0.03492734
-0.17170475 0.034710255 0.11417748 -0.062566996 0.03229097 0.022815637 0.048204128 -0.28031284

fc2.weight f4 [300, 400]
00000000: ec4c 403d 0d23 2c3e e990 cd3d d203 5ebd
00000010: 6503 063e 45c9 ec3d 77f1 06be 06d8 e93d
00000020: bdf8 99be 5d36 b93d 727c 3d3c c516 643d
00000030: 65e2 d0bd ca1b 09bd 815f 28bf 8a61 af38
00000040: a8ef e73d 55cd 453d 36b0 bc3c fb29 e13c
00000050: 781a 89bd 043d 043e 4bce a9bd 8650 bf3d
00000060: 265c 67be 5da2 e6bd b7ad 363d ff90 0dbe
00000070: 9f1e 6ebe 7ae6 cabd 5c89 82bd f8f1 b4bd
00000080: e69b 033e 46ff 5a3e d407 3d3e 42ca bcbd
00000090: 2d94 023c 8608 ff3c 22b5 943d 8b02 e93b
000000a0: 3a52 373e 0a44 2f3c e807 c93d 22b1 e8bd
000000b0: 52ba 03be 8cdc 2e3d 97c8 2dbe 9009 ad3c
000000c0: c03c 9e3d debf 3ebd 194f 493e e110 f23d
000000d0: f1c2 98bd a73a b43d a89e 0c3e 96d6 8e3b
000000e0: 1136 cd3c 46dd 41bc 73a5 10be 2a20 02bd
000000f0: 9b33 5a3d 828a 543d ef49 b0bd 892f df3d
00000100: 4e30 de3c 7e88 a83d 52c1 02be 28f7 a0bc
00000110: 1551 0e3d 4720 313e c982 943e 560f 0cbe
00000120: f0c3 5dbc e1e4 173e a2c3 d3bd 56bf 17bd
00000130: 2c69 ad3d 6b50 37be 7ce1 33be d367 bb3d
00000140: d583 01be c43f 8abd 2e99 233e 6942 0c3e
00000150: 92a6 b9be a071 1d3d 224c adbc fe19 ae3d
00000160: 655f da3d 4b06 803d 9872 eb3d 44d0 12bd
00000170: 3035 a5be 4c79 223d ab06 d0bd 311c 41be
00000180: 2463 243e cbb2 22be 74c4 a3bc a34f 243e
00000190: 826b 413e 2b4e 54be 6cf1 3e3d 5c28 f4be
000001a0: 7cad fa3c ecde 36bd 49f8 593e 8dac 7b3c
000001b0: 08a1 b13d c8cb 213d 2509 e43d bb14 ccbc
000001c0: d54e fb3c 0004 37be c2fd 85bd d16a 563d
000001d0: 5480 b13e 8c1f 463d 01cc 1e3e 0410 02bd
000001e0: 48bb 8abd 6bd5 13bb 2e31 60be 9290 683d
000001f0: bfa6 85bc 4af9 bdbd 13c6 bfbd 5b0a 0f3d
00000200: e63e 68be 3f9e 85bd 1dbe 89be 0ce1 383d
00000210: 27f5 a83d 00a4 663d 91c0 983d d06e babc
00000220: cd9c 193e e5bd 29bd cfd2 cdbd 2d6b 85be
00000230: 3e37 693d c7d9 9abe e1c2 b23c 32ea 73be
00000240: 04ac 89bd 9e26 0c3d 0dae 26be c728 1e3e
00000250: 5aae 423d e69b 82be d26d ab3b 2b97 0dbe
00000260: d928 68be c8c6 a13d eb59 78bc e891 82bd
00000270: 8ef5 94be b42d 643e 53f6 a03e 6e60 1b3d
00000280: 4355 783c d4eb 5e3c 2a11 7d3d d55d 13be
00000290: 3933 b3bc 9b1d 493e cdb7 a23d b319 27be
000002a0: 184b 003d 3fd9 09bd e78a a6bd 0b06 5dbe
000002b0: a6e7 413e 8a1d a3bc 59d2 a83a 78fe 84bc
000002c0: 8dbd c73d 5d4e 6ebc 8303 283d 7157 803d
000002d0: 1587 263b b1be eabd 6ccc 773d 7820 563e
000002e0: 5835 b9bd e26d 393e 0f9c 6b3e 8daa 44bc
000002f0: 0021 a43d 196c a0bd 4c21 06be 1fd6 953d
00000300: 858e e6bd 6ff0 a13d 8893 b23d 8b15 9a3e
00000310: 3506 29be 0493 3e3e 31b1 13be 8297 1a3e
00000320: 7f85 1fbe 2c7f a3bd 1e86 963d 5d84 a9be
00000330: 37e7 1cbe d8cf 45be 7938 d1bd f27b 99be
00000340: 8beb 19be 497b 053e 869a 083e f053 433d
00000350: 8369 afbc 0146 07bd ec5f 933c bae4 003c
00000360: d272 99ba 4317 9abe 3c02 573e 072c bfbd
00000370: d114 2e3c 62f0 693c 08d0 91bd 79fc e6bb
00000380: c753 47bd 3304 57bd 35d7 12be 72c7 9bbe
00000390: 157d b4bd d76d a73d afb1 b23d 001d c6be
000003a0: d4eb fa3d 111a 31be 1db8 e43c 81bf 81be
000003b0: ceb2 85bd 8570 283e c767 123d 960d bd3d
000003c0: 073f fa3d bc4e fb3c eb0a 83bd ccbd a6bd
000003d0: 6b53 e03c cb81 7c3d ff6f 393e b901 5abd
000003e0: 2f1b 0f3b a1a0 003e 8c99 f13d 7fa5 173e
000003f0: f342 b63d 131e 2abe 6c75 b2bd 966b fcba
0.04694836 0.16810246 0.10037405 -0.054202862 0.13087232 0.115618266 -0.13178049 0.11418156
-0.30072585 0.09043572 0.011565315 0.055685777 -0.10199431 -0.033473767 -0.6577073 8.362818e-05
0.11325008 0.048291523 0.023033243 0.027485838 -0.06694502 0.129139 -0.082913004 0.093415305
-0.22593746 -0.11261437 0.04459926 -0.13824843 -0.23253869 -0.09907241 -0.063738555 -0.088352144
0.1285244 0.21386442 0.18460017 -0.09218265 0.007969898 0.031131994 0.07261111 0.007110899
0.1790246 0.010697374 0.09815961 -0.113619104 -0.12864044 0.0426908 -0.1697105 0.021122724
0.07726431 -0.046569698 0.1965908 0.11819626 -0.07459057 0.088002495 0.13732398 0.0043590767
0.025050195 -0.011832541 -0.14125614 -0.031768955 0.05327187 0.051889904 -0.08607852 0.108977385
0.027122643 0.08229159 -0.12769058 -0.019649103 0.034745295 0.17297469 0.2900603 -0.13677725
-0.013535485 0.14833404 -0.103400484 -0.037047707 0.084673256 -0.17901771 -0.17566484 0.09150662
-0.12647946 -0.067504436 0.15976402 0.13697208 -0.36259896 0.03843844 -0.021154467 0.08501051
0.10662726 0.062512 0.114964664 -0.03584315 -0.3226714 0.03966646 -0.10157522 -0.1885841
0.16053444 -0.15888517 -0.019991137 0.16046004 0.18888667 -0.20732944 0.046616957 -0.47687042
0.030600302 -0.04464619 0.2128612 0.0153609635 0.086732924 0.03950098 0.11134557 -0.024912229
0.030677238 -0.1787262 -0.06542541 0.05234796 0.3466822 0.04836993 0.15507509 -0.031753555
-0.06774002 -0.0022557627 -0.2189376 0.056778498 -0.016314862 -0.09276064 -0.093639515 0.034921985
-0.22680244 -0.06524324 -0.26902857 0.045136496 0.08249884 0.056308746 0.07458604 -0.022757918
0.15001221 -0.041440863 -0.10049974 -0.2605833 0.05693745 -0.30244276 0.021821441 -0.23819807
-0.067222625 0.034216516 -0.16277333 0.15445243 0.047529556 -0.25509566 0.0052315975 -0.13827197
-0.22671832 0.07899243 -0.015158157 -0.06375486 -0.29093593 0.2228306 0.3143793 0.03793376
0.015157047 0.0136060305 0.061783947 -0.14391263 -0.02187501 0.196402 0.079452135 -0.16318397
0.031321615 -0.033654448 -0.08131962 -0.21584336 0.18936023 -0.019911546 0.0012880071 -0.016234621
0.09752951 -0.01454505 0.041018974 0.06266678 0.0025410105 -0.11462153 0.060497686 0.20910823
-0.09043378 0.18108323 0.2300875 -0.012003553 0.08014107 -0.07833118 -0.13098639 0.07316231
-0.11257652 0.07907187 0.087195456 0.3009456 -0.16506274 0.1861077 -0.14423062 0.15096858
-0.15578268 -0.079832405 0.073497996 -0.33108798 -0.15322576 -0.19317567 -0.102158494 -0.29977375
-0.15031259 0.13035311 0.13340196 0.04768747 -0.021412617 -0.033025745 0.017990075 0.007867033
-0.0011707193 -0.30095872 0.20996946 -0.093345694 0.01062508 0.014278503 -0.07119757 -0.00704914
-0.04866388 -0.05249424 -0.14339907 -0.30425602 -0.0881292 0.08175247 0.08725297 -0.38694
0.12252012 -0.172951 0.027919823 -0.25341418 -0.06528245 0.16449173 0.0357435 0.09231107
0.12219053 0.030677192 -0.06398567 -0.0814167 0.027383527 0.061647218 0.1810913 -0.0532243
0.002183627 0.12561275 0.11796865 0.14809225 0.08899488 -0.16613035 -0.08713803 -0.0019258137

fc2.bias f4 [300]
00000000: 4888 35bd 3c97 9a3d 700f 88bc 640a 7d3d
00000010: 7e8e ff3d 61c3 b1bc b7ca 0b3d 808c bbbc
00000020: 067d 033d 99e8 363c 31ec b8bd bd52 ba3c
00000030: 4fbf 1bbd 874e 4ebd 759a ce3c 5e67 bcbd
00000040: 0e53 3a3d 9e5a 41bd a244 513d 1563 463d
00000050: 5201 203e 46d0 783c 13d7 88bd fe3f 7ebc
00000060: 4e48 a03d ce49 abbd 5c69 28bd b913 703b
00000070: 2beb 87bc a56d 14bc 98e7 4bbc 7938 e6bd
00000080: acbf ddba 9574 993c 1b87 4bbd 4565 a8bd
00000090: 4769 123e e021 5f3a 9189 60bc 9016 83bd
000000a0: a406 edbd beab a3bd 3b83 58bc 27c1 1bbc
000000b0: d880 61bc ffd4 55bc 72f9 ec3c c9bf 313c
000000c0: 97c1 2ebd 86dd b4bd b2bf a23d 533a b3bc
000000d0: 89b8 35bb 2bc8 ffbb 9c00 47bd c7d7 bbbd
000000e0: 10dc 1f3d 0ad3 433d 910c 823d 550d 0e3c
000000f0: 7fc4 093d 7d64 ecbc c776 043e fa42 57bd
00000100: f57d 95bd f109 b73b ca10 c639 62d0 a2bd
00000110: e734 8abd cdd0 0cbd b2dc a63d 0fa0 b4bc
00000120: 2113 263d 7242 30bd 9885 c5ba 0d25 5a3d
00000130: 5f40 babc 3259 313d d863 3bbd a328 e2bc
00000140: 0c04 ac3d a1a6 b6bc 397f 1abe dd16 8cbd
00000150: 3527 733d 7d64 b03c 4376 873d 7e9a b23d
00000160: f5f5 c5bb bacc 27bd bf77 15bd 26b6 fbbd
00000170: 61a4 0ebc 1b18 b0bd ffc3 db3c 4033 b73a
00000180: 56d9 d93c 4a69 8f3c 0eba 653d 2c28 dabd
00000190: cf1c 12bd 06fb 76bd f996 c33c 57b1 bfbb
000001a0: 74d9 833d 16d9 eb3c 04d5 ad3b 2981 73bd
000001b0: 10e2 48bd 3d7f c43c 7ba4 9cbd 9735 39bd
000001c0: 4fa3 083d ff4c 953d 4add 4bbd 29c0 993d
000001d0: 9ea2 db3d 8c90 193c ba5f 90bc 37e5 dabd
000001e0: bee9 0b3c f22e 6e3d 2d48 07be e969 bd3c
000001f0: 9e9f a5bc fd37 003d 92a9 b8bb 8581 e73d
00000200: a351 3cbc 5939 4bbd 7022 0dbd 9690 bbbc
00000210: 2fa6 c5bc 0e10 0dbd d013 d5bc 6e9e c43d
00000220: f9f2 1dbc b600 6cbd 41d7 593d 7599 08bc
00000230: 02d1 403d 75df 8a3b dc31 3d3d 28e5 57bd
00000240: 0091 90bd 8bac a63c 88d2 003e 0686 f8ba
00000250: c8af 23bd ba33 073d 4f4a 503d 470c 9d3c
00000260: 7bb2 633d 641d 2abd a7e3 d73b a340 7a3b
00000270: d49f 8a3d 191d fdbc adfe 47ba ffff 19bc
00000280: 5352 143c 9c73 943c 9819 f2bc 266b 6d3d
00000290: 5ba4 e73c 5b04 5abd 28ae 9d3c 614d d83c
000002a0: e1ac 103e a573 093e 5abf 78bd c2d0 3b3d
000002b0: 35f5 b73c 8ee8 03bd fbf9 2cbd 3e2c cc3c
000002c0: d2b0 043d 3daa f6bb c9fc d1bc bbcf 183d
000002d0: cc91 b6bd 2b12 843d 0d70 60bd 709b 9ebd
000002e0: 273a 44bd 1622 c8bd cd67 903d 8c84 cc3d
000002f0: 9ef7 e9bc e1a3 4abd 3506 143c 6433 efbd
00000300: ccd3 4a3d 91fb 133d 4403 1cbd c2d3 91bc
00000310: e92f e3bc a04f 4ebe 6581 b2bd 0015 b1bc
00000320: 554f 6abd 8179 4abd e5c8 31bd ac03 6dbc
00000330: ae42 9b3c 4bd3 433d da0a 14bd 09b4 693d
00000340: b8ee 09be 870e 833d 4064 a4bc a387 c63d
00000350: 65f0 5c3b f682 383d 09b9 943d 7078 5fbc
00000360: 9de5 76bc d023 59bc 688b 81bd 4ea8 a1bd
00000370: e9ca 8c3d 3878 1e3d 9cd5 a7bd e9ef 493d
00000380: a66c 5d3d 18ef 2dbd dec0 cf3c 4404 1bbe
00000390: f611 603c c9c4 b5bd ddae b7bc c153 7a3c
000003a0: 6116 c5bc a21d aa3d d877 333c c30c d7bc
000003b0: e300 af3c a26f f63c 44a6 16bd 3fef 003c
000003c0: 3763 2cbd ebc5 0ebd ad4a 67bd 10fb aabc
000003d0: b7a4 92bd 106c e53c 9aa0 b53c fbc1 3bbd
000003e0: 7c91 68bd 3980 653d b304 bc3d d5e0 6f3d
000003f0: 40c1 e5bc 55d1 fabc 824b 813d 14d7 f3bd
-0.04431942 0.07548377 -0.016608924 0.061777487 0.1247835 -0.02169961 0.03412887 -0.022894144
0.032101654 0.011163854 -0.09029425 0.02274453 -0.038024243 -0.05036786 0.025220135 -0.09199403
0.045489363 -0.04720556 0.051090844 0.048434336 0.15625504 0.015186375 -0.06681647 -0.015518187
0.07826291 -0.083636865 -0.041116104 0.003663285 -0.016591629 -0.009059344 -0.012445353 -0.1124124
-0.0016918085 0.018732348 -0.049689393 -0.08222441 0.14297973 0.00085118227 -0.013704673 -0.06400788
-0.11573532 -0.079917416 -0.0132148815 -0.0095065 -0.013763629 -0.0130512705 0.028927539 0.010848948
-0.04266509 -0.08831315 0.07946719 -0.021878397 -0.00277284 -0.0078058443 -0.048584566 -0.09172016
0.039028227 0.047808684 0.06350053 0.008670171 0.03363466 -0.02885651 0.12935935 -0.05255411
-0.07299415 0.005585902 0.00037778012 -0.07949902 -0.067483716 -0.034378815 0.08147563 -0.022048978
0.040545586 -0.043032117 -0.0015069721 0.05325799 -0.022735773 0.043297954 -0.045749515 -0.027607268
0.083992094 -0.022296252 -0.15087594 -0.06840298 0.059363563 0.021532292 0.066143535 0.08720873
-0.0060412833 -0.040966727 -0.036491152 -0.122906014 -0.008706183 -0.08598348 0.026826857 0.0013977066
0.026592892 0.01750626 0.05608564 -0.106521934 -0.035672005 -0.06029799 0.0238757 -0.005849998
0.0643796 0.028790038 0.0053049345 -0.05944935 -0.049043715 0.023986453 -0.0764856 -0.045217123
0.03335887 0.072900765 -0.049771585 0.07507355 0.10724376 0.009372842 -0.017623771 -0.106882505
0.008539615 0.05815024 -0.13211127 0.023121791 -0.020217713 0.031303395 -0.0056354487 0.11304001
-0.011494073 -0.049615238 -0.03445667 -0.022896092 -0.024127094 -0.03443914 -0.026010424 0.096005306
-0.009640449 -0.057617866 0.053183798 -0.008337368 0.047074325 0.004238064 0.046190128 -0.052708775
-0.070589066 0.020345947 0.12580311 -0.001896084 -0.03996256 0.033008315 0.050852116 0.019170893
0.055590134 -0.041531935 0.0065884176 0.00381855 0.06768766 -0.030897664 -0.0007629197 -0.009399413
0.009052831 0.018121533 -0.02955322 0.057963513 0.028276613 -0.05322681 0.019248083 0.026404085
0.14128448 0.13423021 -0.060729362 0.045853384 0.022455791 -0.032204203 -0.042230587 0.02492344
0.03239519 -0.007527618 -0.025633233 0.037307482 -0.08914527 0.06448778 -0.05479436 -0.07744491
-0.04790702 -0.097721264 0.070510484 0.09986219 -0.028560456 -0.049472693 0.009034683 -0.11679724
0.04951839 0.036128584 -0.03808905 -0.01780117 -0.027732806 -0.20147562 -0.08716086 -0.021616459
-0.057204563 -0.04943228 -0.04340448 -0.0144662075 0.018952694 0.047808927 -0.03614316 0.05705646
-0.1346997 0.06399255 -0.020067334 0.096938394 0.0033712622 0.04504677 0.07261855 -0.013639554
-0.0150693925 -0.013253167 -0.06325418 -0.0789343 0.068746395 0.03868887 -0.0819504 0.04930106
0.054058693 -0.042464346 0.02536052 -0.15138346 0.013676157 -0.088754244 -0.022422248 0.015278758
-0.024058523 0.08306433 0.010953866 -0.026251202 0.021362728 0.030082528 -0.036779657 0.007869541
-0.042086806 -0.034856718 -0.0564677 -0.020871669 -0.07160323 0.02800563 0.022171307 -0.04583929
-0.05677937 0.056030486 0.09180584 0.058564026 -0.02804625 -0.030617395 0.0631323 -0.11906257

fc3.weight f4 [2, 300]
00000000: d0d4 b1bd c700 65bf 9702 04bd 6496 4e3d
00000010: 3e40 56bf 4403 7bbc a5ee b0bb bb81 e8be
00000020: 0b94 743d e025 07bf 4500 1fbd 4f43 94bc
00000030: 1b93 1f3e 9088 033e 445c dbbe 12dc 4cbe
00000040: 82ad e2bc 4c79 debc 1b30 66be 78c3 e6ba
00000050: 46b9 23bf f1c9 58be bba5 1ebf 9b00 28bc
00000060: 16a0 bfbd 6061 b9be 08d4 46bc a4ba 3f3e
00000070: 06d0 93bc feec 9cbe ab2c d4bc ad4a af3e
00000080: 36e4 43bc d5d2 1ebe 6bfc 0cbf b26c 3bbc
00000090: afe5 083d dec4 30be b530 7e39 18a2 313b
000000a0: 36b8 753e 4bef f6bd e04a 253d f90a dbbd
000000b0: eb7b 843a d250 f43c ef59 443d 13f6 28bb
000000c0: f2ad 8abe 70ea 9d3e 9975 bcbe 6de4 db3d
000000d0: ece7 a13d 7575 45be 5c83 07bd d74f 19bf
000000e0: d721 94bf a17a d0be 8009 b9be 4e36 84be
000000f0: 4326 183d eab1 2abd f15d 3cbc fbf1 22bf
00000100: b69c 23bf 0dee 89be 9e78 293d 1a3f 70be
00000110: 691c 253b 55a9 013e 679a 99be 58d2 38bc
00000120: 1b12 263e 39d1 ed3c 4be6 42bf 686e dbbc
00000130: 45f5 013d 6d80 773c b63d 0ebf d46d 5bbf
00000140: c1a0 8c3e 12a7 8ebd 6f42 033f 2187 56bf
00000150: fdde f63d 152f bb3d 99be b0be 836e a0bf
00000160: e370 d5be 438d 98be 182c 4bb9 6ca9 343e
00000170: b7c1 15bf 3900 0abd 7340 08be d5c0 fa3c
00000180: 3823 80bf 347b 9b3c 86f3 e83d 6f89 b7bd
00000190: d9fa e8bd f28d 9c3c 51a5 0dbe 004d a9bc
000001a0: 32dd 44be 36b1 10bd fba6 6c3e ec23 77bb
000001b0: da96 dd3e 8e04 33be 1f24 45bf a930 1abd
000001c0: 0d0e cfbe f0e6 83be c272 33bd df5f 4f3d
000001d0: 86e3 24bf e348 e93d d765 48bd 5be0 49be
000001e0: ab96 56bd 8b66 8cbd 92a9 173f c59d e0be
000001f0: 67bf dbbc 4f45 ce3d ca4f 5abe 2bb1 a3be
00000200: 78e8 2cbe 72f8 2b3e 78d0 bdbb 22ee cbbe
00000210: 8138 ad3c 99c6 a4bc 8876 18be cee4 bb3d
00000220: a3b1 18bc 9f93 5fbc 42b0 31bf e42d 6dbe
00000230: 4a6a b73d c84b a2bd ccd9 233e 7139 45be
00000240: 23b9 8d3b 9de3 a1bc b0d2 26bf 2467 6ebb
00000250: dcb3 86bc 45f8 f3bd 56a5 fdbe 45d8 abbc
00000260: f0e3 833e a165 943a a2ee 2cbe 9cb6 4cbe
00000270: af54 09bf 1576 973e c214 4ebe 71bf d7be
00000280: a13a 43bf 0494 d5bc e032 333b 4b85 eb3e
00000290: 2b00 14bf dc04 003e 4157 98bc 7267 2abc
000002a0: 018e bbbe 63ff dfbb f1ff a8be e8f1 96bb
000002b0: 1ac7 e03d 58d5 3abd db9c d1bc 8112 d1bd
000002c0: cf21 dd3c 5001 9abc cee5 7fbc 5708 273c
000002d0: ac2b 943d 9747 2fbe 610d e03e 3a62 78be
000002e0: e43c 27bc 5c69 233e 81de 863d c6d7 26be
000002f0: 02b4 74bc 46bd 87bd 7bff d3bc 4215 ddbd
00000300: 9de5 103e 86a2 803c 797f 6bbd 86f1 4b3e
00000310: f33d 9abd 67cb babe 2527 c5be e111 f1be
00000320: a74f adbe 551b e63d 4b47 51bf 7ab4 b1bc
00000330: 6b12 753d e10d 2abf 1e4b 88bc 12aa 34be
00000340: b478 aabe ab58 8cbe 12a2 2fbf 7281 903c
00000350: fe5d 0dbe 9769 ab3c 77a1 dfbe 05bf 8bbc
00000360: 976f b53d d09e 803d d050 efbd 6642 08bf
00000370: dfdd 5cbf 7902 cabe 391f 0bbf 6f45 e8be
00000380: 36bb a3bd 8694 febd 4bc1 e8be 84fa b3bd
00000390: 18a3 12be 68ab 0bbf cc62 f3bc 6080 b6bc
000003a0: a281 01bd 82f2 77be 8ce2 bdbc c3cb 873d
000003b0: 6c3e 463e 555f 9fbf aa66 6abd 0aa4 b0bd
000003c0: 192b 84bd 6269 b83e 1323 95be 09ef a1bd
000003d0: 0e68 24bd 1a3e 703e 978e a43d 1855 93be
000003e0: 1f07 1ebf 724e d23d 3298 86bf aeaf 2f3e
000003f0: 794a b3bc b819 6ebe 2d45 61bd b221 2ebf
-0.08683169 -0.8945431 -0.032229032 0.050436392 -0.83691776 -0.015320603 -0.0053995424 -0.45411476
0.059711497 -0.5279217 -0.038818616 -0.018098501 0.1558346 0.12845063 -0.4284383 -0.20005825
-0.027670626 -0.027157448 -0.22479288 -0.0017605862 -0.6395458 -0.21170785 -0.61971635 -0.010254051
-0.09356706 -0.36207104 -0.012135513 0.18723541 -0.01804353 -0.3064956 -0.025900206 0.3423666
-0.011956265 -0.15510114 -0.5507266 -0.011439489 0.03342217 -0.17262599 0.00024241472 0.0027104672
0.23996052 -0.1205736 0.04035461 -0.10695452 0.0010107731 0.029823694 0.04793733 -0.0025781437
-0.27085835 0.30842924 -0.3680847 0.10736928 0.07905564 -0.19283088 -0.03308426 -0.5988745
-1.1572827 -0.40718558 -0.3614006 -0.2582268 0.037145864 -0.04167358 -0.011497007 -0.6365048
-0.63910997 -0.2693943 0.041374795 -0.23461571 0.0025193936 0.12662251 -0.30000612 -0.011280619
0.16217844 0.02903043 -0.7613265 -0.026786044 0.031728048 0.015106303 -0.55562913 -0.8571446
0.27466395 -0.0696546 0.51273245 -0.8379994 0.120542504 0.091398396 -0.34520414 -1.2533726
-0.41687688 -0.29795274 -0.00019376015 0.17642754 -0.5849871 -0.03369162 -0.13305835 0.030609528
-1.0010748 0.018979646 0.113745734 -0.0896176 -0.113759704 0.019110654 -0.13832594 -0.0206666
-0.19225004 -0.03532525 0.23110573 -0.003771062 0.43279153 -0.17482206 -0.7700824 -0.037644062
-0.40440407 -0.2576213 -0.043810613 0.05062854 -0.64409673 0.11390855 -0.048925247 -0.19714491
-0.052389782 -0.06855496 0.5924312 -0.4387037 -0.026824666 0.10071813 -0.213195 -0.31971106
-0.16885555 0.16793993 -0.0057926737 -0.39830118 0.021145107 -0.02011423 -0.14888966 0.091745004
-0.009319696 -0.013646035 -0.69409573 -0.23162037 0.0895582 -0.079246104 0.16001052 -0.19260193
0.0043250485 -0.019761855 -0.65165234 -0.0036377395 -0.016443186 -0.11912588 -0.49540204 -0.020977149
0.2575984 0.0011321792 -0.16887906 -0.19991535 -0.5364484 0.29582277 -0.20125106 -0.42138246
-0.76261336 -0.026071556 0.0027343556 0.46000132 -0.57812756 0.12501854 -0.018596293 -0.01040064
-0.36631778 -0.0068358644 -0.33007768 -0.004606474 0.109754756 -0.045613617 -0.02558749 -0.102086075
0.02699366 -0.018799454 -0.015618755 0.0101948595 0.07234892 -0.17117153 0.43760207 -0.2425622
-0.010207389 0.1595816 0.06585408 -0.16293249 -0.014935495 -0.06627898 -0.025878659 -0.1079507
0.1415009 0.015702497 -0.057494614 0.19916353 -0.07531347 -0.3648331 -0.38506427 -0.47083953
-0.33849832 0.11235682 -0.8174941 -0.021692503 0.059832018 -0.6642743 -0.016637381 -0.17643002
-0.33295214 -0.27411398 -0.68606675 0.01763985 -0.13805386 0.020924373 -0.43677875 -0.017058859
0.08859175 0.06280291 -0.11685336 -0.53226316 -0.8627605 -0.3945501 -0.54344517 -0.45365474
-0.07994692 -0.12430672 -0.4545997 -0.087880164 -0.14320028 -0.5455842 -0.029710196 -0.02227801
-0.031617768 -0.24213603 -0.023179315 0.06630661 0.1935975 -1.2450968 -0.057226814 -0.08625038
-0.06453533 0.360179 -0.29128322 -0.079069205 -0.040138297 0.2346119 0.08035009 -0.2877586
-0.61729616 0.102688685 -1.0515196 0.1715686 -0.021886097 -0.23251998 -0.05499761 -0.68020165

fc3.bias f4 [2]
00000000: 8223 a73c 4a91 953b
0.020402674 0.004564439
