Tennis/Nets/checkpoint_actor500.pth (torch_old, 525671 bytes, 10 tensors)

bn1.weight f4 [24]
0	0x3f269314	0.65068173
1	0x3f01f567	0.5076508
2	0x3f3ff689	0.7498556
3	0x3f1bb648	0.60825014
4	0x3f539703	0.826523
5	0x3f3aef82	0.7302171
6	0x3f0e4055	0.5556691
7	0x3e220e35	0.15825732
8	0x3f2d4340	0.6768074
9	0x3e8d2a96	0.27571553
10	0x3f25178d	0.6448906
11	0x3f19b698	0.6004424
12	0x3ef80ddf	0.48448083
13	0x3f82fc56	1.0233257
14	0x3f1d1f07	0.6137547
15	0x3f42de0c	0.76120067
16	0x3f4860e3	0.7827284
17	0x3eed8032	0.46386868
18	0x3eda1be6	0.4259941
19	0x3f85d80a	1.0456555
20	0x3da8bf13	0.082395695
21	0x3f17ce0a	0.59298766
22	0x3f15149b	0.58234566
23	0x3f63b529	0.88948303

bn1.bias f4 [24]
0	0xbdb2f704	-0.08738521
1	0xbc60ebbb	-0.0137280775
2	0x3d222ebd	0.039595354
3	0x3c9c67d8	0.019092485
4	0x3d911eb2	0.07085933
5	0x3c48c20f	0.012253298
6	0x3ca2cedd	0.01987403
7	0xbd3f90ee	-0.046769075
8	0xbe1ad83f	-0.15121554
9	0x3bf68dfa	0.007524249
10	0xbd276d7e	-0.040875904
11	0x3d0e3945	0.034722585
12	0x3cfd703c	0.030937307
13	0x3b85256f	0.0040633003
14	0xbd4574a7	-0.04820695
15	0x3d10bfb1	0.03533906
16	0xbd2a80e7	-0.041626837
17	0xbc88cb43	-0.016698485
18	0x3c8007c8	0.01562871
19	0xbda99074	-0.08279505
20	0x3d8bf696	0.06834142
21	0xbc24ac96	-0.010050913
22	0x3c7d4bc9	0.015459963
23	0xbe1107b9	-0.14163102

bn1.running_mean f4 [24]
0	0xc0ee3b4e	-7.4447393
1	0xbfad8a93	-1.3557914
2	0x3f8bb4a7	1.0914506
3	0x3db6fedf	0.089353316
4	0x3ef8ca4a	0.48591834
5	0x40405f4a	3.005816
6	0x3f8bb4a7	1.0914506
7	0x3db6fedf	0.089353316
8	0xc1000e19	-8.003442
9	0xbfb7f45c	-1.4371448
10	0x3fab943d	1.3404614
11	0x3e426f51	0.18987776
12	0x3f07d1e6	0.53054655
13	0x4038ebd2	2.8893933
14	0x3fab943d	1.3404614
15	0x3e426f51	0.18987776
16	0xc108cc67	-8.549903
17	0xbfc0a573	-1.5050491
18	0x3fe4faaf	1.7889003
19	0x3eb63503	0.3558732
20	0x3f0ff741	0.56236655
21	0x402e9253	2.727681
22	0x3fe4faaf	1.7889003
23	0x3eb63503	0.3558732

bn1.running_var f4 [24]
0	0x4193be62	18.46796
1	0x3f237d60	0.6386318
2	0x430641e6	134.25742
3	0x400e1833	2.220227
4	0x4228c245	42.189716
5	0x40af5c81	5.480042
6	0x430641e6	134.25742
7	0x400e1833	2.220227
8	0x417afb58	15.686363
9	0x3f0eb469	0.55744034
10	0x430dac51	141.67311
11	0x40439fa2	3.0566182
12	0x423625a8	45.536774
13	0x40c8363b	6.25662
14	0x430dac51	141.67311
15	0x40439fa2	3.0566182
16	0x4140e50e	12.055922
17	0x3ef25680	0.4733162
18	0x4315b5c8	149.71008
19	0x40874f33	4.228418
20	0x424447c3	49.07008
21	0x40f37eb9	7.609219
22	0x4315b5c8	149.71008
23	0x40874f33	4.228418

fc1.weight f4 [400, 24]
0	0xbd1109a6	-0.035409592
1	0xbd5c9616	-0.05385407
2	0xbd3aee0f	-0.045637187
3	0xbd161996	-0.036645494
4	0x3cd368a8	0.02580674
5	0x3d1625a4	0.03665699
6	0xbd04f786	-0.03246262
7	0xbdcec52c	-0.10096201
8	0xbd376cf5	-0.044781644
9	0x3a97b5d0	0.001157457
10	0x3d742f17	0.05961522
11	0x3d14a6fa	0.036292054
12	0xbcce304d	-0.025169516
13	0x3d9a0030	0.07519567
14	0xbc3f51f1	-0.011677251
15	0x3c708b14	0.014681596
16	0xbc3c3512	-0.011487262
17	0xbd49fa64	-0.049311057
18	0xbcc0494c	-0.02347245
19	0xbd15d4d2	-0.036579914
20	0x3d19aedb	0.03752027
21	0x3d1656c8	0.036703855
22	0x3d5893b6	0.052875243
23	0xbd8739b4	-0.06602803
24	0x3c4e0530	0.012574479
25	0xbe1832c2	-0.14863113
26	0xbbcf2db0	-0.006322585
27	0xbda51414	-0.0806047
28	0xbe72ee94	-0.23723823
29	0x3ec00d1d	0.37510005
30	0xbd427a92	-0.047480173
31	0xbce67c3d	-0.028135413
32	0x3d98a97e	0.07454203
33	0xbd8d88ac	-0.06910834
34	0xbdaf594c	-0.08561954
35	0x3db2a29c	0.087224215
36	0xbe8848e1	-0.26618102
37	0x3ed47315	0.4149405
38	0xbdf4527d	-0.11929796
39	0x3de13a0f	0.10997402
40	0x3dab6aab	0.08369955
41	0xbbfcc1fc	-0.0077135544
42	0x3d85baf5	0.065298
43	0x3e5cf965	0.21579511
44	0xbe0b6460	-0.13612509
45	0x3ec3041b	0.3808907
46	0x3d0e3030	0.034713924
47	0x3e014410	0.1262362
48	0xbddd5d38	-0.10808796
49	0xbe029938	-0.12753761
50	0xbc80fc58	-0.015745327
51	0x3d04d847	0.03243282
52	0x3e7b1eeb	0.24523513
53	0x3d0ffb89	0.035151992
54	0xbd06bc95	-0.03289469
55	0xbd2364b6	-0.039890967
56	0xbdab1941	-0.08354426
57	0xbdde0460	-0.10840678
58	0xbe281ebe	-0.16417977
59	0x3e08611e	0.13318297
60	0x3e2e513e	0.17023179
61	0x3cb8fcf2	0.022581551
62	0xbe5f3112	-0.21796063
63	0x3de866c4	0.11347726
64	0xbe2fe947	-0.17178832
65	0xbd113ad8	-0.03545651
66	0xbde894f7	-0.11356538
67	0xbd0516cd	-0.032492448
68	0x3dbf0c65	0.09328536
69	0xbd1f6a5b	-0.038919788
70	0xbe270404	-0.16310126
71	0x3d2416a6	0.04006066
72	0xbbd3c22b	-0.0064623556
73	0x3dae7bd2	0.085197106
74	0x3d533f21	0.051573876
75	0x3aeb15a1	0.0017935523
76	0x3dac9112	0.084261075
77	0xbd3f304c	-0.04667692
78	0x3d64fa45	0.055902738
79	0x3cb1cce6	0.021704149
80	0x3d2d0f14	0.042250708
81	0x3d55eebe	0.052229635
82	0xba64888c	-0.0008717857
83	0xbd73132e	-0.059344463
84	0x3dce55d8	0.10074967
85	0xbda6e534	-0.08149186
86	0x3d0bcbfc	0.03413008
87	0xbcfdce63	-0.030982202
88	0x3d95bd61	0.07311512
89	0x3e107580	0.14107323
90	0x3d3a9582	0.045552738
91	0xbd723bc4	-0.05913903
92	0xbc32fe78	-0.010924928
93	0xbcd3f933	-0.025875663
94	0x3db4a42b	0.08820375
95	0xbd9cb4da	-0.07651682
96	0xbdb9db42	-0.09075023
97	0x3e35a647	0.17739211
98	0x3a1ea211	0.00060513715
99	0xbcb20c49	-0.021734374
100	0x3bc19828	0.005908031
101	0x3d79886e	0.060921125
102	0x3cf642b0	0.030061096
103	0x3c5cfb84	0.0134877
104	0xbdf04f08	-0.11733824
105	0x3e5a1f01	0.2130089
106	0x3d063266	0.032762907
107	0x3cd04e95	0.025428096
108	0x3bc39038	0.00596812
109	0x3d6c8601	0.057744984
110	0x3dbb8e3f	0.09157991
111	0x3c910fc0	0.017707705
112	0xbe0a5f99	-0.1351303
113	0x3e5f113b	0.21783917
114	0xbd7703d8	-0.0603064
115	0xbd7c8486	-0.06164982
116	0xbd09fd1c	-0.03368865
117	0x3cb1c06a	0.021698195
118	0xbd9fb011	-0.07797254
119	0xbdb35e75	-0.087582506
120	0x3da944fa	0.08265109
121	0xbd3d92d9	-0.046282623
122	0xba1dac5c	-0.0006014758
123	0x3e3580d4	0.17724925
124	0x3d85e533	0.06537857
125	0x3e030607	0.12795268
126	0x3d2681aa	0.040651
127	0x3d45ab31	0.048258964
128	0x3d52f675	0.05150457
129	0x3a0a1f56	0.00052689516
130	0xbcc888fe	-0.024479385
131	0x3cd5cb63	0.026097959
132	0x3da7d83d	0.08195541
133	0x3dd25e14	0.1027185
134	0xbcfe6b0b	-0.031056901
135	0x3cad5409	0.021158235
136	0x3d9deeed	0.07711587
137	0x3d1b4c77	0.03791472
138	0x3cf8d819	0.03037648
139	0x3e012a74	0.12613851
140	0x3caf4b7e	0.021398302
141	0x3d5da709	0.054114375
142	0x3d246988	0.040139705
143	0x3d9d945f	0.07694315
144	0x3e2669cc	0.16251296
145	0xbe19fc52	-0.15037659
146	0x3deac8d5	0.11464087
147	0x3d1ba43d	0.037998427
148	0x3e98070e	0.29692882
149	0xbdd0e839	-0.10200543
150	0x3db9e515	0.09076897
151	0xbd498c14	-0.049205855
152	0x3e4658fe	0.19369885
153	0xbe040245	-0.12891491
154	0x3e041f81	0.12902643
155	0x3ddf26f2	0.108961
156	0x3e6eab7e	0.23307607
157	0xbde57bfb	-0.11205288
158	0x3dec6c54	0.115440995
159	0x3e164b19	0.14677085
160	0x3e4826b0	0.19546008
161	0xbdad592a	-0.08464272
162	0x3e59733f	0.21235369
163	0xbd69217d	-0.056916703
164	0x3e526cdb	0.20549338
165	0xbe1fd0f6	-0.15607056
166	0x3e34861f	0.17629288
167	0xbdd7e04f	-0.1054083
168	0x3cd38c01	0.025823595
169	0xbce3ecf6	-0.027822953
170	0xbd5b98b2	-0.05361242
171	0xbc6f6dbe	-0.014613567
172	0xbc50d924	-0.012747083
173	0x3d38e060	0.045135856
174	0x3b981e96	0.004642318
175	0x3ceb4952	0.028721485
176	0x3d39029c	0.045168504
177	0xbd6d0a28	-0.057871014
178	0xbc4e073e	-0.012574969
179	0x3c8aa5a8	0.016924694
180	0xbd3dcaf3	-0.046336126
181	0x3d751eff	0.059844013
182	0xbb9f8030	-0.004867576
183	0x3a5c0e60	0.0008394476
184	0xbb126376	-0.0022337115
185	0xbd730f45	-0.059340734
186	0xbd2fea49	-0.04294804
187	0x3c30b270	0.01078473
188	0xbc32fe51	-0.010924892
189	0xbd309539	-0.04311106
190	0xbc379a5e	-0.011206238
191	0xbc9c8612	-0.019106898
192	0xbd742db9	-0.059613917
193	0x3d4d21fe	0.050081246
194	0x3c316bd9	0.010828936
195	0x3c5632dc	0.013073649
196	0xbd340a7d	-0.043955315
197	0xbd402544	-0.04691054
198	0xbcb1505f	-0.02164477
199	0x3d3939f4	0.045221284
200	0xbbcc9109	-0.0062428755
201	0x3da4c707	0.08045774
202	0xbd303b5f	-0.04302537
203	0x3cb8a327	0.022538735
204	0xbd3d5f5b	-0.046233516
205	0xbdcaf88c	-0.09910688
206	0x3cc2dbfe	0.023786541
207	0x3d8aad1d	0.067713
208	0xbddba3ef	-0.10724627
209	0x3c9cc6d0	0.01913777
210	0xbc9f98cd	-0.01948204
211	0xbdde8e90	-0.108670354
212	0x3d035a62	0.032068618
213	0xbdaded39	-0.08492512
214	0xbd74c7d0	-0.05976087
215	0xbd7d00a4	-0.06176819
216	0x3d85c5e5	0.06531886
217	0x3c026827	0.007959402
218	0x3bf39f78	0.0074347816
219	0xbd4bde54	-0.049772575
220	0xbcf4dc68	-0.029890254
221	0x3e0a89f2	0.13529184
222	0xbc60ca82	-0.013720157
223	0xbc5113c0	-0.012761056
224	0x3d78224a	0.060579576
225	0xbd02bce4	-0.03191842
226	0x3d0ac1b9	0.033876155
227	0x3c907096	0.01763181
228	0xbd0c138d	-0.034198333
229	0x3de26edb	0.110563
230	0x3cc45fb6	0.02397142
231	0xbb8d3bb2	-0.0043100948
232	0x3d2ebf62	0.042662986
233	0x3d848df6	0.064723894
234	0xbd1bee67	-0.038069155
235	0x3dd11d3b	0.102106534
236	0xbcbf60ce	-0.02336159
237	0x3e028c89	0.12748922
238	0x3c867b1c	0.016416125
239	0x3d1406db	0.03613935
240	0xbe09d9a3	-0.13461928
241	0x3ceaea37	0.028676135
242	0xbdc246e9	-0.09486181
243	0x3dc00a75	0.093769945
244	0x3db1c422	0.086799875
245	0xbd915433	-0.07096138
246	0xbe1b41e8	-0.1516186
247	0xbcaf599f	-0.02140504
248	0xbe2eb9fe	-0.17063138
249	0x3da60cc4	0.081079036
250	0xbded7675	-0.115948595
251	0x3cca8bfd	0.024724955
252	0x3d3abbe0	0.045589328
253	0xbe07a1fa	-0.13245383
254	0xbdaabeb7	-0.08337157
255	0x3d3f1683	0.04665233

fc1.bias f4 [400]
0	0x3dde5483	0.10855963
1	0xbdbe4544	-0.09290555
2	0x3d25a786	0.040442966
3	0xbce8a18e	-0.028397348
4	0xbe4f47b8	-0.20242202
5	0x3ce2fc2c	0.027708136
6	0xbd84f904	-0.064928085
7	0x3e3dfa71	0.18552567
8	0x3cf84ac6	0.030309092
9	0x3e26ced1	0.16289832
10	0xbbb8b829	-0.005637188
11	0x3d909fa6	0.070617005
12	0x3e1c15fe	0.15242764
13	0xbe5f5f4a	-0.21813694
14	0x3d72b3a8	0.059253365
15	0xbe332045	-0.17492779
16	0x3df611cb	0.120151125
17	0xbdd71e9a	-0.10503884
18	0x3e4eec38	0.20207298
19	0x3e3cd067	0.18438874
20	0xbc9b82eb	-0.018983325
21	0x3cc08bbc	0.02350413
22	0x3de4b2fd	0.11166952
23	0x3e0833c6	0.13301
24	0x3e40f07e	0.1884174
25	0x3e08be4d	0.13353844
26	0x3e28ba3a	0.1647729
27	0x3e4fe145	0.20300777
28	0xbd1543c7	-0.03644159
29	0xbe54f5e9	-0.20796932
30	0x3df246de	0.11829923
31	0x3daf6335	0.08563844
32	0xbc73f635	-0.014890243
33	0xbdb9000c	-0.09033212
34	0x3dd4772d	0.103742935
35	0x3c2b977f	0.010473131
36	0x3de77d30	0.113031745
37	0xbea87411	-0.32901052
38	0xbd9edf4f	-0.077574365
39	0x3c998bef	0.018743483
40	0x3d9ecab8	0.07753509
41	0xbcc3a416	-0.023881953
42	0x3d998ca5	0.07497529
43	0x3da4a3f4	0.08039084
44	0xbce73518	-0.02822356
45	0x3e2bfb38	0.16795051
46	0x3dd61d52	0.10454811
47	0x3e4954f3	0.19661312
48	0xbcb5f809	-0.022212999
49	0x3e03340e	0.12812826
50	0xbd3c284d	-0.04593687
51	0xbd7ee602	-0.06223107
52	0xbd53b7a6	-0.051688813
53	0x3e155a95	0.14585336
54	0x3cbc41b4	0.022980548
55	0x3e4bec78	0.19914424
56	0x3e7b0068	0.24511874
57	0xbd1cd4d1	-0.038288895
58	0x3db585c2	0.08863403
59	0x3e2c09f1	0.16800667
60	0xbea44015	-0.3208014
61	0x3e31460a	0.17311874
62	0x3de8c1d7	0.11365097
63	0xbe75e678	-0.24013698
64	0xbe477f9d	-0.19482274
65	0x3dc53e4b	0.09631022
66	0xbd691775	-0.056907136
67	0x3dbe7352	0.09299339
68	0x3e20d352	0.15705612
69	0x3db03587	0.086039595
70	0xbc9b00bf	-0.018921254
71	0x3c719b90	0.014746562
72	0x3dcc0c94	0.099633366
73	0x3e46752c	0.19380635
74	0x3e0f1d6e	0.1397607
75	0xbe65ab34	-0.2242859
76	0x3e0ece74	0.13945943
77	0xbcfd4031	-0.030914398
78	0x3c2105ed	0.009828073
79	0xbe4b0ea4	-0.19829804
80	0x3e0d4674	0.13796407
81	0x3d702b41	0.058635
82	0x3df82d0e	0.121179685
83	0x3e6e8da6	0.23296222
84	0xbe7e864b	-0.24855916
85	0x3dc7419a	0.097293094
86	0x3d8f3bb4	0.06993809
87	0xbe93b087	-0.28845617
88	0xbcba880f	-0.022769956
89	0x3d281e46	0.041044496
90	0xbd148fa3	-0.036269795
91	0xbe49b559	-0.19698085
92	0xbc9a6be3	-0.018850273
93	0x3d91122b	0.070835434
94	0xbdf3ccce	-0.11904298
95	0xbd712d0d	-0.058880854
96	0x3da970fe	0.08273505
97	0xbd93051e	-0.071787104
98	0xbdb8df78	-0.09026998
99	0xbe076dc0	-0.1322546
100	0xbdc78390	-0.097418904
101	0xbe1fa9e9	-0.1559216
102	0x3de72db7	0.11288016
103	0x3d1e6cc5	0.03867795
104	0xbd392782	-0.045203693
105	0xbcdd7a72	-0.027035926
106	0x3e377103	0.17914204
107	0x3c00c274	0.007858861
108	0xbe36924a	-0.17829242
109	0x3d89acfb	0.067224465
110	0x3dd9a6e0	0.10627532
111	0xbcadae81	-0.021201374
112	0x3e00179d	0.12509008
113	0xbd006af3	-0.031351995
114	0xba7a2d54	-0.00095434976
115	0xbd691d91	-0.056912962
116	0x3d3d5431	0.04622287
117	0xbe84fd86	-0.25974673
118	0x3b8ed60f	0.004359014
119	0xbdd9a335	-0.106268324
120	0xbd8af02d	-0.06784091
121	0x3e3f5c17	0.18687473
122	0xbe1d5648	-0.15364945
123	0x3d24fee4	0.040282145
124	0x3d63e1b3	0.055635165
125	0xbe1d3f2d	-0.15356131
126	0x3e16bb96	0.14719996
127	0x3d976b8e	0.07393561
128	0xbd52aee0	-0.051436305
129	0xbe873526	-0.26407737
130	0xbd88c299	-0.066777416
131	0xbccb4fe0	-0.02481836
132	0x3e3bf8ab	0.18356578
133	0x3d963c2f	0.07335698
134	0x3d7ffcd7	0.062496986
135	0xbe33e2e6	-0.17567024
136	0xbabc0238	-0.0014343923
137	0x3dbfbd5a	0.09362288
138	0xbe0dc20c	-0.13843554
139	0x3ca2b12a	0.019859869
140	0x3d93e13e	0.07220696
141	0x3df8dbef	0.12151324
142	0xbcc6e063	-0.024276918
143	0xbe192735	-0.14956363
144	0x3dfd6710	0.12373173
145	0x3db81e86	0.08990197
146	0xbdbfaada	-0.09358759
147	0x3da824f0	0.0821017
148	0x3db702d4	0.08936086
149	0xbd7f8629	-0.062383804
150	0xbe4b7485	-0.19868667
151	0xbd340072	-0.043945737
152	0xbd10e614	-0.03537567
153	0x3d8531fb	0.06503674
154	0xbdb8bfda	-0.09020968
155	0xbe1481a7	-0.14502583
156	0x3dae35fc	0.085063905
157	0xba3bc98d	-0.00071635173
158	0xbe559d83	-0.20860867
159	0xbd972999	-0.07380981
160	0x3e12ff69	0.14355244
161	0x3e2fe6f4	0.17177945
162	0xbd9973ea	-0.07492812
163	0xbe249a5f	-0.16074513
164	0xbe2ad168	-0.16681445
165	0xba806075	-0.0009794371
166	0x3de4ee4c	0.11178264
167	0xbcbe2392	-0.02321032
168	0x3d9194c0	0.0710845
169	0x3d3760f2	0.04477019
170	0xbddd07ef	-0.10792529
171	0x3dbbee09	0.09176261
172	0xbe21f2d8	-0.15815294
173	0xbe0e8874	-0.1391924
174	0x3c17a842	0.009256424
175	0x3cd66d2a	0.0261751
176	0x3d253262	0.040331252
177	0xbc6940bd	-0.014236626
178	0x3e19042c	0.14942998
179	0x3e17bafb	0.14817421
180	0x3e0a814e	0.13525888
181	0xbdcbe0fd	-0.099550225
182	0x3e377bbf	0.17918299
183	0x3e1cab23	0.15299658
184	0x3e56c70a	0.20974365
185	0x3e436c7d	0.19084354
186	0x3dbbb298	0.091649234
187	0xbdccaca4	-0.09993866
188	0x3e143253	0.14472322
189	0x3d9b4998	0.07582396
190	0xbd7c2345	-0.061557073
191	0xba30515c	-0.00067259907
192	0x3c20c48a	0.009812484
193	0x3c79a07d	0.015236017
194	0xbdbd3f6c	-0.092406124
195	0x3e18a74f	0.14907573
196	0xbc815284	-0.015786417
197	0x3e073864	0.13205105
198	0xbb9829ce	-0.0046436554
199	0x3d71e158	0.059052795
200	0x3db91595	0.090373196
201	0xbcff30fc	-0.031151287
202	0x3d7bca6a	0.061472334
203	0xbc85e6b0	-0.016345352
204	0x3d66319b	0.05619965
205	0xbdf44eb3	-0.11929073
206	0xbe1ac62a	-0.15114656
207	0xbdc3b4e7	-0.09555989
208	0xbdc7716b	-0.0973843
209	0x3e45858d	0.19289227
210	0x3e298b73	0.16557102
211	0x3dd98b29	0.10622246
212	0x3d9fd4ae	0.07804237
213	0xbe2d193a	-0.16904154
214	0x3e208896	0.15677103
215	0x3dbe5537	0.09293597
216	0x3e3569fb	0.1771621
217	0xb6a4696f	-4.899855e-06
218	0x3da63bd9	0.08116884
219	0x3cb9c825	0.022678444
220	0x3e28d73c	0.16488355
221	0x3e407fe4	0.18798786
222	0x3e647ddf	0.22313641
223	0x3e460cd4	0.19340831
224	0xbc4cda27	-0.012503183
225	0xbe2b428e	-0.16724607
226	0xbe115960	-0.1419425
227	0xbe0773b7	-0.13227735
228	0xbe24a258	-0.16077554
229	0x3e3c82c9	0.18409266
230	0x3e164294	0.14673835
231	0xbdec203c	-0.11529586
232	0xbdf7c3f9	-0.12097926
233	0xbcad0d82	-0.021124605
234	0xbdb6de28	-0.08929092
235	0x3d38019c	0.04492341
236	0x3dd51a9a	0.104054645
237	0xbc3e8fad	-0.011630935
238	0x3e281543	0.1641436
239	0x3e53d433	0.20686416
240	0x3e216dcc	0.1576454
241	0xbe09308b	-0.13397424
242	0xbca3b7c6	-0.019985091
243	0x3c998b5c	0.01874321
244	0x3e3101f4	0.17285901
245	0xbe1d9f59	-0.15392818
246	0x3d39fc92	0.045406885
247	0x3dd3683c	0.103226155
248	0xbe22293a	-0.15836039
249	0x3e0cd959	0.13754787
250	0x3e48a2ac	0.19593304
251	0x3a164d96	0.0005733607
252	0x3d85ca14	0.06532684
253	0x3dcd6432	0.10028876
254	0x3e08d52c	0.13362569
255	0xbe1d4c0c	-0.15361041

fc2.weight f4 [300, 400]
0	0xbd0818ff	-0.033226963
1	0x3b703f60	0.0036658868
2	0x3d274ec9	0.04084662
3	0xbd21a36a	-0.039462484
4	0x3b7cded6	0.003858497
5	0xbd83cade	-0.06435178
6	0xbd94d55b	-0.07267257
7	0x3c49324c	0.012280058
8	0xbd6903d9	-0.056888435
9	0xbd1c0f12	-0.03810031
10	0xbd7b1cc6	-0.061306737
11	0x3ca638e1	0.020290794
12	0x3ca9a31e	0.020707663
13	0xbccc72b2	-0.024957035
14	0xbd74345c	-0.059620246
15	0xbd7ec94e	-0.062203698
16	0x3cad9855	0.021190802
17	0xbca0eea7	-0.019645048
18	0x3b9553ce	0.0045571094
19	0xbba0a860	-0.0049028844
20	0xbd98e8d5	-0.07466284
21	0xbd6e5c04	-0.05819322
22	0xbd86b4d3	-0.06577458
23	0x3cad47da	0.021152426
24	0xbab70190	-0.0013962258
25	0xbd34199c	-0.043969736
26	0xbcd030c2	-0.025413875
27	0xbda960b0	-0.08270395
28	0xbca049fa	-0.019566525
29	0xbd6176c1	-0.055044893
30	0x3bf7fa3d	0.0075676725
31	0xbd022b5e	-0.03177964
32	0xbc80d740	-0.01572764
33	0x3d694d5b	0.056958538
34	0x3b46a505	0.0030310762
35	0xbd04bbe8	-0.032405764
36	0xbd99dccb	-0.07512816
37	0x3bb97912	0.0056601847
38	0xbd17f239	-0.037096236
39	0x3cdacac2	0.02670801
40	0x3d848925	0.06471471
41	0xbcfc0fd8	-0.030769274
42	0x3d3c870c	0.04602723
43	0xbcc580de	-0.0241093
44	0xbd9decc3	-0.07711174
45	0xbd2be28b	-0.041964095
46	0xbd1ef2f6	-0.038805924
47	0x3c29de35	0.01036792
48	0x3c995c5b	0.018720796
49	0x3ce33286	0.027734052
50	0x3d767aa2	0.060175546
51	0xbd387f7e	-0.04504346
52	0xbd250a5c	-0.040293083
53	0xbad5315a	-0.0016265318
54	0x3b7225b9	0.0036948754
55	0xbd0f426c	-0.034975454
56	0x3c7c5a98	0.015402459
57	0x3ce25e72	0.027632926
58	0x3b96d143	0.0046025827
59	0xbd7a1b89	-0.061061416
60	0xbc0f57e5	-0.008748983
61	0x3b646d33	0.0034855127
62	0xbbfed89a	-0.0077772858
63	0xbc03fde8	-0.008056141
64	0x3cdfbcfd	0.027311796
65	0xbc95c307	-0.018281473
66	0xbd681207	-0.056657817
67	0xbd4b0aab	-0.04957072
68	0x3d0f7ffe	0.035034172
69	0xbb6f5d11	-0.0036523978
70	0x3cb6670a	0.02226593
71	0xbd1c2f7a	-0.038131215
72	0xbd9a46d9	-0.07533044
73	0x3bfd472c	0.0077294316
74	0xbd2fec50	-0.042949975
75	0xbd5e8c0d	-0.05433278
76	0xbd2088ee	-0.039193086
77	0xbd0c5043	-0.03425623
78	0xbd4e6ab5	-0.050394733
79	0x3d2e7586	0.042592548
80	0xbd8a2c8d	-0.06746779
81	0xb80be802	-3.3356257e-05
82	0x3d18ac0c	0.03727345
83	0xbc8b7180	-0.017021894
84	0xbcdfbd1f	-0.02731186
85	0xbd2aff64	-0.041747466
86	0x3b8f007e	0.0043640723
87	0x3d6c3783	0.057670128
88	0x3cfbdcb8	0.030744895
89	0x3c5a2172	0.013313638
90	0xbc8ee732	-0.017444227
91	0xbd12d044	-0.03584315
92	0xbcf2d149	-0.02964081
93	0x3c1e9b42	0.009680571
94	0xbd4aab33	-0.049479675
95	0xbdc4eeff	-0.096158974
96	0x3cc1f716	0.02367739
97	0x3bae70e5	0.0053235167
98	0xbcbb9bf8	-0.02290152
99	0xbc0e4f6c	-0.008685928
100	0x3c9f9b8b	0.019483348
101	0xbda60e4e	-0.08108197
102	0x3c2a5c9a	0.0103980545
103	0xb9f3fe8b	-0.0004653822
104	0x3ce43b91	0.027860435
105	0xbd98111a	-0.07425137
106	0x3d81bc56	0.0633475
107	0xbd334f77	-0.043776955
108	0x3b802c2c	0.0039115157
109	0x3c8f4025	0.017486641
110	0x3d452a7f	0.04813623
111	0xbd902807	-0.070388846
112	0xbcfa05ed	-0.030520404
113	0xbd0b4353	-0.033999752
114	0xbc75fcf3	-0.015013921
115	0x3d800e88	0.062527716
116	0x3cd5f6d0	0.026118666
117	0x3c4bc4b0	0.012437031
118	0x3d038c6e	0.032116346
119	0x3cfe4ec0	0.03104341
120	0xbd3f4e62	-0.04670561
121	0xbd6a6c68	-0.05723229
122	0xbd3c51ff	-0.045976635
123	0xbd38222f	-0.044954475
124	0xbc43213f	-0.011909782
125	0x3cc89d9b	0.024489215
126	0xbc9f68ea	-0.019459207
127	0x3d2afeef	0.04174703
128	0xbdbac522	-0.09119631
129	0xbd5ab3ec	-0.053394243
130	0xbd9c5e38	-0.07635158
131	0x3baffcba	0.0053707035
132	0xbd71b0d8	-0.059006542
133	0x3c4a291c	0.012338903
134	0x3d97fff4	0.07421866
135	0xbd5ffb4d	-0.05468302
136	0x3cb0838f	0.021547107
137	0xbd2708f5	-0.040780026
138	0x3cc5958f	0.024119167
139	0xbcd0c856	-0.025486153
140	0x3d019f4b	0.031646054
141	0xbd87081b	-0.06593343
142	0xbc68c5ac	-0.014207285
143	0xbce93d75	-0.028471688
144	0xbb4d7256	-0.0031348667
145	0x3a448ad7	0.00074974954
146	0xbc7aa73a	-0.015298659
147	0xbd0e780a	-0.034782447
148	0xbd175162	-0.036942847
149	0xbd4f97f3	-0.05068202
150	0x3cbdffe7	0.023193313
151	0xbd7c8ac7	-0.061655786
152	0xbd8cfaaf	-0.068837516
153	0x3ce48ec3	0.027900105
154	0xbcddb93a	-0.027065862
155	0xbbb267d7	-0.0054445076
156	0xbd6ac783	-0.057319175
157	0xbd0cdde2	-0.03439129
158	0x3dcf3d3e	0.10119103
159	0xbd494fd0	-0.04914838
160	0xbd07eeb6	-0.033186637
161	0x3ce016e3	0.027354663
162	0x3c87b294	0.016564645
163	0xbc617499	-0.013760709
164	0xbcb33339	-0.02187501
165	0xbc352a4a	-0.011057446
166	0xbbc20efc	-0.0059221964
167	0x3c84cc03	0.016210562
168	0xbd177eae	-0.036986046
169	0xbbcf7e92	-0.006332227
170	0xbcf80409	-0.030275362
171	0xbc12a9be	-0.0089516025
172	0x3d61561e	0.05501377
173	0xbd64252b	-0.05569951
174	0xbd85ed18	-0.06539363
175	0xbd2cb36b	-0.042163294
176	0x3c43416e	0.011917455
177	0xbd80057a	-0.062510446
178	0x3c9daa21	0.019246163
179	0xbd1dab6a	-0.03849355
180	0xbd98016f	-0.074221484
181	0xbd34d9b1	-0.04415292
182	0x3c79e13d	0.015251455
183	0x3c9aba16	0.01888756
184	0xbd0ebdb8	-0.0348489
185	0xbd45e35d	-0.048312534
186	0x3d3ea705	0.046546
187	0x3d38fd40	0.045163393
188	0x3c8489c5	0.016178975
189	0xbcfcfb14	-0.030881442
190	0xbd1b46b2	-0.037909217
191	0xbd3d0317	-0.046145525
192	0xbd2e0433	-0.042484473
193	0xbbf54604	-0.007485153
194	0x3c878096	0.016540807
195	0x3d87e4c9	0.06635434
196	0xbd86a49a	-0.06574364
197	0x3b46394a	0.003024655
198	0xbd749e80	-0.05972147
199	0xbbef2b0a	-0.007298832
200	0x3c31331f	0.010815411
201	0xbd8df76c	-0.069319576
202	0xbbc04b8e	-0.005868382
203	0xbd974cad	-0.073876716
204	0x3ba8d2f5	0.005152101
205	0xbd3f6170	-0.046723783
206	0xbc497d12	-0.0122978855
207	0xbd17e193	-0.03708036
208	0xbd8bf0f8	-0.068330705
209	0x3d21420f	0.03936964
210	0x3d1395a5	0.036031384
211	0xbbca6908	-0.0061770715
212	0xbd8b0115	-0.06787316
213	0xbdb43a16	-0.088001415
214	0x3c2b6588	0.010461219
215	0x3bce4a4e	0.006295479
216	0xbd55c1b7	-0.052186694
217	0xbd3ac0e6	-0.04559412
218	0x3c685704	0.014180902
219	0x3cd7e375	0.026353577
220	0xbd8e7f5e	-0.06957887
221	0xbd47fca9	-0.04882494
222	0xbcde764f	-0.027156023
223	0xbd89892e	-0.06715618
224	0xbd5ddab4	-0.05416365
225	0xbd570433	-0.05249424
226	0xbd53e910	-0.051735938
227	0x3b032b31	0.0020014758
228	0xbb1db3d5	-0.0024063487
229	0x3d0d1cfe	0.034451477
230	0xbc38bc3b	-0.011275346
231	0xbd19c16d	-0.03753798
232	0x3d343d6e	0.044003896
233	0xbcac77ea	-0.021053273
234	0x3d1349b2	0.035958953
235	0xbd2d9071	-0.04237408
236	0xbd21dd78	-0.03951785
237	0xbd1514c9	-0.036396775
238	0xbd50c526	-0.050969265
239	0xbcae145a	-0.021249939
240	0xbd102f43	-0.035201322
241	0xbcc89eb4	-0.024489738
242	0xbc8fd6ad	-0.01755842
243	0x3cbdd2d7	0.023171825
244	0xbd6a2a1a	-0.057169057
245	0xbd28dcbd	-0.041226137
246	0x3d81a150	0.06329596
247	0x3c4276d1	0.011869148
248	0xbd3458f2	-0.044030137
249	0xbb6ceff1	-0.0036153758
250	0x3c07613d	0.0082629295
251	0x3d88e343	0.06683972
252	0xbc4ab9a5	-0.012373363
253	0xbd97705f	-0.0739448
254	0x3cba2e49	0.022727149
255	0x3c8e51f4	0.017373063

fc2.bias f4 [300]
0	0xbd7ed1d0	-0.06221181
1	0x3a18d5ff	0.0005830228
2	0xbc827865	-0.01592655
3	0x3d02d637	0.031942572
4	0x3cce7f26	0.025207113
5	0xbc463aea	-0.012099007
6	0x3d0bcab7	0.03412887
7	0xbca94e14	-0.020667113
8	0x3da120b2	0.07867564
9	0xbb831f2f	-0.00400152
10	0xbdb252d2	-0.08707203
11	0x3d9b24a0	0.07575345
12	0x3d2de430	0.042453945
13	0xbd8e4cef	-0.06948268
14	0x3d26a850	0.04068786
15	0xbd0e0a09	-0.03467754
16	0x3b888b01	0.004166961
17	0xbd413bd0	-0.047176182
18	0x3c381265	0.011234854
19	0x3bba1fb3	0.0056800484
20	0x3db04aa8	0.086079895
21	0x3d60fd66	0.05492916
22	0xbcb5526a	-0.022134025
23	0xbc44d3f4	-0.012013424
24	0x3dc03e0c	0.093868345
25	0xbd6555d1	-0.055990044
26	0xbd1bb756	-0.03801664
27	0xbd1d2452	-0.038364716
28	0xbc7ee957	-0.015558562
29	0xbd35f6b0	-0.044424713
30	0xbc34adf9	-0.011027806
31	0xbd90906c	-0.07058796
32	0x3d37c490	0.04486519
33	0x3da1bc06	0.07897191
34	0xbd6cb494	-0.0577894
35	0xba569d8d	-0.0008186929
36	0x3dc4a6d2	0.09602131
37	0x3d459857	0.048240986
38	0xbc402469	-0.011727431
39	0xbd6b46b0	-0.05744046
40	0xbd35c8f2	-0.04438109
41	0xbc99d7dc	-0.018779688
42	0xbd146596	-0.036229692
43	0xbcc78d68	-0.02435942
44	0x3ce5b3c3	0.028039819
45	0x3b1e3723	0.002414175
46	0xb8b60b75	-8.68057e-05
47	0x3cef0219	0.029175805
48	0xbd963a34	-0.0733532
49	0xbcee5953	-0.029095327
50	0x3cf801b7	0.030274255
51	0xbad31d71	-0.0016106797
52	0xbcc0bd8c	-0.023527883
53	0xbd4e0099	-0.05029354
54	0xbd41bd99	-0.047299955
55	0xbd688ce8	-0.056775004
56	0xbb605dc8	-0.0034235585
57	0x3cd2be16	0.025725406
58	0x3d75b892	0.059990473
59	0xbcc1b919	-0.023647832
60	0x3d83bca8	0.06432468
61	0xbca8af4d	-0.020591402
62	0x3dcba0df	0.09942793
63	0xbd03a8c9	-0.032143388
64	0xbcfdfeb8	-0.031005248
65	0xba936c78	-0.0011247536
66	0x3cd2c407	0.025728239
67	0x3ac2e136	0.0014868143
68	0xbd5a041b	-0.05322657
69	0xbaf043d6	-0.0018330764
70	0x3d920c82	0.07131292
71	0xbcaad53d	-0.020853633
72	0x3bfcc891	0.007714339
73	0xbc703ca5	-0.014662896
74	0xbcf6c5b4	-0.03012357
75	0x3d8008d4	0.06251684
76	0xbd108b6e	-0.03528922
77	0x3d3c90ca	0.04603652
78	0xbd492d54	-0.049115494
79	0xbd21c468	-0.03949395
80	0x3db09505	0.08622173
81	0x3c0d63b1	0.008629725
82	0xbd3b80a1	-0.045776967
83	0xbb32e033	-0.0027294278
84	0x3d72c414	0.059269026
85	0x3d178d0c	0.036999747
86	0x3d897ff6	0.0671386
87	0xbbfb484c	-0.0076685306
88	0x3c556fc7	0.013027138
89	0xbcaaff60	-0.020873725
90	0xbca2d89c	-0.019878678
91	0xbc1cdfca	-0.00957484
92	0x3d0f3674	0.03496404
93	0xbd1b37c2	-0.03789497
94	0x3cbda31d	0.023149068
95	0xbc2e01d9	-0.010620558
96	0xbc87e658	-0.016589329
97	0x3ce6ff1d	0.02819782
98	0xbc15799b	-0.009123231
99	0xbc8c46a4	-0.017123528
100	0xbc5cce7d	-0.013476965
101	0xbc84e28a	-0.016221303
102	0x3cf545ab	0.029940447
103	0xbb9ee40d	-0.004848963
104	0xbc9419b7	-0.018078668
105	0xbcb74ee1	-0.02237648
106	0x3dda0b50	0.10646689
107	0xbd69b69d	-0.05705892
108	0x3ba383d6	0.0049900813
109	0x395f2b11	0.00021282981
110	0xbd94c01e	-0.07263206
111	0xbd39225b	-0.04519878
112	0xbd426fe4	-0.04746999
113	0x3d8364ad	0.06415687
114	0xbd1abd42	-0.037778147
115	0x3c5be8d5	0.013422211
116	0x3d55154b	0.05202226
117	0x3c238317	0.009979985
118	0x3b048226	0.0020219176
119	0xbdd7ece4	-0.1054323
120	0xba397c07	-0.00070756715
121	0x3da3237f	0.07965755
122	0xbdd4bbd9	-0.103873916
123	0xbce89aa6	-0.028394055
124	0xbcdcfc5e	-0.026975807
125	0xbbc954a6	-0.006144124
126	0x3d440a3c	0.047861323
127	0x3da389d2	0.079852715
128	0x3cf2d80e	0.029644039
129	0x3ce22527	0.027605606
130	0xbb6aa1cd	-0.0035802007
131	0xbd133d20	-0.035946965
132	0xbcd7816c	-0.02630683
133	0xbd022257	-0.03177103
134	0x3c4aec1b	0.0123853935
135	0x3d93e8ff	0.07222175
136	0x3cce4e63	0.025183862
137	0xbd6adc81	-0.057339195
138	0xb91803f0	-0.00014497316
139	0x3ca80757	0.020511312
140	0xbd0d8485	-0.03455021
141	0x3d0d1017	0.034439173
142	0x3bede14e	0.0072595244
143	0xbc63c7c7	-0.013902611
144	0xbcc707ff	-0.024295805
145	0x3d80e314	0.06293312
146	0x3e0e4aab	0.13895671
147	0x3cacaccf	0.021078495
148	0xbc81138a	-0.015756387
149	0x3d55d28c	0.052202746
150	0x3d0eec39	0.03489325
151	0x3c867b4a	0.01641621
152	0xbc520792	-0.012819188
153	0xbc8f5dcb	-0.017500779
154	0x3d3334ed	0.043751646
155	0x3d366f7d	0.044539917
156	0x3c985b25	0.018598149
157	0x3c875cf0	0.016523808
158	0x3d5ec3dd	0.05438601
159	0xbc0a039a	-0.00842371
160	0xbcd2781c	-0.025692038
161	0x3ca7cacb	0.020482441
162	0x3b705f69	0.0036677963
163	0x3c81d263	0.01584739
164	0xbc732ade	-0.014841763
165	0xbda4e5c0	-0.08051634
166	0x3cc69d06	0.024244796
167	0x3cffea4d	0.031239653
168	0x3cbd6b91	0.02312258
169	0x3d903453	0.0704123
170	0xbd7b8ee5	-0.06141557
171	0x3d58d985	0.052941818
172	0x3d319a52	0.043360062
173	0xbcf08c9f	-0.029363928
174	0xbd2cf9fb	-0.042230587
175	0x3be009d1	0.0068371077
176	0x3daa6366	0.0831974
177	0xbbef9bf9	-0.0073122946
178	0x3b586013	0.003301625
179	0x3d594da6	0.053052567
180	0xbd22e1c5	-0.03976609
181	0x3da74faf	0.08169495
182	0x3d7ef255	0.062242825
183	0xbd9afe04	-0.07567981
184	0xbd3499c9	-0.044091973
185	0xbcdc847d	-0.026918644
186	0x3c9d8c85	0.019232044
187	0x3d31f88a	0.043449916
188	0xbcd33cd5	-0.025785843
189	0xbd3f3cee	-0.046688966
190	0xbb43e861	-0.0029893147
191	0xbd32c67b	-0.043646317
192	0x3dbf4c23	0.09340694
193	0x3d2507c0	0.040290594
194	0xbd1592c5	-0.036516923
195	0xbd8471c1	-0.06467009
196	0xbcced4a2	-0.025247876
197	0xbd00930d	-0.03139024
198	0x3c91fc37	0.01782046
199	0xbd9edce6	-0.07756977
200	0xbd2d41a5	-0.04229893
201	0xbcbe4306	-0.023225319
202	0xbd0780cb	-0.03308181
203	0xbbd3645d	-0.006451173
204	0xbc12de1f	-0.008964091
205	0x3d03c8f8	0.03217408
206	0xbcf87525	-0.030329296
207	0x3ce55eee	0.027999368
208	0xbc51ed85	-0.012812977
209	0x3ce4d97c	0.027935736
210	0xbd8dde44	-0.069271594
211	0x3e099676	0.13436303
212	0x3d54d9d7	0.05196556
213	0x3d24e82f	0.04026049
214	0x3c5298d1	0.012853817
215	0xbc47e433	-0.012200403
216	0xbb193543	-0.0023377694
217	0xbc2c3cab	-0.010512511
218	0xbd7a084d	-0.061043072
219	0x3d8c250a	0.06843002
220	0x3c85750c	0.016291164
221	0x3cd4779a	0.025935937
222	0xbcaf88b2	-0.021427486
223	0xbbe226b8	-0.0069015883
224	0x3d97bc0a	0.074089125
225	0x3b6b1a7a	0.0035873936
226	0xbbae90f1	-0.005327337
227	0xbd40a4f4	-0.04703231
228	0x3ccd49f1	0.025059672
229	0xbcdfd4be	-0.027323123
230	0xbcb11a2a	-0.021618921
231	0x3c816aff	0.01579809
232	0xbcbc4cc4	-0.022985823
233	0x3d5191f3	0.05116458
234	0x3c9bce5d	0.0190193
235	0x3d333a08	0.043756515
236	0x3dc69ec9	0.096982546
237	0xbd229ab7	-0.03969833
238	0xbd164378	-0.036685437
239	0x3d7f395e	0.06231057
240	0x3d496c20	0.04917538
241	0xbc0f6c54	-0.008753855
242	0xbca27738	-0.019832239
243	0xbc3444a7	-0.011002696
244	0xbd0a18fc	-0.033715233
245	0x3cb04976	0.021519404
246	0x3d0ec4f0	0.034855783
247	0x3afb4419	0.0019170075
248	0xbbad6b87	-0.0052923593
249	0x3d1252fb	0.035723668
250	0x3d0dee40	0.03465104
251	0x3c6efc93	0.014586586
252	0xbcb9f5f5	-0.02270029
253	0xbb8436b0	-0.0040348396
254	0x3d7e9b63	0.062159907
255	0xbd2842d8	-0.041079372

fc3.weight f4 [2, 300]
0	0xbc6067fb	-0.013696666
1	0xbdfcf509	-0.12351424
2	0xbd041dcd	-0.032254983
3	0xbd40a52a	-0.047032513
4	0xbdc36db3	-0.09542408
5	0xbcc2e136	-0.02378903
6	0xbbb0eea5	-0.0053995424
7	0xbd1ca47b	-0.0382428
8	0xbcae08b2	-0.02124438
9	0xbb9d2f1c	-0.0047968756
10	0xbd1e4c70	-0.038647115
11	0xbd2c2a37	-0.042032447
12	0xbb781d3b	-0.003785922
13	0x3dc30cbc	0.09523913
14	0xbe5de5bc	-0.21669668
15	0xbe073f24	-0.1320768
16	0xbc862f5f	-0.01638001
17	0xbcde7677	-0.027156098
18	0xbcad1f85	-0.021133194
19	0xbcdf91ad	-0.027291143
20	0xbd7b0e1f	-0.061292764
21	0xbcf60d46	-0.030035626
22	0xbc541f6a	-0.012946943
23	0xbc7cc327	-0.015427387
24	0xbe0a90c4	-0.13531786
25	0xbe3d3bc6	-0.18479833
26	0xbc428d98	-0.011874579
27	0x3cf022a8	0.0293134
28	0xbc9684d2	-0.01837388
29	0xbcdf6d4b	-0.027273795
30	0xbcd51cf6	-0.026014786
31	0x3e83af47	0.25719664
32	0x3b111f4f	0.0022143906
33	0xbdba4096	-0.0909435
34	0xbd5c834b	-0.05383615
35	0xbc09323a	-0.008373791
36	0xbd253023	-0.04032911
37	0xbc30926d	-0.010777098
38	0xbb377732	-0.002799463
39	0x3c0758b2	0.008260893
40	0x3c2372a4	0.009976063
41	0xbcfcd662	-0.030863944
42	0x3d1ffa9d	0.039057363
43	0xbda3a527	-0.07990485
44	0xbb2d2d80	-0.0026424825
45	0xbc139626	-0.009007966
46	0xbcfe8247	-0.03106798
47	0xbc96d989	-0.018414276
48	0xbe472664	-0.19448239
49	0x3da3160d	0.0796319
50	0xbc3f6b98	-0.011683367
51	0x3d5f837c	0.054568753
52	0x3d2c7e1c	0.042112455
53	0xbc0607f6	-0.008180609
54	0xbd08008e	-0.033203654
55	0xbd2f0fb6	-0.042739592
56	0xbe0e44ae	-0.13893387
57	0xbd8633cc	-0.06552848
58	0xbda7a1b1	-0.08185137
59	0xbe475ba8	-0.19468558
60	0xbc6c1f9e	-0.014411835
61	0xbd92acec	-0.071618885
62	0xbd928d0e	-0.0715581
63	0xbd649f30	-0.055815876
64	0xbe14493d	-0.14481063
65	0xbca9adb5	-0.020712713
66	0x3c506c3f	0.01272112
67	0xbcaa8d48	-0.020819321
68	0xbc0ddbe6	-0.008658385
69	0x3d966585	0.07343582
70	0xbe309a92	-0.17246464
71	0xbc3ac907	-0.011400468
72	0xbc861c5c	-0.016370945
73	0xbc079380	-0.008274913
74	0xbe0afb22	-0.13572362
75	0xbd68ea5a	-0.05686412
76	0x3ca0d259	0.019631552
77	0x3c43a3b0	0.011940882
78	0xbd74b277	-0.05974051
79	0xbd1c3b88	-0.03814271
80	0xbc5e60a8	-0.013572849
81	0xbe080e3c	-0.1328668
82	0x3c139832	0.009008454
83	0xbcf008bd	-0.029301042
84	0xbaa60680	-0.0012666732
85	0xbca0210d	-0.01954701
86	0xbe4c63df	-0.19959973
87	0xbec19bdc	-0.37814224
88	0xbe5d0e8e	-0.21587583
89	0xbd3c0b0b	-0.04590897
90	0x3c1299f6	0.00894784
91	0xbcc37e48	-0.023863927
92	0xbc7ceb22	-0.015436919
93	0xbcc2a02f	-0.023758022
94	0xbd2b6eee	-0.041853838
95	0x3c74ca0d	0.014940751
96	0xbcabc8af	-0.020969717
97	0x3ceb484c	0.028720997
98	0x3d9f6c71	0.077843554
99	0xbcb257e5	-0.021770427
100	0xbd62a002	-0.055328377
101	0x3ba37c4b	0.004989182
102	0xbc066787	-0.008203394
103	0xbcaab26c	-0.020837031
104	0xbd70d81f	-0.05879986
105	0xbd8bb708	-0.0682202
106	0xbcff3699	-0.031153964
107	0xbbecfa97	-0.007232021
108	0xbbad63cf	-0.005291439
109	0xbd8fcabb	-0.0702109
110	0xbf385c30	-0.72015667
111	0xbd1a30a9	-0.037644062
112	0xbe538df9	-0.20659627
113	0xbe360a14	-0.17777282
114	0xbb4fb578	-0.0031693857
115	0xbcb3665f	-0.0218994
116	0xbccdd51d	-0.025126034
117	0xbd4a4a05	-0.049386997
118	0xbcc50101	-0.02404833
119	0xbe49f2b5	-0.19721492
120	0xbcd9bdc5	-0.026579747
121	0xbd7fe2e7	-0.06247225
122	0x3f22e0d4	0.6362431
123	0xbdddfd61	-0.10839344
124	0xbd56787d	-0.052361
125	0x3d45c88d	0.048286963
126	0xbd0e8829	-0.03479782
127	0xbe0fef4e	-0.14056131
128	0xbdf1574e	-0.1178423
129	0x3d8672f4	0.06564894
130	0xbb8e21a9	-0.0043375087
131	0xbe87e124	-0.26538956
132	0x3c6dc2d1	0.01451178
133	0xbca3b6a5	-0.019984553
134	0xbd145ffe	-0.036224358
135	0x3dbbb7b6	0.091658995
136	0xbc7f0571	-0.015565262
137	0xbc62b593	-0.013837236
138	0xbe93181e	-0.28729337
139	0xbd60225e	-0.054720275
140	0x3d9118b6	0.07084791
141	0xbd30a838	-0.043129176
142	0x3c4d1b5c	0.01251873
143	0xbc1d9140	-0.00961715
144	0x3ba53f89	0.0050429744
145	0xbd54bd4d	-0.051938344
146	0xbdb26814	-0.087112576
147	0x3bb582eb	0.0055392883
148	0xbc418d0d	-0.011813414
149	0xbde6e33e	-0.11273812
150	0xbe63e23b	-0.22254269
151	0xbc5b5847	-0.013387746
152	0xbcb8e6fb	-0.022571078
153	0x3c2f148f	0.010686054
154	0xbcf3b47f	-0.029749153
155	0xbde95b27	-0.11394339
156	0xbe9e1d25	-0.3088161
157	0x3cfdfe24	0.031004973
158	0xbd7133ee	-0.058887415
159	0xbe5f410f	-0.21802162
160	0xbe0156f9	-0.12630834
161	0xbcd7acba	-0.02632748
162	0xbcb0e948	-0.021595612
163	0xbc746304	-0.014916185
164	0xbd2f6904	-0.04282476
165	0xbdc3953d	-0.09549949
166	0xbca21a4b	-0.019787928
167	0xbc40f3bd	-0.011776862
168	0xbd194865	-0.037422556
169	0xbd404d33	-0.046948623
170	0xbea8cf82	-0.32970816
171	0xbb2cd8ae	-0.0026374268
172	0xbc738675	-0.0148636
173	0xbd3c8964	-0.046029463
174	0xbcd19cdb	-0.02558749
175	0xbd814bd2	-0.0631329
176	0xbd2bcb70	-0.04194206
177	0xbc9a0a39	-0.018803703
178	0xbbec7d1f	-0.007217064
179	0x3b9df61d	0.0048205988
180	0xbc595881	-0.01326573
181	0xbdf7c76d	-0.12098584
182	0x3d831a72	0.064015284
183	0xbe787fc4	-0.24267489
184	0xbc543be3	-0.012953731
185	0x3bbcb864	0.0057592858
186	0x3d94a290	0.07257569
187	0xbd8f5e6d	-0.07000432
188	0xbc77f16f	-0.015133246
189	0xbd87eb42	-0.06636669
190	0xbd90e740	-0.070753574
191	0xbd143034	-0.036178783
192	0xbcd4f59a	-0.025996018
193	0x3c719322	0.014744552
194	0xbd6a5488	-0.05720952
195	0xbcde6142	-0.027145986
196	0xbd9bb06d	-0.0760201
197	0xbd0c1131	-0.034196083
198	0xbc14161f	-0.009038477
199	0xbdbe1da8	-0.09283
200	0xbe899d1a	-0.2687767
201	0x3d6ffa97	0.05858859
202	0xbbe09020	-0.0068531185
203	0xbd00d3b1	-0.031451885
204	0x3d1a9f6e	0.0377497
205	0xbe1e9f34	-0.15490419
206	0xbc24dc26	-0.010062253
207	0xbe14bfa8	-0.14526236
208	0xbd2843da	-0.041080333
209	0xbd14e61d	-0.036352266
210	0xbd42e3fa	-0.047580697
211	0xbb17e2c7	-0.0023175941
212	0xbcb60634	-0.022219755
213	0xbbd49384	-0.006487312
214	0xbd53c110	-0.05169779
215	0xbc92e654	-0.017932095
216	0x3d831f2e	0.064024314
217	0x3d70b204	0.05876352
218	0xbdefbbf4	-0.11705771
219	0xbd7890ec	-0.060685083
220	0xbda088f1	-0.078386195
221	0xbeb4324a	-0.35194618
222	0xbca1602a	-0.019699175
223	0xbd5412f0	-0.051775873
224	0xbd6fbf56	-0.05853208
225	0xbc931d84	-0.01795841
226	0xbe97d428	-0.2965405
227	0xbd5b29c8	-0.053506643
228	0xbba51ad6	-0.0050385995
229	0xbe2e0fac	-0.16998166
230	0xbcf38cbe	-0.029730197
231	0xbcb6ba85	-0.022305736
232	0xbd004c35	-0.031322677
233	0xbe47ebde	-0.1952357
234	0xbcbc51c5	-0.02298821
235	0xbb4038d1	-0.002933074
236	0xbce77dfe	-0.02825832
237	0xbd48585c	-0.04891239
238	0xbd6a97bb	-0.057273608
239	0xbca93f76	-0.020660143
240	0xbc37d904	-0.011221174
241	0x3ca197b1	0.019725652
242	0xbc9ce678	-0.019152865
243	0xbda30faf	-0.07961976
244	0x3a6d99ee	0.000906377
245	0x3d2c3b5d	0.0420488
246	0xba12cc3b	-0.0005599891
247	0xbc9b25a7	-0.018938852
248	0xbe345f1c	-0.17614406
249	0x3db0e263	0.0863693
250	0xbddebc8d	-0.10875807
251	0x3e1add4f	0.15123485
252	0xbcb86d49	-0.022513049
253	0xbc8813c5	-0.01661099
254	0xbde353f6	-0.11099999
255	0xbda61632	-0.08109702

fc3.bias f4 [2]
0	0xbcde3b18	-0.027127787
1	0xbac6489b	-0.0015127839
