Tennis/Nets/checkpoint_actor2700.pth (torch_old, 525671 bytes, 10 tensors)

bn1.weight f4 [24]
0	0x3ebc530e	0.36782116
1	0x3efbfdd1	0.49217084
2	0x3eb38615	0.35063234
3	0x3f121f60	0.57079124
4	0x3f9ec977	1.2405232
5	0x3f872fea	1.0561497
6	0x3e2ea2e5	0.17054327
7	0x3c2c383a	0.010511452
8	0x3ea01b20	0.31270695
9	0x3ca93885	0.020656833
10	0x3ebb3073	0.365604
11	0x3e2a74a5	0.16646059
12	0x3ebf862c	0.37407053
13	0x3f1c7f28	0.61131525
14	0x3eb0261e	0.3440408
15	0x3f443c6b	0.7665469
16	0x3f7bef25	0.9841178
17	0x3ef0e285	0.4704782
18	0x3ea3f508	0.32022882
19	0x3f495394	0.78643155
20	0x3f878489	1.0587322
21	0x3f98a3fb	1.1925043
22	0x3f0034cd	0.5008057
23	0x3f1a7c33	0.6034576

bn1.bias f4 [24]
0	0xbdc95ad3	-0.098317765
1	0xbe4495cf	-0.19197772
2	0x3d115816	0.035484396
3	0x3e86f78e	0.26360744
4	0x3ea5051e	0.32230467
5	0xbc87e60b	-0.016589185
6	0x3dd23b44	0.1026521
7	0xbe83485c	-0.25641143
8	0xbdce3668	-0.10068971
9	0xbf1335fb	-0.5750424
10	0x3dec73bc	0.11545512
11	0xbe80206e	-0.25024742
12	0xbd918ca9	-0.07106907
13	0xbe28283f	-0.16421603
14	0xbda779a3	-0.08177497
15	0xbd987580	-0.07444286
16	0xbddabb28	-0.106802285
17	0xbeaf1102	-0.34192663
18	0x3d948237	0.07251399
19	0xbd3ba101	-0.045807842
20	0x3e25e43a	0.16200343
21	0xbe1c285c	-0.15249771
22	0x3d4b1b4a	0.04958657
23	0xbdfe1687	-0.124066405

bn1.running_mean f4 [24]
0	0xc0c44fdb	-6.134748
1	0xbf74f070	-0.9567938
2	0x4087a34c	4.2386837
3	0x3cf35c89	0.02970721
4	0x3c7b252b	0.015328686
5	0x40407106	3.0068984
6	0x4087a34c	4.2386837
7	0x3cf35c89	0.02970721
8	0xc0c828c3	-6.254976
9	0xbf781d58	-0.96919775
10	0x408a15b0	4.3151474
11	0xba28b9b1	-0.00064363616
12	0x3d128d2d	0.035779167
13	0x40406d25	3.0066617
14	0x408a15b0	4.3151474
15	0xba28b9b1	-0.00064363616
16	0xc0cbb88e	-6.3662786
17	0xbf7b2f19	-0.9811874
18	0x408e8e4d	4.4548707
19	0x3b79e2bc	0.003812953
20	0x3d1b0366	0.037845038
21	0x403f26a7	2.9867342
22	0x408e8e4d	4.4548707
23	0x3b79e2bc	0.003812953

bn1.running_var f4 [24]
0	0x41696f11	14.589616
1	0x3f86bdd0	1.0526676
2	0x439097c9	289.18582
3	0x410d8082	8.843874
4	0x4200eab5	32.229206
5	0x4067a648	3.619524
6	0x439097c9	289.18582
7	0x410d8082	8.843874
8	0x415f6413	13.961932
9	0x3f875ea1	1.0575753
10	0x43917883	290.9415
11	0x41121a58	9.131432
12	0x42071094	33.76619
13	0x406e8023	3.7265708
14	0x43917883	290.9415
15	0x41121a58	9.131432
16	0x41576b3b	13.463679
17	0x3f874812	1.0568869
18	0x43941bf5	296.2184
19	0x41162b96	9.385641
20	0x420dcfa5	35.452778
21	0x407d6123	3.9590538
22	0x43941bf5	296.2184
23	0x41162b96	9.385641

fc1.weight f4 [400, 24]
0	0x3e0a2e31	0.13494183
1	0xbcf2b0e4	-0.029625364
2	0x3d2002f8	0.03906533
3	0xbd8ab08e	-0.067719564
4	0xbe173c4f	-0.147691
5	0xbdfebe23	-0.124386095
6	0x3bbed44d	0.005823648
7	0x3d41c134	0.047303393
8	0x3e65e342	0.22449973
9	0x3df9a105	0.12188915
10	0x3c2f1f6f	0.010688647
11	0x3cec5799	0.028850364
12	0xbe782a95	-0.24234994
13	0x3e760e60	0.24028921
14	0xbca732d5	-0.02040998
15	0x3bde1409	0.0067772907
16	0x3e9aa31e	0.30202574
17	0x3b32fd90	0.002731178
18	0xbdb28532	-0.08716811
19	0xbdb1e185	-0.086855926
20	0x3dab1f75	0.08355609
21	0x3f2a626b	0.66556424
22	0x3b14d9d3	0.0022712841
23	0xbda03619	-0.07822818
24	0x3d88a001	0.06671143
25	0xbe03ddbb	-0.12877552
26	0xbe2edcac	-0.17076367
27	0x3d9981bf	0.0749545
28	0x3e7e2e97	0.2482246
29	0xbdbc92bb	-0.09207674
30	0xbe66d30c	-0.22541445
31	0x3d30b7ca	0.043144025
32	0x3e98c969	0.29841164
33	0x3cc3e76b	0.02391406
34	0xbd67c699	-0.05658588
35	0x3e138b6a	0.14408651
36	0xbefa8f39	-0.48937395
37	0x3dfea470	0.12433708
38	0xbdb71176	-0.08938877
39	0x3e30e466	0.17274627
40	0x3ebec5b3	0.37260208
41	0xbd6f293d	-0.058388937
42	0xbe0874b8	-0.13325775
43	0x3d91ea6a	0.07124789
44	0xbf46f782	-0.77721417
45	0x3e3fe541	0.18739797
46	0xbe30ee83	-0.17278485
47	0x3ba3dd77	0.005000766
48	0x3bcd20a7	0.006259996
49	0xbddef24d	-0.10886059
50	0x3e108c24	0.1411596
51	0x3d878d85	0.066187896
52	0x3b7bb30c	0.003840628
53	0x3e752ca5	0.23942812
54	0x3df5f299	0.120091625
55	0x3d41d714	0.047324255
56	0x3cb27caa	0.02178796
57	0xbce7b4f9	-0.028284537
58	0x3d4662b7	0.048433986
59	0x3e3875ae	0.18013641
60	0x3e895497	0.2682235
61	0x3e686efa	0.22698584
62	0xbcaf5a32	-0.021405313
63	0x3e171f54	0.14758044
64	0xbdadbc5f	-0.084831946
65	0xbc7e74ab	-0.0155307455
66	0x3c00cabc	0.007860836
67	0x3e1f1f5a	0.15539303
68	0x3f079f3e	0.5297736
69	0x3dc121d0	0.09430277
70	0xbd310c41	-0.043224577
71	0x3e571f82	0.21008113
72	0x3e5d2a7b	0.21598236
73	0xbbb514ad	-0.0055261464
74	0x3eb7e4ae	0.35916656
75	0xbe204b0a	-0.15653625
76	0xbcf8fdd2	-0.030394468
77	0x3e11a5c4	0.14223391
78	0x3e69a88b	0.228182
79	0x3eae6d8d	0.34067956
80	0xbdbaf7dc	-0.09129307
81	0x3e80f836	0.2518937
82	0xbf1ff4ba	-0.624828
83	0x3eb5ae51	0.35484555
84	0x3eaf8356	0.3427989
85	0xbcbddaba	-0.023175586
86	0xbedcef7a	-0.43151456
87	0x3e5831d8	0.21112764
88	0xbd948b1d	-0.07253096
89	0x3dc8e237	0.09808772
90	0x3e6087c9	0.21926798
91	0xbd90ee04	-0.07076648
92	0x3ec5416b	0.38526472
93	0xbe2bd53e	-0.16780564
94	0x3e99734c	0.29970777
95	0xbd0258fc	-0.031823143
96	0x3dc97148	0.0983606
97	0xbdd4d6bf	-0.10392522
98	0xbdba77b2	-0.09104861
99	0xbd020192	-0.03173978
100	0xbdd4ad8f	-0.10384666
101	0xbd309f8b	-0.043120902
102	0xbdd88768	-0.10572702
103	0x3dd9dd9e	0.10637973
104	0x3e4c785a	0.19967785
105	0xbd96b5a4	-0.07358864
106	0xbcd3a516	-0.025835555
107	0x3dc521c6	0.096255824
108	0x3c92340e	0.017847087
109	0x3d9428e1	0.072343595
110	0x3d7b58ae	0.06136387
111	0x3d2464e9	0.040135298
112	0x3f06f6ef	0.5272054
113	0xbdcbcbb9	-0.099509664
114	0x3e4ef43d	0.20210357
115	0xbe130ad9	-0.14359607
116	0x3ca23481	0.019800426
117	0x3dc3d96e	0.09562956
118	0x3e462493	0.1934989
119	0xbdd2e419	-0.102974124
120	0x3d46c7e0	0.04853046
121	0xbdd67df3	-0.10473242
122	0xbd1d4a0f	-0.038400706
123	0xbc7151b0	-0.0147289485
124	0xbf3fbaa2	-0.74894154
125	0x3e96a189	0.29420117
126	0x3bf7ae6a	0.0075586336
127	0xbc6aca83	-0.014330509
128	0x3e002a08	0.12516034
129	0xbd7ceb74	-0.061747983
130	0x3e130250	0.14356351
131	0xbd5badec	-0.05363266
132	0x3ce4b366	0.027917575
133	0x3dda1f10	0.10650456
134	0x3e079901	0.1324196
135	0x3c09cade	0.008410184
136	0x3e68af2d	0.22723074
137	0xbdeea91d	-0.116533495
138	0x3db1fd72	0.08690919
139	0x3cb54935	0.022129634
140	0x3f116468	0.5679383
141	0xbdfc5871	-0.12321556
142	0x3dbeb3c9	0.09311635
143	0xbd5a1097	-0.053238478
144	0xbe124784	-0.14285094
145	0x3dc980fa	0.098390535
146	0xbe68d541	-0.227376
147	0xbcdb323d	-0.026757354
148	0xbe86a897	-0.263005
149	0x3df50ad3	0.11964955
150	0xbe92a447	-0.2864096
151	0x3e0d4aec	0.13798112
152	0xbcbe84e5	-0.023256728
153	0x3d3b2438	0.045688838
154	0x3edd0e28	0.43174863
155	0x3d74da7f	0.059778687
156	0xbcf74a78	-0.030186877
157	0x3dfc6620	0.12324166
158	0x3ef64b77	0.4810445
159	0x3e824fb5	0.25451437
160	0xbe80e7c5	-0.25176826
161	0x3e029913	0.12753706
162	0xbee72c45	-0.45150962
163	0xbd4b4d35	-0.049634177
164	0x3e65b4ee	0.224323
165	0xbdf730bb	-0.120698415
166	0xbef75706	-0.4830858
167	0xbdb573dc	-0.08859989
168	0x3d8de240	0.069279194
169	0x3dab892c	0.08375773
170	0xbd83fd66	-0.06444816
171	0x3e67da3f	0.22641848
172	0x3e6d4626	0.23171291
173	0x3ecaeb08	0.3963244
174	0x3d4aa233	0.04947109
175	0x3d963138	0.073336065
176	0x3e70aa28	0.2350241
177	0x3e70c5d8	0.23512971
178	0x3e418b5c	0.18900818
179	0x3df8d80a	0.12150581
180	0x3d32a492	0.043613978
181	0x3e9f5e38	0.3112657
182	0x3e30e5fb	0.1727523
183	0x3e967b02	0.29390723
184	0x3de9f647	0.11423927
185	0x3e542b9c	0.2071976
186	0xbe9f8462	-0.31155688
187	0x3d571385	0.05250885
188	0xbd96081a	-0.07325764
189	0x3d93fbac	0.07225737
190	0xbe8ece93	-0.2789198
191	0x3c46913c	0.0121195875
192	0x3e8fdd65	0.28098598
193	0x3d935f87	0.07195955
194	0x3a66a43e	0.00087982777
195	0xbddaf072	-0.106903926
196	0x3e5402b6	0.20704159
197	0x3eae2b99	0.34017637
198	0xbd4185a1	-0.04724658
199	0x3da5cff6	0.08096306
200	0x3e482977	0.19547068
201	0x3d1a80db	0.037720542
202	0xbd7a454f	-0.061101254
203	0x3da5456f	0.08069884
204	0x3ddc9598	0.1077072
205	0x3f00e8a7	0.50355
206	0x3c3d0c10	0.01153852
207	0x3cc887c0	0.024478793
208	0xbb4c482a	-0.0031170943
209	0xbdc53f84	-0.09631255
210	0xbebd4371	-0.36965516
211	0xbe9a7761	-0.30169204
212	0xbe03f9ea	-0.12888303
213	0x3e2863d5	0.16444333
214	0xbecc044b	-0.39847025
215	0xbe63a0b1	-0.22229268
216	0xbd760158	-0.060059875
217	0x3f044efa	0.5168301
218	0xbe0aa411	-0.13539149
219	0x3cdbcdbb	0.026831498
220	0xbdad82fb	-0.08472248
221	0xbea524c0	-0.322546
222	0xbe2d7e19	-0.16942634
223	0x3c08b591	0.00834407
224	0xbe701262	-0.23444512
225	0x3f0014fa	0.5003201
226	0x3cf1725c	0.029473476
227	0x3e67bca6	0.22630557
228	0xbd5155d3	-0.05110724
229	0xbe4360dd	-0.19079919
230	0x3c986098	0.018600747
231	0x3e87cfa0	0.26525593
232	0xbe43405d	-0.19067521
233	0x3f48d4a1	0.78449446
234	0x3e4d7cb6	0.20067105
235	0xbd23cc8b	-0.03998999
236	0x3dd293f5	0.10282127
237	0xbc6d6dc0	-0.0144914985
238	0x3e8776fe	0.2645797
239	0xbdd86665	-0.10566405
240	0x3dc54450	0.0963217
241	0x3dc8b79b	0.09800645
242	0x3c452db9	0.012034827
243	0xbce7cc0a	-0.028295536
244	0xbc976504	-0.018480785
245	0xbe346317	-0.17615925
246	0xbe20dffd	-0.15710445
247	0x3ea47bea	0.3212579
248	0xbd9aa4bd	-0.075509526
249	0x3ea7de46	0.3278677
250	0xbee1898e	-0.44050258
251	0x3da3f332	0.0800537
252	0x3ebe015c	0.37110412
253	0xbe92fcd0	-0.28708506
254	0xbe6a88f6	-0.22903809
255	0xbe7a4dd5	-0.24443753

fc1.bias f4 [400]
0	0xbdc62510	-0.09675038
1	0xbe5f6f0e	-0.21819708
2	0xbe272b97	-0.16325222
3	0xbed362c5	-0.41286293
4	0xbeb82c5d	-0.35971346
5	0x3d7cd1d3	0.06172354
6	0xbe946cda	-0.28989297
7	0x3e45b0cc	0.19305724
8	0xbd5f836d	-0.054568697
9	0x3d454df8	0.04817006
10	0xbeefddca	-0.468489
11	0xbe9c2132	-0.30494076
12	0xbe05833c	-0.13038343
13	0xbf16ba76	-0.58878267
14	0xbd287d19	-0.041134927
15	0xbea027e9	-0.3128045
16	0xbe4640f4	-0.19360715
17	0xbe3fe29c	-0.18738788
18	0xbda7cb85	-0.08193115
19	0x3e13a30a	0.14417663
20	0xbea4e6df	-0.3220739
21	0xbdc01e89	-0.09380824
22	0x3dacb4d3	0.08432927
23	0x3cbae2ff	0.022813318
24	0x3e14d050	0.1453259
25	0xbe6b0821	-0.2295232
26	0xbe05f3dc	-0.13081306
27	0xbdecb38b	-0.115576826
28	0xbec7b4df	-0.3900518
29	0xbefb4920	-0.49079227
30	0xbdf852fe	-0.121252045
31	0xbe1e4740	-0.15456867
32	0xbe9c07e6	-0.30474776
33	0xbe66f5b8	-0.22554672
34	0x3cd3536e	0.025796618
35	0x3d96d32c	0.073644966
36	0xbc0b4764	-0.008500908
37	0xbe85850e	-0.26078075
38	0xbf05ab9c	-0.5221498
39	0xbd8bc4cd	-0.06824646
40	0xbe54792c	-0.20749348
41	0xbdc2d43d	-0.095131375
42	0xbd3d51bf	-0.046220537
43	0xbd801f2c	-0.062559456
44	0xbebf64a0	-0.37381458
45	0x3dd61774	0.10453692
46	0xbe522fa1	-0.20525981
47	0x3c8a11a1	0.01685411
48	0xbe9b366b	-0.30314955
49	0xbe2a6d63	-0.1664329
50	0xbe503775	-0.20333655
51	0xbe64749b	-0.22310106
52	0xbea46490	-0.32107973
53	0xbd121435	-0.035663802
54	0xbe7a110a	-0.24420562
55	0xbe15a6cd	-0.1461441
56	0xbd0e8807	-0.034797695
57	0xbd1adfd6	-0.037811123
58	0xbe09282b	-0.13394229
59	0xbc68703e	-0.014186917
60	0xbebcd707	-0.36882803
61	0xbea8fc55	-0.33005014
62	0xbeba2e94	-0.3636366
63	0xbf106165	-0.5639861
64	0xbe4a9e06	-0.19786844
65	0xbe4834a0	-0.19551325
66	0xbd9faa26	-0.07796125
67	0xbe3f9f8d	-0.18713208
68	0xbdf65bae	-0.12029205
69	0x3dc32606	0.09528737
70	0x3e163db9	0.14671983
71	0xbe95e973	-0.2927967
72	0x3dd96537	0.10615008
73	0x3e360e2d	0.17778845
74	0x3ca04b55	0.019567171
75	0xbee6876e	-0.450252
76	0xbe5f245d	-0.21791215
77	0xbe5ffb16	-0.21873125
78	0xbe8d151f	-0.27555177
79	0xbe22ec78	-0.15910518
80	0xbd24a186	-0.040193103
81	0xbbe99288	-0.0071280636
82	0xbe8de88e	-0.27716488
83	0xbcee2807	-0.02907182
84	0xbe5415fd	-0.20711513
85	0x3d88cbb5	0.06679479
86	0xbddbae9b	-0.10726663
87	0xbeb0f2fa	-0.34560376
88	0xbf0158dd	-0.5052622
89	0x3d669d7c	0.056302533
90	0xbe83ce33	-0.25743255
91	0xbe0104df	-0.12599514
92	0xbe49b982	-0.19699672
93	0xbcb196ec	-0.02167841
94	0xbf33f4b9	-0.7029529
95	0xbd68dbd8	-0.056850284
96	0xbe57837c	-0.21046251
97	0xbe62aed3	-0.22137003
98	0xbea80622	-0.3281718
99	0xbe433b0d	-0.19065495
100	0x3d624141	0.055238012
101	0xbebcfea7	-0.36913034
102	0xbdfdf1c9	-0.123996325
103	0xbee20b54	-0.44149268
104	0xbe39d3c3	-0.18147187
105	0xbe2ea194	-0.17053825
106	0xbd388bd7	-0.045055237
107	0xbc94f743	-0.01818431
108	0xbeb8a24e	-0.3606133
109	0xbe152d9b	-0.14568178
110	0xbdbdbfa6	-0.0926507
111	0x3d4ff8d0	0.050774395
112	0xbe8e5552	-0.2779947
113	0xbebc50aa	-0.36780292
114	0x3c053355	0.008129914
115	0xbf11c265	-0.5693725
116	0xbc04ffbb	-0.0081176115
117	0xbec1082d	-0.3770155
118	0xbeb34cc1	-0.35019496
119	0xbeb624cb	-0.35574946
120	0xbed35252	-0.41273743
121	0xbd230d21	-0.039807443
122	0xbd9b7fbe	-0.07592724
123	0x3e73c1d1	0.23804404
124	0xbe7c8b3b	-0.24662487
125	0xbeffbbbe	-0.49947923
126	0xbdc3ccb7	-0.09560531
127	0xbd613d8b	-0.054990333
128	0xbdf647c3	-0.12025406
129	0xbe6c3ed2	-0.23070839
130	0xbcf7948a	-0.030222196
131	0xbe71c52c	-0.23610371
132	0x3e8afe16	0.27146977
133	0x3df4c3ed	0.119514324
134	0xbd69ffb9	-0.05712864
135	0xbebb32a4	-0.36562073
136	0xbeab0eaf	-0.3340964
137	0xbd98242e	-0.07428776
138	0xbeb873fc	-0.3602599
139	0xbe4680b2	-0.19385031
140	0xbe7704ae	-0.24122879
141	0xbd292191	-0.041291777
142	0xbe86dc10	-0.2633977
143	0xbe85e74f	-0.26153037
144	0xbda28143	-0.07934811
145	0x3d776fc1	0.06040931
146	0xbea40ac7	-0.32039472
147	0xbd84a3f2	-0.064765826
148	0x3d3753d1	0.044757668
149	0xbe737bcd	-0.23777695
150	0x3d04c04e	0.03240996
151	0xbe97c240	-0.29640388
152	0x3e0aa82a	0.13540712
153	0xbd8a163b	-0.067425214
154	0xbd002ecd	-0.031294633
155	0xbed4df04	-0.41576397
156	0xbe4589ed	-0.19290896
157	0xbedbd71e	-0.4293756
158	0xbe3c7520	-0.18404055
159	0xbe9f86c5	-0.31157508
160	0xbe43c7cd	-0.19119187
161	0xbd1c03fb	-0.038089734
162	0xbe1fbfa4	-0.15600449
163	0xbeecf6c2	-0.4628201
164	0xbe2f5dfc	-0.17125696
165	0xbe8610f4	-0.2618481
166	0xbe34a8e4	-0.17642552
167	0xbe48a5c0	-0.19594479
168	0xbe9d25fe	-0.30693048
169	0xbd2e917f	-0.042619225
170	0xbe6870e0	-0.22699308
171	0xbe7db8e3	-0.2477756
172	0xbeafb9c3	-0.34321412
173	0xbe9f4cca	-0.31113273
174	0xbe7e476b	-0.24831931
175	0xbe89835a	-0.26858026
176	0xbebd64a7	-0.36990854
177	0xbe9883e1	-0.29788116
178	0xbd7fe398	-0.06247291
179	0xbe161dda	-0.14659825
180	0xbe2a0ea7	-0.16607152
181	0xbe7311ce	-0.2373726
182	0xbd29a798	-0.041419595
183	0xbe0a4e5c	-0.13506454
184	0x3d89ead0	0.0673424
185	0x3da3fb61	0.08006931
186	0xbdd10c4e	-0.10207425
187	0xbda519ff	-0.08061599
188	0xbe07b2c2	-0.13251784
189	0xbe2e0c11	-0.1699679
190	0xbe86e65b	-0.26347622
191	0xbdbd1967	-0.09233361
192	0xbdf3737b	-0.118872605
193	0xbe1ecef0	-0.15508628
194	0xbd9b347d	-0.07578371
195	0x3d10a40d	0.0353127
196	0xbf0d70e3	-0.55250376
197	0xbe8edb93	-0.27901897
198	0xbecf2976	-0.4046132
199	0xbe64f6dd	-0.22359796
200	0xbe21e8a3	-0.158114
201	0x3d6b0c28	0.05738464
202	0xbe431b69	-0.19053425
203	0x3c319f54	0.010841209
204	0x3c878368	0.016542152
205	0xbef5e9e9	-0.48030022
206	0xbeebe03e	-0.4606952
207	0xbeca6eac	-0.3953756
208	0xbe502fc0	-0.20330715
209	0x3e41ab81	0.1891308
210	0xbda4c189	-0.080447264
211	0xbe1baaea	-0.15201917
212	0xbeab464b	-0.33452067
213	0xbefa8389	-0.48928478
214	0xbb9d65c7	-0.0048033926
215	0xbe4f24c3	-0.20228867
216	0xbe8d8ea2	-0.27647883
217	0xbea363e8	-0.3191216
218	0x3e254bd0	0.16142201
219	0xbea1f89c	-0.31634986
220	0xbec4abe0	-0.3841238
221	0x3e0bbb41	0.1364565
222	0xbd99c437	-0.07508128
223	0xbd6e0054	-0.05810578
224	0xbe96db7d	-0.2946433
225	0xbe2cf152	-0.16888931
226	0xbf004aaa	-0.5011393
227	0xbed0fac4	-0.4081632
228	0xbe4913c6	-0.19636449
229	0xbe676a60	-0.22599173
230	0x3dfcb0c4	0.12338403
231	0xbee8d74d	-0.4547676
232	0xbecaec0d	-0.39633217
233	0xbd1c65a6	-0.038182877
234	0xbdc2922e	-0.09500538
235	0xbdf44cf2	-0.11928739
236	0xbe1fe5fa	-0.15615073
237	0xbd3e1d5d	-0.04641472
238	0xbd43353d	-0.047658194
239	0x3e61e328	0.2205931
240	0x3d9814aa	0.07425816
241	0xbebb3e97	-0.3657119
242	0xbeb5cad0	-0.35506296
243	0xbe79db2b	-0.24400012
244	0x3e9132bb	0.28359017
245	0xbe2aa533	-0.16664581
246	0xbef18cdc	-0.4717778
247	0x3e6442e9	0.22291149
248	0xbf3859e4	-0.7201216
249	0xbe2a5aac	-0.16636151
250	0x3d426a82	0.047464855
251	0xbe4207d1	-0.18948294
252	0xbe19a16b	-0.15002982
253	0xbd83f65d	-0.064434744
254	0xbe100685	-0.14064987
255	0xbe5d4b8a	-0.21610847

fc2.weight f4 [300, 400]
0	0xbe1f6a3f	-0.15567873
1	0xbe7bdeed	-0.24596758
2	0x3eea5e47	0.45775053
3	0x3db90041	0.090332516
4	0xbe40af88	-0.1881696
5	0xbed35424	-0.41275132
6	0xbe63141e	-0.22175643
7	0x3e6634f1	0.22481133
8	0x3e0b25e3	0.13588671
9	0xbe956a0d	-0.29182473
10	0x3eaad920	0.33368778
11	0xbe0cf794	-0.13766319
12	0xbd90309c	-0.070405215
13	0x3df5ab2b	0.11995538
14	0x3e411a31	0.18857647
15	0x3e83e3cd	0.25759736
16	0xbdb9d91e	-0.09074615
17	0xbe715b82	-0.23570064
18	0x3d843067	0.064545445
19	0x3e3e201c	0.18566936
20	0x3d565a99	0.052332494
21	0xbc84d2ff	-0.016213892
22	0xbf11d32e	-0.5696286
23	0x3e822c2b	0.25424322
24	0xbd3fc4bf	-0.04681849
25	0x3e7ac96e	0.24490902
26	0x3e87e21a	0.2653969
27	0x3dc1be8e	0.094601735
28	0xbeb37bc8	-0.35055375
29	0xbe7e1dbf	-0.24816035
30	0xbe2255eb	-0.15853088
31	0x3dd19c29	0.10234863
32	0xbcc705ce	-0.02429476
33	0xbe2debc1	-0.16984464
34	0x3ee1829d	0.44044963
35	0x3ddbebaa	0.10738309
36	0x3e0ec2d8	0.13941514
37	0xbf033680	-0.51255035
38	0xbf1af26f	-0.60526174
39	0xbef45d3d	-0.47727385
40	0x3e659dfa	0.22423545
41	0x3e81ea73	0.25374183
42	0xbe36b4b5	-0.17842372
43	0x3e2f36cc	0.17110747
44	0xbefd9325	-0.49526325
45	0x3db24821	0.08705164
46	0xbe12973c	-0.14315504
47	0xbec13143	-0.37732896
48	0xbe8e04d1	-0.2773805
49	0x3eb96202	0.36207587
50	0xbe8be933	-0.27326354
51	0xbe9630fb	-0.29334244
52	0x3d973d83	0.07384779
53	0x3d95d1e8	0.07315427
54	0xbe373c27	-0.1789404
55	0xbe8561db	-0.2605122
56	0x3ec35a63	0.38154897
57	0xbe4e5708	-0.20150387
58	0xbe10f354	-0.14155322
59	0x3dd3dfb1	0.103454
60	0x3dfcabf3	0.12337484
61	0x3e428635	0.18996508
62	0x3e00bfc4	0.12573153
63	0xbc5d73ee	-0.013516409
64	0x3ce34d70	0.027746886
65	0xbe53427b	-0.20630829
66	0xbedd3842	-0.43206984
67	0xbde79df4	-0.11309424
68	0x3ee217af	0.44158694
69	0x3d91c5ab	0.0711778
70	0xbdcb754f	-0.09934484
71	0xbe14ecdf	-0.14543484
72	0x3ea01385	0.31264892
73	0x3db9b21c	0.09067175
74	0x3d2a9699	0.041647527
75	0xbe8ecd65	-0.2789108
76	0x3ca98e20	0.020697653
77	0xbed19ade	-0.40938467
78	0x3d8c121e	0.06839393
79	0xbddde0c7	-0.108338885
80	0x3e399755	0.18124135
81	0xbc70a59b	-0.014687921
82	0x3d0f922d	0.035051513
83	0xbdb45793	-0.08805766
84	0xbe0878d6	-0.13327345
85	0xbd3c6d1d	-0.046002496
86	0x3eb5bee2	0.35497195
87	0xbeca1069	-0.39465645
88	0x3e4b9451	0.19880797
89	0x3d573309	0.052538905
90	0xbe0853e2	-0.13313249
91	0x3ea0dbdf	0.31417748
92	0xbdc2f583	-0.09519484
93	0xbdc2ea42	-0.095173374
94	0x3e0b81bc	0.13623708
95	0x3d12a94e	0.035805993
96	0x3db29206	0.08719258
97	0x3d78d514	0.060750082
98	0xbe247f5b	-0.16064207
99	0x3cdf6408	0.027269378
100	0xbeb51213	-0.35365352
101	0xbf13d716	-0.5775007
102	0xbe696d26	-0.22795543
103	0x3d8e8f2a	0.069609
104	0x3e004bc1	0.12528898
105	0x3e5b9c93	0.21446447
106	0x3e09d829	0.13461365
107	0x3d1571f1	0.036485616
108	0x3e89f3e9	0.269439
109	0x3e6d081f	0.23147629
110	0xbec8a30e	-0.391869
111	0x3d57f46b	0.05272333
112	0xbcb26170	-0.021774977
113	0xbe4da17c	-0.20081133
114	0xbe12b728	-0.14327681
115	0x3ebf41a7	0.37354776
116	0x3d03a2de	0.032137744
117	0xbbee8fe1	-0.0072803353
118	0x3e81df7c	0.25365818
119	0xbd9b19ff	-0.07573318
120	0xbec2bceb	-0.38034758
121	0xbdca034d	-0.09863911
122	0xbd3653db	-0.044513565
123	0x3dbee605	0.093212165
124	0x3daa5207	0.08316427
125	0xbe795eb2	-0.2435253
126	0xbe201f18	-0.15636861
127	0xbe83efb3	-0.25768813
128	0x3e07fca4	0.13279969
129	0x3dfb98e4	0.12285021
130	0xbe77dadc	-0.24204582
131	0x3bac82fe	0.005264639
132	0x3dae2f56	0.08505122
133	0xbdb7cbef	-0.08974444
134	0x3ea40193	0.3203245
135	0xbdec11e8	-0.11526853
136	0x3cffa333	0.03120575
137	0xbe0e5ae1	-0.13901855
138	0xbd93696b	-0.07197841
139	0xbd64ebb8	-0.05588886
140	0xbee6c612	-0.4507299
141	0xbeeeaf75	-0.46618238
142	0xbe26c733	-0.16286926
143	0xbf1248dd	-0.5714243
144	0x3d1e6e0c	0.038679168
145	0x3dee8fe1	0.116485365
146	0xbd89dda0	-0.06731725
147	0x3e19e444	0.15028483
148	0x3e8e47f3	0.27789268
149	0x3e65bd54	0.22435504
150	0xbf67b3d6	-0.9050878
151	0x3d1b48eb	0.037911337
152	0x3e85cece	0.26134342
153	0x3d4674fc	0.04845141
154	0xbe9d80a1	-0.307622
155	0xbca78d38	-0.02045308
156	0xbe8938bd	-0.268011
157	0xbf5ec4fb	-0.8701932
158	0xbbbb841e	-0.0057225367
159	0xbf1ce757	-0.61290497
160	0x3e1b51af	0.15167879
161	0x3ee9cd24	0.45664322
162	0x3d8a742d	0.0676044
163	0x3e3e7d26	0.18602428
164	0xbcb338b2	-0.02187762
165	0x3daf0981	0.085467346
166	0x3e64ca8e	0.22342893
167	0xbdb3c3be	-0.08777569
168	0xbc87ae97	-0.016562743
169	0xbdc78367	-0.0974186
170	0xbdc80f9e	-0.09768604
171	0xbd1d0b9e	-0.038341157
172	0xbd0cb78a	-0.034354724
173	0xbe1a8ba5	-0.15092333
174	0x3f220eff	0.6330413
175	0x3cdf2b20	0.027242243
176	0x3e1a333e	0.1505861
177	0xbe57889f	-0.2104821
178	0x3e7e2379	0.24818219
179	0xbeed68fd	-0.46369162
180	0x3e2f11a9	0.1709658
181	0xbf42b2b3	-0.76053923
182	0x3dc6ddf8	0.09710306
183	0xbf8b86a4	-1.0900464
184	0xbe7215b7	-0.23641096
185	0x3e8a29fb	0.26985154
186	0xbe84beff	-0.25926968
187	0xb94a23a1	-0.00019277494
188	0x3e588ccd	0.21147461
189	0xbd8b7e17	-0.06811159
190	0xbe9ac3fc	-0.3022765
191	0xbed2eab7	-0.41194698
192	0x3e0525bb	0.13002674
193	0xbe827c56	-0.25485486
194	0xbd93eadc	-0.0722253
195	0xbeb45ea9	-0.3522847
196	0xbd78355c	-0.060597762
197	0x3cd3e104	0.025864132
198	0xbf063d82	-0.52437603
199	0xbcd216a8	-0.025645569
200	0xbc4de6ab	-0.012567203
201	0xbba6e475	-0.005093152
202	0xbebeda62	-0.37275988
203	0xbe924989	-0.28571728
204	0xbf26bf59	-0.65135723
205	0xbee59e91	-0.4484754
206	0x3d2f698d	0.04282527
207	0xbed228ba	-0.41046697
208	0x3ea62278	0.32448173
209	0xbd002afa	-0.031290986
210	0x3e0a9896	0.1353477
211	0x3e471fbb	0.19445698
212	0xbe69cb0b	-0.22831361
213	0x3d651943	0.055932295
214	0xbd8410c5	-0.06448511
215	0xbde63afc	-0.11241719
216	0xbef7a806	-0.4837038
217	0x3d7b5846	0.06136348
218	0x3e238d52	0.15971878
219	0x3d2b14eb	0.041767996
220	0xbe0b79dd	-0.13620706
221	0x3e712d9a	0.23552552
222	0xbbd3b7d9	-0.0064611253
223	0x3e80efe4	0.25183022
224	0xbd147370	-0.036242902
225	0xbd5b817e	-0.05359029
226	0x3e883035	0.2659928
227	0xbd82caba	-0.06386323
228	0x3d8b7c34	0.06810799
229	0x3e4c9c07	0.19981395
230	0x3dd2a5df	0.10285544
231	0xbe1f3fa4	-0.1555162
232	0xbd8d2920	-0.068926096
233	0xbdc5defe	-0.09661673
234	0x3ea9fef8	0.33202338
235	0x3cc2817e	0.023743387
236	0x3ec04b37	0.37557384
237	0x3e68a8da	0.22720662
238	0xbde6d701	-0.112714775
239	0xbdc66500	-0.09687233
240	0x3dc4e360	0.09613681
241	0xbe8ef09a	-0.2791794
242	0x3e7c9a99	0.2466835
243	0x3edf45ca	0.43607932
244	0x3d3c698c	0.045999095
245	0xbd25fb93	-0.040523123
246	0xbebfe8df	-0.37482354
247	0xbe19e213	-0.15027647
248	0xbecdb43b	-0.40176567
249	0x3dc0cece	0.09414445
250	0x3d90d3fb	0.07071682
251	0xbe306807	-0.17227183
252	0x3e171d8c	0.14757365
253	0xbeab776c	-0.3348955
254	0x3e962a02	0.29328924
255	0x3d07b6dd	0.033133376

fc2.bias f4 [300]
0	0xbdae55e2	-0.085124746
1	0x3b4ca14e	0.0031224075
2	0x3e0baec9	0.13640894
3	0xbe7416a2	-0.23836759
4	0xbe728d1d	-0.23686643
5	0x3a121db1	0.00055738824
6	0x3d09524a	0.033525743
7	0xbde973b4	-0.11399022
8	0x3c873462	0.01650447
9	0xbe758a90	-0.23978639
10	0xbd931517	-0.07181757
11	0xbd5782a3	-0.05261482
12	0x3c7587b6	0.014985969
13	0x3e1b6c48	0.15178025
14	0xbda7ea2f	-0.08198964
15	0xbdcbbe40	-0.09948397
16	0xbb0edc59	-0.0021798818
17	0xbdc3b04c	-0.0955511
18	0xbdfe0b46	-0.12404494
19	0xbe3e0516	-0.18556628
20	0xbc78babe	-0.015181242
21	0x3dc4d1df	0.09610342
22	0xbd795c4a	-0.06087903
23	0xbcc74439	-0.024324523
24	0xbd322e94	-0.04350145
25	0xbd442e3d	-0.04789566
26	0xbdb8d297	-0.09024542
27	0x3d370d46	0.044690393
28	0xbcf6f576	-0.030146342
29	0xbdfd7efe	-0.123777375
30	0xbe58b28a	-0.21161857
31	0xbde451b1	-0.11148394
32	0xbe2dbe54	-0.16967136
33	0xbb0ba204	-0.0021306286
34	0xbde0a79e	-0.109694704
35	0xbe8c641d	-0.2742013
36	0xbea8b753	-0.32952365
37	0xbd9329bb	-0.07185694
38	0x3c7293a6	0.01480571
39	0xbd894ad6	-0.06703727
40	0x3e06c1a4	0.13159806
41	0xbe8f30c1	-0.27966884
42	0xbec5d03f	-0.38635442
43	0xbe725a86	-0.23667344
44	0xbe8c4f75	-0.2740437
45	0xbd1ed1b4	-0.038774207
46	0xbb3f5f57	-0.0029201114
47	0xbe3e931c	-0.18610805
48	0xbde94faa	-0.11392148
49	0xbe00591c	-0.12533993
50	0x3be09e08	0.0068547763
51	0x3d9fcecf	0.078031175
52	0xbe825386	-0.25454348
53	0xbe3b1ed6	-0.18273482
54	0xbda72a79	-0.08162398
55	0x3c934c2c	0.017980658
56	0xbcc17bc8	-0.023618594
57	0xbd9503ae	-0.072760925
58	0xbe0d0b8d	-0.13773938
59	0xbe0e866a	-0.13918462
60	0xbd2f63a9	-0.042819653
61	0xbe28b962	-0.16476968
62	0xbae780e1	-0.001766231
63	0xbd88ab7e	-0.066733345
64	0x3d77fd28	0.060544163
65	0xbe08b304	-0.13349539
66	0x3c08fc32	0.008360909
67	0x3d90cac8	0.070699275
68	0xbe814ccb	-0.252539
69	0xbd2551e4	-0.0403613
70	0xbd8f4e73	-0.06997385
71	0xbe434b64	-0.19071728
72	0xbc869eac	-0.016433083
73	0xbbb87213	-0.005628833
74	0xbe33a161	-0.1754203
75	0xbe2e39c2	-0.1701422
76	0xbe9dc258	-0.30812335
77	0x3daa312b	0.08310159
78	0xbddee88f	-0.10884201
79	0xbe463952	-0.19357803
80	0xbe2b143b	-0.16706936
81	0x3d05f404	0.032703415
82	0xbe678f06	-0.22613153
83	0xbe01cd0a	-0.12675872
84	0xbd9bb50f	-0.076028936
85	0xbc9412a4	-0.018075295
86	0x3e1ea4c4	0.1549254
87	0x3d58d8e8	0.052941233
88	0xbd854b1e	-0.06508468
89	0xbe49d20c	-0.19709033
90	0xbe955b38	-0.29171157
91	0xbc51e7bc	-0.012811597
92	0xbe2df02b	-0.16986148
93	0xbdfb9b0e	-0.12285434
94	0xbe8e8548	-0.2783606
95	0xb7f4d53a	-2.9186358e-05
96	0xbe819f8a	-0.2531703
97	0xbe4be08c	-0.19909877
98	0xbd4b770a	-0.04967407
99	0xbe23f66d	-0.16011973
100	0xbaba6520	-0.0014220811
101	0xbe8a4676	-0.27006882
102	0xbdbfab3c	-0.09358832
103	0xbdf3534c	-0.11881122
104	0x3db1da62	0.08684231
105	0xbe35fdf0	-0.1777265
106	0xbe5f1eb6	-0.21789059
107	0x3e15081b	0.14553873
108	0xbae7d8f2	-0.0017688556
109	0xbe95054b	-0.291056
110	0xbe18ad56	-0.14909872
111	0xbdf062e4	-0.11737612
112	0xbe733ddc	-0.23754066
113	0xbe9f5e59	-0.3112667
114	0xbd754b13	-0.05988605
115	0x3d5c985e	0.053856246
116	0xbdf694ef	-0.120401256
117	0xbd738e31	-0.059461776
118	0x3b4236b2	0.0029634652
119	0x3d21f5ad	0.039540935
120	0xbd7b7e8e	-0.06139999
121	0xbdbb899f	-0.091571085
122	0xbbd173cb	-0.0063919774
123	0xbdb5913e	-0.088655934
124	0x3e0c4f73	0.13702182
125	0xbdde16c0	-0.10844183
126	0xbe1e221f	-0.15442704
127	0xbd3b14d3	-0.045674156
128	0xbd545c65	-0.051845927
129	0x3b3c198c	0.002870175
130	0xbe1588b8	-0.14602935
131	0xbdbab5f2	-0.091167346
132	0xbeaec7ae	-0.3413672
133	0xbddd0acd	-0.10793076
134	0xbda3ad05	-0.07991985
135	0x3d4e4c5d	0.050365794
136	0xbdb4b44b	-0.08823451
137	0x3c0f7520	0.008755952
138	0xbe82b6bd	-0.25530043
139	0xbea95838	-0.33075118
140	0xbe36e2fd	-0.17860027
141	0xbe8b8f16	-0.27257603
142	0xbdab1ecb	-0.08355483
143	0xbe02a188	-0.12756932
144	0xbec47295	-0.3836867
145	0xbddb5197	-0.107089214
146	0xbd9cb310	-0.07651341
147	0xbe4d9dc2	-0.20079711
148	0xbd26e5f2	-0.040746637
149	0xbe68ba1f	-0.2272725
150	0x3d00370e	0.031302504
151	0xbe3837d7	-0.17990051
152	0x3c41a2fb	0.011818643
153	0xbdd246eb	-0.10267433
154	0xbd69f6f7	-0.05712029
155	0xbe15fb2f	-0.146466
156	0xbe8965b5	-0.2683541
157	0xbe441f24	-0.19152504
158	0xbd811bbf	-0.0630412
159	0xbdf64a7f	-0.12025928
160	0xbdec4649	-0.11536843
161	0xbe9e8574	-0.30961192
162	0xbcc082ae	-0.023499813
163	0xbd6e3659	-0.0581573
164	0xbe95d717	-0.29265663
165	0xbe2f5d3f	-0.17125414
166	0x3e580093	0.21093969
167	0xbdb43cea	-0.08800681
168	0xbe09eb96	-0.13468775
169	0xbe09e925	-0.13467844
170	0xbec9429f	-0.3930864
171	0xbe1c7fb2	-0.15283087
172	0xbc853689	-0.016261356
173	0x3d336337	0.04379579
174	0xbe193158	-0.1496023
175	0xbd1895c8	-0.037252218
176	0xbe62d197	-0.22150265
177	0xbdc5f679	-0.096661516
178	0x3bc8adfc	0.006124256
179	0xbd7b32d2	-0.061327763
180	0xbda184cc	-0.07886657
181	0xbe9b3359	-0.30312613
182	0xbbafab44	-0.0053609926
183	0xbd57d8ca	-0.05269698
184	0xbda2b81c	-0.07945272
185	0xbe6872dc	-0.22700065
186	0xbe8f7ca8	-0.28024793
187	0xbe143244	-0.144723
188	0xbdf8345d	-0.121193625
189	0xbd8f3995	-0.06993405
190	0xbeb67403	-0.35635385
191	0xbe8b9a5a	-0.27266198
192	0xbe371cd4	-0.17882091
193	0xbd467f26	-0.048461102
194	0xbe468d46	-0.19389829
195	0x3ac88525	0.0015298469
196	0xbe30e565	-0.17275007
197	0xbd885b68	-0.06658059
198	0x3d19e3b5	0.037570674
199	0xbdc474ea	-0.09592612
200	0xbe9d517c	-0.3072623
201	0x3e059fbc	0.13049215
202	0x3ca3c5ba	0.019991744
203	0xbe8c5994	-0.27412093
204	0xbe3ba511	-0.18324687
205	0xbe14e9c0	-0.14542294
206	0x3bd14608	0.006386522
207	0xbe26452b	-0.16237323
208	0x3ce5c18b	0.02804639
209	0x3cb04805	0.021518717
210	0x3d36f6fa	0.04466913
211	0xbe361d56	-0.17784628
212	0xbdcb85a0	-0.09937596
213	0xbe86a87e	-0.26300424
214	0xbb713da2	-0.0036810418
215	0xbe87037c	-0.26369846
216	0x3d891713	0.06693854
217	0xbdd56dec	-0.104213566
218	0xbc9959c8	-0.018719569
219	0xbee819a4	-0.45332062
220	0xbd4137f4	-0.0471725
221	0xbcb391e9	-0.021920161
222	0x3e19fc76	0.15037712
223	0x3c947cd9	0.018125938
224	0xbdc9e4bc	-0.09858081
225	0xbb40d60c	-0.0029424457
226	0x3d56c086	0.0524297
227	0x3dc49cc5	0.09600214
228	0xbdf06a23	-0.11738994
229	0xbe3c7125	-0.18402536
230	0x3b8cc794	0.0042962525
231	0xbddd4a88	-0.10805231
232	0xbe41600e	-0.18884298
233	0xbe600339	-0.2187623
234	0xbdd7deee	-0.10540567
235	0x3dcbe402	0.099555984
236	0xbe1a1bb3	-0.15049629
237	0xbe84f9f2	-0.25971943
238	0xbdf6a38f	-0.12042915
239	0x3c14b9f7	0.009077541
240	0xbdf7f000	-0.12106323
241	0xbdeb5b09	-0.11491973
242	0xbdb7f172	-0.08981599
243	0xbe2eda6d	-0.1707551
244	0xbe4d6a15	-0.20059998
245	0xbd5bca2a	-0.053659596
246	0xbe7c61d7	-0.24646698
247	0xba1a204b	-0.0005879446
248	0xbe1964dd	-0.14979883
249	0xbe598783	-0.212431
250	0xbe32121c	-0.1738972
251	0x3cb0de4e	0.021590378
252	0xbd22738d	-0.03966098
253	0xbd5e849b	-0.05432568
254	0x3d6ee39b	0.05832253
255	0xbb456b0e	-0.0030123624

fc3.weight f4 [2, 300]
0	0xbebb23c0	-0.36550713
1	0xbe4b3f82	-0.19848445
2	0x3dc627a9	0.09675533
3	0x3c972257	0.018448992
4	0x3f05f6dc	0.523298
5	0xc1017d48	-8.093086
6	0xbe5d964f	-0.2163937
7	0x3e29ce28	0.16582549
8	0xc0089b94	-2.1344957
9	0xc0baca93	-5.8372283
10	0x3fecbba6	1.8494766
11	0x40003669	2.003321
12	0xbe41b795	-0.18917687
13	0x3ec7a7b4	0.38995135
14	0xbc18c3ca	-0.0093240235
15	0xbe3905f6	-0.1806868
16	0xbebf55a7	-0.37370035
17	0x3b9301c8	0.0044862963
18	0x3f86fd3e	1.0546033
19	0x3f5cea31	0.8629485
20	0xbe887399	-0.26650694
21	0xbd85d45d	-0.06534646
22	0xbd5ac21b	-0.05340777
23	0xbeea7f08	-0.45800042
24	0xbeaac21b	-0.33351216
25	0xbe6e877d	-0.23293872
26	0xbf2eb0c7	-0.6823849
27	0x3e40cd13	0.1882823
28	0xbf0632f5	-0.52421504
29	0x40225dbb	2.5369709
30	0x3d20dd35	0.03927346
31	0xbe4755e2	-0.19466355
32	0xbd575804	-0.052574173
33	0xbc8db77f	-0.017299412
34	0xbd7c3dff	-0.06158256
35	0x3f4c5811	0.7982188
36	0xbd90c654	-0.07069078
37	0x3f69f6c5	0.91392165
38	0xbdcaf0ee	-0.09909235
39	0x3f2cd715	0.6751569
40	0xbd986128	-0.07440406
41	0x3fa9bae0	1.3260155
42	0x3c51e470	0.012810811
43	0x3f90cc3d	1.1312329
44	0xbcc0ab29	-0.023519116
45	0xbe70b6c2	-0.23507217
46	0x3e42453a	0.1897172
47	0xbf8007b2	-1.0002348
48	0x3bf679bd	0.0075218366
49	0xbf149deb	-0.58053464
50	0x3a3c7882	0.0007189588
51	0xbb09fb58	-0.0021054354
52	0x3e4cfe57	0.20018898
53	0xbdd452cf	-0.10367357
54	0xbe8da043	-0.27661332
55	0x3f00892f	0.50209326
56	0xbf472384	-0.7778857
57	0x3cd3f43a	0.025873292
58	0x3e4db56b	0.20088737
59	0xbfb32920	-1.3996925
60	0x3d3ee138	0.046601504
61	0x3fd8ad65	1.6927916
62	0xbf677c88	-0.90424395
63	0x3efbcaca	0.49178153
64	0x3ea3e660	0.320117
65	0xbf937e8f	-1.1522998
66	0x3da77400	0.08176422
67	0xbe3971ba	-0.1810979
68	0xbeaa712e	-0.33289474
69	0xbd2165b0	-0.039403617
70	0xbea4f555	-0.32218423
71	0xbf6511a9	-0.8948007
72	0x3ba63ff4	0.005073542
73	0xbeb8aa49	-0.36067417
74	0x3e434f2f	0.19073175
75	0xbe46c291	-0.19410159
76	0x3ea1d11e	0.31604856
77	0xc008f1b3	-2.1397521
78	0xbd9dfe04	-0.07714465
79	0x3ff1a402	1.8878176
80	0xbf297386	-0.661919
81	0xbf1adc5c	-0.6049249
82	0xbea11ac0	-0.3146572
83	0x3ef582ab	0.47951254
84	0x3ca53fdd	0.020172054
85	0xbd20d1c7	-0.03926256
86	0xbcd8037b	-0.026368847
87	0xbe0e254c	-0.13881415
88	0x3c1fc2b5	0.009751012
89	0x3d071a04	0.032983795
90	0x4007ca30	2.1217155
91	0xbf856164	-1.0420346
92	0xbda8d427	-0.0824359
93	0xbead7d15	-0.33884493
94	0xbd752821	-0.059852723
95	0xbea116b6	-0.3146264
96	0x3f1f555e	0.62239635
97	0x3f0a2c98	0.53974295
98	0x3ed77afc	0.42086017
99	0x3d75cacc	0.060007855
100	0xbd95f4ac	-0.07322058
101	0x3dc3ef78	0.095671594
102	0x3d45f9da	0.04833398
103	0x3e2db6a5	0.16964205
104	0xbe90afef	-0.28259227
105	0x3cb527e2	0.022113744
106	0xbe007aa3	-0.12546782
107	0xbddb0f1a	-0.1069624
108	0x3efcee66	0.49400634
109	0xbde48c48	-0.11159569
110	0xc0099535	-2.1497319
111	0xbb927e05	-0.004470589
112	0xbeb594e0	-0.35465145
113	0xc0122f2a	-2.2841287
114	0x3c5010f2	0.012699353
115	0xbd4d93f8	-0.050189942
116	0x3f15b798	0.58483267
117	0xbeda015a	-0.42579156
118	0x3d52f468	0.051502615
119	0xbe4247b9	-0.18972673
120	0xbe41ac6d	-0.18913431
121	0x3e571076	0.21002373
122	0x3ff86fd7	1.9409131
123	0x3f01c9b3	0.50698394
124	0x3e3fcbb4	0.1873005
125	0x3e90af32	0.28258663
126	0xc06f324a	-3.7374444
127	0xbfa3333f	-1.2750014
128	0xbce2a620	-0.027667105
129	0x3e76763c	0.2406854
130	0x3f702d99	0.93819577
131	0xbe831c82	-0.25607687
132	0xbf26a0c9	-0.6508909
133	0x3f848f56	1.0356243
134	0x3f08dd30	0.53462505
135	0x3f2e2b74	0.68035054
136	0x3d053d78	0.032529324
137	0xc023f97d	-2.5621026
138	0x3fb3ae14	1.40375
139	0xbd631ea7	-0.055449154
140	0xbe8a73f7	-0.270416
141	0x3f2c7048	0.6735883
142	0x3e90fd11	0.28318074
143	0xbeefb9c0	-0.46821404
144	0x3fadbb16	1.3572719
145	0x3e19303a	0.14959803
146	0xbda7dd95	-0.0819656
147	0xbf5b3823	-0.8563253
148	0xbd1523cf	-0.036411103
149	0xbfb8a4ab	-1.4425253
150	0x3b985570	0.004648857
151	0x3e840a2f	0.2578902
152	0x3e80619b	0.25074467
153	0xbe83040e	-0.2558903
154	0xbf49ed1c	-0.78877425
155	0xbc61e702	-0.013787987
156	0x400c798a	2.1949182
157	0xbec13008	-0.37731957
158	0x3e823249	0.2542899
159	0x3ef87af1	0.48531297
160	0xbc8eb229	-0.017418938
161	0xbf737c42	-0.9511148
162	0x3e19806b	0.14990394
163	0xbd8dcd86	-0.06923966
164	0xbd392e31	-0.045210067
165	0xbfdfbbc2	-1.7479174
166	0xbb494383	-0.0030710406
167	0xbf311aa4	-0.69181275
168	0xbdce4847	-0.100723796
169	0xbe26d530	-0.16292262
170	0xbf708552	-0.9395343
171	0x3d70c7aa	0.058784164
172	0xbeb444b2	-0.3520866
173	0xbec174b1	-0.3778434
174	0xbe872e0f	-0.26402327
175	0x3ea72c0c	0.32650793
176	0x3c263311	0.010144011
177	0xbf211877	-0.62927955
178	0xbe89f497	-0.2694442
179	0xbdf9d8f9	-0.121995874
180	0x3eed9b6d	0.46407643
181	0xba17d6f2	-0.0005792222
182	0x3c18fd16	0.009337684
183	0x3f0966e9	0.53672653
184	0xbecc8b6b	-0.39950117
185	0xbdd29350	-0.10282004
186	0xbd99c35f	-0.07507967
187	0x3e82d7a0	0.25555134
188	0xbee6f87f	-0.45111462
189	0x3d69213f	0.05691647
190	0xbe98eab3	-0.2986656
191	0x3fe8d778	1.8190756
192	0x3ddc82df	0.10767149
193	0x3d84c0cc	0.064820856
194	0x3f17385e	0.59070385
195	0x3c8f5825	0.017498085
196	0xbda5cf43	-0.08096173
197	0xbe1c000a	-0.1523439
198	0xbe660301	-0.22462083
199	0xbed0fab7	-0.4081628
200	0xbf596713	-0.84922904
201	0x405528e4	3.3306208
202	0x3eba490b	0.36383852
203	0x3f51bf38	0.819324
204	0x402636f1	2.5971034
205	0xbfef787e	-1.8708646
206	0xbfd215bd	-1.6412884
207	0xbe3ccf8e	-0.18438551
208	0x3dc5f8c1	0.09666587
209	0xbe4f5f07	-0.20251094
210	0xbf66805f	-0.9003963
211	0x3d65472d	0.05597608
212	0xc0316f44	-2.772416
213	0xbf14c13c	-0.5810735
214	0xbded3d0e	-0.11583911
215	0x3fb53a37	1.4158391
216	0x3f27b464	0.6550963
217	0xbc8010ef	-0.015633075
218	0x40041348	2.0636768
219	0xbe09e4fb	-0.13466255
220	0xbd82bd48	-0.06383759
221	0x3e9baa4e	0.3040337
222	0xbe74f462	-0.2392135
223	0xbe23c628	-0.1599356
224	0xbf2d880b	-0.6778571
225	0x3d93551b	0.07193967
226	0xbe0c1b90	-0.1368239
227	0x3e3e92ce	0.18610689
228	0x3ff3c8f7	1.9045705
229	0x3e817a44	0.25288594
230	0x3ea810e1	0.32825378
231	0xbfc3ef77	-1.5307454
232	0x3e15ac3c	0.14616483
233	0x3e357021	0.17718555
234	0xc02a8d63	-2.6648796
235	0x3dbfdd97	0.09368437
236	0xbe32ea8e	-0.17472288
237	0xbf1b71cd	-0.6072052
238	0x3e697aa6	0.22800693
239	0x3fcd9ab8	1.6062841
240	0xbd6e6fcb	-0.058212083
241	0x3d7d131e	0.06178581
242	0xbf15aada	-0.58463824
243	0xbd2915c9	-0.04128054
244	0xbe806074	-0.25073588
245	0xbe80b643	-0.25139055
246	0x4028e240	2.6388092
247	0xbf10a5a3	-0.5650274
248	0xc079d90e	-3.903873
249	0x3f546ecf	0.8298158
250	0x3e2f3b26	0.17112407
251	0x3f9a9999	1.2078124
252	0x3bd26695	0.00642092
253	0x3b10c134	0.0022087814
254	0x3e3175ea	0.17330137
255	0x3e9426bf	0.2893581

fc3.bias f4 [2]
0	0x3c846dd6	0.016165655
1	0x3e857f9e	0.26073927
