Tennis/Nets/checkpoint_critic1100.pth (torch_old, 526870 bytes, 9 tensors)

bn1.weight f4 [24]
0.4286315 0.4433056 0.2635394 0.26740634 0.9080088 0.68755484 0.236713 0.049260423
0.27830446 0.09715136 0.3209061 0.18403544 0.60838884 0.83392024 0.2846839 0.27616668
0.4835083 0.15549542 0.18375823 0.57580554 0.48775303 0.63890594 0.34925458 0.38794315
00000000: 9775 db3e f4f8 e23e a3ee 863e 7ce9 883e
00000010: 4473 683f 9803 303f e564 723e 4cc5 493d
00000020: ec7d 8e3e 4bf7 c63d ce4d a43e c973 3c3e
00000030: 5fbf 1b3f cc7b 553f 17c2 913e b865 8d3e
00000040: 668e f73e 313a 1f3e 1e2b 3c3e fe67 133f
00000050: c4ba f93e 578f 233f 7fd1 b23e 7ca0 c63e

bn1.bias f4 [24]
-0.07610111 -0.04752992 -0.013793031 -0.12674448 0.08226504 -0.102903195 0.008227221 -0.21854454
-0.0730535 0.079018675 -0.073294766 -0.033100516 0.04937004 -0.09103103 0.029212875 -0.082152575
-0.04654196 0.077201664 0.062525205 -0.05371631 0.10380632 -0.03078642 -0.07011051 -0.12241607
00000000: e6da 9bbd bcae 42bd 2afc 61bc 4ec9 01be
00000010: 937a a83d e9be d2bd 77cb 063c 24ca 5fbe
00000020: 139d 95bd 8bd4 a13d 911b 96bd 6894 07bd
00000030: 3d38 4a3d 7a6e babd d74f ef3c 9c3f a8bd
00000040: c8a2 3ebd e81b 9e3d 370d 803d a205 5cbd
00000050: 6898 d43d cd33 fcbc 1996 8fbd 47b5 fabd

bn1.running_mean f4 [24]
-5.659477 -0.93720317 4.3888855 0.4040582 0.062803224 3.1513464 4.3888855 0.4040582
-6.108542 -0.98561215 4.6730046 0.48145232 0.032976743 3.1512008 4.6730046 0.48145232
-6.4973326 -1.0118513 5.079405 0.57891923 -0.017417016 3.0556386 5.079405 0.57891923
00000000: 701a b5c0 8cec 6fbf c071 8c40 b7e0 ce3e
00000010: fa9e 803d a9af 4940 c071 8c40 b7e0 ce3e
00000020: 2d79 c3c0 1451 7cbf 4189 9540 eb80 f63e
00000030: 9f12 073d 46ad 4940 4189 9540 eb80 f63e
00000040: 26ea cfc0 5884 81bf 7c8a a240 0d34 143f
00000050: 21ae 8ebc 958f 4340 7c8a a240 0d34 143f

bn1.running_var f4 [24]
19.070398 0.9579922 311.32855 6.04015 42.91301 4.99114 311.32855 6.04015
17.83668 0.9654154 331.6612 7.06454 47.427773 5.443693 331.6612 7.06454
16.563093 0.98053885 355.8508 7.9169965 51.824226 6.3983088 355.8508 7.9169965
00000000: 2d90 9841 fa3e 753f 0eaa 9b43 e948 c140
00000010: eca6 2b42 6bb7 9f40 0eaa 9b43 e948 c140
00000020: 85b1 8e41 7725 773f a2d4 a543 b610 e240
00000030: 0ab6 3d42 bc32 ae40 a2d4 a543 b610 e240
00000040: 3781 8441 9804 7b3f e7ec b143 0958 fd40
00000050: 024c 4f42 f2be cc40 e7ec b143 0958 fd40

fcs1.weight f4 [400, 24]
0.058457386 -0.12305354 0.009644489 0.02450224 -0.16391745 0.10757295 0.011252166 0.048312593
0.005897745 -0.117229976 -0.1133173 0.020331988 -0.07497039 0.072575286 -0.14619419 0.07267456
0.0017189668 -0.081127755 -0.0256842 -0.036358118 0.13070875 0.19744428 0.07918681 -0.038881715
-0.067946464 0.19352755 0.045435328 -0.030536233 0.15845694 -0.07481998 0.006492886 0.0033374806
-0.043102108 0.06167021 0.065935075 -0.013617938 0.2568634 0.033419542 0.024017991 0.013561545
0.03304044 0.1397139 -0.03554574 0.06167976 0.22662494 0.46189752 -0.04742921 0.040726595
0.040953454 0.035772216 0.030753156 0.21511802 0.037237268 -0.33061796 0.09038711 0.081966065
-0.017852677 0.009897325 -0.0403697 0.13433988 0.04418793 0.17277192 0.03502097 0.11296748
-0.05382299 0.09655409 -0.052386474 0.10302649 -0.13496253 0.4541263 -0.09121402 0.15108997
0.07255012 0.0506785 -0.15491816 0.048599843 0.058718972 -0.06169428 -0.18893999 0.115761206
0.02570068 -0.02499626 -0.064127 0.03576314 0.088637315 -0.0031237744 -0.009687562 -0.010933549
-0.01903477 0.0068021705 -0.12128459 -0.037418753 0.19441576 0.105883256 -0.0794368 0.014654347
-0.101362295 -0.008474035 -0.0006698778 -0.010909111 0.12024891 0.004301343 -0.025915202 0.154096
-0.123098925 -0.10136551 0.0041147918 -0.0190699 0.11846649 0.005068001 -0.034109563 0.020946333
-0.18404193 -0.023453219 -0.27963513 0.030908175 0.017732332 0.15301813 -0.10992682 0.0058638616
-0.040651657 -0.1507166 0.069310956 0.061822195 -0.05700161 -0.009313669 0.043764282 0.069834605
-0.027098037 -0.1396511 0.009098829 0.022909489 0.013802261 0.062224235 0.0027726986 0.022712983
-0.050012525 -0.06415996 -0.050739385 0.011160417 0.097093694 0.13594866 -0.037903633 0.0861546
0.009330244 -0.07153464 0.025310347 0.07071919 -0.10036881 -0.081183806 0.046242166 0.036768354
0.0083577065 0.034079805 -0.022293637 0.11389472 -0.051916018 -0.09432193 -0.013252924 0.032112066
0.04925707 0.049904164 -0.016543264 0.16847852 0.0950849 0.013335931 0.055956095 0.1799446
0.07493241 0.13483955 -0.040944155 -0.13870586 -0.05743492 0.10771832 -0.10441704 0.087238155
-0.04386479 -0.009478689 -0.023296548 0.0027961335 0.0048999153 0.051132355 -0.03952067 -0.06620504
-0.10447919 -0.08328169 -0.043074638 -0.040985502 -0.23619351 0.14654163 -0.07431201 0.0054723443
0.04695899 0.04642464 0.009987263 -0.0652593 -0.058528457 0.04561316 -0.0160154 0.08943453
0.036072593 -0.0015222954 -0.1520104 0.009592484 0.020467138 0.046928648 -0.12853752 -0.018068686
0.008701283 0.05818102 -0.06137883 0.03272367 0.103263125 0.13655904 -0.024938555 0.07549255
-0.034714207 -0.04743062 -0.008506445 0.03766554 0.09472094 0.10759078 -0.035638507 0.063022345
0.003073215 -0.13274463 0.036798194 0.069032714 -0.044335794 0.08332339 0.009072366 0.07664484
-0.03542614 -0.13552894 -0.020645324 -0.054861233 -0.14972295 -0.028139615 -0.008172467 -0.03633282
-0.11338062 -0.052693695 -0.039562758 0.018380044 0.0066543426 -0.054059155 -0.017502053 0.06889557
-0.087121375 -0.038363636 -0.007537569 0.056512866 0.053541385 -0.024697356 0.03853726 0.086568005
00000000: 0371 6f3d 7f03 fcbd eb03 1e3c ecb8 c83c
00000010: fad9 27be 354f dc3d 015b 383c 6de3 453d
00000020: df41 c13b 4516 f0bd e712 e8bd 458f a63c
00000030: 138a 99bd 5aa2 943d eeb3 15be 66d6 943d
00000040: f44e e13a 4f26 a6bd ac67 d2bc 40ec 14bd
00000050: 84d8 053e d52e 4a3e b22c a23d 6f42 1fbd
00000060: 8427 8bbd 162c 463e 651a 3a3d 1f27 fabc
00000070: 8942 223e 383b 99bd 47c2 d43b a2b9 5a3b
00000080: d68b 30bd e799 7c3d f808 873d c61d 5fbc
00000090: 9983 833e eee2 083d 61c1 c43c 3e31 5e3c
000000a0: 6a55 073d 2911 0f3e 6998 11bd eba3 7c3d
000000b0: 5e10 683e d57d ec3e 2245 42bd eed0 263d
000000c0: cfbe 273d e385 123d 0bee fb3c e647 5c3e
000000d0: 1b86 183d c246 a9be e11c b93d d3dd a73d
000000e0: c73f 92bc 6428 223c b35a 25bd 6590 093e
000000f0: 67fe 343d 1feb 303e 2672 0f3d 7f5b e73d
00000100: 7f75 5cbd 27be c53d 3393 56bd 8dff d23d
00000110: 9e33 0abe 3e83 e83e 6bce babd 54b7 1a3e
00000120: 2895 943d 4294 4f3d dea2 1ebe a110 473d
00000130: 4e83 703d 24b3 7cbd 7c79 41be 3614 ed3d
00000140: 3c8a d23c f5c4 ccbc 0455 83bd 5f7c 123d
00000150: 7b87 b53d 3db8 4cbb 94b8 1ebc a122 33bc
00000160: ceee 9bbc bee4 de3b 0e64 f8bd 6844 19bd
00000170: ed14 473e 52d9 d83d c3af a2bd c918 703c
00000180: 0997 cfbd aed6 0abc bd9a 2fba 21bc 32bc
00000190: 0f45 f63d 48f2 8c3b 1e4c d4bc 58cb 1d3e
000001a0: 4a1b fcbd b898 cfbd 60d5 863b 7b38 9cbc
000001b0: 8f9e f23d 7911 a63b 78b6 0bbd a597 ab3c
000001c0: 7d75 3cbe f720 c0bc 562c 8fbe 2433 fd3c
000001d0: 6543 913c c9b0 1c3e 5021 e1bd a325 c03b
000001e0: 5a82 26bd 7455 1abe e7f2 8d3d 4539 7d3d
000001f0: 857a 69bd 5c98 18bc 2d42 333d 7205 8f3d
00000200: b4fc ddbc b300 0fbe 4113 153c aeac bb3c
00000210: e122 623c d7de 7e3d 2ab6 353b 9410 ba3c
00000220: efd9 4cbd 4c66 83bd 1ad4 4fbd 2fda 363c
00000230: 0fd9 c63d 2036 0b3e d740 1bbd d371 b03d
00000240: e1dd 183c c180 92bd a557 cf3c 39d5 903d
00000250: 2a8e cdbd b243 a6bd 6d68 3d3d 6a9a 163d
00000260: c3ee 083c 4497 0b3d 25a1 b6bc a341 e93d
00000270: e4a5 54bd db2b c1bd cb22 59bc f187 033d
00000280: c8c1 493d 4f68 4c3d bd85 87bc a285 2c3e
00000290: dfbb c23d f37e 5a3c 3832 653d 6643 383e
000002a0: 2a76 993d 6113 0a3e 0fb5 27bd e908 0ebe
000002b0: e140 6bbd 6c9b dc3d 9ad8 d5bd eba9 b23d
000002c0: 91ab 33bd 814c 1bbc 67d8 bebc 563f 373b
000002d0: 788f a03b 2970 513d 6de0 21bd 8296 87bd
000002e0: 30f9 d5bd 978f aabd 086f 30bd 6ae0 27bd
000002f0: b6dc 71be 020f 163e e530 98bd 5a51 b33b
00000300: 1258 403d c327 3e3d 9ea1 233c aba6 85bd
00000310: 89bb 6fbd ddd4 3a3d ba32 83bc 7329 b73d
00000320: dbc0 133d c287 c7ba 9da8 1bbe cb29 1d3c
00000330: b3aa a73c 4138 403d 579f 03be c804 94bc
00000340: d38f 0e3c 394f 6e3d 5e68 7bbd 4109 063d
00000350: 9e7b d33d 22d6 0b3e f14b ccbc d79b 9a3d
00000360: 7c30 0ebd 9c46 42bd 9e5e 0bbc 2e47 1a3d
00000370: 0dfd c13d 8e58 dc3d aff9 11bd dc11 813d
00000380: fe67 493b 35ee 07be b4b9 163d 0661 8d3d
00000390: 7399 35bd 74a5 aa3d 43a4 143c f8f7 9c3d
000003a0: 001b 11bd 19c8 0abe 6220 a9bc 2cb6 60bd
000003b0: f950 19be 0d85 e6bc d0e5 05bc b9d1 14bd
000003c0: 1934 e8bd 58d5 57bd 8f0c 22bd bf91 963c
000003d0: ac0c da3b 226d 5dbd 7760 8fbc 1f19 8d3d
000003e0: b16c b2bd 3023 1dbd b6fd f6bb 097a 673d
000003f0: 364e 5b3d 1c52 cabc 3fd9 1d3d 914a b13d

fcs1.bias f4 [400]
0.003994435 -0.13666031 -0.061182633 -0.18649724 -0.26953772 -0.021758871 -0.14963546 0.026904458
-0.025643762 0.105371185 -0.17319858 -0.23113535 0.10467251 -0.21043064 -0.21967039 -0.21055152
-0.052566938 -0.2445821 0.059135687 -0.0045730225 -0.14213541 -0.18179987 0.0707049 0.08246857
0.03430262 0.05897148 0.0074715796 0.01786369 -0.13831231 -0.29650545 0.0068427315 0.0638157
-0.12560698 -0.20169064 0.04645101 -0.24419636 -0.05695042 -0.2931249 -0.22897644 0.016757723
0.024329053 -0.09867086 -0.020222425 0.04219862 -0.14287746 0.089802854 0.085509114 0.062359877
0.0096293595 -0.025295861 -0.15195678 -0.123491384 -0.1914766 0.0021264565 -0.04779178 0.06227271
0.058604844 -0.15475751 -0.05817639 0.056403775 -0.19491379 0.07032998 -0.10641845 -0.35241526
-0.18759015 -0.01960463 -0.317048 -0.07760996 0.10706339 -0.035290867 -0.11371943 -0.032966554
-0.006416203 0.09227635 0.03264949 -0.25961506 0.062941544 -0.0593752 -0.10138993 -0.27867272
0.065028645 -0.05285777 0.012437177 0.0865265 -0.22391605 0.08658212 -0.08266493 -0.20112585
-0.28375432 -0.056033604 -0.2969775 -0.27680552 -0.12089129 0.028014643 -0.15204512 -0.287684
-0.11406864 -0.15375632 -0.24235979 -0.20514415 -0.14734463 -0.18335366 0.028591627 -0.019398076
-0.13325584 -0.18980037 0.08183656 -0.041021515 -0.16878404 -0.055732436 0.07395987 -0.043529976
-0.07277685 -0.104904175 -0.027494436 -0.22215477 0.006142365 -0.32020435 -0.26656175 -0.17336848
-0.22380696 0.043403335 -0.26607493 0.004478433 -0.087868966 -0.21242784 0.092612036 -0.07625528
-0.13550957 -0.33174282 -0.15073305 -0.1541249 0.019195428 -0.07396022 0.030724192 -0.11031143
-0.15050556 -0.09152481 -0.29658493 -0.052803952 0.017111206 0.0048087486 -0.12967661 -0.2796133
-0.0025506567 -0.058892835 -0.22342922 -0.08259057 0.039327636 -0.110026 -0.26703614 -0.12858588
-0.04283878 -0.066016816 -0.18461865 -0.19744417 -0.063651755 -0.18618315 -0.32716995 -0.21004349
-0.013331814 0.13892382 -0.2487747 -0.15567729 -0.22072755 -0.1652427 0.097465836 -0.32079098
0.0479003 -0.046378866 -0.13419217 0.0129882805 -0.23152392 -0.19492969 -0.27706367 -0.08447377
-0.054574765 -0.11340349 0.011547755 0.10513312 0.0058478345 -0.22118506 0.09246728 -0.117457174
0.07024187 0.083929256 0.068669684 -0.16953976 0.07456279 -0.00086331915 -0.27743444 -0.23552117
-0.11464392 0.019293526 -0.29693565 0.060215037 -0.34177908 0.0066013183 -0.16067876 -0.05984059
-0.0074209333 -0.10313364 -0.20443057 -0.16679427 -0.030070974 -0.15286313 -0.24952397 -0.24231319
-0.08173876 0.073673844 -0.021203637 0.056321844 -0.0256043 -0.19113685 0.092943594 0.045689814
0.17808752 -0.12024002 -0.008544941 -0.060574405 -0.029249465 0.06452685 0.056248903 0.12517072
-0.12930956 -0.20397756 -0.30785745 -0.24314682 -0.40634015 0.06985492 0.0018693298 -0.09988011
-0.32410228 -0.058462914 -0.22097345 0.053946685 0.036498193 -0.09357081 -0.058060367 0.03426391
0.04125212 -0.2799266 -0.13709842 -0.09989916 0.055555128 -0.21738848 -0.036972042 0.0033813734
-0.2745094 0.03287204 0.14348449 -0.16524513 -0.012363548 -0.14214358 -0.09678053 -0.27666116
00000000: c0e3 823b aef0 0bbe a49a 7abd 22f9 3ebe
00000010: d900 8abe a93f b2bc 0a3a 19be bd66 dc3c
00000020: de12 d2bc d9cc d73d f85a 31be bfae 6cbe
00000030: 8a5e d63d 217b 57be 46f1 60be d19a 57be
00000040: 6e50 57bd bb73 7abe 4338 723d 4bd9 95bb
00000050: f28b 11be bf29 3abe bbcd 903d 48e5 a83d
00000060: e780 0c3d 148c 713d 27d4 f43b e056 923c
00000070: bea1 0dbe 90cf 97be fe38 e03b ceb1 823d
00000080: 1e9f 00be fe87 4ebe 6a43 3e3d 9c0e 7abe
00000090: d844 69bd 7814 96be cd78 6abe 7e47 893c
000000a0: b94d c73c f313 cabd 80a9 a5bc 76d8 2c3d
000000b0: 784e 12be 8fea b73d 671f af3d 126d 7f3d
000000c0: 76c4 1d3c 4439 cfbc 8f9a 1bbe 0de9 fcbd
000000d0: 7112 44be 055c 0b3b 50c1 43bd ab11 7f3d
000000e0: a20b 703d c178 1ebe 5e4a 6ebd a507 673d
000000f0: 7b97 47be 2a09 903d ebf1 d9bd c66f b4be
00000100: a217 40be e499 a0bc 1e54 a2be f9f1 9ebd
00000110: 0d44 db3d 288d 10bd bce5 e8bd f007 07bd
00000120: 033f d2bb 62fb bc3d 79bb 053d 44ec 84be
00000130: 7fe7 803d 6933 73bd 86a5 cfbd 31ae 8ebe
00000140: bd2d 853d 6481 58bd 4dc5 4b3c ce34 b13d
00000150: 404a 65be f751 b13d 3b4c a9bd eff3 4dbe
00000160: 3f48 91be 7e83 65bd 6f0d 98be 74b9 8dbe
00000170: da95 f7bd f77e e53c b7b1 1bbe 514b 93be
00000180: d29c e9bd 4c72 1dbe 2a2d 78be 4f11 52be
00000190: 83e1 16be 10c1 3bbe fd38 ea3c b7e8 9ebc
000001a0: 3874 08be 075b 42be ed99 a73d 2d06 28bd
000001b0: b9d5 2cbe b247 64bd 4678 973d 7d4c 32bd
000001c0: 070c 95bd 00d8 d6bd 033c e1bc 8a7c 63be
000001d0: e445 c93b d3f1 a3be c87a 88be 8287 31be
000001e0: a72d 65be b2c7 313d f93a 88be d2bf 923b
000001f0: a5f4 b3bd af86 59be 61ab bd3d ba2b 9cbd
00000200: 05c3 0abe 32da a9be c459 1abe ebd2 1dbe
00000210: bb3f 9d3c 7578 97bd 4db1 fb3c f6ea e1bd
00000220: 211e 1abe 5c71 bbbd fbd9 97be f548 58bd
00000230: cd2c 8c3c b592 9d3b f2c9 04be 7929 8fbe
00000240: eb28 27bb 9d39 71bd a1ca 64be 3f25 a9bd
00000250: 0416 213d 5055 e1bd f6b8 88be 04ac 03be
00000260: b777 2fbd d333 87bd ac0c 3dbe ce2e 4abe
00000270: da5b 82bd cca6 3ebe d282 a7be a415 57be
00000280: ae6d 5abc 0c42 0e3e ccbe 7ebe de69 1fbe
00000290: 6706 62be 6235 29be 2b9c c73d b73e a4be
000002a0: 1b33 443d c4f7 3dbd ac69 09be cccc 543c
000002b0: 9b14 6dbe a69b 47be 4adb 8dbe 9500 adbd
000002c0: ca89 5fbd 1740 e8bd cc32 3d3c 0950 d73d
000002d0: 319f bf3b 567e 62be 7c5f bd3d 638d f0bd
000002e0: f8da 8f3d 1ae3 ab3d b1a2 8c3d d59b 2dbe
000002f0: 60b4 983d 5e50 62ba e30b 8ebe 762c 71be
00000300: 6eca eabd 750d 9e3c f307 98be 0ba4 763d
00000310: abfd aebe df4f d83b f988 24be 681b 75bd
00000320: 4d2b f3bb bb37 d3bd 3f56 51be 1ecc 2abe
00000330: 6757 f6bc 2788 1cbe 3683 7fbe f320 78be
00000340: a766 a7bd 50e2 963d 40b3 adbc bcb1 663d
00000350: 1cc0 d1bc 61b9 43be 3659 be3d 3e25 3b3d
00000360: 935c 363e 6640 f6bd 1500 0cbc de1c 78bd
00000370: 939c efbc a726 843d 4065 663d c12c 003e
00000380: ba69 04be 7edf 50be 7e9f 9dbe 7bfb 78be
00000390: d10b d0be 1910 8f3d 4d04 f53a f18d ccbd
000003a0: bcf0 a5be cf76 6fbd dd46 62be 33f7 5c3d
000003b0: 217f 153d 0ea2 bfbd b5d0 6dbd 5058 0c3d
000003c0: fcf7 283d 8a52 8fbe 8763 0cbe ee97 ccbd
000003d0: c68d 633d 169b 5ebe ff6f 17bd 089a 5d3b
000003e0: 7f8c 8cbe d5a4 063d 99ed 123e 0536 29be
000003f0: 7b90 4abc 168e 11be df34 c6bd 88a6 8dbe

fc2.weight f4 [300, 402]
-0.030401407 -0.028850961 -0.020269522 -0.0076497165 0.035811827 -0.027206672 0.018802417 0.0987163
-0.14304653 -0.016601946 0.028097702 0.14793952 -0.09833371 -0.0037670198 0.012587168 -0.025585879
0.06080882 -0.06853652 0.05567585 -0.010113932 -0.01788035 -0.02056202 -0.07051701 0.010483444
0.032285992 -0.03634581 0.002348779 -0.07757982 0.08774948 -0.08456366 -0.03704997 0.056679
-0.08757451 -0.21906252 -0.086436264 -0.14938627 -0.0076146647 0.06028864 -0.102746055 -0.05467097
-0.14507806 0.0059985025 -0.029938621 0.07714946 -0.08466903 0.0103067765 -0.09150043 0.065646045
-0.044811748 0.037400045 -0.067340545 0.040497426 -0.020333141 0.0142240515 -0.11915873 -0.098969266
0.02146432 -0.038236406 -0.1117455 0.055675432 0.037131153 0.0030345498 -0.021017194 -0.26120707
-0.054141864 0.050783277 -0.19592981 -0.06852171 -0.17232932 0.029904177 -0.040229544 -0.054336026
0.04603867 0.038494673 -0.15793298 -0.12916656 0.04693716 -0.13544309 -0.019198515 0.024242366
0.040195037 -0.06090252 -0.07910984 0.018156046 -0.18277156 0.007427543 -0.06287432 -0.11873416
0.0040075337 0.08305348 -0.09680462 -0.02921305 -0.019165559 -0.0015828196 -0.08575994 0.01831719
-0.070692405 0.010513893 -0.05993537 0.094289795 0.021065658 0.04877615 0.07344768 0.024738902
0.011074843 -0.17038408 0.046048887 0.019714247 0.015349968 -0.10957932 -0.040796626 -0.0849909
-0.024279822 -0.048090655 -0.025821833 -0.12952825 0.0007396401 -0.04074506 0.07689612 0.034703005
-0.013006616 0.0049882014 0.093549535 0.05362147 0.13920347 0.17405702 -0.035712916 -0.051060174
-0.05470473 -0.20971672 0.013119704 0.034973297 -0.04187051 -0.029016031 -0.046566222 0.025131095
-0.093738325 0.016162084 -0.14996167 -0.014924963 -0.013127622 -0.23640338 -0.20999458 0.23019394
0.015799366 -0.023234947 -0.14830323 0.056731883 -0.04453782 0.122570924 0.0155512635 0.07598206
-0.00087010296 -0.046764117 0.071575634 0.030373253 -0.007482816 -0.15032151 0.083039485 0.023564355
0.014017707 -0.15675451 0.22422856 0.043337833 -0.06793941 -0.02232541 -0.039859485 -0.19208951
-0.045988724 0.031370472 0.031191107 -0.09807649 -0.20354289 -0.09123985 -0.068606965 0.03775379
-0.037842266 0.0029798453 -0.051888056 -0.0010949294 -0.08035266 -0.019832475 -0.09149444 -0.07441207
0.020614112 -0.044481285 0.018321564 -0.009525174 -0.09201512 0.052293785 0.16591801 -0.13738431
-0.026640743 -0.32390916 0.05989263 -0.066303976 -0.047427926 -0.05725975 0.024987292 0.05581897
-0.036190774 -0.12091556 -0.069187135 0.16681768 -0.0031036993 -0.24200083 -0.11359784 -0.057803974
0.0045254673 -0.09700679 0.052296076 -0.023490742 -0.010566403 -0.0053552724 -0.04272491 -0.022981213
-0.08560212 -0.06372311 -0.050668456 0.0348632 0.03125486 -0.098360665 -0.022286685 0.023036696
0.010903556 -0.025000188 -0.050588552 -0.013405588 -0.12259206 -0.03248414 0.012279537 0.022141058
-0.16474456 0.001962169 0.048059646 -0.08738899 -0.095213056 -0.12334073 -0.0552709 0.017207757
-0.09002069 -0.27307442 -0.031964447 0.02279121 0.066279694 -0.30267566 -0.07817261 -0.044859134
-0.05574187 0.07184842 -0.08523884 0.08052015 0.00767863 0.031624846 -0.085196674 -0.076769814
00000000: 5f0c f9bc da58 ecbc 450c a6bc 79aa fabb
00000010: 6caf 123d 87e0 debc 8707 9a3c c62b ca3d
00000020: ca7a 12be ce00 88bc 272d e63c 757d 173e
00000030: 2f63 c9bd 1be0 76bb 693a 4e3c 7a99 d1bc
00000040: ab12 793d e05c 8cbd 5c0c 643d e8b4 25bc
00000050: d079 92bc ae71 a8bc 396b 90bd c0c2 2b3c
00000060: 513e 043d 58df 14bd f9ed 193b 2be2 9ebd
00000070: 00b6 b33d b62f adbd b6c1 17bd 3d28 683d
00000080: 445a b3bd ed51 60be 7f05 b1bd b7f8 18be
00000090: 7084 f9bb 39f1 763d 866c d2bd abee 5fbd
000000a0: 588f 14be 168f c43b d741 f5bc 8900 9e3d
000000b0: f566 adbd c1dd 283c 9464 bbbd 6f71 863d
000000c0: 868c 37bd ca30 193d d7e9 89bd a1e0 253d
000000d0: b091 a6bc ff0b 693c 7e09 f4bd 66b0 cabd
000000e0: f1d5 af3c c79d 1cbd d3da e4bd ec0b 643d
000000f0: d616 183d 4cdf 463b 402c acbc efbc 85be
00000100: dcc3 5dbd 2002 503d d3a1 48be 1c55 8cbd
00000110: 1977 30be 9bf9 f43c bcc7 24bd 748f 5ebd
00000120: 0b93 3c3d 97ac 1d3d 2fb9 21be 3d44 04be
00000130: 2e41 403d 98b1 0abe 3446 9dbc ed97 c63c
00000140: 8da3 243d ec74 79bd 5704 a2bd fdbb 943c
00000150: 7828 3bbe bf62 f33b 40c4 80bd e52a f3bd
00000160: a151 833b f117 aa3d 8041 c6bd 3550 efbc
00000170: 1701 9dbc 9d76 cfba e8a2 afbd ef0d 963c
00000180: 2ec7 90bd 7742 2c3c ca7e 75bd 021b c13d
00000190: e391 ac3c 80c9 473d bd6b 963d 3da9 ca3c
000001a0: 4273 353c 2a79 2ebe c29d 3c3d c67f a13c
000001b0: 6f7e 7b3c 1f6b e0bd 5d1a 27bd b50f aebd
000001c0: 7ae6 c6bc b5fa 44bd 4f88 d3bc 0ea3 04be
000001d0: 68e4 413a 4be4 26bd b77b 9d3d bd24 0e3d
000001e0: b419 55bc 1174 a33b e696 bf3d 30a2 5b3d
000001f0: 5b8b 0e3e 013c 323e b547 12bd 7924 51bd
00000200: 1112 60bd fbbf 56be 07f4 563c 2940 0f3d
00000210: 6980 2bbd 07b3 edbc 39bc 3ebd badf cd3c
00000220: e1f9 bfbd 5966 843c 8d8f 19be d587 74bc
00000230: 3d15 57bc ba13 72be d208 57be f6b7 6b3e
00000240: ac6d 813c 3757 bebc cddc 17be b15f 683d
00000250: 4a6d 36bd 7706 fb3d baca 7e3c 7b9c 9b3d
00000260: 9f17 64ba bb8b 3fbd 3f96 923d 54d1 f83c
00000270: 6932 f5bb e2ed 19be 9b10 aa3d 090a c13c
00000280: 86aa 653c 4184 20be 2c9c 653e 0383 313d
00000290: d123 8bbd c7e3 b6bc b343 23bd 1db3 44be
000002a0: ac5e 3cbd 537e 003d 7e84 ff3c 54dc c8bd
000002b0: 8c6d 50be f5db babd cf81 8cbd b8a3 1a3d
000002c0: 7e00 1bbd 8249 433b 9288 54bd bc83 8fba
000002d0: ef8f a4bd b777 a2bc 7061 bbbd 5b65 98bd
000002e0: edde a83c 0232 36bd 1b17 963c 7a0f 1cbc
000002f0: 6c72 bcbd 0232 563d 69e6 293e 79ae 0cbe
00000300: b03d dabc 6cd7 a5be f951 753d 61ca 87bd
00000310: c943 42bd 3389 6abd 26b2 cc3c 6fa2 643d
00000320: c73c 14bd 94a2 f7bd fcb1 8dbd 41d2 2a3e
00000330: 6f67 4bbb 11cf 77be fca5 e8bd dcc3 6cbd
00000340: 5f4a 943b 7fab c6bd 6934 563d a86f c0bc
00000350: b51e 2dbc 487b afbb 5100 2fbd 1943 bcbc
00000360: 2a50 afbd 4381 82bd ba89 4fbd b7cc 0e3d
00000370: 1905 003d 5171 c9bd 9192 b6bc 74b7 bc3c
00000380: d4a4 323c 32cd ccbc f135 4fbd 1da3 5bbc
00000390: 8c11 fbbd 170e 05bd 1c30 493c 2a61 b53c
000003a0: ccb2 28be bc97 003b 31da 443d 00f9 b2bd
000003b0: 10ff c2bd 119a fcbd bd63 62bd 48f7 8c3c
000003c0: c45c b8bd 69d0 8bbe 27ed 02bd a2b4 ba3c
000003d0: a6bd 873d 4ef8 9abe f618 a0bd 36be 37bd
000003e0: 9651 64bd 4425 933d b391 aebd c0e7 a43d
000003f0: 049d fb3b 0e89 013d 987b aebd 7e39 9dbd

fc2.bias f4 [300]
0.0010141521 -0.022540396 -0.06243711 0.016026117 -0.032667894 0.016940204 -0.07194412 -0.048286617
-0.06485151 -0.03757127 -0.03365454 0.032481577 -0.07903842 -0.003991984 -0.014506743 -0.029873056
-0.10130324 -0.09306065 -0.041434128 -0.012911904 -0.037333068 -0.06401481 -0.039172675 0.017883804
-0.018567748 -0.10639155 -0.04622629 -0.07183146 -0.012739571 0.008941788 -0.0034642445 -0.038840126
0.0034283586 -0.0007384123 -0.025424097 -0.00956988 -0.058008946 -0.012744868 -0.051573176 -0.029052932
-0.005304975 -0.038406353 -0.061576266 0.0011178452 0.031099701 -0.062025588 0.012646779 -0.039221287
-0.070511654 -0.044292618 -0.021322217 -0.07226688 0.006388365 -0.048844337 -0.006893762 0.022365393
-0.06704315 -0.0063514058 0.00424687 -0.032197844 -0.095879324 0.03886354 -0.04896908 -0.045365952
0.023052212 0.005122426 -0.059852567 0.0065725488 -0.05821911 -0.063148715 -0.05885142 -0.025763337
-0.022782773 -0.044461068 -0.07383922 -0.044215 -0.0001891504 0.0021958165 -0.01938153 -0.05655426
-0.05844545 0.0047539 -0.008610909 -0.045505837 -0.02314958 0.009935769 -0.05675256 -0.04478478
-0.05298904 -0.05840959 -0.024050698 0.0014558987 0.017639374 -0.044772584 -0.024207465 0.07312968
-0.033536054 -0.026216775 0.01185172 -0.044730056 -0.033266157 0.06401589 0.05275916 -0.009616167
-0.000276161 -0.019629618 -0.032667454 -0.0363717 -0.010776942 -0.07252316 0.072405 -0.029247088
-0.004262884 -0.059604693 -0.04208481 -0.12738062 -0.073118664 0.0046722176 -0.01048512 -0.0224436
-0.062272117 -0.045751024 0.014929287 0.014291423 -0.008052631 -0.014653094 -0.06809269 -0.050857566
-0.056150194 -0.0057251467 0.0027957992 -0.0037365141 -0.004973518 -0.042844243 0.018818429 -0.018175682
-0.031073812 0.04294554 -0.08790726 0.029815625 0.00515562 0.035417963 0.0076908576 -0.02222101
-0.009339318 -0.04365419 -0.080701254 -0.06247285 -0.021316946 -0.020874424 -0.020215103 0.003140201
0.017688647 -0.031978887 0.066313304 -0.04450357 0.04509926 -0.046022337 -0.008528602 -0.060592696
-0.02121301 -0.010747415 -0.07457822 -0.02033939 -0.061777655 -0.011971362 -0.018541694 -0.053260516
-0.03902217 -0.025708819 -0.064986676 0.03119553 -0.059043888 0.07974595 -0.017040834 -0.09556415
0.04367309 0.009992998 -0.07574671 -0.006597429 0.06882986 -0.028290603 -0.059683945 0.057467394
0.065078855 0.0055732857 -0.023627223 -0.011024603 -0.05992325 -0.06835657 -0.07465579 -0.03325615
-0.0070354054 -0.1711766 -0.044296768 0.0050997804 -0.03649758 -0.006164621 0.021652305 -0.023968892
-0.059183173 -0.040856738 -0.07391597 -0.057129037 0.0023172277 0.025979508 -0.09541684 0.008871952
-0.03267458 0.020848759 0.004041851 -0.055633288 -0.055972677 -0.022168772 0.010116534 0.01678819
-0.044138167 0.009278636 -0.055038106 -0.02960826 -0.053958565 -0.013635825 -0.06288468 -0.043712404
-0.022711022 -0.013827689 -0.01023616 0.017269647 -0.019642685 -0.023704082 -0.06051926 0.010270014
-0.0021009112 -0.012452567 -0.019956138 -0.05179202 -0.03648076 -0.06277504 -0.05747317 0.0051376172
-0.020250257 -0.07070402 -0.04779865 -0.044207167 -0.020453107 -0.029656008 -0.0045615654 -0.05775284
0.050721765 0.035293628 -0.049753137 -0.060127884 -0.006274081 -0.023761144 -0.04643956 -0.034483477
00000000: 4ced 843a a3a6 b8bc 0ebe 7fbd 3449 833c
00000010: c5ce 05bd 2fc6 8a3c 7057 93bd 30c8 45bd
00000020: ded0 84bd 55e4 19bd 58d9 09bd 670b 053d
00000030: e5de a1bd 30cf 82bb b1ad 6dbc 57b8 f4bc
00000040: 1378 cfbd 9596 bebd d5b6 29bd 738c 53bc
00000050: 8fea 18bd 321a 83bd 8773 20bd 0e81 923c
00000060: 641b 98bc d0e3 d9bd c757 3dbd 5f1c 93bd
00000070: a2b9 50bc 9480 123c 6108 63bb d316 1fbd
00000080: 50ae 603b 0392 41ba 3246 d0bc fcca 1cbc
00000090: ca9a 6dbd dacf 50bc 653e 53bd 6a00 eebc
000000a0: 5bd5 adbb fb4f 1dbd 6537 7cbd a984 923a
000000b0: cdc4 fe3c 8b0e 7ebd 7034 4f3c 80a6 20bd
000000c0: 6a68 90bd 2d6c 35bd eeab aebc a800 94bd
000000d0: 7d55 d13b 0011 48bd 11e5 e1bb a137 b73c
000000e0: eb4d 89bd 741f d0bb 5429 8b3b e3e1 03bd
000000f0: 615c c4bd 602f 1f3d cd93 48bd a6d1 39bd
00000100: fed7 bc3c 06da a73b f727 75bd 895e d73b
00000110: 2977 6ebd 1d54 81bd 300e 71bd a20d d3bc
00000120: f0a2 babc cf1c 36bd 0439 97bd ca1a 35bd
00000130: ad56 46b9 b0e7 0f3b 04c6 9ebc 71a5 67bd
00000140: 7f64 6fbd 9bc6 9b3b c514 0dbc 5464 3abd
00000150: 30a4 bdbc a3c9 223c 5f75 68bd 3f70 37bd
00000160: 090b 59bd e53e 6fbd f805 c5bc dbd3 be3a
00000170: 7380 903c 7563 37bd bc4e c6bc 03c5 953d
00000180: 1a5d 09bd 90c4 d6bc b72d 423c dd36 37bd
00000190: 1842 08bd c31a 833d fd19 583d 218d 1dbc
000001a0: b4c9 90b9 4bce a0bc 4fce 05bd 7efa 14bd
000001b0: c591 30bc 0687 94bd 1349 943d 9797 efbc
000001c0: aaaf 8bbb 0d24 74bd 1f61 2cbd 1170 02be
000001d0: 3dbf 95bd 6719 993b c8c9 2bbc a4db b7bc
000001e0: 0c11 7fbd 6d65 3bbd f899 743c 9326 6a3c
000001f0: 2fef 03bc 8813 70bc 2e74 8bbd 0650 50bd
00000200: bffd 65bd 039a bbbb ba39 373b 4ee0 74bb
00000210: e5f8 a2bb 727d 2fbd 1b29 9a3c 2be5 94bc
00000220: 828e febc aae7 2f3d b908 b4bd e63f f43c
00000230: 7af0 a83b 6d12 113d 9703 fc3b d608 b6bc
00000240: f003 19bc bcce 32bd b346 a5bd 88e3 7fbd
00000250: e0a0 aebc d700 abbc 259a a5bc d5cb 4d3b
00000260: c8e7 903c 4bfc 02bd 45cf 873d 6049 36bd
00000270: 00ba 383d eb81 3cbd 8dbb 0bbc 0c30 78bd
00000280: e8c6 adbc ed15 30bc 77bc 98bd cb9e a6bc
00000290: 910a 7dbd 8823 44bc c0e4 97bc b327 5abd
000002a0: b6d5 1fbd 4d9b d2bc bc17 85bd c58d ff3c
000002b0: 01d8 71bd d851 a33d 3899 8bbc 23b7 c3bd
000002c0: 8ee2 323d acb9 233c 1721 9bbd 3f2f d8bb
000002d0: abf6 8c3d b2c1 e7bc 2777 74bd ee62 6b3d
000002e0: 1048 853d 1ca0 b63b e18d c1bc 89a0 34bc
000002f0: 1572 75bd 88fe 8bbd 23e5 98bd 9a37 08bd
00000300: 4289 e6bb eb48 2fbe 8770 35bd 0f1c a73b
00000310: 7d7e 15bd 9700 cabb 2d60 b13c 695a c4bc
00000320: 0e6a 72bd 6559 27bd 4261 97bd 2300 6abd
00000330: a1dc 173b fad2 d43c e769 c3bd aa5b 113c
00000340: c8d5 05bd 04cb aa3c 8171 843b bbdf 63bd
00000350: 9b43 65bd 499b b5bc d2bf 253c 6387 893c
00000360: 39ca 34bd 6c05 183c a36f 61bd 068d f2bc
00000370: a803 5dbd cc68 5fbc afc9 80bd c70b 33bd
00000380: 770c babc 888d 62bc 91b5 27bc 1379 8d3c
00000390: b2e9 a0bc 102f c2bc 0be3 77bd 9043 283c
000003a0: 71af 09bb da05 4cbc 0e7b a3bc df23 54bd
000003b0: d96c 15bd 3390 80bd fd68 6bbd 7559 a83b
000003c0: dee3 a5bc 45cd 90bd 84c8 43bd 9312 35bd
000003d0: 468d a7bc 28f1 f2bc 2f79 95bb 3e8e 6cbd
000003e0: a0c1 4f3d 0d90 103d f2c9 4bbd a848 76bd
000003f0: ce96 cdbb bba6 c2bc 6837 3ebd 8c3e 0dbd

fc3.weight f4 [1, 300]
-0.019769168 0.00021307793 -0.011671219 0.0021430193 -0.004749402 0.012596974 0.0040262546 0.007664854
0.005535447 -5.15765e-05 -0.011261504 -0.07904279 0.032126747 0.053760294 0.004946843 -0.01822177
0.017028058 0.0042572026 0.005100336 -0.016098114 -0.00042011667 0.026645372 0.0067004245 -0.0015570681
0.0042464854 -0.03420794 0.02128304 -0.02551263 0.14999528 0.12412133 -0.026418982 0.002422863
-0.003930642 0.12597124 -0.03224998 -0.036673717 0.0061972407 -0.0018884222 -0.0047630616 0.0030227322
-0.01827869 -0.004968944 -0.013445335 -0.0002931711 0.071820796 -0.010299801 0.06154492 -0.006670184
-0.0032863712 0.0029648866 0.001134019 -0.0057093897 0.044046782 0.014534536 0.006680874 0.00148417
-0.020528197 0.0023952725 -9.655586e-05 -0.010623862 0.009055336 0.12128382 0.0768703 0.005235957
0.0034429762 -0.0062731025 -0.0029029704 -0.0018397885 -0.014934122 0.002364834 0.02158033 0.014020711
-0.018724633 -0.02500041 -0.001750792 -0.018714203 0.0023140348 -0.002122154 0.0058422503 0.12941116
0.027131252 -0.0031625805 0.006851701 -0.025848228 0.0014252048 0.010483841 -0.009023279 0.0040841736
-0.008237221 -0.048850596 -0.006795525 -0.0023144723 -0.019623628 0.027698755 0.15974607 0.14102642
-0.0013349304 0.0019325712 -0.0013728981 0.001922452 -0.004903818 -0.029738458 -0.034238804 0.00054580567
0.13552405 0.008019286 0.00013163693 -0.0702046 -0.004535738 -0.0032462138 0.026694382 0.0008848478
0.0034671726 -0.041330755 -0.0003701238 -0.03552668 -0.028861204 0.018283209 0.002156785 -0.00086024223
0.012342174 0.005153159 0.00014108092 -0.08117323 -0.0045299684 -0.00417011 0.0036973394 0.027607393
-0.016452577 -0.0028865198 0.05716052 -0.0040941765 -0.053963695 -0.0066830874 -0.04755976 0.021741826
-0.04610964 -0.02311476 0.038022052 3.8135833e-05 -0.071742475 0.017187078 0.07264676 -0.007669402
0.0074906144 0.053638414 -0.012897356 -0.03300144 -0.0074202414 0.00023573452 0.030470895 0.0067475764
-0.032401234 0.0019832442 -0.030152349 -1.0585292e-05 0.032259855 0.010397317 0.00714014 -0.080695406
-0.018990295 0.011988454 -0.0035635342 -0.003477751 -0.007209528 0.005299012 0.035670623 -0.065026335
0.00045791373 -0.017667513 -0.02955153 -0.04330158 -0.0029914891 0.059467625 0.005948272 -0.073683314
0.11575834 -0.032054927 -0.0010294754 -0.008011784 -0.02212279 0.011333295 0.023680134 -0.018205952
-0.026562558 0.012873859 -0.0029869764 -0.012803428 -0.0016014335 -0.040141296 0.01452423 -0.003523631
-0.039559804 0.024360873 0.005884119 0.078272134 0.011773852 0.0016174804 0.0015708054 -0.009961256
-0.026014859 0.002548669 0.022605062 -0.00096448074 0.0039547067 -0.00013224198 -0.00036464617 -0.004499333
0.00100541 -0.0017790548 0.0041386816 -0.025365112 -0.0043694773 0.0047305273 -0.0030860894 -0.024779271
-0.0012883286 -0.030299677 0.020076154 0.003774379 -0.01468483 -0.0043682638 0.095706254 0.048972595
-0.0028399217 0.0779636 0.0015570429 0.027915906 0.0016764184 -0.004825794 -0.00029879127 0.003514814
-0.0028802427 -0.017602442 0.010117377 0.03541303 0.016394943 0.021853937 -0.01490642 -0.020739567
0.0032834285 0.040386137 -0.020094268 -0.009336552 -0.003053135 0.0012579988 -0.026557492 -0.00018348034
-0.033650946 -0.03284581 -0.006508881 -0.02878776 -0.024252336 -0.01736272 0.030373288 0.024913667
00000000: f3f2 a1bc ac6d 5f39 a438 3fbc e671 0c3b
00000010: dfa0 9bbb 8a63 4e3c acee 833b 7529 fb3b
00000020: b262 b53b d853 58b8 2c82 38bc 30e1 a1bd
00000030: 5697 033d c133 5c3d 2019 a23b d245 95bc
00000040: 6d7e 8b3c 0180 8b3b b820 a73b 31e0 83bc
00000050: 1b43 dcb9 6547 da3c 3c8f db3b 8916 ccba
00000060: 1a26 8b3b a01d 0cbd c559 ae3c ddff d0bc
00000070: 5d98 193e 5333 fe3d 9f6c d8bc e5c8 1e3b
00000080: 9dcc 80bb 9bfe 003e 8e18 04bd 2e37 16bd
00000090: 3912 cb3b ef84 f7ba 7513 9cbb 0819 463b
000000a0: 31bd 95bc 86d2 a2bb d349 5cbc c2b4 99b9
000000b0: c816 933d 7fc0 28bc 8716 7c3d 8f91 dabb
000000c0: 2960 57bb 8b4e 423b 5da3 943a d515 bbbb
000000d0: 666a 343d 4322 6e3c 3ceb da3b 7b88 c23a
000000e0: c02a a8bc 01fa 1c3b 087e cab8 b50f 2ebc
000000f0: d55c 143c a763 f83d 2d6e 9d3d 6492 ab3b
00000100: 8ea3 613b 998e cdbb c33f 3ebb 0f25 f1ba
00000110: 3fae 74bc 55fb 1a3b 3bc9 b03c 20b7 653c
00000120: 6764 99bc a9cd ccbc d57a e5ba 874e 99bc
00000130: 10a7 173b d613 0bbb 5970 bf3b 5c84 043e
00000140: 5c42 de3c 4c43 4fbb 3c84 e03b aabf d3bc
00000150: f0cd ba3a 6bc4 2b3c 60d6 13bc 88d4 853b
00000160: 69f5 06bc 9017 48bd ffac debb 67ae 17bb
00000170: bbc1 a0bc 80e8 e23c 7994 233e 3b69 103e
00000180: d5f8 aeba 544e fd3a d1f2 b3ba c9fa fb3a
00000190: 35b0 a0bb 119e f3bc fd3d 0cbd 6614 0f3a
000001a0: d1c6 0a3e 5363 033c 0508 0a39 6ec7 8fbd
000001b0: 87a0 94bb 6ebe 54bb 2dae da3c 21f5 673a
000001c0: 8139 633b 704a 29bd 2d0d c2b9 6d84 11bd
000001d0: 556e ecbc abc6 953c d958 0d3b e181 61ba
000001e0: d436 4a3c d5db a83b 1fef 1339 273e a6bd
000001f0: 2170 94bb 6ba5 88bb 104f 723b e628 e23c
00000200: 8ec7 86bc c42b 3dbb 2621 6a3d 7128 86bb
00000210: 0909 5dbd cdfd dabb 06ce 42bd ea1b b23c
00000220: 76dd 3cbd 2a5b bdbc 03bd 1b3d 0af4 1f38
00000230: b8ed 92bd eacb 8c3c d3c7 943d 9b4f fbbb
00000240: d473 f53b f4b3 5b3d 6f4f 53bc 852c 07bd
00000250: 7f25 f3bb 812f 7739 199e f93c c61a dd3b
00000260: 28b7 04bd 51f9 013b 0f02 f7bc 7c97 31b7
00000270: e922 043d 8259 2a3c d6f7 e93b a243 a5bd
00000280: 8991 9bbc 386b 443c 2f8a 69bb fbea 63bb
00000290: e73d ecbb 56a3 ad3b 5c1b 123d 872c 85bd
000002a0: 2414 f039 76bb 90bc 0d16 f2bc ff5c 31bd
000002b0: dc0c 44bb 5394 733d b9e9 c23b 47e7 96bd
000002c0: b512 ed3d 074c 03bd 76ef 86ba dc43 03bc
000002d0: da3a b5bc 49af 393c d7fc c13c a624 95bc
000002e0: b999 d9bc e1ec 523c 26c1 43bb 78c5 51bc
000002f0: 31e7 d1ba 336b 24bd 09f7 6d3c b8ec 66bb
00000300: 7609 22bd 7490 c73c 91cf c03b 244d a03d
00000310: 1de7 403c a301 d43a 7ce3 cd3a 8934 23bc
00000320: 1d1d d5bc 9207 273b 402e b93c 35d5 7cba
00000330: 7c96 813b 70aa 0ab9 fb2d bfb9 246f 93bb
00000340: f6c7 833a 2c2f e9ba c79d 873b 7fca cfbc
00000350: d52d 8fbb 8a02 9b3b fd3f 4abb e6fd cabc
00000360: 22dd a8ba 0737 f8bc bf76 a43c 925b 773b
00000370: a498 70bc a723 8fbb a401 c43d 7d97 483d
00000380: fb1d 3abb 61ab 9f3d b115 cc3a e6af e43c
00000390: 44bb db3a b221 9ebb 16a7 9cb9 cb58 663b
000003a0: 74c2 3cbb ff32 90bc 5bc3 253c 410d 113d
000003b0: b04e 863c 0707 b33c 0f3a 74bc 06e6 a9bc
000003c0: ca2e 573b ef6b 253d bc9c a4bc 56f8 18bc
000003d0: 1b17 48bb 6fe3 a43a 198f d9bc a164 40b9
000003e0: 93d5 09bd 5489 06bd 7448 d5bb 4fd4 ebbc
000003f0: d6ac c6bc 433c 8ebc 67d1 f83c bf17 cc3c
