Tennis/Nets/checkpoint_actor2300.pth (torch_old, 525671 bytes, 10 tensors)

bn1.weight f4 [24]
0	0x3f284313	0.6572735
1	0x3f292a2c	0.66079974
2	0x3efb4713	0.49077663
3	0x3f215d63	0.6303312
4	0x3f68963f	0.9085426
5	0x3f649894	0.89295316
6	0x3e8dfbbd	0.27731124
7	0x3d613583	0.054982673
8	0x3f21ea14	0.632478
9	0x3ea3e38e	0.32009548
10	0x3f153364	0.5828154
11	0x3ef0f35f	0.47060677
12	0x3f37da7f	0.71817774
13	0x3f854c2a	1.0413868
14	0x3f0c7911	0.5487223
15	0x3f262fe2	0.64916813
16	0x3f4c8bcd	0.7990082
17	0x3f0ea938	0.5572696
18	0x3edea372	0.43484074
19	0x3f66dcab	0.9018046
20	0x3f2bc4c2	0.67097104
21	0x3f783997	0.96962875
22	0x3f113c30	0.56732464
23	0x3f49b4c0	0.7879143

bn1.bias f4 [24]
0	0xbdb3fd1a	-0.0878851
1	0x3d0e3093	0.034714293
2	0x3dcad36a	0.09903605
3	0xbe41bf07	-0.18920527
4	0x3e296ca0	0.16545343
5	0x3d08449e	0.033268563
6	0x3da4a27c	0.08038804
7	0xbe9fc59b	-0.31205449
8	0xbdca52f4	-0.09879103
9	0x3e0e7749	0.13912691
10	0x3c874a5d	0.016514951
11	0xbe25c5d3	-0.16188745
12	0x3d66c393	0.056338858
13	0xbd1d37dc	-0.03838335
14	0xbcde24cb	-0.027117154
15	0xbe4504e9	-0.19240154
16	0x3dc54de5	0.09633998
17	0x3d922192	0.07135309
18	0xbcbaeece	-0.02281895
19	0xbe291ec7	-0.16515647
20	0x3e27b1bf	0.16376399
21	0xbdb968a9	-0.090531655
22	0x3a8f9e6b	0.0010957246
23	0xbe6a04e0	-0.22853422

bn1.running_mean f4 [24]
0	0xc0800052	-4.000039
1	0xbf266066	-0.6499084
2	0x41167594	9.403706
3	0x3e0ad2ab	0.13556926
4	0x3e5f3afb	0.21799843
5	0x403e6497	2.9748895
6	0x41167594	9.403706
7	0x3e0ad2ab	0.13556926
8	0xc085fbe9	-4.1870008
9	0xbf2f4ddc	-0.6847818
10	0x411c667d	9.775022
11	0x3de245e7	0.11048489
12	0x3e801e8b	0.25023302
13	0x404017aa	3.0014443
14	0x411c667d	9.775022
15	0x3de245e7	0.11048489
16	0xc08c90b4	-4.392664
17	0xbf394f51	-0.7238665
18	0x41229b24	10.162876
19	0x3dc671bd	0.096896626
20	0x3e91814d	0.2841896
21	0x40419072	3.0244412
22	0x41229b24	10.162876
23	0x3dc671bd	0.096896626

bn1.running_var f4 [24]
0	0x41725602	15.145998
1	0x3f8fe7af	1.1242579
2	0x43d6e690	429.80127
3	0x411adbe8	9.678688
4	0x421846c7	38.06912
5	0x4086369c	4.194166
6	0x43d6e690	429.80127
7	0x411adbe8	9.678688
8	0x41721379	15.129754
9	0x3f91ac9b	1.13808
10	0x43dcbb1c	441.4618
11	0x4127daf6	10.490957
12	0x422634f6	41.55172
13	0x408941f2	4.2893
14	0x43dcbb1c	441.4618
15	0x4127daf6	10.490957
16	0x4171b7ce	15.107374
17	0x3f934306	1.1504829
18	0x43e4743b	456.90805
19	0x41324970	11.142929
20	0x42363fc0	45.562256
21	0x409246ee	4.5711584
22	0x43e4743b	456.90805
23	0x41324970	11.142929

fc1.weight f4 [400, 24]
0	0xbd084f81	-0.033278946
1	0x3d99709a	0.0749218
2	0x3de9481a	0.113907054
3	0x3e8cfdba	0.27537328
4	0x3e84fe03	0.25975046
5	0xbce9ccb6	-0.028539997
6	0x3df4879e	0.119399294
7	0x3e68fd6d	0.22752924
8	0xbc58799e	-0.01321259
9	0x3dc4d62e	0.09611164
10	0x3dd4d60b	0.10392388
11	0xbca828d5	-0.020527283
12	0x3e35b499	0.17744674
13	0x3e4b1199	0.19830932
14	0x3d23ebef	0.040019926
15	0xbd376056	-0.044769607
16	0xbdab9947	-0.08378845
17	0x3d1a1e0e	0.03762632
18	0xbc3aed73	-0.011409151
19	0xbe473700	-0.19454575
20	0x3daa7897	0.08323782
21	0x3f1151f5	0.5676568
22	0x3d6866e6	0.056738757
23	0xbe53f158	-0.20697534
24	0x3d4eca35	0.05048581
25	0xbef2cf28	-0.47423673
26	0x3afe7ea0	0.0019416399
27	0xbe5b6a37	-0.21427236
28	0xbee76111	-0.45191243
29	0x3e23b6af	0.15987657
30	0xbd2eae62	-0.042646773
31	0xbe0b8bc8	-0.13627541
32	0x3d86c0d1	0.065797456
33	0xbeb3162a	-0.34977847
34	0xbdc5e666	-0.09663086
35	0xbafc9d9c	-0.0019273045
36	0xbebcc460	-0.36868572
37	0x3eccbfb8	0.3999002
38	0xbe098692	-0.13430241
39	0x3c9241c1	0.01785362
40	0x3da221c1	0.07916594
41	0xbe90946f	-0.28238246
42	0x3d533715	0.051566202
43	0x3e269975	0.16269477
44	0xbcc18de5	-0.02362723
45	0x3eeb3faa	0.4594701
46	0x3c9dd2cf	0.01926556
47	0x3d87d9e6	0.06633358
48	0x3c568140	0.013092339
49	0xbe1e651e	-0.1546826
50	0xbcd1b16e	-0.0255973
51	0x3d9e311f	0.07724213
52	0x3eb62fb8	0.35583282
53	0x3e03f7ff	0.12887572
54	0xbd363b4f	-0.044490155
55	0x3e335b54	0.17515308
56	0x3e0052d8	0.12531602
57	0xbe3a2f7d	-0.18182178
58	0x3dda5ac5	0.10661844
59	0x3df4b754	0.119490296
60	0x3eb14112	0.34619957
61	0x3d37043a	0.044681765
62	0x3d83e9e3	0.06441095
63	0x3dd0e978	0.10200781
64	0xbdb25139	-0.08706898
65	0xbd896fe0	-0.067107916
66	0xbed65dd6	-0.41868466
67	0xbd9344bc	-0.071908444
68	0x3e5350f9	0.20636357
69	0x3dac6527	0.08417731
70	0xbef0c978	-0.47028708
71	0x3d23cd1f	0.03999054
72	0x3e6f30e8	0.233585
73	0x3e782635	0.24233325
74	0x3c8e9644	0.017405637
75	0xbe070bdb	-0.13188116
76	0x3e0f7b75	0.14011939
77	0xbd2ee597	-0.042699423
78	0x3ca07853	0.019588625
79	0x3d7e1864	0.06203498
80	0x3df25874	0.11833277
81	0x3e07d6b6	0.132655
82	0xbdba4149	-0.090944834
83	0xbe1d21b6	-0.15344891
84	0x3e18cb45	0.14921291
85	0xbd8d0325	-0.068853654
86	0xbd497480	-0.04918337
87	0xbe000789	-0.12502874
88	0xbc26c153	-0.010177928
89	0x3e722876	0.23648247
90	0xbb96ff3c	-0.004608063
91	0xbddf8f1d	-0.109159686
92	0xbe8c1db3	-0.2736641
93	0x3e0435d2	0.12911156
94	0x3d0e8be6	0.034801386
95	0xbdd5211c	-0.10406706
96	0xbe8f3a5d	-0.27974215
97	0x3eb86193	0.36011943
98	0x3d67b2e6	0.056567095
99	0x3d655ca1	0.05599654
100	0x3e8c9f69	0.2746537
101	0x3e2d44c9	0.1692077
102	0x3dae0ade	0.084981665
103	0x3da3fe96	0.08007543
104	0xbe104070	-0.14087081
105	0x3eb63349	0.35586002
106	0x3de5f21c	0.11227819
107	0x3e059447	0.13044845
108	0x3e529342	0.20563987
109	0x3e92482e	0.28570694
110	0x3e2fca4d	0.17167015
111	0x3dffff4a	0.124998644
112	0xbe3c7e5c	-0.18407577
113	0x3ec18a2d	0.37800732
114	0xbe6ed247	-0.23322402
115	0x3da418da	0.080125526
116	0x3e7656c0	0.2405653
117	0x3e967202	0.29383856
118	0xbe804a7b	-0.25056824
119	0x3d7dc236	0.061952792
120	0x3da5ec1c	0.08101675
121	0x3cfe4e85	0.0310433
122	0xbd4491c1	-0.047990564
123	0x3e51bd5d	0.20482393
124	0x3e87be4d	0.26512375
125	0x3e3ec1f4	0.18628675
126	0xbc4410f8	-0.011966936
127	0x3dd9eb7b	0.106406175
128	0x3df15d37	0.117853574
129	0x3d7f628d	0.062349845
130	0x3dc77ef6	0.09741013
131	0x3e244578	0.16042125
132	0x3eb3adcf	0.35093543
133	0x3db91f17	0.09039133
134	0x3dc3b40e	0.09555827
135	0x3e1a9a80	0.15098
136	0x3d4edcd4	0.050503567
137	0x3cf851df	0.030312477
138	0xbe1fedc7	-0.15618049
139	0x3e1f3d0d	0.15550633
140	0x3ef9ab1a	0.48763353
141	0x3e5d3fd1	0.21606375
142	0xbe1d75dd	-0.15376993
143	0x3df2ed59	0.11861677
144	0x3f0d695a	0.5523888
145	0x3c858bc5	0.016301999
146	0x3d038c05	0.032115955
147	0xbda80dad	-0.082057334
148	0x3e0d47ff	0.13796996
149	0xbd3e5a28	-0.0464727
150	0x3bd2963b	0.0064266003
151	0xbd322272	-0.04348988
152	0x3e99c516	0.30033177
153	0xbcd3f348	-0.025872841
154	0xbd32466e	-0.0435242
155	0xbd1b20b5	-0.03787299
156	0x3e21d493	0.15803747
157	0xbe5c30bc	-0.21502966
158	0xbd58ef29	-0.052962456
159	0xbb869fa7	-0.0041083875
160	0x3e0ce28c	0.13758296
161	0x3d4699f2	0.048486657
162	0x3cdef816	0.027217906
163	0xbe4a814c	-0.19775885
164	0x3cfdda2f	0.030987827
165	0xbea13012	-0.31481987
166	0xbc4c0ed2	-0.012454705
167	0xbe72b035	-0.2370003
168	0x3d80a637	0.06281703
169	0xbe43b802	-0.19113162
170	0x3d5fde00	0.054655075
171	0x3d179d51	0.037015263
172	0x3e6ebd03	0.2331429
173	0x3ddfc972	0.109270945
174	0x3de7c0c3	0.11316063
175	0x3d901b1f	0.07036423
176	0x3e5a0fea	0.21295133
177	0xbe3cde2c	-0.18444127
178	0xbd3d8e84	-0.04627849
179	0x3d2633fe	0.040576927
180	0x3d894fdd	0.06704686
181	0x3ddc3c96	0.10753743
182	0xbd1e4f68	-0.038649946
183	0x3cd6ec1b	0.02623563
184	0x3db7da64	0.089772016
185	0xbe6a641d	-0.22889753
186	0xbe4c8b93	-0.19975118
187	0x3da42eb6	0.08016722
188	0xbe0fa9ed	-0.14029665
189	0xbe5c50c7	-0.21515189
190	0xbe2c51b4	-0.16828042
191	0x3d6e70e3	0.058213126
192	0x3d205078	0.03913924
193	0x3e805b5e	0.25069708
194	0x3d0707f6	0.032966577
195	0xbc89d15d	-0.016823465
196	0x3ae07ca3	0.0017126988
197	0xbe025917	-0.12729298
198	0x3b845108	0.00403798
199	0x3dc08f7f	0.0940237
200	0x3da87108	0.08224684
201	0x3e49986f	0.19687055
202	0x3c70d749	0.0146997655
203	0xbd220bb5	-0.039561946
204	0xbc937f49	-0.01800503
205	0xbd71935d	-0.058978427
206	0x3db8cc50	0.090233445
207	0x3c15c91b	0.009142186
208	0xbd8968df	-0.06709456
209	0x3e804f22	0.25060374
210	0xbc67241b	-0.014107729
211	0xbe5e149e	-0.21687552
212	0xbe4f238b	-0.20228402
213	0xbe03da81	-0.12876321
214	0xbd637d37	-0.055539336
215	0xbe0bd926	-0.13657054
216	0x3cf27c3a	0.029600251
217	0xbd8e2b3e	-0.069418415
218	0xbdb08d73	-0.08620729
219	0xbeacf505	-0.33780685
220	0x3d99b60c	0.07505426
221	0xbe15de5b	-0.14635603
222	0xbdc20de8	-0.09475309
223	0xbe73896d	-0.23782893
224	0x3e696bfa	0.22795096
225	0xbe0c6777	-0.13711344
226	0x3e254185	0.16138275
227	0xbbf72ac0	-0.007542938
228	0x3e0160f3	0.1263464
229	0xbdafdcd4	-0.085870415
230	0x3e1909af	0.149451
231	0xbcd804c6	-0.026369464
232	0x3e41f198	0.18939817
233	0xbb3776a6	-0.0027994304
234	0xbd91f24b	-0.07126292
235	0x3dd46409	0.10370643
236	0xbd099c75	-0.033596475
237	0x3e9147b2	0.28375012
238	0xbc610468	-0.013733961
239	0x3d26afd2	0.04069502
240	0xbde8c17d	-0.1136503
241	0xbd3de0d7	-0.046357002
242	0xbd822229	-0.06354172
243	0xbe2b4ac2	-0.16727737
244	0x3d940f58	0.07229489
245	0xbde1a10e	-0.11017047
246	0xbdf615ce	-0.12015878
247	0xbde5ea64	-0.11226347
248	0xbe85728e	-0.2606396
249	0xbdaa00d3	-0.083009385
250	0xbda093d6	-0.078406975
251	0xbdc433a9	-0.09580166
252	0x3e23cf97	0.15997158
253	0xbe2146db	-0.15749685
254	0xbd1d4016	-0.038391195
255	0xbd965be2	-0.07341744

fc1.bias f4 [400]
0	0xbddee55d	-0.10883591
1	0xbcb24b04	-0.021764286
2	0xbe982856	-0.29718274
3	0xbe49c95e	-0.19705722
4	0xbe7baec0	-0.2457838
5	0x3cceae05	0.025229463
6	0xbd9241c7	-0.07141452
7	0x3defbdd1	0.117061265
8	0xbe81e654	-0.2537104
9	0x3de85be0	0.11345649
10	0xbea784d6	-0.32718533
11	0x3ca2997e	0.019848581
12	0xbe063522	-0.13106206
13	0xbe63da4c	-0.22251242
14	0x3d891a0b	0.066944204
15	0xbdda5c4e	-0.10662137
16	0x3db50b08	0.08839995
17	0xbde34096	-0.11096303
18	0xbd64e5fc	-0.055883393
19	0x3e70944a	0.23494068
20	0xbd7b2c33	-0.06132145
21	0x3c6fcbc6	0.014635986
22	0x3e72e37f	0.23719595
23	0x3d147eb6	0.036253653
24	0xbc8462b8	-0.016160354
25	0x3db79150	0.08963263
26	0x3d5ad04f	0.053421315
27	0x3dc983f1	0.09839619
28	0x3d5f9b50	0.054591477
29	0xbec749f1	-0.389236
30	0x3d9f8bdd	0.07790349
31	0xbe623583	-0.22090726
32	0xbe029527	-0.1275221
33	0xbe2b02b3	-0.16700248
34	0xbddd7040	-0.108124256
35	0xbe8c6eb5	-0.27428213
36	0x3d2483f2	0.040164895
37	0xbea607d4	-0.32427847
38	0xbd50320d	-0.050828982
39	0xbe7af6aa	-0.24508157
40	0xbc9f4128	-0.019440249
41	0xbe679872	-0.22616747
42	0x3c477e73	0.012176144
43	0xbd781686	-0.060568355
44	0xbdb9cfc0	-0.09072828
45	0x3d98509f	0.07437252
46	0xbd9fb3a0	-0.077979326
47	0x3e668c55	0.2251447
48	0xbe3401af	-0.17578767
49	0xbd463663	-0.04839171
50	0xbe1841ee	-0.148689
51	0xbdcbc253	-0.09949174
52	0xbe147eeb	-0.1450154
53	0xbdccfbbe	-0.100089535
54	0xbdae7141	-0.08517695
55	0x3e5f5f18	0.21813619
56	0x3db295c8	0.08719975
57	0xbe76c7fa	-0.24099723
58	0x393eeef4	0.00018208829
59	0x3dec5915	0.115404285
60	0xbecb3b05	-0.39693466
61	0x3c5f26b8	0.013620071
62	0xbd067117	-0.032822695
63	0xbdefb92b	-0.1170524
64	0xbe49f422	-0.19722036
65	0x3b1e0f5d	0.0024118044
66	0xbd80f07e	-0.0629587
67	0x3d498663	0.049200427
68	0x3d3ba3e9	0.045810614
69	0xbd6f852c	-0.058476612
70	0xbdce4bc7	-0.10073047
71	0xbe84fd0b	-0.25974306
72	0xbd97e486	-0.07416634
73	0x3c104926	0.008806502
74	0x3db2eef9	0.08736987
75	0xbebb9856	-0.3663966
76	0xbe1c1482	-0.15242198
77	0xbe80ad8b	-0.25132403
78	0x3d677748	0.05651024
79	0xbeba9c00	-0.36447144
80	0x3cec6bba	0.028859962
81	0x3b38f477	0.0028221884
82	0x3cd93190	0.026512891
83	0xbd858c47	-0.065208964
84	0xbea94570	-0.3306079
85	0xbcdf7bfb	-0.027280798
86	0xbcd0661f	-0.02543932
87	0xbf0a0616	-0.53915536
88	0xbcfa8100	-0.03057909
89	0x3d178cab	0.036999386
90	0xbe1154f5	-0.14192565
91	0xbe4ed035	-0.20196612
92	0xbe9d8760	-0.30767345
93	0x3dd0d138	0.10196155
94	0xbe228f1f	-0.15874909
95	0xbe019e2d	-0.12657996
96	0x3d72fe2c	0.05932443
97	0xbda7d423	-0.08194759
98	0xbe94d59f	-0.2906923
99	0xbddf14e5	-0.10892657
100	0xbea7c44b	-0.32766947
101	0xbdb449e5	-0.08803157
102	0x3d90403f	0.07043504
103	0xbd6f0dd6	-0.058362804
104	0xbe3e2d44	-0.18571955
105	0xbda16dae	-0.07882248
106	0x3c122cae	0.008921785
107	0x3d961025	0.07327298
108	0xbe5d52af	-0.21613573
109	0x3b90abed	0.0044150264
110	0x3dfc7b3f	0.12328195
111	0x3e03475c	0.1282019
112	0xbcff3432	-0.031152818
113	0xbe0dbac6	-0.1384078
114	0xbd4ee2c9	-0.050509248
115	0xbe3c8fcd	-0.1841423
116	0xbd7b2369	-0.061313067
117	0xbe6228db	-0.22085898
118	0xbe43013d	-0.19043441
119	0xbe1b21ee	-0.15149662
120	0xbeaf066e	-0.34184593
121	0xbd61eaa0	-0.055155396
122	0xbe035220	-0.12824297
123	0xbd1da5d3	-0.03848822
124	0x3de6358b	0.11240681
125	0xbd9333a6	-0.071875855
126	0xbd90c395	-0.07068554
127	0xbc11632f	-0.008873745
128	0xbdb09008	-0.08621222
129	0xbe7f5335	-0.24934085
130	0xbdf295b3	-0.11844959
131	0x3d34f466	0.04417839
132	0xbd16d6d2	-0.036825962
133	0x3cf5d662	0.030009452
134	0xbe2c2222	-0.16809896
135	0xbe30586c	-0.1722123
136	0xbd83efd2	-0.064422265
137	0xbc3794d1	-0.011204914
138	0xbeb2d359	-0.3492687
139	0x3e091dd9	0.13390292
140	0xbc8d3764	-0.017238326
141	0xbdda3df5	-0.106563486
142	0xbdc1fb66	-0.094717786
143	0xbe8e5196	-0.2779662
144	0x3db062d7	0.08612602
145	0xbde1a596	-0.11017911
146	0xbe792279	-0.24329557
147	0xbdc986dc	-0.098401755
148	0xbdb6e047	-0.08929496
149	0x3e07e4f0	0.13270926
150	0xbe3e045c	-0.1855635
151	0xbea4f8e9	-0.32221153
152	0xbde57fbe	-0.112060055
153	0xbcc2373c	-0.023707978
154	0xbe89e5ad	-0.2693304
155	0xbecc6961	-0.39924148
156	0xbe043d5c	-0.12914032
157	0xbdcaa5a3	-0.09894874
158	0xbe521c91	-0.2051871
159	0xbe3787bf	-0.17922877
160	0xbe8da02b	-0.2766126
161	0x3e8e0cc8	0.27744126
162	0xbe8972f9	-0.2684553
163	0xbe220b71	-0.15824677
164	0xbe3c5cf5	-0.18394835
165	0xbe2019a0	-0.15634775
166	0xbd8a8735	-0.0676407
167	0xbd9b1d42	-0.0757394
168	0xbd0db272	-0.034594007
169	0x3db473db	0.0881116
170	0xbe3f30ec	-0.18671006
171	0xbe372298	-0.1788429
172	0x3c99b490	0.018762857
173	0xbe5308be	-0.20608804
174	0xbe8b2d25	-0.2718288
175	0xbe3d409e	-0.18481681
176	0xbe251922	-0.16122869
177	0xbe58d37b	-0.21174423
178	0xbd30e9fb	-0.04319189
179	0x399e5dbf	0.00030205955
180	0x3dcddee4	0.10052279
181	0xbe78077a	-0.24221602
182	0xbd252f0f	-0.04032808
183	0x3e57b044	0.21063334
184	0x3eabd8f2	0.33563954
185	0x3da85c3f	0.082207195
186	0xbdc0b3ba	-0.0940928
187	0xbe7ce4ff	-0.2469673
188	0x3c74ad4b	0.014933894
189	0xbd61c9ff	-0.05512428
190	0xbe64232b	-0.2227904
191	0xbdcaf9d4	-0.09910932
192	0xbe282945	-0.16421993
193	0xbda59bdc	-0.080863684
194	0xbe5bbb71	-0.21458222
195	0x3e0f4c3a	0.13993922
196	0x3c7f86ae	0.015596075
197	0xbb34511a	-0.002751416
198	0x3ced4b01	0.028966429
199	0xbe5eab07	-0.21744929
200	0x3d7a88f0	0.06116575
201	0xbd96fd7a	-0.073725656
202	0xbe540e96	-0.20708689
203	0xbdba5399	-0.09097976
204	0xbe035c05	-0.12828071
205	0xbdc40028	-0.09570342
206	0xbe8aba8b	-0.27095446
207	0xbe565282	-0.20929912
208	0xbd2f59a1	-0.042810086
209	0x3e092393	0.13392477
210	0xbd014399	-0.031558607
211	0xbdfc560e	-0.12321101
212	0xbe5a5bf3	-0.21324138
213	0xbe66f16f	-0.22553037
214	0xbc8ad533	-0.016947364
215	0x3d119815	0.035545427
216	0xbe30096f	-0.17191099
217	0xbd44357f	-0.04790258
218	0xbd770fc8	-0.060317785
219	0x3d1615f8	0.036642045
220	0xbe055390	-0.13020158
221	0x3dc7bcdc	0.09752819
222	0x3da36471	0.07978142
223	0xbdc4d283	-0.096104644
224	0xbd6f345c	-0.058399543
225	0xbe2b428e	-0.16724607
226	0xbe067026	-0.13128719
227	0xbddf8d0a	-0.10915573
228	0xbe91adda	-0.2845295
229	0xbe42d4b5	-0.19026454
230	0x3d987043	0.07443287
231	0xbe19fee0	-0.15038633
232	0xbe5a3791	-0.2131026
233	0xbde22049	-0.11041314
234	0xbe4de392	-0.20106342
235	0x3daa442c	0.08313784
236	0xbd549cb5	-0.05190726
237	0x3c7702dc	0.015076365
238	0xbd16c5e2	-0.03680981
239	0x3e31577f	0.17318533
240	0x3c5d8bb7	0.01352208
241	0xbe186d92	-0.14885548
242	0xbc7184e9	-0.014741161
243	0xbd1579d0	-0.036493123
244	0x3c8988a9	0.016788797
245	0xbe4ff057	-0.20306526
246	0x3e09037b	0.13380234
247	0xbc88fefd	-0.01672315
248	0xbe6523f6	-0.22377
249	0x3e22f6f3	0.15914516
250	0x3e3d6468	0.18495333
251	0xbd26f323	-0.040759217
252	0x3db33cc9	0.08751828
253	0xbd227abe	-0.039667837
254	0xbdc9c916	-0.09852807
255	0xbe59bc12	-0.2126315

fc2.weight f4 [300, 400]
0	0xbd0201e2	-0.031740077
1	0x3e5dd286	0.2166234
2	0xbdf2999a	-0.118457034
3	0xbcc083be	-0.02350032
4	0xbe7e113c	-0.24811262
5	0x3d81b512	0.063333645
6	0xbe26da5d	-0.16294236
7	0xbde942be	-0.11389683
8	0xbe85e4ab	-0.26151022
9	0xbc8bad3b	-0.017050376
10	0xbb718c58	-0.0036857333
11	0x3d903c0d	0.07042704
12	0xbd8aa5e1	-0.0676992
13	0x3e07ef86	0.13274965
14	0xbf443c51	-0.76654536
15	0xbe4820fb	-0.19543831
16	0xbe2a9d28	-0.16661513
17	0xbdfc6c67	-0.123253636
18	0xbe9ff9af	-0.3124518
19	0x3d16deb7	0.03683349
20	0xbe35e488	-0.17762959
21	0xbf04ad0b	-0.5182654
22	0xbc097668	-0.008390047
23	0xbd7f9dbf	-0.062406298
24	0xbde0fe4a	-0.10986002
25	0xbed6ba31	-0.41938928
26	0xbe779b16	-0.24180254
27	0xbea8862c	-0.32914865
28	0xbe714a73	-0.23563556
29	0xbe76cbff	-0.24101256
30	0xbd8e9062	-0.069611326
31	0xbe8db726	-0.27678794
32	0xbe70aee2	-0.23504212
33	0xbf748e6f	-0.95529836
34	0x3dc06068	0.09393388
35	0xbcd0e0ea	-0.025497872
36	0xbed09c32	-0.40744168
37	0x3d9c2a72	0.07625283
38	0xbdfa4951	-0.12221015
39	0xbebf880f	-0.37408492
40	0x3de70675	0.112805285
41	0xbe133bef	-0.14378332
42	0x3e385d90	0.18004441
43	0xbe1106fc	-0.1416282
44	0x3def9f55	0.11700312
45	0x3dbaf38a	0.09128483
46	0xbea36a04	-0.3191682
47	0xbeef5946	-0.46747798
48	0xbe64a1cb	-0.22327344
49	0xbedf6285	-0.43629852
50	0xbdfbdba6	-0.12297754
51	0xbdb3d909	-0.087816305
52	0xbd10f842	-0.035393007
53	0xbd828874	-0.063736826
54	0xbec160dd	-0.37769213
55	0xbe1f0664	-0.15529782
56	0x3dd9a4fa	0.1062717
57	0x3ea8d48d	0.32974663
58	0x3daf20af	0.08551156
59	0xbea0be28	-0.31395078
60	0x3df743e8	0.12073499
61	0xbe848ee7	-0.25890276
62	0x3d0a9e67	0.03384247
63	0xbf44f5f8	-0.7693782
64	0x3cdfbcfd	0.027311796
65	0x3caf8370	0.021424979
66	0xbeb2ad66	-0.34897918
67	0xbe0f994e	-0.14023325
68	0xbe5214d8	-0.20515764
69	0xbd633db1	-0.055478755
70	0x3d9238fa	0.07139774
71	0xbeb77b81	-0.35836414
72	0x3e9931b7	0.29920742
73	0x3e01f671	0.12691666
74	0x3e1a4951	0.1506703
75	0xbe8adf96	-0.27123708
76	0xbc08269a	-0.008309985
77	0xbe8b81b2	-0.27247387
78	0x3dd0d4c7	0.10196834
79	0xbc6b4bdf	-0.014361351
80	0xbd5b1532	-0.05348701
81	0x3dbea4e8	0.09308797
82	0x3e68fc99	0.22752608
83	0xbd57e76c	-0.052710935
84	0x3e7742a7	0.2414652
85	0xbe3ac7f5	-0.1824034
86	0xbe8efdf3	-0.27928123
87	0x3ee2f2c7	0.4432585
88	0x3e7d51c0	0.24738216
89	0xbe4fcb0f	-0.20292304
90	0x3d77b4fb	0.06047533
91	0xbd12d044	-0.03584315
92	0xbd84a2f3	-0.064763926
93	0x3de6819e	0.11255191
94	0xbe26c4bc	-0.16285986
95	0x3b2fc5b6	0.0026820726
96	0xbdc9ef0d	-0.098600484
97	0xbdf70176	-0.120608255
98	0x3de95c35	0.1139454
99	0x3c067892	0.008207457
100	0x3ef7decd	0.4841217
101	0xbb84b78e	-0.0040502017
102	0x3e56ebdb	0.20988409
103	0x3e034607	0.12819682
104	0xbe97550c	-0.29557073
105	0xbe192adb	-0.14957754
106	0x3dde233b	0.108465634
107	0x3dc2c16f	0.09509551
108	0xbdaaf7c8	-0.08348042
109	0x3d93550d	0.071939565
110	0x3da7e2f1	0.081975825
111	0xbe985cd8	-0.29758334
112	0xbea969c9	-0.3308852
113	0xbeb530e2	-0.35388857
114	0x3cd153d8	0.025552675
115	0x3d19be3a	0.03753493
116	0x3df90e9d	0.121609904
117	0xbe1ea798	-0.1549362
118	0x3d6c907b	0.057754975
119	0xbe2fad02	-0.17155841
120	0xbe0d555e	-0.13802096
121	0xbe93f027	-0.2889416
122	0x3ca4a417	0.020097775
123	0xbe3c60a8	-0.18396246
124	0xbdb564c3	-0.088571094
125	0x3dfc849a	0.12329979
126	0xbd99928a	-0.07498653
127	0x3e9af4f8	0.3026502
128	0xbe240b60	-0.16019964
129	0xbe91017b	-0.28321442
130	0x3e8da6fb	0.27666458
131	0x3dadcfe0	0.08486915
132	0xbddd7de5	-0.10815028
133	0xbf083853	-0.53210944
134	0x3e0c8867	0.13723908
135	0xbd2f1e6a	-0.042753614
136	0x3ddc184b	0.10746821
137	0xbe8734c6	-0.2640745
138	0xbec0b935	-0.37641302
139	0xbcad31f5	-0.021141985
140	0xbdd4449c	-0.10364649
141	0xbcbdb004	-0.02315522
142	0xbed79189	-0.42103222
143	0xbe6f11c9	-0.23346628
144	0xbd8bfd0c	-0.06835374
145	0x3de01dcd	0.10943184
146	0x3c953581	0.01821399
147	0xbeaee8dd	-0.34162036
148	0xbda2b63c	-0.07944915
149	0xbd90c493	-0.070687436
150	0xbd03a875	-0.032143075
151	0xbee57dc6	-0.4482252
152	0xbe606e1e	-0.21917006
153	0x3e384c16	0.17997774
154	0x3bea55d9	0.007151347
155	0xbe31db0c	-0.17368716
156	0xbd939eb5	-0.07208005
157	0xbe30335c	-0.17207092
158	0x3df38a51	0.11891616
159	0xbe83b888	-0.25726724
160	0x3ddeeedd	0.10885403
161	0xbf168ade	-0.58805645
162	0xbd92594a	-0.07145937
163	0x3cb504a3	0.022096938
164	0xbcbb6820	-0.0228768
165	0xbeed6339	-0.46364763
166	0x3ccdcffd	0.02512359
167	0xbda745f8	-0.08167642
168	0xbf06f5e2	-0.5271894
169	0x3c03934b	0.008030723
170	0x3aa820e6	0.0012827187
171	0xbeb8c1eb	-0.36085448
172	0xbed29d01	-0.4113541
173	0xbe812a8f	-0.25227782
174	0xbe3c5634	-0.18392259
175	0xbebdc7a1	-0.37066367
176	0x3de79dcd	0.11309395
177	0xbe940e40	-0.28917122
178	0xbe22d5d2	-0.15901878
179	0xbe8958b7	-0.26825497
180	0xbf150614	-0.582124
181	0x3ea247ee	0.31695503
182	0x3cc1ca91	0.023656162
183	0x3e310b90	0.17289567
184	0xbef3857e	-0.47562784
185	0xbdec12a9	-0.11526997
186	0x3de6ad83	0.112635635
187	0x3e3c8263	0.18409114
188	0xbdebef2c	-0.11520228
189	0x3e2acb00	0.16679001
190	0xbdd04228	-0.10168868
191	0x3e445150	0.19171643
192	0xbf3f635d	-0.7476099
193	0xbda19fae	-0.078917846
194	0xbe7037b6	-0.23458752
195	0x3e5aeafc	0.21378702
196	0xbeb351cd	-0.35023347
197	0x3d6b9c68	0.057522207
198	0xbed354a3	-0.4127551
199	0xbd266d7a	-0.04063175
200	0xbf1762eb	-0.5913531
201	0x3c741447	0.014897413
202	0xbe51af68	-0.20477068
203	0xbec2c52c	-0.38041055
204	0xbe8d2d54	-0.27573645
205	0xbe9cc61d	-0.30619898
206	0xbc9e8932	-0.01935253
207	0xbe1edd5f	-0.15514134
208	0x3d9fba4d	0.07799206
209	0xbe166ce9	-0.14689983
210	0xbca593f0	-0.020212144
211	0x3e1213af	0.14265321
212	0xbee54cb7	-0.4478509
213	0xbd759c2d	-0.059963394
214	0x3e8ca2cc	0.27467954
215	0xbe343b07	-0.17600642
216	0xbf063721	-0.5242787
217	0xbf22554f	-0.6341142
218	0xbe1dec8f	-0.15422271
219	0x3e93b8a5	0.2885181
220	0xbd7907e2	-0.060798533
221	0xbe9f128e	-0.31068844
222	0xbef26d5a	-0.47349054
223	0xbd81fd33	-0.06347122
224	0xbe8e81be	-0.2783336
225	0xbd570433	-0.05249424
226	0xbf02458f	-0.5088739
227	0xbdafdd7f	-0.08587169
228	0x3e7c5f1b	0.24645655
229	0x3e18c2d2	0.14918068
230	0x3d70f8c0	0.058830976
231	0x3dc0cff5	0.09414665
232	0x3ceebb01	0.029141905
233	0xbe7e0c79	-0.24809445
234	0x3d5771d2	0.052598782
235	0xbe6e4fd5	-0.23272641
236	0xbd869181	-0.065707214
237	0x3c5e642b	0.013573687
238	0xbe47a4db	-0.19496481
239	0x3dd647f1	0.104629405
240	0x3d707c92	0.05871255
241	0xbe009cad	-0.12559767
242	0xbe16de98	-0.1473335
243	0xbe88774f	-0.26653525
244	0xbde59f3b	-0.112120114
245	0xbeb8e27d	-0.36110297
246	0x3e157a6f	0.14597486
247	0x3ee94d74	0.45566905
248	0x3d18053d	0.03711437
249	0xbe5c102f	-0.21490549
250	0xbcc808e0	-0.024418294
251	0x3c955231	0.018227668
252	0x3de605bd	0.11231563
253	0x3d7e3430	0.06206149
254	0x3dc913fd	0.098182656
255	0xbf0d5f99	-0.55223995

fc2.bias f4 [300]
0	0xbdb49b50	-0.08818686
1	0x3c000c09	0.007815369
2	0xbcabb5e3	-0.020960754
3	0x3c13b555	0.009015401
4	0x3e1d413b	0.15356915
5	0xbc7be585	-0.015374546
6	0x3cd70c10	0.026250869
7	0xbe0416c8	-0.12899315
8	0x3d91b8ac	0.071153015
9	0xbbce4742	-0.0062951157
10	0xbdba3a5d	-0.09093163
11	0x3db71ac9	0.08940656
12	0x3c7517fc	0.014959332
13	0xbd30e6e6	-0.043188952
14	0xbca06e9c	-0.019583993
15	0x3b7fd6dd	0.003903798
16	0x3d368057	0.04455599
17	0xba0c76c1	-0.0005358272
18	0x3c15e02e	0.009147687
19	0x3d3ad306	0.045611404
20	0x3afcb4df	0.0019279978
21	0x3c8f0f44	0.017463334
22	0xbd030926	-0.031991147
23	0xbca4784d	-0.020076895
24	0x3d3eb36b	0.046557825
25	0x3c1d1bf6	0.009589186
26	0xbd3b54c7	-0.045735147
27	0xbd4570bf	-0.048203226
28	0xbd26cf56	-0.040725075
29	0xbd42d2bb	-0.04756425
30	0xbc577443	-0.013150278
31	0xbe643e50	-0.22289395
32	0x3dd0b981	0.10191632
33	0x3de88c7b	0.113549195
34	0xbd6e621c	-0.058199033
35	0x3d844c0f	0.064598195
36	0x3e3a73a0	0.1820817
37	0x3ca75bb7	0.020429475
38	0xbc7e91fe	-0.015537737
39	0xbd924128	-0.07141334
40	0xbd9d94f7	-0.076944284
41	0x3c8bdc3a	0.017072786
42	0xbd257e10	-0.040403426
43	0xbd6ad5ec	-0.057332918
44	0xbe029f53	-0.1275609
45	0x3d848245	0.064701594
46	0x3c835ec2	0.016036395
47	0x3cef14eb	0.02918478
48	0xbce0124e	-0.027352478
49	0xbda0d129	-0.07852394
50	0x3cb6890c	0.022282146
51	0xbd30cbb3	-0.043163013
52	0xbe00780e	-0.12545797
53	0xbd6d2260	-0.05789411
54	0xbd7a334b	-0.061084073
55	0xbd808d94	-0.06277004
56	0x3cd4c58b	0.025973102
57	0x3ce4c225	0.027924607
58	0x3d750fbc	0.05982946
59	0x3d6d7929	0.057976875
60	0xb96a5bbe	-0.00022350156
61	0xbe0636af	-0.13106798
62	0x3dd8003a	0.10546918
63	0xbd82f47e	-0.063942894
64	0x3df68025	0.120361604
65	0x3d83a3ef	0.06427752
66	0xbcf31cf1	-0.029676886
67	0x3dd84b49	0.105612345
68	0xbdcb1646	-0.09916358
69	0xbddc59b6	-0.107592985
70	0x3e258733	0.16164856
71	0xbcaf100f	-0.021369962
72	0x3c6c35cb	0.014417122
73	0xbccf402d	-0.025299156
74	0xbcf43e35	-0.029814819
75	0x3dd5261e	0.10407661
76	0xbdbab4eb	-0.091165386
77	0x3d5430ff	0.05180454
78	0xbdf221d5	-0.11822859
79	0xbd811df4	-0.06304541
80	0xbd3b0155	-0.045655567
81	0xbd195109	-0.037430797
82	0xbe0f8efa	-0.14019385
83	0xbc57f54e	-0.013181044
84	0x3be6b77e	0.007040917
85	0xbcb21658	-0.02173917
86	0xbd0ea4a7	-0.034824993
87	0x3d0635a3	0.032765996
88	0x3dda39e3	0.10655572
89	0xbcd5156b	-0.02601119
90	0xbd928703	-0.07154658
91	0x3bd74fc7	0.0065707895
92	0x3c7f118b	0.015568147
93	0xbd689ea6	-0.056791924
94	0x3ddfb02b	0.10922273
95	0xbdb60246	-0.088871524
96	0xbdadeb3d	-0.08492134
97	0xba3362dc	-0.00068430393
98	0x3a25983e	0.00063169363
99	0xbcbf3156	-0.023338955
100	0xbd8adda0	-0.06780553
101	0xbd93ca0a	-0.0721627
102	0xbd97cc04	-0.0741196
103	0x3d7b1e08	0.061307937
104	0xbe303c80	-0.17210579
105	0xbde353ca	-0.11099966
106	0x3dfc6e70	0.12325752
107	0xbd86428e	-0.06555663
108	0xbbbd1dfa	-0.0057713958
109	0xbdc8172d	-0.097700454
110	0x3d74efa3	0.059798848
111	0x3d7c5598	0.061605066
112	0xbccf8b80	-0.025335073
113	0x3e2003eb	0.15626495
114	0xbdadeddf	-0.08492636
115	0x3d66add5	0.056318123
116	0xbdbe4734	-0.09290925
117	0x3a5d7610	0.00084480736
118	0xb8ebdd2a	-0.00011246868
119	0xbde08dca	-0.10964544
120	0xbb9b2b0d	-0.0047353567
121	0x3df8a587	0.12140947
122	0xbd86975c	-0.06571838
123	0xbd99ec1e	-0.07515739
124	0xbe0b81e8	-0.13623774
125	0xbe148037	-0.14502035
126	0x3cb99b93	0.022657191
127	0x3df83758	0.12119931
128	0x3d41e602	0.047338493
129	0x3c55a6c7	0.013040251
130	0x3ce1476b	0.027499875
131	0xbd84cfaf	-0.06484925
132	0xbd9a8c84	-0.075463325
133	0xbd01e7e2	-0.03171528
134	0x3d886470	0.06659782
135	0x3dfdc8b5	0.123917975
136	0x3c30b2f5	0.010784854
137	0xbd6d90f2	-0.05799956
138	0xbdbbbe7d	-0.09167192
139	0xbd164a01	-0.03669167
140	0xbd18e6d4	-0.03732951
141	0xbbab151b	-0.005221022
142	0xbcbf43e9	-0.023347812
143	0xbce2323d	-0.027611846
144	0x3c843ba7	0.016141726
145	0xbb78b900	-0.0037952065
146	0x3e4c1903	0.19931416
147	0x3ce575f9	0.028010355
148	0xbe8f05ee	-0.27934211
149	0x3c39a606	0.011331087
150	0x3dad5a71	0.08464516
151	0x3c408fb5	0.011753012
152	0x3db0cdcc	0.08633003
153	0xbd19dc52	-0.03756363
154	0xbbac2c4d	-0.0052543045
155	0xbc1004c8	-0.008790202
156	0xbd6cb36e	-0.057788305
157	0x3d368da8	0.044568688
158	0xbc3f07dd	-0.01165959
159	0x3d37c616	0.044866644
160	0xbcf233d4	-0.02956573
161	0xbc2ee858	-0.010675512
162	0xbc30da81	-0.010794283
163	0xbccec4a3	-0.025240248
164	0x3d640bc4	0.055675283
165	0xbb748990	-0.003731344
166	0x3cc7ab96	0.02437381
167	0x3e42ec11	0.19035365
168	0x3e3a6d02	0.18205646
169	0x3e0d8b5d	0.13822694
170	0xbd6c0c52	-0.057628937
171	0x3c557596	0.013028523
172	0x3c5a107b	0.013309593
173	0xbd0164d2	-0.03159029
174	0xbd26923d	-0.040666807
175	0xbd9a0223	-0.07519939
176	0x3db196ab	0.08671316
177	0xbc362352	-0.011116819
178	0xbcf63017	-0.030052228
179	0x3e10c1bf	0.14136408
180	0xbd2edc53	-0.042690586
181	0x3dd09486	0.101845786
182	0x3c2080aa	0.009796301
183	0xbdf18263	-0.117924474
184	0xbd3b0cfa	-0.045666672
185	0xbd89b0e7	-0.067231946
186	0xbc0b9e45	-0.008521621
187	0x3cf19d51	0.02949396
188	0x3dad3444	0.084572345
189	0xbd4b0134	-0.049561694
190	0xbddc9b55	-0.10771815
191	0xbd3af50d	-0.045643855
192	0x3da6a551	0.08137
193	0xbcdd4f47	-0.027015341
194	0xbd194a58	-0.037424415
195	0xbc604a6d	-0.0136896195
196	0x3db62923	0.08894565
197	0xbd05bf14	-0.03265293
198	0x3ccaf574	0.024775244
199	0xbe031669	-0.12801518
200	0xbd92d587	-0.07169633
201	0x3daf6bdc	0.085654944
202	0xbd31b0be	-0.043381445
203	0xbc623234	-0.013805915
204	0xbcf40a1e	-0.02978998
205	0x3c3425f3	0.010995376
206	0xbcfc936b	-0.030832013
207	0x3cb78d05	0.02240611
208	0xbc6b932b	-0.014378349
209	0x3d0be347	0.034152295
210	0xbdac2695	-0.084057964
211	0x3d30d101	0.04316807
212	0x3d995b5e	0.0748813
213	0xbcde37ac	-0.027126156
214	0xbd6099fa	-0.054834343
215	0xbe059f6f	-0.130491
216	0xbd25ef9a	-0.040511705
217	0xbe71e3ed	-0.23622103
218	0xbd835d01	-0.064142235
219	0x3e1e4720	0.1545682
220	0x3d0ca303	0.034335148
221	0x3c114605	0.008866792
222	0xbd6f3627	-0.058401253
223	0xbc8d0a8c	-0.017216943
224	0x3d924260	0.07141566
225	0xba8d54ed	-0.0010782756
226	0x3bc4e19f	0.0060083414
227	0xbd4c10fe	-0.049820893
228	0x3da60e8d	0.08108244
229	0x3cea2025	0.02857978
230	0xbcbb9c61	-0.022901716
231	0xbd27c0bc	-0.04095529
232	0xbce5e3ad	-0.028062666
233	0x3d63b7dc	0.055595264
234	0xbce2313e	-0.027611371
235	0x3c623dc3	0.01380867
236	0x3deb1f88	0.114806235
237	0x3d739559	0.0594686
238	0xbd56eec3	-0.052473795
239	0xbda69165	-0.081332006
240	0x3d4a77de	0.04943072
241	0xbbcc12a8	-0.00622781
242	0xbd44cb9f	-0.04804575
243	0x3e4b9160	0.19879675
244	0xbd83ef2b	-0.06442102
245	0x3d1a1521	0.037617806
246	0x3cb9a13b	0.022659888
247	0xbd793775	-0.060843904
248	0xbda811f5	-0.0820655
249	0x3dc9e7de	0.09858678
250	0xbab6065a	-0.0013887391
251	0x3d1ae08e	0.03781181
252	0xbd81710c	-0.0632039
253	0xbd286c54	-0.041118935
254	0xbd329bed	-0.043605734
255	0xbd6a378d	-0.057181884

fc3.weight f4 [2, 300]
0	0x3f03b0c6	0.5144161
1	0xbf010c76	-0.5040964
2	0xbd02ab93	-0.031901907
3	0x3e049dbf	0.129508
4	0xbf94f650	-1.1637669
5	0xbcf71f82	-0.030166391
6	0x3b5ecc22	0.0033996184
7	0xbf63c093	-0.8896572
8	0x3d87d920	0.0663321
9	0xbbad8080	-0.0052948594
10	0xbd1a1192	-0.037614413
11	0x3e800098	0.25000453
12	0x3d5c2d76	0.053754292
13	0x3daa687a	0.083207086
14	0xbf6d2446	-0.92633474
15	0xbe832709	-0.2561572
16	0xbf574a4c	-0.84097743
17	0x3e8cabcd	0.27474824
18	0xbce80826	-0.028324198
19	0x3e5af72d	0.21383353
20	0xbeb81b90	-0.3595853
21	0xbd1301b5	-0.0358903
22	0x3f00d44c	0.5032394
23	0xbc8fa350	-0.017533928
24	0xbdcdead5	-0.10054556
25	0xbf7ecd88	-0.99532366
26	0xba88c093	-0.0010433368
27	0x3e623de3	0.2209392
28	0xbc259a63	-0.010107609
29	0xbcdecdc8	-0.027197734
30	0xbcc8055d	-0.02441662
31	0x3f2d7aae	0.6776532
32	0x3e19afdc	0.15008491
33	0x3e8df9f3	0.2772976
34	0xbd44871f	-0.047980424
35	0x3da88e7d	0.082303025
36	0x3d719a97	0.05898532
37	0x3f12617c	0.5718
38	0xbcba4f2a	-0.022742826
39	0x3d44cd98	0.048047632
40	0xbd16ad78	-0.036786526
41	0x3caeecb8	0.02135311
42	0x3d446e7a	0.04795692
43	0x3dd4ad3a	0.10384603
44	0x3e64bf14	0.22338516
45	0x3dfaec51	0.12252105
46	0xbe7da333	-0.24769287
47	0xbc96da0c	-0.01841452
48	0xbf1f7297	-0.62284225
49	0x3e151da6	0.14562091
50	0xbc829e7e	-0.015944716
51	0x3e143cd2	0.14476326
52	0x3daf344a	0.08554895
53	0xbb014bb5	-0.0019728963
54	0xbcf07e3b	-0.029357066
55	0xbd2e09aa	-0.042489685
56	0xbe99bcf4	-0.30026972
57	0xbb9e236f	-0.0048260014
58	0xbcbfe26f	-0.023423402
59	0xbeb6da55	-0.3571345
60	0xbc4cfdd0	-0.0125116855
61	0xbeef552d	-0.4674467
62	0xbf2388d8	-0.6388068
63	0xbb2fc622	-0.0026820977
64	0xbef783e0	-0.483428
65	0xbeb69867	-0.3566315
66	0x3e8802a8	0.26564527
67	0xbf1871ac	-0.5954845
68	0xbf34c14c	-0.7060745
69	0x3e8b9ddf	0.27268884
70	0xbf7a26bc	-0.97715354
71	0xbc3a76cc	-0.011380862
72	0x3ebb9da6	0.36643714
73	0xbbcc5629	-0.006235857
74	0xbf66c938	-0.90150785
75	0x3ed4197b	0.4142569
76	0x3b3375a1	0.0027383345
77	0x3d8464cf	0.0646454
78	0xbf09f41b	-0.538881
79	0xbc73fe8b	-0.014892231
80	0x3f147cad	0.5800274
81	0xbe7c370b	-0.24630372
82	0x3e279283	0.16364484
83	0xbc56c6b6	-0.0131089
84	0x3d245b79	0.040126298
85	0xbc594867	-0.013261891
86	0xbf1831b7	-0.5945086
87	0xbec790ad	-0.38977566
88	0xbf0ed825	-0.5579856
89	0xbd34b1fd	-0.044115055
90	0x3e9eff7b	0.3105429
91	0xbdc3c9cf	-0.09559976
92	0xbcc07b3f	-0.023496268
93	0x3c46d64e	0.012136055
94	0xbf0687c1	-0.52550894
95	0x3cd72a7b	0.026265373
96	0xbe0e1221	-0.13874103
97	0x3e04ca72	0.12967852
98	0x3e2754e0	0.16340971
99	0xbcdd8c91	-0.027044566
100	0x3f190880	0.59778595
101	0x3e8246f5	0.2544476
102	0x3e880513	0.2656637
103	0xbf5f44ea	-0.8721453
104	0xbf342ccd	-0.7038086
105	0x3db7ed3f	0.08980798
106	0x3ed2d884	0.41180813
107	0x3bb357cd	0.005473113
108	0x3d03a005	0.03213503
109	0xbdf67ca6	-0.120354936
110	0xbf62249a	-0.883371
111	0xbe3fb76c	-0.18722314
112	0xbf62c8cd	-0.8858765
113	0xbdae00de	-0.08496259
114	0x3ea27a2b	0.31733832
115	0xbee65bf2	-0.44992024
116	0xbec4d03d	-0.38440123
117	0x3ea5932d	0.3233885
118	0xbcc26959	-0.023731874
119	0xbe466791	-0.19375445
120	0xbcd6d7c3	-0.02622593
121	0x3ea0b932	0.31391293
122	0x3f391668	0.72299814
123	0xbf4e2f52	-0.80540955
124	0xbe69731c	-0.22797817
125	0x3f25b3d8	0.64727545
126	0xbd2bd8cd	-0.041954804
127	0xbe1f513d	-0.15558334
128	0x3df2e1e4	0.118594915
129	0x3e478fa3	0.19488387
130	0x3e2dd5b9	0.1697606
131	0xbe5741de	-0.2102122
132	0x3d51494f	0.051095303
133	0xbca3c19e	-0.019989785
134	0x3f0246f2	0.50889504
135	0x3e0997ec	0.1343686
136	0xbcc09b3b	-0.02351152
137	0xbc5c96b7	-0.013463668
138	0xbe8ba849	-0.2727683
139	0x3e7ad212	0.24494198
140	0x3de4fef1	0.11181439
141	0xbec514ec	-0.38492525
142	0x3f25155c	0.64485717
143	0x3d6526fd	0.055945385
144	0x3d15174c	0.03639917
145	0xbebea045	-0.3723165
146	0xbe488e5f	-0.1958556
147	0x3d8857c7	0.06657367
148	0x3eaca84c	0.3372215
149	0xbef5551d	-0.479165
150	0xbf6c059a	-0.9219605
151	0xbc582c03	-0.013194087
152	0xbfb0d9df	-1.3816489
153	0x3df94cb8	0.12172836
154	0xbcfc2974	-0.030781485
155	0xbf602496	-0.87555826
156	0xbed6208a	-0.418217
157	0x3d59da83	0.053186905
158	0xbea08045	-0.31347862
159	0xbf0c382e	-0.54773223
160	0xbf02a628	-0.51034784
161	0xbce4bf7a	-0.027923334
162	0xbd4a01c2	-0.049318083
163	0x3db78d00	0.089624405
164	0x3b6f8aca	0.003655123
165	0xbf1180ed	-0.5683735
166	0xbca2f60b	-0.019892713
167	0xbf73013f	-0.94923776
168	0xbeeeb145	-0.4661962
169	0x3cfa23ae	0.030534592
170	0xbeb159d7	-0.34638855
171	0x3e1197a3	0.14218001
172	0xbc315c9a	-0.010825301
173	0xbd3e3ee0	-0.04644668
174	0xbcdb43db	-0.026765754
175	0xbda2da19	-0.07951755
176	0x3bc22d62	0.00592582
177	0xbe5e44e9	-0.21705975
178	0x3d19f0ce	0.037583165
179	0x3ea0d96d	0.31415883
180	0xbc029251	-0.007969455
181	0xbed3f414	-0.41397154
182	0x3f169a58	0.5882926
183	0xbf75bb91	-0.9598933
184	0xbc3a879f	-0.011384874
185	0x3ed53635	0.4164292
186	0x3d9b53c7	0.07584339
187	0xbee39bdc	-0.4445485
188	0xbee2fc41	-0.4433308
189	0xbd833e88	-0.06408411
190	0xbdfe6160	-0.124209166
191	0xbd0e7fc8	-0.03478983
192	0x3e3bffe1	0.18359329
193	0x3e69cda9	0.2283236
194	0xbd622ca2	-0.055218346
195	0x3e4226fb	0.18960182
196	0xbf0f883b	-0.56067246
197	0xbd0b4c03	-0.034008037
198	0xbdb9019c	-0.0903351
199	0xbebfdaa4	-0.37471497
200	0xbe63f114	-0.22259933
201	0x3e369aa7	0.17832433
202	0x3d031833	0.0320055
203	0xbce0b529	-0.027430134
204	0x3d6599fe	0.05605506
205	0xbe8e3760	-0.27776623
206	0xbc1dc8f2	-0.009630429
207	0xbe87afd9	-0.2650135
208	0xbd2ce4e5	-0.04221048
209	0xbe7cfd65	-0.24706037
210	0xbd19a05e	-0.037506454
211	0x3d26a26b	0.040682238
212	0xbf80b26f	-1.0054454
213	0x3de5665f	0.11201166
214	0xbd81e93a	-0.063433126
215	0x3a3cb029	0.0007197881
216	0x3c0bd62d	0.00853495
217	0xbdddbdf7	-0.108272485
218	0xbde83924	-0.11339024
219	0xbeb28f2f	-0.34874865
220	0xbf985e50	-1.1903782
221	0xbf0666da	-0.5250069
222	0xbe45addc	-0.19304603
223	0xbda9715d	-0.082735755
224	0xbf47f51d	-0.7810839
225	0xbc8011a2	-0.015633408
226	0xbf1dfb46	-0.6171154
227	0xbd5339e9	-0.0515689
228	0xbeb3549e	-0.35025495
229	0xbedd919f	-0.43275163
230	0xbcf3dc9f	-0.029768286
231	0xbe0235a3	-0.12715773
232	0xbcef4baf	-0.029210893
233	0xbef02136	-0.46900338
234	0x3e924aa0	0.2857256
235	0x3d243eaa	0.040098824
236	0x3e4c2a5a	0.19938031
237	0xbf91e7e9	-1.1398898
238	0xbd284f34	-0.04109116
239	0xbd919a11	-0.07109464
240	0x3e348838	0.17630088
241	0x3e7c81f0	0.24658942
242	0xbd0c9ae3	-0.0343274
243	0xbf14f948	-0.58192873
244	0x3dbbe9b4	0.09175435
245	0x3e3e03bf	0.18556117
246	0x3df05128	0.11734229
247	0xbc9cffa4	-0.019164868
248	0xbe8dc022	-0.27685648
249	0x3debb81d	0.11509726
250	0xbd49f6e1	-0.049307708
251	0x3e300d81	0.17192651
252	0x3e865b1b	0.26241383
253	0xbc9beef5	-0.019034842
254	0xbef204f6	-0.4726941
255	0xbf1e7ecc	-0.61912227

fc3.bias f4 [2]
0	0x3d23ffc3	0.040038835
1	0xbcc1f54d	-0.023676539
