Tennis/Nets/checkpoint_critic400.pth (torch_old, 526870 bytes, 9 tensors)

bn1.weight f4 [24]
0.58633 0.36852518 0.5258631 0.3840459 0.72706276 0.65970695 0.3785528 0.05468009
0.47373632 0.033566758 0.47413623 0.4421848 0.45339096 0.93562007 0.46423757 0.613559
0.6444577 0.20626158 0.26257646 0.80529135 0.19868629 0.4975368 0.4607842 0.72391814
00000000: b919 163f 55af bc3e f79e 063f aaa1 c43e
00000010: c920 3a3f 8ee2 283f acd1 c13e 3bf8 5f3d
00000020: 918d f23e 4c7d 093d fcc1 f23e 0c66 e23e
00000030: dc22 e83e cc84 6f3f 8cb0 ed3e 3412 1d3f
00000040: 2efb 243f 3c36 533e 6c70 863e 9327 4e3f
00000050: 6b74 4b3e 25bd fe3e e8eb eb3e b352 393f

bn1.bias f4 [24]
-0.040372215 0.050569724 0.00066731084 0.0518258 0.023470458 0.034484793 0.019007381 0.016670657
-0.110857986 0.048686225 0.031532865 0.06381514 0.02512699 0.037605416 0.038925722 0.07097155
-0.048908137 0.07900885 -0.0009943251 0.060304474 0.0397645 0.037344355 -0.0033797664 0.026659967
00000000: 565d 25bd 3322 4f3d 79ee 2e3a 4a47 543d
00000010: 1e45 c03c ed3f 0d3d 5eb5 9b3c e790 883c
00000020: 8309 e3bd 356b 473d 9b28 013d 83b1 823d
00000030: 1ed7 cd3c 2308 1a3d 9470 1f3d 8859 913d
00000040: e653 48bd 64cf a13d 0454 82ba d301 773d
00000050: 1ae0 223d 65f6 183d 127f 5dbb 0166 da3c

bn1.running_mean f4 [24]
-4.2781906 -0.19427559 10.736892 0.8806507 0.056658115 3.0474756 10.736892 0.8806507
-4.5698094 -0.2087086 11.964134 0.6494936 0.006180775 2.9454076 11.964134 0.6494936
-4.8231444 -0.24698867 13.332687 0.3860847 0.009357483 2.7765205 13.332687 0.3860847
00000000: f0e6 88c0 2ef0 46be 4fca 2b41 5372 613f
00000010: 5712 683d d709 4340 4fca 2b41 5372 613f
00000020: e13b 92c0 b5b7 55be 186d 3f41 3645 263f
00000030: 1988 ca3b 8f81 3c40 186d 3f41 3645 263f
00000040: 3357 9ac0 99ea 7cbe b052 5541 e5ac c53e
00000050: 2150 193c 83b2 3140 b052 5541 e5ac c53e

bn1.running_var f4 [24]
19.446623 0.90648264 298.9147 6.2400813 42.41269 5.4884486 298.9147 6.2400813
19.537064 0.9348576 311.67572 7.598043 45.884724 6.239862 311.67572 7.598043
19.477613 0.9612236 313.4379 9.408436 49.344604 7.58257 313.4379 9.408436
00000000: af92 9b41 3f0f 683f 1575 9543 bfae c740
00000010: 98a6 2942 5fa1 af40 1575 9543 bfae c740
00000020: e84b 9c41 d452 6f3f 7ed6 9b43 2b23 f340
00000030: f589 3742 f3ac c740 7ed6 9b43 2b23 f340
00000040: 27d2 9b41 c012 763f 0db8 9c43 f488 1641
00000050: e060 4542 6aa4 f240 0db8 9c43 f488 1641

fcs1.weight f4 [400, 24]
0.019264229 -0.023590146 0.0049788505 0.0027160558 -0.013421352 0.09972439 0.0032592395 -0.02079568
0.014404496 -0.038714956 0.0008006487 -0.015952177 -0.04878738 0.031177562 -0.020264152 0.03239912
0.028582152 0.021078626 -0.06976247 0.042972483 0.030251227 0.087668836 0.014844114 0.03124159
-0.030022705 0.10932144 0.09529121 -0.0046650534 -0.09222862 0.018840624 0.05051059 0.016845874
-0.02483913 -0.03192636 0.064717434 -0.006699217 -0.10583224 0.074543275 0.017329643 0.027331734
-0.005278236 0.044538055 -0.2027202 -0.02422316 -0.16599824 0.002313415 -0.21761042 -0.059448037
0.0067529297 0.19753945 -0.07918766 0.110513926 -0.018951576 0.10469085 -0.0033034724 0.079270616
-0.02565909 0.13237408 -0.08141585 0.0313289 -0.020341491 0.1253405 -0.0069089765 0.0024286134
-0.06380712 0.26571846 -0.021926448 -0.053228725 -0.015447272 0.08989614 -0.04361388 -0.0028732007
0.047114488 0.029144874 0.03364321 0.05280105 -0.10013205 0.062428 0.015976412 0.012475024
0.043063816 0.024891695 -0.02884685 0.03355088 0.14805889 0.011569723 0.047266867 -0.02806397
0.09381303 0.02404646 -0.018925045 -0.02241167 0.4481292 0.04928022 -0.022945367 0.010986391
0.024896238 -0.079345874 -0.0312514 -0.07574617 0.0027978672 -0.099920824 -0.06110584 -0.055588078
-0.023474995 -0.04204045 -0.01324985 -0.048257057 -0.007739229 -0.045265123 0.0039035177 -0.028899569
0.018292202 -0.08076381 0.025979474 0.01919494 -0.11995383 0.022699457 0.002633063 -0.027835995
-0.0006251231 -0.025467329 0.043646432 0.062314175 -0.03491786 0.010151383 0.021209558 -0.007245708
0.00092766975 -0.02882816 0.002765722 0.02446791 -0.0024561668 0.045361843 0.009098196 0.018951265
0.0011986804 0.033759307 0.013186402 -0.022617484 0.08046665 0.04431058 0.018345878 0.04328302
0.0736552 -0.061806113 0.02159009 0.018712835 0.02822792 -0.07845943 0.0418048 0.056617394
0.038555786 -0.04089474 -0.020914448 0.04294494 0.047973882 -0.069293566 -0.012372852 -0.041393094
0.062046442 -0.018627614 -0.019029599 0.046342693 0.12668489 -0.0006219335 0.05446509 0.05749185
0.04560302 0.10545035 0.024222972 -0.039429 -0.008623606 0.05273467 -0.026313644 0.006360694
-0.03916013 0.035302892 -0.022550533 0.03660306 0.096091546 0.0044920705 -0.014862333 -0.044209257
-0.07368127 0.008704746 -0.0007621376 0.005014138 0.0494076 0.07825335 -0.063110754 0.03507682
0.04787403 0.031748828 -0.0024824294 -0.01608231 -0.04486108 0.038045667 -0.03235862 0.047039818
0.048980605 -0.01072036 -0.04314858 0.028166063 -0.009982616 0.028093923 -0.0022637704 -0.004191279
0.044806052 0.073392496 -0.0038439813 0.010611711 0.0064524836 0.052991312 0.035693515 0.048992015
-0.014384844 0.049325693 -0.008298001 0.0015629344 0.018414 0.07960025 -0.029093789 -0.0084758205
-0.004901863 -0.015736613 -0.013180347 0.033217188 -0.032982223 0.08562999 -0.023160597 0.03268405
-0.026429221 0.03852566 0.004384737 -0.03777323 0.02140597 0.01990268 -0.009769621 -0.029987728
-0.05233408 -0.0028717695 -0.03439217 -0.008195285 -0.01831735 -0.06710083 -0.011087454 -0.0042267777
-0.03980239 0.036938198 -0.022623274 0.008078743 0.022676673 -0.042738285 0.024157327 0.032436732
00000000: 04d0 9d3c 1f40 c1bc a025 a33b dbff 313b
00000010: 3be5 5bbc 4d3c cc3d f798 553b b45b aabc
00000020: d600 6c3c 9393 1ebd a0e2 513a 24ae 82bc
00000030: 47d5 47bd 1668 ff3c 0201 a6bc f1b4 043d
00000040: 1e25 ea3c 15ad ac3c a0df 8ebd ea03 303d
00000050: 6cd1 f73c b88b b33d ba34 733c 5dee ff3c
00000060: 2df2 f5bc ebe3 df3d 0a28 c33d 4edd 98bb
00000070: 5ce2 bcbd a757 9a3c 31e4 4e3d 5c00 8a3c
00000080: 6e7b cbbc 37c5 02bd 938a 843d 1b85 dbbb
00000090: 93be d8bd 25aa 983d e5f6 8d3c cde6 df3c
000000a0: 0ef5 acbb 896d 363d e295 4fbe a66f c6bc
000000b0: 71fb 29be aa9c 173b 44d5 5ebe c97f 73bd
000000c0: ae47 dd3b c847 4a3e 242d a2bd 2055 e23d
000000d0: 5640 9bbc 2868 d63d 127f 58bb a258 a23d
000000e0: 0333 d2bc 128d 073e 5abd a6bd bc52 003d
000000f0: 33a3 a6bc 4359 003e b264 e2bb 5f29 1f3b
00000100: 4fad 82bd 400c 883e 189f b3bc 5d06 5abd
00000110: 8e16 7dbc 781b b83d 78a4 32bd 4f4c 3cbb
00000120: 1ffb 403d 3bc1 ee3c 76cd 093d ea45 583d
00000130: 0812 cdbd 81b4 7f3d f7e0 823c 0b64 4c3c
00000140: af63 303d abe9 cb3c 3b50 ecbc a66c 093d
00000150: c09c 173e ef8e 3d3c e79a 413d 69e6 e5bc
00000160: 0c21 c03d 15fd c43c b208 9bbc ae98 b7bc
00000170: 3171 e53e 0eda 493d ecf7 bbbc 4400 343c
00000180: 32f3 cb3c 1780 a2bd 7801 00bd cf20 9bbd
00000190: 6c5c 373b 4aa3 ccbd 1e4a 7abd 53b0 63bd
000001a0: a24e c0bc 9b32 2cbd e615 59bc 31a9 45bd
000001b0: 5c99 fdbb ec67 39bd 29d2 7f3b cabe ecbc
000001c0: 87d9 953c 7f67 a5bd e8d2 d43c b53e 9d3c
000001d0: 5baa f5bd 36f4 b93c 778f 2c3b 5008 e4bc
000001e0: 4ddf 23ba dca0 d0bc 9ac6 323d 263d 7f3d
000001f0: 0806 0fbd fc51 263c abbf ad3c 676d edbb
00000200: dd2e 733a 0929 ecbc 1e41 353b ed70 c83c
00000210: a4f7 20bb 57cd 393d 9a10 153c af3f 9b3c
00000220: 0a1d 9d3a 3347 0a3d c70b 583c 4d48 b9bc
00000230: b3cb a43d 037f 353d 184a 963c 8949 313d
00000240: 8ad8 963d 6828 7dbd b3dd b03c a94b 993c
00000250: 3d3e e73c 56af a0bd 833b 2b3d a4e7 673d
00000260: acec 1d3d 3e81 27bd c754 abbc 09e7 2f3d
00000270: 4380 443d c9e9 8dbd 81b7 4abc ce8b 29bd
00000280: 6924 7e3d f098 98bc f6e3 9bbc d6d1 3d3d
00000290: afb9 013e 4009 23ba c916 5f3d 937c 6b3d
000002a0: 3bca 3a3d 5af6 d73d 416f c63c 4e80 21bd
000002b0: 064a 0dbc 4f00 583d b68f d7bc 5e6d d03b
000002c0: 5f66 20bd c499 103d e5bb b8bc 17ed 153d
000002d0: a5cb c43d 3832 933b 2581 73bc c414 35bd
000002e0: 35e6 96bd 5a9e 0e3c 30ca 47ba a34d a43b
000002f0: a05f 4a3d 4b43 a03d 3640 81bd b6ac 0f3d
00000300: 8f17 443d 0f0b 023d 41b0 22bb 0cbf 83bc
00000310: 40c0 37bd c6d5 1b3d 798a 04bd d3ac 403d
00000320: e39f 483d 73a4 2fbc 91bc 30bd 84bc e63c
00000330: 208e 23bc 3a25 e63c c45b 14bb ff56 89bb
00000340: 8d86 373d ce4e 963d 4eeb 7bbb bedc 2d3c
00000350: 5b6f d33b 6b0d 593d 5d33 123d daab 483d
00000360: 69ae 6bbc bd09 4a3d 57f4 07bc 60db cc3a
00000370: f5d8 963c 7505 a33d 1956 eebc 2bde 0abc
00000380: cf9f a0bb 12ea 80bc 62f2 57bc bf0e 083d
00000390: 5e18 07bd c75e af3d 4bbb bdbc b6df 053d
000003a0: 1882 d8bc 15cd 1d3d d7ad 8f3b 1ab8 1abd
000003b0: 935b af3c f20a a33c c310 20bc d3a8 f5bc
000003c0: 435c 56bd 4c34 3cbb cede 0cbd 8445 06bc
000003d0: 440e 96bc 296c 89bd 27a8 35bc c880 8abb
000003e0: d507 23bd 824c 173d 7254 b9bc b45c 043c
000003f0: 6ec4 b93c 570e 2fbd 96e5 c53c 61dc 043d

fcs1.bias f4 [400]
0.052893113 -0.15749352 0.0052003195 0.0104379095 -0.27913097 0.034960322 -0.18696406 0.12185253
0.018198371 0.16876346 -0.1848863 -0.1405174 0.16904254 -0.17460647 0.02590617 -0.20393617
0.044476964 -0.18345848 0.18645673 0.123686835 -0.05777867 -0.04132731 0.12026396 0.07599866
0.10616273 0.08529259 0.13350005 0.096734405 -0.08668579 -0.19988935 0.08186978 0.07261867
-0.10265739 -0.11828074 0.07322007 -0.04459615 0.06063549 -0.17877665 -0.12950176 0.025911618
0.02973432 -0.07199176 0.060523443 0.10043342 -0.10553212 0.1260362 0.07771011 0.14572865
0.0053558117 0.10142369 -0.059962813 -0.14775677 -0.1748868 0.1102013 0.06211837 0.17899457
0.1423305 -0.0824622 0.02108631 0.13954197 -0.15856186 0.1654094 0.028909216 -0.20707642
-0.19175552 0.043420944 -0.05019059 0.10914894 0.14717364 0.045314677 -0.060174104 0.0027082139
0.027364014 0.111688286 0.1303261 -0.12931128 0.08605406 -0.041582666 -0.012746615 -0.18479033
0.14614059 0.022349043 0.07276732 0.18770488 -0.111830175 0.13383389 0.041006625 -0.20508166
-0.14586829 -0.043936677 -0.043791 -0.2052153 -0.054252375 0.036292996 -0.14379556 -0.10408851
0.06534762 -0.06878476 -0.19549707 -0.20049712 -0.08148051 -0.18559323 0.10464852 0.021076974
-0.09247555 -0.13424541 0.09971701 0.022590669 -0.1795653 0.036684435 0.1447203 0.015473907
0.062141683 -0.049839497 -0.040843148 -0.108290195 0.02336411 -0.16651839 -0.15551428 -0.13963453
-0.1458522 0.1392122 -0.20588782 0.00047977254 0.027807083 -0.09284908 0.116043195 -0.034235187
-0.12412766 -0.22428438 -0.15070347 0.037980545 0.17460246 0.059378233 0.09555958 -0.09336111
-0.06119249 -0.00495938 -0.29428706 0.030827476 0.029153602 0.0587234 -0.03511447 -0.19874583
0.07586201 -0.015949737 -0.16546 0.033827417 0.052142337 -0.054824606 -0.20377646 -0.07708162
-0.02922257 0.05016418 -0.22118104 -0.13547742 0.020205647 -0.033667162 -0.20382299 -0.14521846
0.05605949 0.18669781 -0.16503957 -0.15596394 -0.18225901 -0.12654197 0.094204955 -0.09688337
0.12822947 0.06670414 -0.16506976 0.081236646 -0.19570981 -0.17504868 -0.111208186 -0.029046185
0.040624518 -0.050325908 0.14099905 0.15899324 0.10538787 -0.14523198 0.16195063 -0.06895066
0.16322929 0.12410964 0.10761161 -0.17172775 0.122368515 0.0541836 -0.18556646 -0.015501397
-0.017434621 0.055750042 -0.17580812 0.15676966 -0.18456839 0.102682516 -0.039950714 -0.052461922
0.08803529 -0.028545022 -0.06048836 -0.007971933 0.08413946 -0.13367666 -0.19712266 -0.22723323
-0.08611262 0.19070296 0.10474487 0.14429739 0.04762318 -0.19113685 0.16667646 0.10942771
0.21443915 -0.008592504 0.057080433 -0.0020364132 0.08673049 0.1444281 0.1715306 0.18521048
-0.060950216 -0.16704316 -0.19937773 -0.18438073 -0.19490081 0.1094237 0.06395811 -0.048125174
-0.19596177 -0.04990058 -0.120990984 0.1020721 0.10828078 -0.032629214 0.08048446 0.105695784
0.11420235 -0.19493029 -0.09555316 -0.045737583 0.1474585 -0.117548265 -0.0125327865 0.09395971
-0.12038251 0.07212724 0.17276077 -0.11603443 -0.026736453 0.040850665 0.019402053 -0.2820267
00000000: 73a6 583d fb45 21be 7167 aa3b c403 2b3c
00000010: 41ea 8ebe 8e32 0f3d 8273 3fbe d28d f93d
00000020: c014 953c 54d0 2c3e d652 3dbe cbe3 0fbe
00000030: 7d19 2d3e 0acc 32be 2d39 d43c a5d4 50be
00000040: 7a2d 363d 8adc 3bbe 83ee 3e3e 864f fd3d
00000050: 54a9 6cbd d346 29bd f34c f63d 2fa5 9b3d
00000060: d86b d93d e2ad ae3d 3db4 083e b01c c63d
00000070: 5288 b1bd cbaf 4cbe 58ab a73d 19b9 943d
00000080: 0a3e d2bd 2c3d f2bd 67f4 953d 74aa 36bd
00000090: eb5c 783d 3a11 37be 1c9c 04be 9a44 d43c
000000a0: 6395 f33c 6a70 93bd 6ee7 773d 09b0 cd3d
000000b0: 3921 d8bd a20f 013e 7a26 9f3d e439 153e
000000c0: ce7f af3b 39b7 cf3d 919b 75bd 8d4d 17be
000000d0: 8615 33be 38b1 e13d d56f 7e3d 5a4a 373e
000000e0: 16bf 113e f1e1 a8bd 32bd ac3c 17e4 0e3e
000000f0: 0a5e 22be 1561 293e 05d3 ec3c d70b 54be
00000100: 8f5b 44be 29da 313d a694 4dbd 7b89 df3d
00000110: b0b4 163e e29b 393d 1f79 76bd 4a7c 313b
00000120: 7f2a e03c d4bc e43d 3574 053e 2d6a 04be
00000130: 1c3d b03d 9652 2abd 2ed7 50bc ad39 3dbe
00000140: e1a5 153e 5715 b73c 0807 953d b535 403e
00000150: 3807 e5bd c00b 093e 90f6 273d ed00 52be
00000160: 7f5e 15be f2f6 33bd 315e 33bd f623 52be
00000170: bd37 5ebd f7a7 143d 253f 13be 5b2c d5bd
00000180: f9d4 853d 06df 8cbd 6230 48be 1e4f 4dbe
00000190: 41df a6bd 270c 3ebe f751 d63d 9ea9 ac3c
000001a0: d263 bdbd a177 09be 6f38 cc3d 1110 b93c
000001b0: f7df 37be 6b42 163d 8f31 143e 4586 7d3c
000001c0: 4788 7e3d 8024 4cbd 254b 27bd 40c7 ddbd
000001d0: 1766 bf3c cc83 2abe 233f 1fbe 5bfc 0ebe
000001e0: 475a 15be a58d 0e3e 42d4 52be fb89 fb39
000001f0: aecb e33c a927 bebd 0ea8 ed3d 323a 0cbd
00000200: a536 febd ceaa 65be 0352 1abe 7d91 1b3d
00000210: fdca 323e 9736 733d beb4 c33d 1c34 bfbd
00000220: faa4 7abd 4b82 a2bb cbac 96be e789 fc3c
00000230: 89d3 ee3c f387 703d 31d4 0fbd 0784 4bbe
00000240: 8b5d 9b3d 06a9 82bc 596e 29be 9e8e 0a3d
00000250: 3493 553d c48f 60bd c7aa 50be f8dc 9dbd
00000260: 2c64 efbc f578 4d3d 487d 62be 98ba 0abe
00000270: 5086 a53c 94e6 09bd f9b6 50be 26b4 14be
00000280: a39e 653d b62d 3f3e 2200 29be 03b5 1fbe
00000290: 1ba2 3abe 3894 01be 87ee c03d ca6a c6bd
000002a0: 964e 033e 2e9c 883d 0c08 29be 665f a63d
000002b0: 2768 48be f63f 33be 1ec1 e3bd 44f2 edbc
000002c0: e565 263d 8a22 4ebd 0e62 103e 20cf 223e
000002d0: 98d5 d73d b1b7 14be 63d6 253e 0136 8dbd
000002e0: 9425 273e 322d fe3d 7a63 dc3d 66d9 2fbe
000002f0: 589c fa3d 9fef 5d3d 2205 3ebe 92f9 7dbc
00000300: 0dd3 8ebc 285a 643d 0b07 34be 3a88 203e
00000310: 7fff 3cbe 364b d23d 5ca3 23bd 50e2 56bd
00000320: d94b b43d 40d7 e9bc a4c2 77bd b69c 02bc
00000330: 4f51 ac3d 89e2 08be 86da 49be d4af 68be
00000340: d05b b0bd a347 433e 7a84 d63d b2c2 133e
00000350: 8610 433d 61b9 43be 3cad 2a3e a31b e03d
00000360: f095 5b3e 93c7 0cbc 2ccd 693d 5875 05bb
00000370: c19f b13d f6e4 133e b8a5 2f3e d1a7 3d3e
00000380: efa6 79bd 5d0d 2bbe ad29 4cbe 4dce 3cbe
00000390: 1494 47be 8819 e03d 78fc 823d e71e 45bd
000003a0: 34aa 48be 8d64 4cbd 1fca f7bd 2d0b d13d
000003b0: 50c2 dd3d 36a6 05bd 09d5 a43d 0877 d83d
000003c0: ece2 e93d ce9b 47be 60b1 c3bd 5557 3bbd
000003d0: 5cff 163e 25bd f0bd 5156 4dbc f36d c03d
000003e0: 1b8b f6bd 72b7 933d 33e8 303e 76a3 edbd
000003f0: 6806 dbbc 0753 273d 0ef1 9e3c ce65 90be

fc2.weight f4 [300, 402]
-0.039623078 0.006595703 -0.08059095 0.026416987 -0.057309978 -0.03016807 0.0066273357 0.04187148
-0.050438363 -0.0012606946 0.045826104 0.036460828 -0.010278149 0.008809013 -0.004895135 -0.0041096145
0.035573397 -0.101505555 0.042448144 -0.02491059 -0.048146438 -0.06554849 -0.059188586 0.009799292
0.030714625 -0.041201133 0.0055216867 -0.018968793 -0.013986872 -0.067206055 -0.06273162 0.036473278
0.022301674 -0.010690397 0.00013822036 -0.008115389 -0.013603688 -0.02384318 0.0106212245 -0.052441355
-0.057425834 0.012775269 -0.014051428 0.021795265 -0.043859344 0.0016813533 -0.018834798 -0.00689847
-0.08473184 0.04117104 -0.06296179 -0.0121064065 -0.020333141 0.014695208 0.03724842 -0.04565045
0.022592977 0.058210358 -0.07063048 0.06600833 -0.031458586 0.011484052 -0.0036208045 0.049847163
-0.054141864 0.051436312 0.0044274656 -0.05146921 -0.11748347 0.018993245 -0.03234996 0.0034702006
0.047644015 0.02762441 -0.06747228 0.09152557 0.03475668 -0.00079435506 -0.0030796118 0.058127884
0.035200294 -0.065008014 -0.059680715 0.018587057 -0.06902192 0.007072783 -0.06340628 0.04766539
-0.008654167 0.021974608 -0.01770557 0.015217848 0.004694231 -0.025501287 -0.050496213 -0.031233503
-0.026789056 -0.0032005142 -0.04518741 0.052968077 -0.015556344 0.04877615 -0.07032335 0.011722299
0.02819369 -0.07527809 0.04656795 0.027631914 -0.115726404 -0.057925835 -0.053436376 -0.03349644
-0.016257156 -0.01286429 -0.009879064 -0.006307596 -0.02288732 -0.0057256855 -0.0055806246 0.020741869
-0.0147945685 0.010272457 -0.075689636 -0.004997624 0.0008564142 -0.07021377 -0.008039428 -0.06122164
0.09617748 0.013496483 -0.0129772825 0.012259124 -0.04258703 -0.012888391 0.0055191 -0.047585454
-0.04601841 -0.0011196896 -0.21648467 -0.0014843992 -0.038144123 -0.0566851 -0.026983514 -0.054529414
0.021897484 -0.01207203 0.00020727818 0.058480933 -0.0025487682 0.0550493 0.028499486 -0.019524746
0.017148241 -0.05100801 -0.044002745 0.020121673 0.018278709 -0.07231183 0.100088336 0.048055597
0.022609368 -0.11752133 0.007988567 0.043828376 -0.06312826 -0.02426127 -0.036449645 -0.010035719
-0.025506288 0.039436378 0.031528775 0.024269361 0.022931894 0.032624226 0.0018480038 0.035214067
-0.05810839 -0.009448944 -0.03767733 -0.07512601 -0.07551356 -0.045295283 -0.029464355 0.018757408
0.024675688 -0.030187743 -0.043876622 0.003733236 -0.010929937 0.055709593 0.13600047 -0.0008980828
-0.033669576 -0.1259956 0.035745338 -0.049109362 -0.004525345 -0.067089565 0.0466152 0.05646793
-0.0023759967 -0.035808556 0.049664557 0.05357868 -0.019078378 0.07613266 -0.051598426 -0.12967426
0.033080928 -0.08001437 0.0044592847 0.0022487708 -0.016513303 -0.0053552724 -0.006774631 -0.013376801
-0.08077396 -0.049342293 -0.055461608 -0.017591834 0.03954971 -0.034725953 -0.052979797 0.035853744
0.03179841 -0.025000188 -0.07428278 0.07466833 -0.069730096 -0.051721703 0.022628764 0.024251472
-0.051042624 0.020623287 0.027840579 -0.09557651 -0.053880006 -0.038707275 -0.049767338 0.03658526
-0.025669023 -0.005490643 -0.019622331 0.020088745 0.0451309 0.03175474 0.028653119 -0.044568125
-0.049333557 0.05076642 -0.053962417 -0.00034098097 -0.038065363 0.031444754 0.013978416 -0.0048816623
00000000: cf4b 22bd c420 d83b de0c a5bd 7068 d83c
00000010: debd 6abd 0723 f7bc 1f2a d93b 6e81 2b3d
00000020: 7598 4ebd e43d a5ba 27b4 3b3d f357 153d
00000030: ae65 28bc ae53 103c 5e67 a0bb f2a9 86bb
00000040: 69b5 113d 25e2 cfbd 1bde 2d3d 4b11 ccbc
00000050: 3335 45bd 493e 86bd bb6f 72bd 368d 203c
00000060: 3d9d fb3c 85c2 28bd 44ef b43b 7164 9bbc
00000070: 3129 65bc 54a3 89bd 7079 80bd 0165 153d
00000080: 00b2 b63c c626 2fbc 3fef 1039 69f6 04bc
00000090: 01e2 5ebc c652 c3bc a504 2e3c bfcc 56bd
000000a0: 5a37 6bbd 5d4f 513c f637 66bc fc8b b23c
000000b0: dba5 33bd db60 dc3a 6f4b 9abc 900c e2bb
000000c0: e387 adbd f7a2 283d 1cf2 80bd f359 46bc
000000d0: b091 a6bc 2bc4 703c cd91 183d f7fb 3abd
000000e0: e814 b93c fc6d 6e3d b7a6 90bd 602f 873d
000000f0: b8da 00bd 9b27 3c3c 054b 6dbb 8a2c 4c3d
00000100: dcc3 5dbd e2ae 523d 4614 913b 61d1 52bd
00000110: 2c9b f0bd b997 9b3c 6481 04bd 4e6c 633b
00000120: 5f26 433d 964c e23c e82e 8abd c271 bb3d
00000130: 055d 0e3d 443c 50ba 50d3 49bb 8117 6e3d
00000140: 2f2e 103d ec22 85bd c473 74bd e243 983c
00000150: 5d5b 8dbd cec2 e73b 27db 81bd c93c 433d
00000160: 35ca 0dbc 1804 b43c 460b 91bc 4854 793c
00000170: 10d2 993b 13e8 d0bc 1ed5 4ebd 67dd ffbc
00000180: b974 dbbc b8bf 51bb 6f16 39bd 0ef5 583d
00000190: 09e0 7ebc 80c9 473d b005 90bd e30e 403c
000001a0: 74f6 e63c 662b 9abd 09be 3e3d 535c e23c
000001b0: f701 edbd a443 6dbd 1ae0 5abd 9033 09bd
000001c0: ba2d 85bc bec4 52bc ccdb 21bc f3af cebb
000001d0: 307e bbbc 889e bbbb acdd b6bb daea a93c
000001e0: eb64 72bc cf4d 283c 2b03 9bbd 1cc3 a3bb
000001f0: fc80 603a 3dcc 8fbd ceb7 03bc 8bc3 7abd
00000200: b3f8 c43d 5a20 5d3c ab9e 54bc 7eda 483c
00000210: bd6f 2ebd d429 53bc 91d9 b43b f7e8 42bd
00000220: cd7d 3cbd 8cc2 92ba 28ae 5dbe 2c90 c2ba
00000230: 033d 1cbd a32e 68bd 880c ddbc 3c5a 5fbd
00000240: 5a62 b33c c4c9 45bc d058 5939 b489 6f3d
00000250: 3c09 27bb 607b 613d c177 e93c 5cf2 9fbc
00000260: 787a 8c3c c6ed 50bd 393c 34bd 35d6 a43c
00000270: 3bbd 953c 3a18 94bd 1dfb cc3d f2d5 443d
00000280: 4837 b93c 06af f0bd 7be2 023c 6285 333d
00000290: 6449 81bd 92bf c6bc 394c 15bd db6c 24bc
000002a0: 90f2 d0bc 0a88 213d 5124 013d 8ad0 c63c
000002b0: abdb bb3c fba0 053d b838 f23a a03c 103d
000002c0: 1003 6ebd becf 1abc 8b53 1abd aadb 99bd
000002d0: daa6 9abd 8c87 39bd 3b5f f1bc 23a9 993c
000002e0: ab24 ca3c 494c f7bc f9b7 33bd 4fa9 743b
000002f0: 7a13 33bc be2f 643d b543 0b3e 516d 6bba
00000300: 1ce9 09bd fe04 01be b469 123d e626 49bd
00000310: 5849 94bb 4166 89bd 94ef 3e3d eb4a 673d
00000320: 9cb6 1bbb feab 12bd 106d 4b3d 5175 5b3d
00000330: 424a 9cbc 71eb 9b3d df58 53bd 54c9 04be
00000340: de7f 073d 93de a3bd 311f 923b 1d60 133b
00000350: e846 87bc 487b afbb b9fd ddbb 5f2a 5bbc
00000360: d16c a5bd 251b 4abd b62b 63bd c01c 90bc
00000370: e0fe 213d cd3c 0ebd 5801 59bd 60db 123d
00000380: 0d3f 023d 32cd ccbc 9221 98bd b6eb 983d
00000390: a7ce 8ebd 23da 53bd f55f b93c 06ab c63c
000003a0: 1212 51bd 2bf2 a83c ed11 e43c 9ebd c3bd
000003b0: 48b1 5cbd 858b 1ebd d6d8 4bbd 6dda 153d
000003c0: d847 d2bc daea b3bb 03bf a0bc 2791 a43c
000003d0: 2edb 383d 4211 023d f2b9 ea3c 118d 36bd
000003e0: fc11 4abd 73f0 4f3d b207 5dbd b1c5 b2b9
000003f0: 6dea 1bbd 37cc 003d ba05 653c 5af6 9fbb

fc2.bias f4 [300]
-0.024594445 -0.003888311 -0.07699592 0.03110099 -0.056438908 0.038997497 -0.043090496 -0.03390612
-0.047988378 -0.056798797 -0.023453481 0.015526464 -0.052069847 -0.038004633 -0.012045698 -0.008749784
-0.018419763 -0.052509442 -0.033147506 -0.023863886 -0.0030486723 -0.043589182 -0.026089061 0.029004198
-0.012317235 0.038120683 0.03434028 -0.057573557 -0.010303783 0.026685396 -0.0036397935 -0.038607046
-0.0062894626 -0.0016797468 -0.009294648 -0.028188715 -0.095823385 -0.0033839424 -0.04323054 0.01583874
-5.9154794e-05 -0.038256098 -0.042838395 0.031829942 0.08500986 -0.072754964 -0.010232546 0.0011924696
-0.056921177 -0.038106192 -0.018779328 -0.035623267 0.033451993 -0.03630759 0.0075587733 0.0352731
-0.046986558 -0.0062581366 0.004668855 -0.020774856 -0.060655903 0.03169536 0.02567407 -0.0399066
0.028478125 0.035707943 -0.0638532 -0.0034471948 -0.060914245 -0.03884376 -0.04244567 -0.032501977
-0.017515795 -0.023933368 -0.055888455 -0.033548076 -0.002435772 0.035046842 -0.014470002 -0.05450666
-0.05581878 0.013611043 -0.004106231 -0.03315142 -0.019417658 0.034599178 -0.042632956 -0.02463485
-0.058790073 -0.05712392 -0.0036206676 0.0046559772 0.035624135 -0.013621512 0.008553678 0.05321945
-0.017881274 -0.0014496873 0.024127992 -0.043517333 -0.034303028 0.015473604 0.009575307 -0.005760012
-0.027728857 0.02159888 -0.013464296 -0.02592057 0.006372926 -0.07474075 0.03576784 -0.007685574
-0.0054333494 -0.022728877 -0.03940423 -0.049930852 -0.04721463 0.014454213 -0.0052275197 -0.027950093
-0.032110702 -0.026523165 0.02932672 0.005123876 0.01668531 -0.011559218 -0.035256997 -0.023632195
-0.04544899 0.066958286 0.038522888 0.0032858737 0.049038194 -0.025749732 0.03540393 0.025506236
-0.001283836 0.017756594 0.0033383404 0.0371104 -0.01258348 0.043781314 -0.026624545 -0.014787148
0.021030445 -0.09641423 -0.017579539 -0.052348286 -0.015476752 0.04177478 -0.017025612 0.024645822
-0.028227005 -0.018574014 0.031501878 -0.004604657 0.09226168 0.031605363 0.0068190354 -0.021886962
-0.03151311 0.01222272 -0.050085615 -0.005107007 -0.04783652 -0.010730985 0.014789741 -0.002269597
-0.036382165 -0.020399008 -0.04658292 -0.015196712 -0.038800575 0.03869179 0.00026741563 0.0023039852
0.03354799 0.026326071 -0.058766287 0.03996 0.053518232 -0.013271096 -0.021933924 0.03404078
0.04159079 0.031467073 -0.01402876 0.04209585 -0.017096322 -0.03130688 0.0022122718 -0.0505091
0.016174426 -0.038759764 0.0013885532 0.034476977 -0.0064828843 -0.0018029794 0.041210633 0.0013980865
-0.03933272 -0.03590282 -0.06745269 0.0012473267 0.015092307 0.032200277 -0.0608773 0.056728065
-0.032791503 0.04172327 0.027437147 -0.04871638 -0.061352506 -0.019654928 0.0061136708 -0.05401772
-0.04257871 0.06453182 -0.034537535 -0.022159362 -0.053810626 0.0127780335 -0.008468358 0.00259083
-0.015779162 0.02664371 0.004619409 -0.03149209 0.025870595 -0.0125454515 -0.050982617 0.00639854
0.021711137 0.007494631 0.026827497 -0.024672866 -0.019454611 -0.03539288 -0.037500545 0.03936659
-0.0008923871 -0.045015976 -0.042969793 -0.013462034 -0.0058017033 -0.009147433 -0.0043252264 -0.053194024
0.011986462 0.044464402 -0.039215285 -0.043817244 -0.02420783 0.011591175 0.003494295 -0.016494783
00000000: 4a7a c9bc 09d3 7ebb 09b0 9dbd 81c7 fe3c
00000010: 7c2c 67bd d7bb 1f3d a97f 30bd 25e1 0abd
00000020: 768f 44bd dba5 68bd 8421 c0bc b662 7e3c
00000030: 3147 55bd bfaa 1bbd 525b 45bc 415b 0fbc
00000040: 0be5 96bc 2414 57bd aec5 07bd 327e c3bc
00000050: 3ccc 47bb 928a 32bd bab8 d5bc 369a ed3c
00000060: 3ace 49bc 6f24 1c3d 65a8 0c3d 40d2 6bbd
00000070: 33d1 28bc 559b da3c 9a89 6ebb 6c22 1ebd
00000080: d617 cebb f32a dcba 9448 18bc 05ec e6bc
00000090: 0d3f c4bd 22c5 5dbb 8212 31bd 3fc0 813c
000000a0: fa1c 78b8 6db2 1cbd 5077 2fbd 1d60 023d
000000b0: a619 ae3d 8e00 95bd 69a6 27bc a44c 9c3a
000000c0: 2e26 69bd 3d15 1cbd 1bd7 99bc b4e9 11bd
000000d0: f504 093d 44b7 14bd 96af f73b 877a 103d
000000e0: fa74 40bd 0e11 cdbb 32fd 983b 0830 aabc
000000f0: 5372 78bd fed2 013d 6d52 d23c 1a75 23bd
00000100: f54a e93c 7e42 123d 77c5 82bd 55ea 61bb
00000110: 3781 79bd a21a 1fbd 83db 2dbd cb20 05bd
00000120: 497d 8fbc e90f c4bc 4beb 64bd b569 09bd
00000130: 79a1 1fbb 478d 0f3d 9613 6dbc 6042 5fbd
00000140: 3ca2 64bd da00 5f3c 908d 86bb c9c9 07bd
00000150: c811 9fbc deb7 0d3d e59f 2ebd 06cf c9bc
00000160: dccd 70bd c6fa 69bd b948 6dbb 2b91 983b
00000170: 9dea 113d c32c 5fbc ba24 0c3c a3fc 593d
00000180: c07b 92bc 6f03 beba 11a8 c53c 3b3f 32bd
00000190: 5581 0cbd 0085 7d3c c0e1 1c3c 7cbe bcbb
000001a0: a127 e3bc 22f0 b03c 5a99 5cbc 6057 d4bc
000001b0: fad3 d03b ae11 99bd 4c81 123d 44d7 fbbb
000001c0: 3d0a b2bb e931 babc 5466 21bd 4b84 4cbd
000001d0: 2164 41bd 5dd1 6c3c 9d4b abbb 98f7 e4bc
000001e0: 8386 03bd 1c47 d9bc 973e f03c 30e6 a73b
000001f0: a2af 883c e062 3dbc a469 10bd 4e98 c1bc
00000200: b828 3abd 6d21 893d 2dca 1d3d d057 573b
00000210: 46dc 483d 1af1 d2bc b603 113d 74f2 d03c
00000220: 6346 a8ba 4776 913c 0fc8 5a3b 1301 183d
00000230: f12a 4ebc 0954 333d b81b dabc cb45 72bc
00000240: 0a48 ac3c d374 c5bd f702 90bc 286b 56bd
00000250: 3492 7dbc 081c 2b3d 4c79 8bbc 09e6 c93c
00000260: 523c e7bc 8828 98bc 1d08 013d aae2 96bb
00000270: b1f3 bc3d a074 013d 3772 df3b 494c b3bc
00000280: e413 01bd ce41 483c 9326 4dbd ae58 a7bb
00000290: 3af0 43bd 03d1 2fbc ab50 723c 85bd 14bb
000002a0: 7705 15bd d21b a7bc bbcd 3ebd a1fb 78bc
000002b0: 5aed 1ebd 487b 1e3d eb33 8c39 75fe 163b
000002c0: 9e69 093d c6a9 d73c ebb4 70bd 19ad 233d
000002d0: ef35 5b3d 036f 59bc c6ae b3bc 586e 0b3d
000002e0: 1b5b 2a3d 9ee3 003d e2d8 65bc b36c 2c3d
000002f0: 960d 8cbc a53b 00bd c3fb 103b a1e2 4ebd
00000300: 3b80 843c 8fc2 1ebd 1d00 b63a bb37 0d3d
00000310: 606e d4bb f351 ecba 7bcc 283d 0040 b73a
00000320: 591b 21bd d60e 13bd a324 8abd 577d a33a
00000330: b945 773c 70e4 033d 7a5a 79bd b05b 683d
00000340: 6250 06bd 05e6 2a3d dec3 e03c d48a 47bd
00000350: c44c 7bbd 5f03 a1bc 3055 c83b af41 5dbd
00000360: 0367 2ebd 4229 843d 3b77 0dbd 8d87 b5bc
00000370: 8868 5cbd f55a 513c debe 0abc eaca 293b
00000380: 4d43 81bc e943 da3c 695e 973b dafd 00bd
00000390: 92ee d33c 708b 4dbc 26d3 50bd d8aa d13b
000003a0: 8edb b13c 8695 f53b 57c5 db3c c01e cabc
000003b0: 475f 9fbc 20f8 10bd 2c9a 19bd dd3e 213d
000003c0: 16ef 69ba ac62 38bd 1801 30bd dd8f 5cbc
000003d0: 371c bebb 1ddf 15bc a1ba 8dbb fae1 59bd
000003e0: de62 443c 4e20 363d 35a0 20bd b679 33bd
000003f0: 804f c6bc e9e8 3d3c 8b00 653b 1120 87bc

fc3.weight f4 [1, 300]
-0.013820477 0.000524188 -0.018099371 -0.003792275 0.029919209 0.0020222531 -0.003654817 -0.0011762113
0.015133231 -0.020573601 -0.014278074 -0.00031427635 0.008944022 0.0019039478 0.0047790837 0.0014678823
0.043197703 0.0006722178 -0.0005638881 -0.021864703 0.0019535802 0.00047649787 0.009941541 -0.043205127
0.0042633004 -0.0034077463 -0.0043986663 -0.0030577371 0.0041068178 0.0022773645 0.023619795 0.002306558
-0.0150700975 0.0011843938 -0.0026563474 -0.007955335 -0.075388126 -0.020955775 -0.001613336 0.028569853
-0.011843335 0.025065541 -0.024600683 0.0019238896 0.056271676 -0.025840564 -0.0034966876 -0.008784634
0.0010032722 0.0034869513 0.0008907772 -0.0003002511 0.0074291807 -0.050249297 -0.01100224 0.0031464163
0.0024538815 0.0019483557 -0.00062669144 0.0020603554 -0.0047584013 0.0008188185 0.00675197 0.0017714566
0.0034652376 -0.0035604045 -0.00043124455 -0.009029557 -0.005556909 -0.008857966 0.0025470129 -0.025675736
-0.018425625 0.004305808 0.0037859213 -0.017710738 0.0033765852 -0.0053958166 0.0028686018 -0.005130262
0.01888597 -0.0031958057 0.0008761125 -0.01874068 0.0032761171 0.0050001238 0.003706354 -0.00042920312
-0.010089412 -0.015808411 0.005816427 -0.0136781465 -0.0037362971 0.0018271975 -0.0011066878 0.010725519
-0.0031727373 -0.007569733 0.0013671792 0.0017723512 0.00062442373 -0.040891126 -0.002821081 0.0031955845
0.0059871245 0.0013971506 0.009148553 0.0068090404 -0.006041653 0.00501381 0.0035882706 -0.004204565
0.0021670489 -0.00808533 -0.0046317438 0.0034670017 0.0029544916 0.017517345 0.0029784408 -0.0047141463
-0.0025768222 -0.013737808 0.00063978246 -0.018609034 5.7914654e-05 -0.004664022 0.0031821828 -0.0012075662
0.0040369486 0.031053143 -0.0055793766 -0.033451438 -0.003036947 -0.0015974306 -0.020714693 0.0022938764
0.002155054 -0.025457475 -0.0008436607 0.00027827086 -0.0043843687 0.002925383 -0.004340052 0.0034783222
-0.0025460322 0.02340517 0.0033264416 -0.0032029066 -0.04337558 0.02652899 -0.014260805 0.00021183626
-0.024822697 0.03033017 0.0009775027 0.0031488182 0.08652965 -0.010424237 -0.0033357418 -0.060185313
0.025713993 -0.005653933 0.0025427404 -0.0013198048 -0.021026414 0.24759963 -0.0028317047 0.0006501573
0.0035447855 -0.0006704024 0.004648545 0.0047608064 -0.0015357006 -0.005671841 0.003225113 -0.013735727
0.0026557038 -0.018188534 0.0017657707 -0.0131452335 -0.013375933 -0.0012975131 0.0015850759 -0.0058530006
-0.0044943118 0.0031944225 0.0021627792 -0.014575913 0.0027611218 0.00028088252 -0.0042087208 -0.0016731436
0.017800381 -0.003998022 0.0001521516 0.02189871 -0.040535603 0.001414056 0.009145643 -0.018574452
0.011372291 0.0052249287 0.020656474 -0.030097779 0.0031149192 0.0014323795 -0.02011088 0.035735607
0.0068089967 0.003302064 0.0050353957 -0.011459434 0.0040899706 -0.018698327 -0.0118501205 -0.010247398
0.001049229 -0.022017738 -0.0029253652 0.021099342 -0.013342832 0.004918497 0.058934454 0.0064104125
-0.005345427 0.0008071073 0.0040273014 0.07711411 -0.0019356416 0.0031767858 -0.004945791 0.007802701
-0.00092086097 0.012932926 0.0060233353 0.0045323535 -0.010131116 0.0026061367 0.009016109 0.0037046815
0.0036188492 0.0058797216 -0.0132107325 0.003259551 0.010882877 -0.009755348 -0.016914701 -0.002020506
-0.017921066 -0.008006397 -0.001985264 0.006081904 -0.016432494 0.0031681696 -0.010593346 -0.0076708095
00000000: 486f 62bc a969 093a 2245 94bc d187 78bb
00000010: 2119 f53c c787 043b a785 6fbb 1a2b 9aba
00000020: 5ff1 773c f889 a8bc 95ee 69bc 75c5 a4b9
00000030: f289 123c e38d f93a dc99 9c3b f565 c03a
00000040: 13f0 303d c637 303a e4d1 13ba 9b1d b3bc
00000050: a307 003b 76d2 f939 d8e1 223c dcf7 30bd
00000060: 28b3 8b3b 7f54 5fbb b022 90bb 5164 48bb
00000070: 7c92 863b d63f 153b 4d7e c13c 9f29 173b
00000080: 92e8 76bc a93d 9b3a 1d16 2ebb 1857 02bc
00000090: 1765 9abd 72ab abbc 9376 d3ba 530b ea3c
000000a0: 8c0a 42bc 4056 cd3c 5f87 c9bc 062b fc3a
000000b0: 217d 663d 97af d3bc af28 65bb 6ded 0fbc
000000c0: 3b80 833a 5685 643b 0c83 693a 056b 9db9
000000d0: 7c70 f33b 35d2 4dbd bd42 34bc 1b34 4e3b
000000e0: 4dd1 203b f85f ff3a 8d48 24ba 0707 073b
000000f0: 5dec 9bbb fba5 563a a13f dd3b 3830 e83a
00000100: 0a19 633b ad55 69bb aa18 e2b9 b5f0 13bc
00000110: bb16 b6bb 0121 11bc c9eb 263b ec55 d2bc
00000120: 56f1 96bc bc17 8d3b 381d 783b 1c16 91bc
00000130: b349 5d3b 64cf b0bb 27ff 3b3b c21b a8bb
00000140: c0b6 9a3c b970 51bb eaaa 653a 0e86 99bc
00000150: 20b4 563b 14d8 a33b 4de6 723b ab06 e1b9
00000160: 104e 25bc a480 81bc ba97 be3b 4e1a 60bc
00000170: aadc 74bb 937e ef3a 480e 91ba 16ba 2f3c
00000180: b3ed 4fbb 860b f8bb ec32 b33a 3d4e e83a
00000190: 5eb0 233a 747d 27bd e3e1 38bb 036d 513b
000001a0: a42f c43b 9820 b73a d0e3 153c 5f1e df3b
000001b0: 0ff9 c5bb e34a a43b 3129 6b3b 73c6 89bb
000001c0: 0c05 0e3b 5578 04bc e2c5 97bb a336 633b
000001d0: 25a0 413b 8980 8f3c f231 433b 2079 9abb
000001e0: e7df 28bb 8b14 61bc 13b7 273a f971 98bc
000001f0: 63e9 7238 a7d4 98bb 2b8c 503b 3347 9eba
00000200: 6148 843b 2963 fe3c 34d3 b6bb 6004 09bd
00000210: 8407 47bb e060 d1ba dcb1 a9bc dc54 163b
00000220: ce3b 0d3b 328c d0bc 1c29 5dba e2e4 9139
00000230: c0aa 8fbb c8b7 3f3b ff36 8ebb 90f4 633b
00000240: 55db 26bb 33bc bf3c 6e00 5a3b dbe7 51bb
00000250: 98aa 31bd 5353 d93c 27a6 69bc 5d20 5e39
00000260: f858 cbbc fa76 f83c 8c1f 803a 675c 4e3b
00000270: 7536 b13d 6bca 2abc 769c 5abb e084 76bd
00000280: 27a6 d23c a144 b9bb 1ba4 263b 4dfd acba
00000290: 963f acbc c28a 7d3e 1f94 39bb 516f 2a3a
000002a0: a24f 683b f2bd 2fba d252 983b 8a00 9c3b
000002b0: 9049 c9ba dada b9bb 6b5c 533b d10b 61bc
000002c0: 510b 2e3b 1f00 95bc 6f71 e73a 1b5f 57bc
000002d0: bb26 5bbc 5111 aaba 52c2 cf3a 87ca bfbb
000002e0: 0545 93bb 8459 513b 6abd 0d3b cfcf 6ebc
000002f0: f0f3 343b 6a43 9339 4fe9 89bb 624d dbba
00000300: 1bd2 913c d701 83bb e28a 1f39 ec64 b33c
00000310: a908 26bd d957 b93a 9bd7 153c 7329 98bc
00000320: d852 3a3c e135 ab3b c437 a93c 9e8f f6bc
00000330: ac23 4c3b aebe bb3a 92bf a4bc 805f 123d
00000340: 011e df3b 7167 583b f6ff a43b 5ac0 3bbc
00000350: 2905 863b 3c2d 99bc 0227 42bc b4e4 27bc
00000360: 4886 893a 8b5e b4bc 7cb7 3fbb 87d8 ac3c
00000370: e59b 5abc 582b a13b 4165 713d 700e d23b
00000380: b128 afbb 0e94 533a 74f7 833b 01ee 9d3d
00000390: 5bb5 fdba 9f31 503b 4d10 a2bb cdad ff3b
000003a0: ef65 71ba a0e4 533c 665f c53b 2384 943b
000003b0: fbfc 25bc b8cb 2a3b 4db8 133c 3eca 723b
000003c0: 372a 6d3b aeaa c03b d471 58bc 319e 553b
000003d0: 184e 323c e5d4 1fbc b390 8abc 776a 04bb
000003e0: 33cf 92bc 432d 03bc 341b 02bb b54a c73b
000003f0: 709d 86bc 11a1 4f3b b78f 2dbc 6a5b fbbb
