Tennis/Nets/checkpoint_critic1600.pth (torch_old, 526870 bytes, 9 tensors)

bn1.weight f4 [24]
0.27497253 0.31683478 0.26767817 0.21200097 0.7870949 0.56733465 0.16902249 0.0056419866
0.30094597 0.10205759 0.2960918 0.09219731 0.14961685 0.5858575 0.2977239 0.28213176
0.7367237 0.27733672 0.22014417 0.37061095 0.61715794 0.68686146 0.42066574 0.3713488
00000000: 33c9 8c3e 2b38 a23e 1d0d 893e c816 593e
00000010: 0d7f 493f d83c 113f 3b14 2d3e 6ae0 b83b
00000020: 9715 9a3e 9203 d13d 5899 973e f1d1 bc3d
00000030: 2935 193e c2fa 153f 446f 983e 9373 903e
00000040: ed99 3c3f 14ff 8d3e 796d 613e b8c0 bd3e
00000050: 10fe 1d3f 27d6 2f3f 8061 d73e 6e21 be3e

bn1.bias f4 [24]
-0.015804978 0.061494876 0.028794674 0.054143544 0.06938232 0.21366683 0.047826614 0.005949553
-0.098814316 0.28538308 0.017676558 0.011272371 0.019154262 0.24583913 0.021576267 0.03215181
-0.027565422 0.21086383 -0.011198139 0.03367636 0.09085927 0.17379947 -0.05000524 0.018921256
00000000: 7179 81bc 0de2 7b3d cfe2 eb3c 9fc5 5d3d
00000010: 5118 8e3d 7acb 5a3e d7e5 433d 78f4 c23b
00000020: 295f cabd bb1d 923e 6ece 903c c0af 383c
00000030: 66e9 9c3c 41bd 7b3e b6c0 b03c 9eb1 033d
00000040: e1d0 e1bc b0ec 573e 6678 37bc 39f0 093d
00000050: 6d14 ba3d 7df8 313e 4bd2 4cbd c000 9b3c

bn1.running_mean f4 [24]
-5.6126404 -1.0639584 4.8193717 0.3113152 0.04121271 2.6837351 4.8193717 0.3113152
-5.8113356 -1.0890267 5.257363 0.29421276 0.046241775 2.642554 5.257363 0.29421276
-6.0361314 -1.1215795 5.456424 0.24432231 0.058760557 2.5779269 5.456424 0.24432231
00000000: c09a b3c0 ca2f 88bf 4b38 9a40 b564 9f3e
00000010: a9ce 283d 51c2 2b40 4b38 9a40 b564 9f3e
00000020: 76f6 b9c0 3a65 8bbf 513c a840 0ea3 963e
00000030: 0468 3d3d 9b1f 2940 513c a840 0ea3 963e
00000040: fd27 c1c0 eb8f 8fbf 079b ae40 a12f 7a3e
00000050: e9ae 703d c1fc 2440 079b ae40 a12f 7a3e

bn1.running_var f4 [24]
14.8897295 1.0242101 244.51454 4.584595 36.925602 4.527791 244.51454 4.584595
14.074994 1.0275534 256.23462 5.086747 39.95546 4.8498917 256.23462 5.086747
13.035423 1.018456 272.95584 5.8003745 43.492878 5.519835 272.95584 5.8003745
00000000: 553c 6e41 5119 833f b983 7443 01b5 9240
00000010: d1b3 1342 aae3 9040 b983 7443 01b5 9240
00000020: 2d33 6141 df86 833f 081e 8043 a2c6 a240
00000030: 64d2 1f42 5032 9b40 081e 8043 a2c6 a240
00000040: 1891 5041 c45c 823f 597a 8843 ab9c b940
00000050: b5f8 2d42 7da2 b040 597a 8843 ab9c b940

fcs1.weight f4 [400, 24]
0.11090691 0.48306596 -0.011140275 0.11479878 -0.7391363 -0.44421616 -0.0389705 0.029302293
-0.12578717 -0.25977787 0.029539784 0.16641717 0.29093304 0.13534711 0.007997723 0.23578891
0.011487964 -0.13128972 -0.089986846 -0.14306818 0.6707798 0.37254402 0.05735043 -0.13838156
0.08556033 0.10540641 -0.032908328 -0.1639585 0.017459536 0.036322687 -0.14391878 -0.08375557
0.16334985 -0.1239837 -0.09049257 -0.15849015 -0.11512923 -0.056146774 -0.13921364 -0.12365881
0.06243834 0.026232848 -0.26875827 -0.19444841 -0.49543297 -0.029553503 -0.24638075 -0.20629968
0.063537195 0.19890346 0.010012163 -2.8123095e-05 0.07035137 -0.26437435 0.060455743 0.023093551
0.10562122 0.0004065775 -0.013787458 -0.16767989 0.016763365 -0.018667271 0.05805181 -0.19882119
0.10958019 0.18412744 -0.13436311 0.21198526 -0.0843793 0.42639187 -0.117530994 0.27665436
-0.04325544 -0.025268765 0.013884474 0.064808615 -0.66869867 -0.106810436 0.017768504 0.031347923
0.012044371 -0.030748935 -0.031474844 0.0023630622 0.034575548 -0.036294624 0.037932463 -0.07317419
-0.0093653845 0.04879283 0.002545593 -0.024983572 0.92199516 0.08669794 0.007976829 -0.0021563745
-0.047886178 -0.122943036 -0.012757981 -0.46720016 -0.043584105 -0.13730021 -0.05086905 -0.36826935
0.02021484 -0.35966867 0.34812382 -0.29448128 -0.079082176 -0.043089554 0.36344156 -0.28574467
-0.06892688 -0.5261768 -0.2857085 0.18058029 -0.25567466 -0.0011955154 -0.2884675 0.1425668
0.39294884 0.13863046 0.0033873331 0.12601262 -0.25970036 -0.3575502 -0.053144548 0.05399916
0.23028137 -0.1845503 0.053798273 -0.0352489 -0.06286444 0.07554875 0.06343513 -0.035437685
0.16733275 0.07245955 0.27052906 0.18087162 0.20924659 0.026954304 0.36179766 0.2648554
0.10462525 -0.08723582 -0.007943582 0.01933096 -0.29316166 -0.083737776 0.01993455 0.044835456
0.06401815 -0.051817954 -0.013533907 0.02068794 0.08198374 -0.07398323 -0.010367863 -0.067022264
-0.06161752 0.008755558 -0.008421503 -0.058210157 0.7608652 0.10684705 0.076038085 -0.038961526
0.08596954 0.31647512 0.071502306 -0.19652025 0.0770399 -0.31846046 -0.02178027 -0.03138108
0.008038939 -0.10216743 0.09695534 0.18545398 0.3201887 -0.14991054 0.10151237 0.13766398
-0.09585944 -0.13397333 -0.0041190307 0.35596082 0.26761124 0.41345918 -0.040370114 0.40585372
0.37943104 0.09475657 0.076819815 -0.43112007 -0.028659657 -0.026441911 0.031844962 -0.21644264
0.13482165 -0.19680893 -0.40090895 -0.22337778 -0.045361765 -0.03619825 -0.3624968 -0.24649543
0.06015276 0.10197509 -0.10715281 0.1469877 -0.07885331 0.025705589 -0.032849647 0.19399135
0.033213638 0.024052741 0.3961619 0.05210974 0.12232269 0.0018374644 0.30643478 0.024254734
-0.021312814 -0.47138068 -0.291261 0.17179812 -0.029432798 0.074444145 -0.30148858 0.20223631
0.13337168 -0.31491676 0.28515658 -0.11040111 0.010673969 0.14430849 0.32208595 -0.07222398
-0.052101813 0.0017647697 -0.15976456 0.0011433199 0.001980297 -0.22759117 -0.15332535 0.08490578
-0.06542531 -0.23405299 -0.0115991095 0.0914477 0.08772709 0.035527565 0.033103835 0.1322395
00000000: 2923 e33d 6c54 f73e b385 36bc 9f1b eb3d
00000010: 0938 3dbf 4d70 e3be 889f 1fbd 5d0b f03c
00000020: 5ace 00be 9b01 85be 6bfd f13c 4369 2a3e
00000030: 2df5 943e 6f98 0a3e e208 033c a672 713e
00000040: 0338 3c3c d070 06be 064b b8bd 7780 12be
00000050: 3ab8 2b3f 17be be3e 49e8 6a3d e5b3 0dbe
00000060: 413a af3d 51df d73d e2ca 06bd bde4 27be
00000070: 4d07 8f3c 19c7 143d 725f 13be 0a88 abbd
00000080: 2f45 273e 2beb fdbd 2b54 b9bd 3e4b 22be
00000090: e0c8 ebbd 29fa 65bd 058e 0ebe d540 fdbd
000000a0: 58bf 7f3d 45e6 d63c af9a 89be 7c1d 47be
000000b0: 64a9 fdbe 301a f2bc 3c4b 7cbe 3940 53be
000000c0: ca1f 823d 59ad 4b3e 0e0a 243c e3e9 ebb7
000000d0: 6114 903d 135c 87be 71a0 773d b02e bd3c
000000e0: f04f d83d e929 d539 cae4 61bc 47b4 2bbe
000000f0: 5353 893c 1bec 98bc bcc7 6d3d c897 4bbe
00000100: 946b e03d e78b 3c3e 7c96 09be aa12 593e
00000110: 0ecf acbd 0950 da3e 17b4 f0bd a4a5 8d3e
00000120: 9e2c 31bd 7100 cfbc b47b 633c 61ba 843d
00000130: d62f 2bbf 6ebf dabd 418f 913c ae66 003d
00000140: c155 453c 31e5 fbbc c4eb 00bd 9bdd 1a3b
00000150: 179f 0d3d aca9 14bd 125f 1b3d 5adc 95bd
00000160: 4571 19bc feda 473d f7d3 263b 59aa ccbc
00000170: e007 6c3f b18e b13d 3fb1 023c f651 0dbb
00000180: 4c24 44bd 8fc9 fbbd da06 51bc dc34 efbe
00000190: 3f85 32bd 6d98 0cbe 115c 50bd cd8d bcbe
000001a0: 9899 a53c 7e26 b8be 493d b23e 40c6 96be
000001b0: d6f5 a1bd ac7e 30bd 0315 ba3e 204d 92be
000001c0: 8929 8dbd 86b3 06bf 6248 92be 0aea 383e
000001d0: cae7 82be d7b2 9cba 03b2 93be 08fd 113e
000001e0: 9730 c93e 25f5 0d3e 05fe 5d3b 7409 013e
000001f0: 72f7 84be d210 b7be 19ae 59bd 392e 5d3d
00000200: e1ce 6b3e c1fa 3cbe 945b 5c3d 2761 10bd
00000210: 12bf 80bd 4eb9 9a3d 47ea 813d 1b27 11bd
00000220: 4759 2b3e ac65 943d c982 8a3e 6936 393e
00000230: bd44 563e 46cf dc3c 8b3d b93e 219b 873e
00000240: c345 d63d b2a8 b2bd cc25 02bc f65b 9e3c
00000250: 4919 96be b67e abbd c84d a33c 62a5 373d
00000260: f31b 833d 103f 54bd 52bd 5dbc c179 a93c
00000270: 17e7 a73d 8584 97bd f8dd 29bc f842 89bd
00000280: a762 7cbd 7973 0f3c 58fa 09bc c66d 6ebd
00000290: 10c8 423f a0d2 da3d dbb9 9b3d 1f96 1fbd
000002a0: cc10 b03d 0709 a23e cd6f 923d 9b3c 49be
000002b0: 18c7 9d3d 400d a3be 896c b2bc 7389 00bd
000002c0: c1b5 033c 283d d1bd 8590 c63d a6e7 3d3e
000002d0: c6ef a33e 2682 19be b8e5 cf3d c9f7 0c3e
000002e0: f451 c4bd 4e30 09be eff8 86bb 7f40 b63e
000002f0: 5704 893e ecb0 d33e 225b 25bd 0fcc cf3e
00000300: c944 c23e bc0f c23d b553 9d3d c5bb dcbe
00000310: a8c7 eabc b59c d8bc dd6f 023d 24a3 5dbe
00000320: b00e 0a3e 4888 49be f043 cdbe 25bd 64be
00000330: 42cd 39bd 9e44 14bd 2e99 b9be 4c69 7cbe
00000340: be62 763d 51d8 d03d ef72 dbbd f283 163e
00000350: d87d a1bd 8794 d23c 5a8d 06bd aba5 463e
00000360: 060b 083d 410a c53c bcd5 ca3e 0671 553d
00000370: 5284 fa3d 13d7 f03a 05e5 9c3e ddb1 c63c
00000380: 3698 aebc cf58 f1be 2920 95be d9eb 2f3e
00000390: 0d1d f1bc 2c76 983d b65c 9abe 0917 4f3e
000003a0: 9692 083e c53c a1be 0b00 923e fa19 e2bd
000003b0: dfe1 2e3c 9bc5 133e 73e8 a43e 2bea 93bd
000003c0: b668 55bd d84f e73a 5299 23be 73db 953a
000003d0: dfc7 013b a90d 69be 5201 1dbe 15e3 ad3d
000003e0: b4fd 85bd 96ab 6fbe 310a 3ebc ef48 bb3d
000003f0: 43aa b33d 5a85 113d e397 073d cb69 073e

fcs1.bias f4 [400]
-0.27643606 -0.3746923 -0.17651752 -0.0081924945 -0.32101142 -0.15000346 -0.23958594 -0.16146158
-0.0856011 -0.08534247 -0.35644555 -0.391529 0.07258518 -0.4079382 0.0013584065 -0.39705226
-0.17336985 -0.4330985 -0.049275447 -0.14091018 -0.1772587 -0.025996335 -0.12073508 -0.15265918
-0.18878283 -0.2242804 0.07366251 -0.1479987 -0.20815264 -0.30834553 -0.2978439 -0.20159125
-0.19777553 -0.40208283 0.058855504 -0.33883324 0.007774472 -0.35201707 -0.20473251 -0.067254834
-0.07179081 -0.26287928 -0.0030118462 -0.07248106 -0.32945552 0.20411421 -0.12959552 -0.0695478
-0.014940455 -0.25047383 -0.2300552 -0.28034332 -0.1748868 -0.12699139 -0.0759393 0.05118285
0.084603585 -0.09851742 0.09747636 0.02090075 -0.2231312 -0.0014868312 0.032537527 -0.20707642
-0.19175552 -0.1904738 -0.1894713 0.026604477 0.024892375 -0.052794963 -0.31330806 -0.2623188
-0.04314528 -0.024219044 -0.050870113 -0.097323336 -0.18766713 -0.15211368 -0.011676549 -0.23228829
0.06534704 -0.25566202 -0.0368706 0.11327147 -0.29448247 -0.0567581 0.048699725 -0.4072607
-0.44912496 -0.15655367 -0.15931349 -0.2052153 -0.22075197 -0.06889561 -0.4169617 -0.2691494
-0.19036865 -0.32652193 -0.24688086 -0.26000118 -0.08565658 -0.18559323 -0.13903938 -0.28139937
-0.27165475 -0.2442033 0.034640994 -0.028412687 -0.37606764 -0.2008494 -0.07273276 -0.085289836
0.01699327 -0.09217548 -0.13814774 -0.058828145 -0.0042116875 -0.16651839 -0.22981398 -0.19647463
-0.44005433 -0.119044654 -0.32002863 -0.075982206 -0.15482622 -0.23899086 0.046883028 -0.25252518
-0.3141919 -0.22428438 -0.40520427 -0.25978684 0.054999035 0.07468338 0.0016113088 -0.27593932
-0.26823404 -0.19172883 -0.3409711 -0.07399373 -0.22853571 0.034038253 -0.039915126 -0.38576582
0.041807223 -0.22113071 -0.3715573 0.07676901 -0.049112298 -0.114286445 -0.38414165 -0.1740776
-0.073729575 -0.05490754 -0.28686568 -0.30794483 -0.36829793 -0.10644268 -0.3788604 -0.18228005
-0.015896436 0.20264794 -0.2850234 -0.23360108 -0.18261062 -0.29046258 -0.043165095 -0.43929908
-0.10761851 0.004563077 -0.16540171 -0.024120914 -0.34322307 -0.36216906 -0.4265627 -0.10062666
-0.14400344 -0.26605305 0.11240746 0.07205011 -0.1357165 -0.14756379 -0.13383931 -0.012401923
0.046084862 0.042779613 -0.12366441 -0.2655923 0.0550713 -0.13298737 -0.22469406 -0.29774982
-0.034883842 -0.022628844 -0.22566292 0.027158478 -0.18456839 -0.16785501 -0.26670507 -0.050750773
-0.11645516 -0.261599 -0.14973174 -0.09036952 0.051260807 -0.32839948 -0.36228284 -0.40400177
-0.20739105 0.23017865 -0.14234792 -0.058391575 -0.14702433 -0.19113685 -0.00760247 -0.15444012
0.19061892 -0.13269608 0.06380729 -0.06412451 -0.16956474 -0.18157671 -0.04296054 0.1729505
-0.108846 -0.16704316 -0.39895475 -0.2804533 -0.26540124 -0.01289495 0.003634572 -0.27843586
-0.19766341 -0.097835176 -0.18669884 0.0149896955 -0.0848942 -0.2087927 -0.095735095 0.00086173776
-0.055846542 -0.19493029 -0.16032322 -0.34368223 -0.0009379663 -0.10441682 -0.26244497 0.012005444
-0.055853285 -0.22321872 0.011200323 -0.284873 -0.023298899 -0.12383532 0.012113476 -0.6183626
00000000: 0789 8dbe abd7 bfbe 02c1 34be d039 06bc
00000010: 9c5b a4be 829a 19be 0456 75be 2f56 25be
00000020: a14f afbd 08c8 aebd 0880 b6be 7d76 c8be
00000030: 8aa7 943d 47dd d0be 8f0c b23a 6f4a cbbe
00000040: de87 31be 16bf ddbe 0dd5 49bd c24a 10be
00000050: 4e83 35be 44f6 d4bc f443 f7bd b052 1cbe
00000060: 4950 41be c3a9 65be 5fdc 963d f98c 17be
00000070: f725 55be 77df 9dbe ff7e 98be f06d 4ebe
00000080: ab85 4abe cddd cdbe 7812 713d 8d7b adbe
00000090: ffc0 fe3b 953b b4be 66a5 51be e7bc 89bd
000000a0: 0f07 93bd 1d98 86be 6562 45bb f370 94bd
000000b0: 65ae a8be 5103 513e b0b4 04be 146f 8ebd
000000c0: cfc8 74bc 1b3e 80be 9793 6bbe 2989 8fbe
000000d0: 8615 33be 080a 02be 1086 9bbd 1ca5 513d
000000e0: a544 ad3d 80c3 c9bd b0a1 c73d 0d38 ab3c
000000f0: 817c 64be c7e1 c2ba 1246 053d d70b 54be
00000100: 8f5b 44be 900b 43be c404 42be a2f1 d93c
00000110: 18eb cb3c 883f 58bd ea69 a0be a64e 86be
00000120: 1bb9 30bd 0467 c6bc 2e5d 50bd 7551 c7bd
00000130: d02b 40be b0c3 1bbe ff4e 3fbc fbdc 6dbe
00000140: abd4 853d 22e6 82be a005 17bd dffa e73d
00000150: 68c6 96be 2e7b 68bd 5d79 473d 7984 d0be
00000160: b5f3 e5be 9b4f 20be 1323 23be f623 52be
00000170: ce0c 62be 2419 8dbd 017c d5be f3cd 89be
00000180: 00f0 42be e22d a7be 56ce 7cbe e01e 85be
00000190: b86c afbd 270c 3ebe 5760 0ebe 9413 90be
000001a0: 5516 8bbe 6e10 7abe b7e3 0d3d b9c1 e8bc
000001b0: f08b c0be 77ab 4dbe eaf4 94bd 70ac aebd
000001c0: 7835 8b3c 80c6 bcbd 9a76 0dbe c8f5 70bd
000001d0: 3202 8abb cc83 2abe 5b54 6bbe a530 49be
000001e0: cd4e e1be afcd f3bd cbda a3be 8f9c 9bbd
000001f0: c48a 1ebe 05ba 74be 6b08 403d fb4a 81be
00000200: c3dd a0be ceaa 65be ef76 cfbe c802 85be
00000210: ab46 613d 9af3 983d 8d32 d33a eb47 8dbe
00000220: f955 89be 9054 44be c493 aebe 068a 97bd
00000230: 4405 6abe b26b 0b3d 0b7e 23bd 1983 c5be
00000240: 0d3e 2b3d 1770 62be c23c bebe 1239 9d3d
00000250: fa29 49bd 030f eabd 37ae c4be 6641 32be
00000260: 88ff 96bd bbe6 60bd 0fe0 92be f2aa 9dbe
00000270: 8c91 bcbe 9ffe d9bd fef9 c1be 9fa7 3abe
00000280: 3e39 82bc f182 4f3e 96ee 91be 1f35 6fbe
00000290: 47fe 3abe 83b7 94be e2cd 30bd cfeb e0be
000002a0: 1867 dcbd dd85 953b 115f 29be 3999 c5bc
000002b0: efba afbe 396e b9be 6d66 dabe 5a15 cebd
000002c0: a375 13be 1b38 88be e235 e63d 028f 933d
000002d0: 44f9 0abe f61a 17be 2c0d 09be 6f31 4bbc
000002e0: 7bc3 3c3d ad39 2f3d c443 fdbd b7fb 87be
000002f0: 7292 613d d72d 08be 3316 66be aa72 98be
00000300: 5ce2 0ebd 2060 b9bc 2e14 67be 757b de3c
00000310: 7fff 3cbe 2fe2 2bbe 918d 88be 0be0 4fbd
00000320: 0b80 eebd 4ef0 85be 4753 19be a813 b9bd
00000330: daf6 513d fa23 a8be 237d b9be 52d9 cebe
00000340: 525e 54be f4b3 6b3e a7c3 11be 012c 6fbd
00000350: 8c8d 16be 61b9 43be 241e f9bb 8d25 1ebe
00000360: 9b31 433e 7be1 07be 65ad 823d b653 83bd
00000370: 61a2 2dbe 3fef 39be 64f7 2fbd f019 313e
00000380: a7ea debd 5d0d 2bbe cc43 ccbe 9397 8fbe
00000390: ace2 87be 5745 53bc 0032 6e3b 258f 8ebe
000003a0: 4768 4abe cf5d c8bd fb2d 3fbe 5797 753c
000003b0: 03dd adbd c1cd 55be c310 c4bd 3ee6 613a
000003c0: 58bf 64bd ce9b 47be c52b 24be 1ef7 afbe
000003d0: dae1 75ba 7cd8 d5bd 305f 86be 7bb2 443c
000003e0: 6ac6 64bd 7393 64be 8f81 373c e0da 91be
000003f0: 55dd bebc 5f9d fdbd 9a77 463c 034d 1ebf

fc2.weight f4 [300, 402]
-0.041784156 0.3984173 -0.4507717 -0.8139143 -0.098003015 -0.32546085 0.24725907 -0.1387746
-0.514682 -0.0076896735 0.076696366 -0.022329904 0.07310612 -0.04939844 -0.05049999 -0.06542304
0.50156695 -0.23754838 -0.6517246 -0.061760236 -0.38424313 -0.23270537 -0.50887114 -0.2666999
0.01217321 0.045958072 0.2085286 0.3281499 -0.36515883 -0.46590155 -0.0843035 -0.21102336
-0.005859538 -0.010690397 -0.052658364 0.5431391 -0.17710826 -0.21590973 -0.013776459 0.017073855
0.020040397 -0.13396308 -0.36811697 -0.038380727 -0.48003644 0.13263737 -0.018350147 -0.03568679
-0.47468632 0.034705646 -1.0491046 -0.23546968 -0.020333141 -0.17594558 -0.58372825 0.032187488
0.08439615 -0.027123766 -0.6118909 -0.3040636 0.02418136 -0.63965684 0.09990645 0.049847163
-0.054141864 0.29490128 -0.035107188 -0.9648172 -0.48151192 -0.10369733 -0.05341954 -0.3705639
0.056042455 -0.058607716 -0.28367966 0.20754042 0.08951049 -0.07024513 -0.8968206 0.027401803
0.18173115 0.1909354 -0.31823123 0.041991323 -0.12801391 -0.18084653 -0.6406044 0.12587392
0.060099483 0.18703881 -0.37123212 0.015217848 -0.12278304 -0.33733457 -0.06867399 0.037553605
-0.43131953 -0.12211256 -0.04518741 0.052968077 0.087742224 0.04877615 -0.07947316 -0.12938444
-0.27307364 -0.10461095 0.1297453 0.06441352 -0.097562075 -0.061328508 -0.13304949 -0.34473726
0.083925925 -0.36745214 -0.041329872 -0.11238783 -0.24182393 -0.0057256855 -0.31076849 -0.13188788
-0.1122499 0.015257855 -0.14557253 -0.2714122 0.23808937 -0.689856 0.03882426 -0.2115932
0.20108064 0.013496483 -0.0129772825 0.17201732 -0.138215 -0.4204333 -0.30972227 -0.18164636
-0.027490119 0.098527685 -0.0010787217 0.2718787 -0.29289654 0.2561351 0.09931905 -0.6952341
-0.4723195 0.014843845 -0.31843427 -0.4553085 0.032081664 0.29789472 -0.101018935 -0.2813596
0.23692851 -0.5096391 0.023566429 0.084992565 0.018278709 -0.21153107 0.1694316 0.048055597
-0.56044585 -0.23867741 -0.2579107 0.043828376 -0.06312428 -0.27020088 -0.1317561 -0.010035719
-0.218394 -0.3751669 0.031528775 -0.28943014 0.022931894 -0.0048226817 0.001835039 -0.08748343
0.077114254 -0.07877381 0.049581226 -0.17474909 -0.33576462 -0.058493104 -0.24746062 0.016027553
-0.094566494 -0.2760315 -0.10335406 0.1773659 -0.42193103 0.08490372 0.10550695 -0.3234828
-0.0036791184 -0.069660485 0.035745338 -0.65837395 -0.004525345 0.025057947 -0.279243 -0.023001285
-0.07872408 -0.15384884 -0.2817625 0.36025143 -0.7040041 -0.019348571 -0.38106483 -0.27963537
-0.6003181 -0.53659064 -0.15270784 -0.16816662 -0.019631233 -0.0053552724 -0.1779022 -0.30786878
-0.6757521 -0.005670043 0.054578654 -0.4719468 0.13651867 -0.07804651 0.04772793 -0.13375694
-0.36164063 -0.025000188 -0.18905178 0.20729771 0.10032289 -0.1772291 -0.26105836 -0.11066883
-0.051042624 0.077606246 -0.17795613 -0.8738549 -0.088367894 -0.10583197 0.07771752 0.015640926
-0.34357485 -0.005490643 0.035185482 -0.37581575 0.12615328 -0.09450248 -0.146192 -0.19099593
0.10133447 -0.1224736 0.0459734 -0.41701138 0.08656577 0.644575 -0.09198341 -0.0048816623
00000000: dd25 2bbd 5afd cb3e 8ccb e6be b05c 50bf
00000010: ceb5 c8bd cea2 a6be 7b31 7d3e ee1a 0ebe
00000020: 33c2 03bf a8f9 fbbb fc12 9d3d 34ed b6bc
00000030: a9b8 953d 0556 4abd 14d9 4ebd 84fc 85bd
00000040: b166 003f e23f 73be 6cd7 26bf 4df8 7cbd
00000050: 84bb c4be 514a 6ebe 6145 02bf e48c 88be
00000060: 2572 473c 883e 3c3d 8588 553e 4403 a83e
00000070: 19f6 babe a68a eebe 50a7 acbd 8216 58be
00000080: 5e01 c0bb c626 2fbc 4cb0 57bd 2a0b 0b3f
00000090: de5b 35be 7117 5dbe a8b6 61bc 78de 8b3c
000000a0: c22b a43c 9e2d 09be d479 bcbe 1c35 1dbd
000000b0: 56c7 f5be 17d2 073e 0c53 96bc 502c 12bd
000000c0: 160a f3be 8227 0e3d 0f49 86bf f71e 71be
000000d0: b091 a6bc 142b 34be 376f 15bf 07d7 033d
000000e0: e4d7 ac3d a932 debc e2a4 1cbf 39ae 9bbe
000000f0: fd17 c63c 8dc0 23bf c19b cc3d 8a2c 4c3d
00000100: dcc3 5dbd 4dfd 963e 8ecc 0fbd 43fe 76bf
00000110: bb88 f6be 445f d4bd 73ce 5abd 8dba bdbe
00000120: c68c 653d a50e 70bd 763e 91be 7a85 543e
00000130: 4751 b73d aedc 8fbd 0996 65bf bf79 e03c
00000140: bb17 3a3e 9284 433e 34ef a2be 18ff 2b3d
00000150: 1416 03be d52f 39be a6fe 23bf 18e5 003e
00000160: e02a 763d 1a87 3f3e 2312 bebe 4854 793c
00000170: ad75 fbbd 1eb7 acbe f3a4 8cbd cfd1 193d
00000180: ead5 dcbe 2616 fabd 6f16 39bd 0ef5 583d
00000190: 32b2 b33d 80c9 473d d3c2 a2bd 5b7d 04be
000001a0: 4fd0 8bbe 443e d6bd f4db 043e 3ceb 833d
000001b0: a0ce c7bd 9a33 7bbd 203e 08be 6781 b0be
000001c0: 5be1 ab3d b022 bcbe 8349 29bd 972b e6bd
000001d0: b1a0 77be 889e bbbb 0c1d 9fbe 9e0d 07be
000001e0: 47e3 e5bd 15fc 793c f710 15be 8af6 8abe
000001f0: b3cd 733e 679a 30bf 3006 1f3d e3ab 58be
00000200: 15e8 4d3e 5a20 5d3c ab9e 54bc 4f25 303e
00000210: 3c88 0dbe 0943 d7be eb93 9ebe 8101 3abe
00000220: f532 e1bc e2c8 c93d e563 8dba af33 8b3e
00000230: 89f6 95be 2424 833e c967 cb3d ddfa 31bf
00000240: ddd3 f1be 9933 733c d109 a3be 321e e9be
00000250: 1068 033d a885 983e 04e3 cebd 5e0e 90be
00000260: 639d 723e b577 02bf 620e c13c 9510 ae3d
00000270: 3bbd 953c 9a9b 58be 7a7f 2d3e f2d5 443d
00000280: 6179 0fbf da67 74be df0c 84be 6285 333d
00000290: 4d47 81bd c557 8abe 12eb 06be db6c 24bc
000002a0: ada2 5fbe e015 c0be 5124 013d 3030 94be
000002b0: abdb bb3c 9607 9ebb b185 f03a 832a b3bd
000002c0: 14ee 9d3d 2a54 a1bd af15 4b3d 6df1 32be
000002d0: 57e9 abbe 7796 6fbd 5166 7dbe 374c 833c
000002e0: 14ac c1bd 0054 8dbe 4bab d3bd 689f 353e
000002f0: 5807 d8be 00e2 ad3d 0714 d83d 8a9f a5be
00000300: 5d1d 71bb 28aa 8ebd b469 123d 328b 28bf
00000310: 5849 94bb 5346 cd3c f0f8 8ebe 316d bcbc
00000320: 173a a1bd 8d8a 1dbe 2d43 90be e072 b83e
00000330: 9d39 34bf e580 9ebc ee1a c3be 5e2c 8fbe
00000340: 72ae 19bf 015e 09bf 725f 1cbe df33 2cbe
00000350: aed1 a0bc 487b afbb ff2b 36be faa0 9dbe
00000360: 17fe 2cbf c5cb b9bb de8d 5f3d 03a3 f1be
00000370: 8dcb 0b3e d9d6 9fbd 5d7e 433d 94f7 08be
00000380: f628 b9be 32cd ccbc ca96 41be da45 543e
00000390: 1676 cd3d 8c7b 35be 71a9 85be 57a6 e2bd
000003a0: 1212 51bd 06f0 9e3d 223a 36be f4b4 5fbf
000003b0: 3afa b4bd 6fbe d8bd 5d2a 9f3d 6621 803c
000003c0: 0be9 afbe daea b3bb a71e 103d ec6a c0be
000003d0: 532e 013e 848a c1bd 5bb3 15be 7094 43be
000003e0: 7288 cf3d 70d3 fabd 9b4e 3c3d 8482 d5be
000003f0: 6549 b13d de02 253f cc61 bcbd 5af6 9fbb

fc2.bias f4 [300]
0.05076742 -0.0448467 -0.07699592 0.0059990375 -0.05648288 -0.0059779515 -0.09922974 -0.07614311
-0.07648888 -0.062303826 -0.055148035 0.019711897 -0.05516038 -0.07565487 -0.045803316 -0.06474819
0.089114055 -0.089062154 -0.10151001 -0.055611085 -0.020223862 -0.08718256 -0.027603425 0.076419584
-0.04442806 -0.01754023 -0.005878392 -0.08136192 0.013296224 0.01499578 -0.03538228 -0.055369772
-0.05028905 -0.03323234 -0.03759484 0.13871221 -0.07286587 -0.2596385 -0.077054486 0.081237316
-0.013114855 -0.038256098 -0.08731337 -0.030921366 0.25231436 -0.072754964 -0.05122991 -0.029710788
-0.07825282 -0.07824075 -0.019194188 -0.06860935 0.0022297697 -0.040823035 -0.023487445 -0.010748978
-0.07742371 -0.037968848 -0.02762607 -0.042966366 -0.08061752 0.010081484 0.00089173875 -0.08921606
0.029460328 -0.012031296 -0.0638532 0.10847365 -0.092666805 -0.06894477 -0.07243305 -0.032501977
-0.06311496 -0.046578605 -0.06952507 -0.10708196 -0.0038217064 0.009156215 -0.01793402 -0.06972607
-0.07063467 -0.009312248 -0.022508843 -0.064689934 -0.04917298 -0.0121392645 -0.094792396 -0.025530383
-0.058790073 -0.11934034 -0.058616456 -0.1174993 0.010884262 -0.032849055 -0.010713307 0.2717146
-0.07206562 -0.049783725 0.013614687 -0.066671856 -0.06721551 -0.035529092 0.03626438 -0.01770379
0.07725757 -0.019322462 -0.04396497 -0.060916975 -0.01662006 -0.07474075 0.035313725 -0.04192987
-0.0063744397 -0.054451857 -0.07432511 -0.056340896 -0.074360624 -0.017308146 -0.023931365 -0.034955114
-0.043569792 0.12224674 -0.0005774529 -0.00033656193 0.029093107 -0.041840624 -0.06127414 -0.031824056
-0.047447324 0.20157117 -0.04646634 -0.055927195 0.02298464 -0.027560882 0.061225183 -0.011965655
-0.031937484 0.048162427 -0.0139703695 -0.02127599 -0.2499364 0.025504688 -0.05781734 -0.061137557
-0.009151776 -0.32052132 -0.036370542 -0.20036441 -0.114123665 0.2833683 -0.10706339 0.010069737
0.059728093 -0.051275507 -0.017807972 -0.06249895 0.2782703 -0.0040906947 -0.010789594 -0.020536222
-0.03151311 0.01222272 -0.06989105 -0.043319814 -0.079556495 -0.034499466 -0.016084388 -0.029998686
-0.056952048 -0.04469787 -0.0557967 -0.07145964 -0.07314009 0.005647051 -0.02542464 0.11059551
-0.0019748071 0.11252141 -0.070110634 0.13161597 0.035202544 -0.03494437 -0.03866628 -0.03743198
-0.00072336436 0.009184521 -0.057827845 -0.103506476 -0.057792686 -0.029230492 -0.03609132 -0.068480164
-0.0051117335 -0.073597945 -0.01430078 -0.016402276 -0.03348653 -0.025455428 0.080764614 0.0013980865
-0.063911594 -0.047510345 -0.06745269 0.07815045 -0.004425421 -0.01680281 -0.0608773 0.19673462
-0.079096496 0.022086745 0.0025528984 -0.071981356 -0.064337485 -0.13609287 0.098900415 -0.07892049
-0.07882326 0.029403433 -0.06625242 -0.053923324 -0.08136734 -0.012405391 -0.03277113 -0.0647299
-0.041303467 -0.0012542529 -0.011584955 -0.04440766 -0.018210253 -0.036398787 -0.08595627 -0.035857268
-0.0052148597 0.08091682 -0.04471409 -0.0680666 -0.15419129 -0.06935251 -0.06884834 0.022234002
-0.012050263 -0.034214363 -0.042969793 -0.04400398 -0.0058017033 -0.06170111 -0.26316574 -0.057150964
-0.009730371 0.011937279 -0.06586765 -0.0661949 0.013551482 -0.016429711 -0.15663444 -0.050281823
00000000: 80f1 4f3d 2cb1 37bd 09b0 9dbd 9393 c43b
00000010: 985a 67bd b1e2 c3bb f638 cbbd ebf0 9bbd
00000020: 34a6 9cbd 4c32 7fbd e8e2 61bd d87a a13c
00000030: daef 61bd f1f0 9abd 429c 3bbd b39a 84bd
00000040: 6e81 b63d 3866 b6bd 7be4 cfbd 73c8 63bd
00000050: 83ac a5bc c58c b2bd 9420 e2bc df81 9c3d
00000060: 33fa 35bd 87b0 8fbc 879f c0bb 14a1 a6bd
00000070: 68d8 593c dcb0 753c 02ed 10bd 6acb 62bd
00000080: e4fb 4dbd a21e 08bd 0cfd 19bd 930a 0e3e
00000090: b43a 95bd 56ef 84be bece 9dbd c05f a63d
000000a0: b0df 56bc 6db2 1cbd 5ad1 b2bd ce4e fdbc
000000b0: 592f 813e 8e00 95bd 74d6 51bd 0a64 f3bc
000000c0: 0443 a0bd b03c a0bd 213d 9dbc 0f83 8cbd
000000d0: 5421 123b 0e36 27bd be68 c0bc 7b1c 30bc
000000e0: 5290 9ebd 3985 1bbd 1150 e2bc 80fd 2fbd
000000f0: cc1a a5bd cf2c 253c 93c3 693a e9b6 b6bd
00000100: c956 f13c ea1e 45bc 77c5 82bd 6f27 de3d
00000110: 18c8 bdbd ea32 8dbd c757 94bd cb20 05bd
00000120: 6b42 81bd 35c9 3ebd 2963 8ebd c94d dbbd
00000130: 9875 7abb f303 163c 5eea 92bc 8bcc 8ebd
00000140: e9a8 90bd 6692 18bc 7764 b8bc 287c 84bd
00000150: 9b69 49bd c4e3 46bc 8422 c2bd 1825 d1bc
00000160: dccd 70bd b568 f4bd cf17 70bd 79a3 f0bd
00000170: e753 323c bb8c 06bd de86 2fbc 2d1e 8b3e
00000180: 2497 93bd 05ea 4bbd 2310 5f3c 418b 88bd
00000190: 49a8 89bd f486 11bd f589 143d 8a07 91bc
000001a0: 3839 9e3d 244a 9ebc 9d14 34bd 1484 79bd
000001b0: cb26 88bc ae11 99bd 20a5 103d a8be 2bbd
000001c0: ade0 d0bb e908 5fbd c337 98bd b6c5 66bd
000001d0: 624a 98bd d0c9 8dbc b60b c4bc 182d 0fbd
000001e0: 3d76 32bd 805c fa3d 3560 17ba 9474 b0b9
000001f0: ab54 ee3c 1361 2bbd 98fa 7abd f159 02bd
00000200: 2058 42bd ac68 4e3e 7d53 3ebd ea13 65bd
00000210: 494a bc3c 5cc7 e1bc 42c7 7a3d 980b 44bc
00000220: e1d0 02bd f745 453d fae3 64bc fc4a aebc
00000230: 54ef 7fbe 35ef d03c e0d1 6cbd 606b 7abd
00000240: 55f1 15bc 5f1b a4be 47f9 14bd 542c 4dbe
00000250: abb9 e9bd a615 913e 0d44 dbbd 8afb 243c
00000260: 72a5 743d 4406 52bd 06e2 91bc e6fe 7fbd
00000270: 7279 8e3e 3c0b 86bb d6c6 30bc 943b a8bc
00000280: e413 01bd ce41 483c 0a23 8fbd 1e70 31bd
00000290: 84ee a2bd 504f 0dbd 68c3 83bc cebf f5bc
000002a0: 8d46 69bd 1d15 37bd 158b 64bd 6f59 92bd
000002b0: 79ca 95bd e60a b93b 5647 d0bc e67f e23d
000002c0: c46b 01bb a071 e63d 2a96 8fbd 56c6 063e
000002d0: 8b30 103d d421 0fbd 8960 1ebd 4752 19bd
000002e0: 29a0 3dba ac7a 163c e4dc 6cbd 34fb d3bd
000002f0: 06b8 6cbd c974 efbc 7ed4 13bd 543f 8cbd
00000300: 5480 a7bb 85ba 96bd d24d 6abc 115e 86bc
00000310: 2c29 09bd e787 d0bc eb67 a53d 0040 b73a
00000320: 15e4 82bd 359a 42bd a324 8abd 580d a03d
00000330: 1f03 91bb 0ca6 89bc 7a5a 79bd cd74 493e
00000340: 58fd a1bd 43ef b43c 874e 273b f66a 93bd
00000350: 5fc3 83bd ee5b 0bbe 4d8c ca3d 11a1 a1bd
00000360: 176e a1bd 78df f03c 59af 87bd b4de 5cbd
00000370: eca3 a6bd fb3f 4bbc 053b 06bd 1c91 84bd
00000380: d32d 29bd be65 a4ba d3ce 3dbc cee4 35bd
00000390: ab2d 95bc e516 15bd d709 b0bd 12df 12bd
000003a0: 6ae1 aabb b8b7 a53d 1f26 37bd 8066 8bbd
000003b0: 52e4 1dbe b008 8ebd 5c00 8dbd 1524 b63c
000003c0: 776e 45bc 5c24 0cbd 1801 30bd 843d 34bd
000003d0: 371c bebb 4eba 7cbd a9bd 86be 2117 6abd
000003e0: 226c 1fbc 9494 433c 9ee5 86bd 3191 87bd
000003f0: 0907 5e3c 9a97 86bc c764 20be 50f4 4dbd

fc3.weight f4 [1, 300]
-0.87219924 0.008215052 -0.018099371 0.018292021 0.029969 0.02672393 -0.0012106864 0.016530858
-0.02387053 0.006357105 0.017084286 -0.56038463 0.0053007877 0.0022453878 0.0012097801 -0.022307046
0.23146467 0.0023836456 -0.030001683 0.009437301 -0.0036214066 -0.03057013 0.009933574 -0.46672514
0.06619032 -0.013866836 0.013224479 0.030229896 0.48034158 0.039041366 -0.0062166224 -4.0645242e-05
-0.028777596 -0.024823165 0.013159769 0.27041993 -0.44262305 -1.822001 -0.0011823374 -0.49166122
0.0064639617 0.025065541 -0.012131414 0.019559078 0.3485122 -0.025840564 -0.028282803 0.011543697
-0.0050717425 -0.028532945 0.0008820896 -0.026857996 -0.018255873 -0.2071277 0.010263118 -0.30439362
-0.026994478 -0.026543401 0.02679254 -0.010109585 0.016997106 -6.480055e-05 0.004798418 0.015201024
0.54539025 -0.023236172 -0.00043124455 -0.70429534 0.025921587 -0.0075351507 -0.033887353 -0.025675736
-0.01517429 0.0034066415 -0.0074845813 -0.7458811 0.0032919962 0.01920953 0.002291247 -0.0050412044
-0.029993344 0.02607644 0.036093134 0.012790216 -0.01830192 0.002155402 -0.023937816 -0.00042073295
-0.010089412 -0.0263323 0.00861865 -0.6409463 0.035971913 -0.01862856 -0.002061871 0.21429011
-0.0044333027 0.025710097 0.0008482408 -0.001723217 -0.030677404 -0.24884723 0.5831632 -0.016191365
0.25694424 0.08275866 0.002903701 0.020087874 -0.0030961256 0.00501381 0.003478249 0.02026253
0.0032775127 0.023272842 -0.011626965 0.0032551247 0.020041691 -0.009167913 -0.007376613 0.2610207
0.023877556 0.47898397 -1.5354877e-05 -0.015297134 0.033435676 -0.0025766506 -0.012479584 0.0017138182
0.0038797804 0.1764972 -0.34335575 0.009756432 -0.0063042436 -0.0015311913 -0.42349106 -0.022274846
-0.0054899757 -0.1251881 -0.002131702 0.0033354117 -0.26807755 0.008058707 -0.013527798 0.029223524
0.015454726 0.20540237 0.0051884092 -1.2799827 -0.15643229 0.31703275 0.3725157 -0.0026722488
-0.41395628 0.029306363 0.055242863 0.010632006 0.1713887 0.023370598 0.0035132384 -0.6086538
0.025713993 -0.005653933 0.009477996 -0.021382432 0.01042637 0.5202693 0.0005605692 0.017419176
-0.02698682 -0.022407936 0.003970731 -0.036999434 0.030406645 0.019697506 -0.024525288 -0.4106352
0.031479053 -0.24905862 0.00059113966 -0.20058253 -0.22567526 -0.007859132 -0.019980682 -0.21118034
-0.013322827 -0.0018516891 0.00076411717 -0.17829481 0.002545508 0.01132561 0.2837532 0.028272303
0.012241172 0.07745149 0.63723284 -0.016318098 -0.16246451 0.0047596814 0.2608228 -0.018574452
-0.01709565 -0.0010331674 0.020656474 -0.17351021 0.0025929909 0.019271752 -0.02011088 0.5153687
-0.002961167 -0.010119541 -0.028942699 0.027002394 0.003807921 -0.46167502 0.7327343 0.0076366677
0.0006984382 -0.18524757 0.027966047 -0.010625518 0.0251266 -0.01613257 -0.014899916 -0.014153384
0.018227443 -0.023310743 -0.011463095 0.4117604 0.026479017 -0.027740749 -0.005152118 -0.015961383
0.0019293213 0.44368812 0.026126537 -0.0041607893 -0.23157965 -0.014755729 -0.018590031 0.006652065
0.0034925686 0.37322474 -0.0132107325 -0.0030906426 0.010882877 -0.1757471 -0.7543864 -0.001857236
0.000977205 0.009266912 0.021942083 -0.015037226 -0.8452312 -0.013891686 -0.18077482 -0.01842563
00000000: 7348 5fbf 6d98 063c 2245 94bc 26d9 953c
00000010: 8c81 f53c 25ec da3c e5af 9eba b96b 873c
00000020: 218c c3bc 434f d03b 58f4 8b3c 5e75 0fbf
00000030: 3bb2 ad3b 5b27 133b 7c91 9e3a 44bd b6bc
00000040: 1305 6d3e f036 1c3b 17c6 f5bc e99e 1a3c
00000050: 1f55 6dbb 366e fabc 6ec0 223c 99f6 eebe
00000060: ca8e 873d ba31 63bc 7cab 583c b0a4 f73c
00000070: 55ef f53e d7e9 1f3d cfb4 cbbb 7f7a 2ab8
00000080: febe ebbc f359 cbbc 129c 573c 7b74 8a3e
00000090: 7d9f e2be 5437 e9bf a9f8 9aba 05bb fbbe
000000a0: a4cf d33b 4056 cd3c d7c2 46bc 5c3a a03c
000000b0: 3170 b23e 97af d3bc 56b1 e7bc c621 3d3c
000000c0: dc30 a6bb ecbd e9bc 083c 673a 4d05 dcbc
000000d0: 578d 95bc 4919 54be a326 283c 7bd9 9bbe
000000e0: 8623 ddbc 8c71 d9bc 077c db3c aca2 25bc
000000f0: 843d 8b3c 88e5 87b8 0c3c 9d3b b70d 793c
00000100: b29e 0b3f c959 bebc aa18 e2b9 b34c 34bf
00000110: 8259 d43c 6de9 f6bb 77cd 0abd ec55 d2bc
00000120: 969d 78bc f641 5f3b 3841 f5bb 10f2 3ebf
00000130: 88be 573b 4e5d 9d3c bf28 163b b030 a5bb
00000140: 9ab4 f5bc 429e d53c 65d6 133d 0e8e 513c
00000150: e8ed 95bc a541 0d3b 3d19 c4bc d295 dcb9
00000160: 104e 25bc d6b6 d7bc 3d35 0d3c 0f15 24bf
00000170: 4957 133d ec9a 98bc 7520 07bb de6e 5b3e
00000180: 3d45 91bb fb9d d23c 7a5c 5e3a 91dd e1ba
00000190: 2e4f fbbc cfd1 7ebe 2f4a 153f c1a3 84bc
000001a0: 328e 833e 5f7d a93d 054c 3e3b 538f a43c
000001b0: 5ee8 4abb e34a a43b 56f3 633b 9bfd a53c
000001c0: 8acb 563b b0a6 be3c 077f 3ebc ee53 553b
000001d0: 792e a43c 0435 16bc 84b7 f1bb 81a4 853e
000001e0: dd9a c33c 633d f53e 59ce 80b7 d5a0 7abc
000001f0: d9f3 083d 06dd 28bb 2b77 4cbc 32a2 e03a
00000200: ea43 7e3b afbb 343e 53cc afbe 71d9 1f3c
00000210: d493 cebb 41b2 c8ba d2d3 d8be bd79 b6bc
00000220: 41e5 b3bb 4f31 00be 06b4 0bbb ec96 5a3b
00000230: 7641 89be ab08 043c b2a3 5dbc 2c66 ef3c
00000240: d235 7d3c 0055 523e 8803 aa3b 79d6 a3bf
00000250: c92f 20be 1e52 a23e 61ba be3e e520 2fbb
00000260: 14f2 d3be e613 f03c 5746 623d de31 2e3c
00000270: 8580 2f3e b273 bf3c 5c3e 663b bcd0 1bbf
00000280: 27a6 d23c a144 b9bb 9949 1b3c 362a afbc
00000290: 5ed3 2a3c 5e30 053f 2af3 123a a9b2 8e3c
000002a0: 7713 ddbc d990 b7bc e81c 823b b88c 17bd
000002b0: 5b17 f93c aa5c a13c 42e9 c8bc c73e d2be
000002c0: 2ef0 003d 3909 7fbe b6f6 1a3a 8265 4dbe
000002d0: 6a17 67be 97c3 00bc 87ae a3bc a93f 58be
000002e0: fd47 5abc 60b4 f2ba 094f 483a ea92 36be
000002f0: 8ad2 263b 0d8f 393c 1948 913e 519b e73c
00000300: 328f 483c e39e 9e3d b121 233f 88ad 85bc
00000310: 195d 26be 1af7 9b3b 918a 853e 7329 98bc
00000320: 2d0c 8cbc 586b 87ba c437 a93c a9ac 31be
00000330: 2bef 293b cbdf 9d3c 92bf a4bc 34ef 033f
00000340: 2310 42bb 6ecc 25bc 3d19 edbc 2034 dd3c
00000350: 508e 793b ab60 ecbe 7a94 3b3f 033d fa3b
00000360: 6517 373a 8ab1 3dbe 0d19 e53c a716 2ebc
00000370: 4dd6 cd3c 7428 84bc c71e 74bc 98e3 67bc
00000380: b851 953c 2cf6 bebc b5cf 3bbc 42d2 d23e
00000390: 86ea d83c 9140 e3bc 19d3 a8bb 72c1 82bc
000003a0: 48e1 fc3a 172b e33e 5207 d63c 3b57 88bb
000003b0: 3723 6dbe 03c2 71bc 1f4a 98bc 91f9 d93b
000003c0: 94e3 643b 5017 bf3e d471 58bc 618c 4abb
000003d0: 184e 323c 0cf7 33be 781f 41bf 806e f3ba
000003e0: 8f15 803a 3fd4 173c e2bf b33c b25e 76bc
000003f0: 1261 58bf f499 63bc 091d 39be 59f1 96bc
