Tennis/Nets/checkpoint_critic1800.pth (torch_old, 526870 bytes, 9 tensors)

bn1.weight f4 [24]
00000000: 3d6a 883e 2448 b23e 349f 1a3e fa1b ac3e
00000010: d5a3 553f d67a 153f b34e 063e b28c 003d
00000020: e534 d53d 5dc6 bf3d 82bc 2e3e f1d7 203e
00000030: 4e6f f13e f48f 0f3f 5636 743e 9ba0 843e
00000040: c2e5 083f 23dd 333e b76a 9f3e 0b65 e93e
00000050: 0143 1c3f 0ae0 283f 4644 cf3e 8dc6 853e
0.26643553 0.34820664 0.15099794 0.33615094 0.8345311 0.5839056 0.13115959 0.031384178
0.104104795 0.09364007 0.17064098 0.15707375 0.4715523 0.5607903 0.23848853 0.25903782
0.5347558 0.17564826 0.31136104 0.45584902 0.6103974 0.65966856 0.40481776 0.26128045

bn1.bias f4 [24]
00000000: c1f9 26bd c49c 95bd c834 643d e330 b2bd
00000010: a3f5 653e 9b0d d4bd 5ec6 723d 548c 8cbe
00000020: 3c99 ef3b d01b 163e fba0 a23c f342 8fbc
00000030: 7ebe 363e ba13 0fbe 8353 e43d c5c2 26bd
00000040: 10ee b43d cab9 203e c8f2 253e 1445 15bd
00000050: 2a2f 413e 6dc5 54bd 5b75 16bd 0758 d6bd
-0.040765528 -0.07305291 0.0557144 -0.08700731 0.22456984 -0.103541575 0.05927121 -0.27450812
0.007311968 0.14659047 0.019852152 -0.017487979 0.17846105 -0.13972369 0.11148741 -0.04071309
0.08834469 0.15695873 0.16205895 -0.03644283 0.18865648 -0.051946092 -0.036733013 -0.10466009

bn1.running_mean f4 [24]
00000000: 46f9 acc0 3c5c 0fbf 19c2 a240 6a43 913e
00000010: 0592 863d bf62 4b40 19c2 a240 6a43 913e
00000020: da76 b5c0 8117 16bf 4ed0 aa40 789a a33e
00000030: 062f 013e 7194 4b40 4ed0 aa40 789a a33e
00000040: 4f49 bdc0 2d9f 1abf 6e0b bf40 fc09 de3e
00000050: 76d7 1d3e 6867 4a40 6e0b bf40 fc09 de3e
-5.405429 -0.56000113 5.0861936 0.28371745 0.0657082 3.177902 5.0861936 0.28371745
-5.6707582 -0.58629614 5.337928 0.31953788 0.12615594 3.1809351 5.337928 0.31953788
-5.915199 -0.6039913 5.970145 0.43366992 0.15414223 3.1625614 5.970145 0.43366992

bn1.running_var f4 [24]
00000000: 551e 8e41 e839 813f 90dd af43 ce33 2e41
00000010: 193f 1b42 a7ca 8240 90dd af43 ce33 2e41
00000020: 81f6 8841 950a 853f 0aec b743 0336 3941
00000030: 45be 2942 5c60 8a40 0aec b743 0336 3941
00000040: 1d41 8241 0db2 873f 9b9c be43 bb8d 4541
00000050: 19d5 3942 1819 9c40 9b9c be43 bb8d 4541
17.76481 1.0095797 351.73096 10.887648 38.81162 4.087238 351.73096 10.887648
17.120363 1.0393854 367.84406 11.575686 42.43581 4.3242626 367.84406 11.575686
16.281794 1.0601212 381.22348 12.347102 46.458103 4.878063 381.22348 12.347102

fcs1.weight f4 [400, 24]
00000000: ce8b a93d 5d9e 6cbe 36a2 97bd 7001 1d3e
00000010: c824 2ebe 42bf 43bc 69cb a8bd 52e7 453e
00000020: a3db b23d ea15 4dbe d7e8 d3bb 3c23 2c3e
00000030: 789b 93bd 8517 c13c 8726 a7bd 0e98 773e
00000040: 93e7 4d3d d873 c1bd 52be 7cbe f0c3 5a3e
00000050: c7e8 743e ffdf 4a3e 2e6e c1bd a80f 893e
00000060: c91c 3fbd 1c7c 0c3e e3d4 9e3c 4d47 bd3c
00000070: 0f43 c23d a1d9 82be 47b8 d7bc bf65 f83d
00000080: 0dc6 97bd e182 a0bd 25dd 473d af27 873e
00000090: 3f45 343e 5736 08bd b290 36bd 812e a53e
000000a0: 3598 c63d 49b3 5b3d 7394 43bc 43e6 c63d
000000b0: a2f1 1e3e 119f a83e 2cf2 423d 25c4 e63d
000000c0: 8958 813d 0964 35be 98a1 793d 3ada 963e
000000d0: 9790 bebc 35b1 d7be 6c88 ea3d 1256 4c3e
000000e0: dc0e debc 33d0 efbd 8a48 58bd 2601 1f3e
000000f0: 0511 073d 341d 243e 94bd 4d3c bf03 1a3e
00000100: 0261 38bd 8f9e 273b 5d95 bbbd 2647 883d
00000110: a9a8 28be 638b c43e 5c3d adbd ef75 0b3e
00000120: f26f 34bd 43d5 33be 8aa0 5abe 6a41 bfbd
00000130: 6210 363d 3892 ac3d 440c 79be b1bb 1a3e
00000140: 8705 d1bc 0510 a9be a0dd a6bd a4f2 6d3d
00000150: 81a8 2d3e bde7 133e e45e 24be 8bb2 b23c
00000160: f903 a9bd 391d 6fbe a3b1 bebe 90a5 bd3d
00000170: 53fb 983e 16a8 b13e 1a5c 34be 4389 2a3e
00000180: 63b2 433e a3c1 0c3d 0027 0a3e e76d e63a
00000190: 5dce 543e 42cf 7dbd 0459 e73d 5149 493e
000001a0: 04c3 c5bc b69b 67be dfbd 843e 96d1 66be
000001b0: 92e3 5c3e 0635 803d e213 3e3e 5903 41be
000001c0: 7ffb 02be 076c dbbd b341 02be 20e1 3a3e
000001d0: 4b3a b23d f0bc 763e db3b 0bbd bfba 413e
000001e0: 1b2a cabc 5f4b acbd 74ee 28bd afa5 a93d
000001f0: 3fb7 02be 0464 eebd 750a 88bd 1937 043d
00000200: e0f4 8cbd 964b 33bd ca00 34be f7da 243d
00000210: 4548 83bc 4841 0bbd 6d0b 8bbe a757 ee3c
00000220: 1f15 e0bd a6d6 233d afd4 3abe b37a 413e
00000230: 0354 b23e a23b a53d 22fa ffbd 3ab0 663e
00000240: fbeb a83d dc8b f1bd af91 163e 41ca 8c3e
00000250: 11ca 8abd 95fe 50bc c6f8 273e f7e3 8a3e
00000260: 8e25 d33d 0a20 0e3c efb3 f03d 4035 893d
00000270: c933 2cbd 2c04 c4bd 724b 983d a05a 42bc
00000280: 9133 c93d 4f85 233d 5965 58bc 8a3a 073e
00000290: 291f e83d 87bb 6ebd b348 d73d 1a4b 483e
000002a0: 90a6 1e3e 75df e83d 0431 c23a 74f7 a53c
000002b0: 7c6a 95bd 4a90 003e b603 a6bd 2e3a 653e
000002c0: 92e1 623d 7c83 34be c6ef 0bbe 5b4f 26bd
000002d0: 021e 1cbd 192b 2a3e a5a2 80be d434 b4bd
000002e0: f247 ec3d 1935 b6be 3588 53be 87b6 71bd
000002f0: 4e08 b0be 4eb7 4a3e 1614 01be 0eb7 823c
00000300: ef9f 5e3e d0fb 823d 8488 a83d b143 483e
00000310: 9ef9 18be fae3 c5bd aa16 3f3d 3985 653e
00000320: 1f91 923d ca00 23bd 220c 40be 52ab 2c3e
00000330: 2ebb 36bd bcc0 ab3c 4b2f 3abe e486 1c3e
00000340: 11fd 0e3d 7fb5 1f3d 3556 7bbe 6beb 113d
00000350: 8470 2b3e 48c4 ff3d caaf f4bd 3514 cf3d
00000360: f5f0 42bc dff9 803c 8ffd 273d 5022 093d
00000370: d101 e43e 8fb9 d33d 7a31 3d3c 50a8 1d3d
00000380: cdf5 99bc a166 83bd f195 f7bc 0cd7 453e
00000390: 74ef 313d 7e55 ec3d dec2 04bd 556e 463e
000003a0: 8098 c5bd 66ad 1abd fc3d f53b b080 efbd
000003b0: 6d5f f0be 87b6 b1bd 3643 0d3c 03e7 acbd
000003c0: 6cc6 23be 28e1 fa3c d03d 0ebe 2bab 943c
000003d0: a2a6 a8bd b4c4 ad3d 5fff fdbd 6b69 4e3e
000003e0: 56d1 e2bd 2021 9fbd 5c50 da3d add9 473e
000003f0: 49a9 21bc 7b37 47bd 6ea0 b13d 00e1 773e
0.08278619 -0.23107286 -0.07403986 0.1533258 -0.17006218 -0.011947455 -0.082419224 0.19326523
0.08733299 -0.20027891 -0.0064669657 0.16810316 -0.07207388 0.023570785 -0.081616454 0.24179098
0.050269675 -0.094459236 -0.24681976 0.21363807 0.23916923 0.1981201 -0.09444843 0.26769757
-0.04665831 0.13719219 0.019388622 0.023105288 0.09485447 -0.25556663 -0.026332987 0.121287815
-0.07410822 -0.07837463 0.048794884 0.26397464 0.1760454 -0.033254948 -0.044571586 0.32262042
0.09697 0.053637777 -0.0119372485 0.09711888 0.15521863 0.32933858 0.047594234 0.1126788
0.06315715 -0.17713942 0.060945123 0.2946337 -0.023262305 -0.42127386 0.11451802 0.19954708
-0.027106695 -0.11709633 -0.052803554 0.15527782 0.032975215 0.16026765 0.012557406 0.15040492
-0.04501439 0.0025576686 -0.09159348 0.066541955 -0.16470589 0.38387594 -0.08458969 0.13619207
-0.044052072 -0.17561822 -0.21350303 -0.093386486 0.044449218 0.084263265 -0.24321085 0.15110661
-0.025515331 -0.33020034 -0.0814774 0.05809273 0.1695881 0.1444387 -0.16051823 0.021813652
-0.08252711 -0.23350991 -0.372449 0.09260094 0.29879245 0.34698552 -0.17613259 0.16653924
0.19111018 0.034364354 0.1349144 0.0017580361 0.20781846 -0.061965235 0.11296275 0.19656874
-0.024140842 -0.22617993 0.2592611 -0.22540888 0.21571186 0.062601134 0.18562272 -0.18848933
-0.1279125 -0.10713964 -0.12720375 0.18249941 0.08702525 0.24095511 -0.03399263 0.18918894
-0.02467828 -0.084128134 -0.04124303 0.08283555 -0.12765215 -0.1164017 -0.066426195 0.032279108
-0.06882644 -0.043773256 -0.17578426 0.040247884 -0.016025672 -0.033997804 -0.27157155 0.02909453
-0.109415285 0.039999627 -0.18245195 0.18894462 0.3482972 0.08068015 -0.12498881 0.22528163
0.08248135 -0.11794254 0.14704011 0.27498057 -0.06776822 -0.01275601 0.16403493 0.27127048
0.10309897 0.008674631 0.117530696 0.0669961 -0.042041574 -0.09571108 0.07436265 -0.011862427
0.09824289 0.039922055 -0.013207757 0.13205925 0.11334068 -0.05828431 0.10511913 0.19559899
0.15493226 0.11370746 0.0014815633 0.020259596 -0.07295701 0.12555042 -0.081061766 0.22385475
0.055390902 -0.17628282 -0.13665685 -0.040603023 -0.038114555 0.16618003 -0.25124088 -0.08799139
0.1153716 -0.35587385 -0.20657428 -0.059011962 -0.34381336 0.19796488 -0.12605318 0.015956428
0.21740697 0.06395686 0.08229163 0.19557072 -0.14938971 -0.09662624 0.046652474 0.22414102
0.07156586 -0.039795674 -0.18754628 0.16862229 -0.044612102 0.020965926 -0.18182103 0.15285832
0.03490931 0.038991448 -0.24544604 0.035624903 0.1674214 0.124886096 -0.119475916 0.10111276
-0.011898269 0.015744148 0.041013297 0.03347999 0.44532636 0.10338127 0.011547441 0.038490593
-0.018793965 -0.06416059 -0.030222865 0.19320315 0.04344125 0.11539744 -0.032412402 0.19378026
-0.09648228 -0.037763022 0.0074841958 -0.11694467 -0.46947804 -0.086773925 0.008621981 -0.084424995
-0.1599366 0.030624941 -0.13890767 0.018148025 -0.08234908 0.08484784 -0.12402224 0.20157401
-0.11075084 -0.0776999 0.106598586 0.1951663 -0.009867021 -0.048636895 0.08673178 0.24206924

fcs1.bias f4 [400]
00000000: 0e98 b1bd 4388 7abe a97b 15be ced3 52be
00000010: bdc5 99be baef ecbc 3abf 71be 4aaf 98bd
00000020: e535 bcbd f579 ce3d 0480 9ebe 4313 90be
00000030: 36c3 ca3d 2698 99be 1854 a1bd d19a 57be
00000040: b118 dfbc d0f4 85be db81 20bc 8ae5 bbbd
00000050: 4248 46be 4e8a 83be af69 7d3c 6004 cf3d
00000060: 6303 ac3b 5975 80bc 63ba 64bd f880 c8bb
00000070: f76c d7bd 1ab5 a7be 8caa c63c 9170 ad3d
00000080: b68c c8bd ac3b 45be eb8d 57bd 8b4c b8be
00000090: 32f4 18be 8c6f cdbe f73f 88be 775d c63b
000000a0: 46ae 69bd ed87 0cbe 2c3b 76bc 2515 c3bd
000000b0: 9097 3abe c1f1 ab3d 6517 303d 69b2 f43c
000000c0: 690e e3bd cef0 68bb be4e 0ebe e737 01be
000000d0: 471e 7dbe 654c c7bd b11c 66bd ed8d fa3d
000000e0: a62b c33c ba0e 83be f136 43be 6ac7 1ebd
000000f0: e529 78be 8802 d83d 5743 32be 8301 c0be
00000100: a217 40be 9920 89bd f735 cdbe 5715 35be
00000110: 0b5b 253e d475 14be 1d4c b1be 4cb4 16be
00000120: 2f13 00be 0f5c b13c 932d e6bc 82ea a0be
00000130: 9e06 c13d cad8 8ebd 7e0e ecbd e8ed f1be
00000140: c7ce 57bc f9cb 15be aa24 f7bd 9b3b 863d
00000150: a825 84be 29e9 a3bd f25e 4cbd d620 abbe
00000160: 136d 80be 71d0 06be 9af5 a6be a5e3 90be
00000170: cbf1 86be d5e4 9ebd f532 b8bd e9d6 77be
00000180: e7e4 0abe bbfe 34be 2a2d 78be 5961 abbe
00000190: 295b 16be 10c1 3bbe 0648 b1bd 262c babd
000001a0: 1d53 53be f53a 75be 14cb 933c 68af b7bd
000001b0: b9d5 2cbe f9bf a1bd eae8 823c ace6 e0bd
000001c0: 86d1 adbd 6d41 ffbd 1e27 1abd 973c 9abe
000001d0: 6a7e 36bd f2eb afbe 2572 f1be 0204 4fbe
000001e0: ab31 5dbe 5a67 9d3d b10b 4abe 204e 51bc
000001f0: 0bc3 f5bd 3e93 5dbe a707 78bd 4301 40be
00000200: 59dc 24be 84ef d1be c459 1abe 308c 2cbe
00000210: 1aff 263c edad a6bd b610 c4bb fbbc 32be
00000220: 0cde 72be 99e5 48be ef23 a7be d17a 61be
00000230: 8c6a ecbc f39b c6bd 683e 16be 1209 89be
00000240: 82b3 ddbc 3c4e d6bc e54f 6bbe d973 62be
00000250: e90e ebbc af16 77be 48a7 8ebe 2fdf 42be
00000260: 778c 1cbe 864c 31be a1d5 5bbe ce2e 4abe
00000270: 43a4 17be c685 dabd df7a cdbe 8184 77be
00000280: c065 3cbe 216e e13d 1e2d a6be de69 1fbe
00000290: ff4f 4ebe f424 1fbe 830c 2dbd 852b b1be
000002a0: 239e d53b 3ad2 09be 181c 29be e169 8bbd
000002b0: e0f0 60be 0229 91be 0a11 cebe f2e7 cbbd
000002c0: 3dc1 eebd c071 62be 0b3b 7ebb 0c39 2f3d
000002d0: 317d 57bd 567e 62be c84f b13d a54d 81be
000002e0: 344d ca3c ecc9 e9bd 6d40 8b3d e3cc 4fbe
000002f0: 960c 5f3b a32c 9ebd 7122 abbe e403 83be
00000300: d216 18bd e3b7 09bd 8ec8 a7be 9086 0a3d
00000310: 0761 95be ede2 7ebd cfb7 afbd 7028 97be
00000320: dd5c d9bd a092 80be 9c0f a0be a16c 00be
00000330: df2a 5fbe ad22 45be e2bd b1be 2a4e 84be
00000340: c059 6ebe b1ab 83bd 0594 84bd cf19 303d
00000350: 9ac6 33be 61b9 43be 5d53 6fbb 8d68 013d
00000360: 6bc6 413e 38be cebd 292d 0cbe a872 7ebd
00000370: d1bf 2cbe b67f 063d 7671 7fbd fe45 c53d
00000380: 0f79 52be 7edf 50be c1d4 a7be 5c3f 8ebe
00000390: 9cb8 e1be e92c c5bd 018e 95bd 4d84 29be
000003a0: e76b eebe 708d ddbd 7b81 bfbe d8ea 9c3b
000003b0: fc7a 0dbd 5146 c3bd 4d1a 27bd 68dc a2bc
000003c0: 5193 4abd 1c95 a3be 8763 0cbe c054 17be
000003d0: 9c56 8b3d f1a0 9ebe 276c 8abd 10a9 acbd
000003e0: af06 9abe 70ef cabd 3bc8 44bd adc3 b5be
000003f0: d71e debd c466 cdbd 2b0f 5fbe 610e 97be
-0.0867158 -0.24466042 -0.14597954 -0.2058861 -0.30033675 -0.028922904 -0.23608103 -0.07455309
-0.09189967 0.10081855 -0.30957043 -0.28139696 0.09900515 -0.29998893 -0.07877368 -0.21055152
-0.027233453 -0.2616334 -0.009796585 -0.091746405 -0.19363502 -0.25691456 0.015467091 0.10108256
0.005249427 -0.015680956 -0.055841815 -0.00611889 -0.1051883 -0.32755357 0.024251245 0.08468736
-0.097924635 -0.19261044 -0.052625578 -0.35995898 -0.14936903 -0.40124166 -0.266113 0.0060536223
-0.057050966 -0.13723727 -0.015028756 -0.095255174 -0.18221879 0.0839572 0.04299106 0.029870229
-0.11086733 -0.0035543921 -0.13897225 -0.12618981 -0.24718581 -0.09731368 -0.056179706 0.122341014
0.023824524 -0.25597173 -0.19063927 -0.038764395 -0.24234731 0.10547358 -0.174085 -0.37501153
-0.18759015 -0.06695671 -0.40080234 -0.17683922 0.16148011 -0.14498073 -0.34628382 -0.14717215
-0.12507318 0.021650342 -0.028097903 -0.31428915 0.0942509 -0.06974943 -0.11526202 -0.4725182
-0.013171858 -0.1462859 -0.1206754 0.065543376 -0.2580998 -0.08003456 -0.049895234 -0.3342349
-0.25083217 -0.13165452 -0.32609254 -0.2829868 -0.26356348 -0.0775849 -0.08994094 -0.24203075
-0.13563882 -0.17675297 -0.24235979 -0.33472708 -0.14683212 -0.18335366 -0.086563155 -0.09090452
-0.20637174 -0.23948272 0.018041171 -0.08969003 -0.16878404 -0.07897944 0.015980203 -0.10981497
-0.08487229 -0.12463651 -0.03763496 -0.3012435 -0.04455415 -0.343597 -0.47157398 -0.20216373
-0.21600978 0.07685728 -0.19731022 -0.012774974 -0.12000092 -0.216382 -0.060554173 -0.18750481
-0.16099681 -0.41003048 -0.15073305 -0.16850352 0.010192657 -0.081386425 -0.0059834374 -0.17454903
-0.23717517 -0.19618835 -0.32644603 -0.22019507 -0.0288594 -0.09697714 -0.14672244 -0.26764733
-0.027063135 -0.026160352 -0.22979696 -0.22114505 -0.028693633 -0.24129747 -0.27862 -0.1903045
-0.15287958 -0.17314348 -0.21468212 -0.19744417 -0.14808755 -0.106700465 -0.40132806 -0.2417164
-0.1839819 0.110073335 -0.32456297 -0.15567729 -0.20147704 -0.1554144 -0.04224826 -0.34603515
0.0065190955 -0.13459101 -0.16514623 -0.06807304 -0.21966887 -0.283516 -0.40247375 -0.099563494
-0.11657951 -0.22113705 -0.0038792517 0.042779014 -0.052609626 -0.22118506 0.08657795 -0.2525455
0.024695016 -0.11415467 0.067993976 -0.20293002 0.0034034601 -0.077233575 -0.33424714 -0.25588906
-0.03713114 -0.033622634 -0.327702 0.033819735 -0.29175588 -0.062228132 -0.085799806 -0.2952304
-0.106134154 -0.25111866 -0.3126191 -0.12541439 -0.21793698 -0.19251509 -0.34715182 -0.25840884
-0.23276424 -0.06429232 -0.06473545 0.042993363 -0.17556229 -0.19113685 -0.0036518194 0.031593848
0.18923347 -0.10094875 -0.13689102 -0.062121063 -0.16870047 0.03283664 -0.062364064 0.096324906
-0.20553993 -0.20397756 -0.32779506 -0.27782714 -0.44086158 -0.096277066 -0.07302476 -0.16554375
-0.46566698 -0.10817993 -0.37403473 0.0047887377 -0.034541115 -0.09534896 -0.040796567 -0.019880489
-0.049456898 -0.319497 -0.13709842 -0.14778423 0.06803629 -0.30982164 -0.0675891 -0.084306836
-0.30083224 -0.0990895 -0.048042517 -0.3550085 -0.10845726 -0.100293666 -0.2178313 -0.29503158

fc2.weight f4 [300, 402]
00000000: be7c 43bf 03f1 2fbe eb78 19be 0e61 a2be
00000010: 008b e73d 0427 99be 9864 3bbe 7865 343c
00000020: fd97 debd 2739 023d e16a f53d ff5c 903d
00000030: b080 093d e7e1 883d aa5b 4e3c 7a99 d1bc
00000040: e072 253c 4bf6 81bd e39d 8f3e f4bd 9dbe
00000050: 0f47 9d3d 72a9 a73c a829 c5bd 28fb 09be
00000060: 9f06 87be d427 d13d db31 31bf 5697 013e
00000070: 5cdf 6ebd ae61 1f3e ad58 8dbd f479 923b
00000080: d754 5fbc 501a 2cbf b9a7 c5bd c839 23be
00000090: bb17 0e3e c14e f0bd e949 b5bd b403 1abe
000000a0: d3db 7c3e 78bd 2b3d 9bc0 2e3e 6e33 963d
000000b0: 1a60 8abe 0da0 d53e 221c fc3d 2dde 14be
000000c0: 3b7a bfbf 391e a6bd 5dbe 8abe a1e0 253d
000000d0: b091 a6bc 0891 12be 15fe a13d 5dd4 413e
000000e0: 0c4b 1d3e 96b1 78be 1f9a 0fbf 17cf d7bd
000000f0: 2e96 42bd 1301 113d d5c2 df3d 7248 5dbe
00000100: dcc3 5dbd 22ab e5bb a31c 9ebe 7d71 07be
00000110: cc8f 47bd c30f 96be d39c 57be 80bc 553d
00000120: 621a 803d 6b17 6f3e b63d 7abe 9749 fdbe
00000130: c907 a43d f02c 98be 5f53 f83d a509 b33e
00000140: 96c5 d03e ae63 c4be 7bd4 12be ab0f f73a
00000150: ac7e 35be 7eb5 0e3e a9cf 923e d951 b4bd
00000160: 6d04 0a3f bc4e de3d 8013 b63d 512c 9c3e
00000170: 320b a83c 160f dbbd 528d ad3e fa1e 933d
00000180: 95c2 913d 8a95 adbe ca7e 75bd 777a eb3d
00000190: cd87 613e 80c9 473d 7a2e 82bd ea3d 79be
000001a0: b530 d5be 04eb ca3e 8f1b 1e3e f779 3e3e
000001b0: 6f7e 7b3c 6773 bbbe 4c27 babd 4bf6 ddbd
000001c0: 4ca9 2dbd 6a92 76bc d7bc 1e3c eb39 0ebf
000001d0: 45e9 cd3d b250 5cbf c58c e1be 83e6 ae3e
000001e0: f80f 713d b3f6 763d ed4b 40bd c0ef 2bbe
000001f0: a2a2 463d a103 eebd a557 80bd 8ab6 1e3e
00000200: 4e68 333c 0579 903e 07f4 563c 193e c7be
00000210: 4017 6b3e 665d 0abe 8b77 443e 451e 98be
00000220: 4abc ba3e c934 2abe 970b 45be a094 f3be
00000230: 4255 4ebd 8036 a8bd 0425 4dbe 04b6 713e
00000240: 10d1 b7be e644 973d e4c7 4d3d aa17 a7be
00000250: 69a1 013f 20cb 083f 466e b5be 586b d3bd
00000260: 753b 503d 8124 c13e 10f2 95bc 54d1 f83c
00000270: eb6f 12bf 0d65 183e bffb f13e 1023 2bbe
00000280: de57 b5bd d734 3abd f301 39be 0383 313d
00000290: 3240 25bb 1afa 843b 0688 d33e 26ac edbe
000002a0: 7340 f93b 1d41 9e3e 7e84 ff3c a95b 24be
000002b0: 7a08 753e 5d9d bcbe 9e0e 83be 7b31 10be
000002c0: c7a9 0e3d fcaa c5bd 7931 1ebe e872 6f3e
000002d0: 8500 17bf b777 a2bc 8485 b4bd 8d5d ab3d
000002e0: df89 e73d 6fe3 0cbf 5231 df3d f046 febe
000002f0: 42ab 9ebd 260c 623e bf2f 1e3e a9ae 8bbc
00000300: 05f3 85be 8766 3cbf f4b0 993e 03eb 10be
00000310: bd67 a9bd db03 b9bd 4487 493d d7e4 6a3e
00000320: a5bf 02bf 6f41 02bf 0eae 1abf 489d 3bbd
00000330: 22b9 8dbe 0be2 933d f17a 56bf dcc3 6cbd
00000340: 2493 453e ebb3 3cbe 4576 803e ed15 a4be
00000350: 187f 17bc 487b afbb ccaf d73d 6412 9dbd
00000360: 14a9 dcbd 68a0 a4be f589 403e 0624 f13e
00000370: 19a7 833e 8a53 62be 664f 5c3d 0eb8 20bf
00000380: 1587 153e 32cd ccbc 1a33 813e 35a0 61be
00000390: c747 3e3e ac8c 823e 36bd cc3e d318 12bd
000003a0: 6aef 88be bb2d 9a3e a097 f9bd ea07 4bbe
000003b0: 3623 873c e0c3 3c3e 0f36 e03c 1402 0d3e
000003c0: d21b 06be 4682 f9bd 27ed 02bd 6d43 e9bd
000003d0: b14f 913e 718d b9bd 71d3 dbbe 5782 03bf
000003e0: 83b2 173e 334a 003d 133a e2be 270f 74bb
000003f0: 41b9 a6be d0e3 1f3d cfb6 163e 12d7 63be
-0.76362216 -0.17181782 -0.14987533 -0.31714672 0.11305809 -0.2991258 -0.18300092 0.01101052
-0.10868833 0.031792786 0.11983276 0.070489876 0.03356999 0.066837125 0.012595097 -0.025585879
0.010098189 -0.06345805 0.28050146 -0.30808985 0.07679569 0.02046654 -0.09627086 -0.13474715
-0.2637224 0.10212675 -0.692167 0.12655386 -0.05831848 0.15564606 -0.06901679 0.0044701044
-0.013631067 -0.6722765 -0.09651131 -0.1594001 0.1387624 -0.11733771 -0.08851988 -0.15040475
0.24693231 0.04192874 0.1706566 0.07334028 -0.27026445 0.41723672 0.123100534 -0.14537878
-1.4959177 -0.08111233 -0.2709836 0.040497426 -0.020333141 -0.14313138 0.079097904 0.18928666
0.1536066 -0.24286494 -0.56094545 -0.10537546 -0.047506504 0.035401415 0.10925833 -0.21609667
-0.054141864 -0.007008926 -0.30881223 -0.13226886 -0.04872112 -0.293089 -0.21055917 0.05218172
0.06255032 0.23348777 -0.24437603 -0.49470207 0.080092974 -0.29721785 0.12125277 0.34968296
0.40775746 -0.383573 -0.14338867 0.0018849274 -0.17724103 0.13936421 0.28674057 -0.08804674
0.53913003 0.10854861 0.08890438 0.3050256 0.02051315 -0.10696237 0.3389688 0.07183643
0.07117192 -0.33903152 -0.05993537 0.11497968 0.2202446 0.04877615 -0.06356521 -0.24340025
-0.41638723 0.39632428 0.154402 0.18601213 0.015349968 -0.36611483 -0.090895265 -0.10837992
-0.042397782 -0.015049556 0.009688578 -0.55557126 0.10054258 -0.8606063 -0.4405271 0.3416024
0.05885312 0.060293864 -0.04694741 -0.16790676 0.048494942 -0.11621786 -0.06266717 0.1549932
0.010950161 0.2821733 0.013119704 -0.38914564 0.22958088 -0.13512191 0.19186227 -0.29710594
0.36471778 -0.16621698 -0.19242702 -0.4757433 -0.050374277 -0.0821352 -0.20033652 0.2360459
-0.3590169 0.07386188 0.05023946 -0.32635242 0.5063692 0.53434944 -0.35435694 -0.103232086
0.050837953 0.37723163 -0.018303901 0.030373253 -0.57202023 0.14882298 0.4726238 -0.16712594
-0.0885465 -0.04546055 -0.1806715 0.043337833 -0.0025215265 0.0040581347 0.41314715 -0.464204
0.00760656 0.30909052 0.031191107 -0.1605059 0.23929015 -0.3683881 -0.2559709 -0.14081375
0.03482988 -0.09651753 -0.1544856 0.23383677 -0.5898517 -0.019832475 -0.088145286 0.08367453
0.11305594 -0.55034536 0.10898079 -0.49663496 -0.077475086 0.22074947 0.15447901 -0.017051058
-0.26161972 -0.73593944 0.30017817 -0.1415215 -0.0827174 -0.090339385 0.049201265 0.22938858
-0.51073676 -0.50881094 -0.60421836 -0.045804292 -0.27680308 0.07220849 -0.83781344 -0.057803974
0.19294411 -0.18428008 0.25090232 -0.32047978 -0.00924661 -0.0053552724 0.105315775 -0.07669523
-0.107744366 -0.3215363 0.18802626 0.47097796 0.25713423 -0.2210218 0.053786658 -0.62780845
0.14602311 -0.025000188 0.252343 -0.2203377 0.18582068 0.2549795 0.39988106 -0.035668205
-0.26745158 0.30113015 -0.12187123 -0.19827238 0.016496282 0.18434095 0.027369527 0.13770324
-0.1309655 -0.12183051 -0.031964447 -0.113898136 0.28381112 -0.09060181 -0.42934754 -0.5137076
0.1481419 0.031320762 -0.44184932 -0.0037240477 -0.32563213 0.03903562 0.14718173 -0.22250012

fc2.bias f4 [300]
00000000: 93a4 313d 2ba8 81bd 0ebe 7fbd 0062 85bc
00000010: 0aa1 7fbd c4aa 86bb 06f1 b9bd d7db 63bd
00000020: 8ac8 56bd 086e c4bd 58d9 09bd b95c 2e3d
00000030: e5de a1bd c513 c23d 463a 33bd 57b8 f4bc
00000040: fe62 31be 5b03 7cbd 3e60 93bd 738c 53bc
00000050: 2a0f 83bd 0644 56bd 8773 20bd 3a69 3b3b
00000060: ee12 0ebd 72d9 bfbd a7e9 adbd 5f1c 93bd
00000070: 0f92 203d fc0b bf3c 6108 63bb c43f 84bd
00000080: cfad b2bc 4a89 d03d e20a 43bc 8732 11bd
00000090: 61bc b7bd 1cdb e1bc c679 96bd 5415 8bbd
000000a0: 2d3c bbbc b559 83bd 8691 94bd cb61 dabc
000000b0: 83f5 643e 8b0e 7ebd ace1 e03d 10c8 20bd
000000c0: 6a68 90bd 0e98 6fbd 4d51 5cbd bc65 97bd
000000d0: d4b1 563d f074 8abd e626 3ebc 6423 643c
000000e0: eb4d 89bd ccbb 19bd 21b6 08bd a672 7dbd
000000f0: bc71 a8bd 3ac3 8f3d 8fed 89bd c50e 7abd
00000100: 8886 c3bc 6f0b dabc 586b c7bd 8f6e 4fbc
00000110: 9f50 a7bd c3ea a2bd b607 b0bd 08c5 46bd
00000120: 69a9 f8bd 7828 16bd 0439 97bd 575f acbd
00000130: 5042 7dbd 6004 3dbd 84d4 55bd 1243 18bd
00000140: a729 6abd 1748 b13b 2aaf b7bc 16a0 80bd
00000150: d7eb 5abd 4e0b 58bc d459 a1bd 3447 b3bd
00000160: d280 90bd 3ab3 19bd 2df5 38bd 0ea0 eabd
00000170: c3e6 ff3b 1044 73bd eeaa 47bd f7db c33d
00000180: dd72 bbbc 7732 4bbd e697 10bd ce12 7fbd
00000190: 77ea 84bd 2b44 893d 62c7 ad3d 52b1 9dbc
000001a0: a3bf f2bb 8748 c5bc 29c9 afbd f663 3dbd
000001b0: 66cf e9bc dfb0 b8bd 3733 5f3e 2c1d a6bc
000001c0: 5e3d ddbc 0d24 74bd 8f7b 31bd 214b 51be
000001d0: 858c b6bd 6719 993b 781e b2bc 071b 5cbd
000001e0: fb35 62bd 59a3 9dbd e3e3 3ebc 061f 66bc
000001f0: 32e7 e8bc e31f 06bd 2e74 8bbd 0139 6cbd
00000200: 3d95 96bd 3c67 fcbb 6184 21bd b897 18bd
00000210: 8bd4 c9bd 8499 93bd a660 243b 47f0 61bd
00000220: 2374 413a 28e6 5a3d 4275 89bd 1b0f 95bc
00000230: 6e66 d4bd 97bf 8e3c 24d6 1d3d 8688 4ebd
00000240: ccd7 c6bc e091 c5bd 9bd8 61bd 4cfb 20be
00000250: 189f 98bd 29a8 16bd 9c12 9d3c 0f2f fdbb
00000260: 1d00 9b3c cea1 6dbd 3ad2 ec3d 6049 36bd
00000270: f3b4 003d 0ebb b03c 8dbb 0bbc fe36 b1bd
00000280: e8c6 adbc 2db1 263c f903 bebd 7579 5abd
00000290: d364 bfbd e9d2 20bd 5df1 f2bc 1b1e 2f3d
000002a0: b6d5 1fbd 8e3e 84bd c2e9 c5bd ee8e 023d
000002b0: 8a0a a6bd 85de 3c3d f55a 6dbd 185c bcbd
000002c0: 26cc c13d e9c0 bd3c 9c3e c5bd 2ec0 89bc
000002d0: c2b0 693d 646a 71bd 7341 75bd c8e7 003d
000002e0: bc50 b83d 4431 4c3c b1fd 1fbd 89a0 34bc
000002f0: aea2 cdbc 60a3 04bb ec8a 4abe e1b9 84bd
00000300: d1cd a4bc ce5d 8ebe c719 32bd 682a 2f3d
00000310: 7d7e 15bd 07d3 23bd b6ca 07bc b31b 88bb
00000320: b73a babd 6559 27bd 116d d8bd 8171 b5bd
00000330: bec8 2c3a 1127 9b3c c8c1 c3bd bfdc 60bc
00000340: db44 66bd 4484 e4bb 49ce 9a3b bbdf 63bd
00000350: bbe3 afbd 4e75 f4bc 03a8 afbc 0e22 243d
00000360: a87a 53bd 4611 4fbd a36f 61bd dfb7 36bd
00000370: 7d78 afbd cc68 5fbc adfa 4bbd 869b 25bd
00000380: 770c babc b528 0abd b30b 16bd 372a b3bc
00000390: 0011 62bd 32c7 8ebc 9062 36be e967 a5bc
000003a0: c212 99bc 7b14 963b abcd b2bc 38ab 97bd
000003b0: 1745 8bbd 5a5d 5bbd fd68 6bbd 96fb d5bc
000003c0: a1a5 10bd d3f7 2fbd 84c8 43bd e1e8 69bd
000003d0: 593f 29bc b8d8 42bd beed c7bc 5a6b afbd
000003e0: 9287 953d 8425 933d 3b2e 88bd 08d5 83bd
000003f0: 4e80 a03b 4c4c da3b 9311 85bd 3365 6ebd
0.04336984 -0.063309036 -0.06243711 -0.016282082 -0.06240944 -0.0041097123 -0.09079175 -0.055629577
-0.052437343 -0.09591299 -0.03365454 0.042568896 -0.07903842 0.09476427 -0.043756746 -0.029873056
-0.17322919 -0.061526638 -0.07196091 -0.012911904 -0.06399377 -0.052310966 -0.039172675 0.0028596655
-0.03468602 -0.09367646 -0.08491831 -0.07183146 0.039201792 0.023321144 -0.0034642445 -0.06457475
-0.021811394 0.10182436 -0.01190445 -0.035448577 -0.08971477 -0.0275703 -0.07347445 -0.067911774
-0.022855842 -0.06413595 -0.07254319 -0.02665796 0.2235928 -0.062025588 0.109805435 -0.039253294
-0.070511654 -0.05849462 -0.053788472 -0.07392451 0.052415684 -0.06760585 -0.011605954 0.013924453
-0.06704315 -0.037532613 -0.033376817 -0.061876915 -0.08224818 0.070196584 -0.06734764 -0.06104924
-0.02386786 -0.02661678 -0.09737271 -0.012660637 -0.08169674 -0.079549335 -0.08595221 -0.048527747
-0.121416874 -0.036659688 -0.07383922 -0.08416622 -0.06183082 -0.04614675 -0.052204624 -0.03717334
-0.05716863 0.005410205 -0.022422392 -0.06280534 -0.05344757 -0.013186289 -0.078784615 -0.08753815
-0.070558205 -0.03752444 -0.045155693 -0.11456309 0.0078094914 -0.05939108 -0.048746996 0.09563439
-0.02288192 -0.049608674 -0.03530111 -0.062273793 -0.06490033 0.06702455 0.08485295 -0.019249592
-0.007408099 -0.024082435 -0.0858329 -0.04623791 -0.028541278 -0.090181105 0.2179688 -0.020277582
-0.027006801 -0.059604693 -0.043330725 -0.20438816 -0.08913521 0.0046722176 -0.021743044 -0.053736713
-0.05522726 -0.07697172 -0.011651012 -0.0140454825 -0.028430555 -0.032745253 -0.06809269 -0.05767155
-0.07352684 -0.007702736 -0.039432887 -0.037254065 -0.098549925 -0.07207015 0.002508202 -0.055160787
0.00073796714 0.05344215 -0.06711818 -0.01819568 -0.103710994 0.017425342 0.0385343 -0.050423168
-0.024272822 -0.09646964 -0.05513821 -0.15720862 -0.0745222 -0.036781464 0.019173913 -0.007726557
0.018920952 -0.058015637 0.11563535 -0.04450357 0.031422567 0.02157357 -0.008528602 -0.08653067
-0.02121301 0.010174078 -0.092781015 -0.053338487 -0.093454026 -0.03926364 -0.029656107 0.04275332
-0.03902217 -0.06457244 -0.096637264 0.03187459 -0.08107479 0.04611065 -0.05794807 -0.09197253
0.09462766 0.023163276 -0.096310824 -0.016815271 0.057053335 -0.058939353 -0.05987687 0.031471044
0.08999774 0.012462918 -0.0390603 -0.011024603 -0.025101986 -0.002023898 -0.19779557 -0.06480766
-0.020117672 -0.27805942 -0.043481614 0.04276505 -0.03649758 -0.039996173 -0.008288076 -0.0041536926
-0.0909323 -0.040856738 -0.10567678 -0.0885954 0.0006591192 0.018939527 -0.09558445 -0.013724505
-0.05621801 -0.006973775 0.004724298 -0.055633288 -0.08588358 -0.029841091 -0.021442419 0.04007154
-0.051630646 -0.050553583 -0.055038106 -0.044608947 -0.08567903 -0.013635825 -0.04979961 -0.04043152
-0.022711022 -0.033730228 -0.03663225 -0.021870716 -0.055191994 -0.017428968 -0.17811036 -0.02019115
-0.018685702 0.004580078 -0.021826586 -0.07405704 -0.06800287 -0.053555824 -0.05747317 -0.026120942
-0.035314206 -0.042960953 -0.04779865 -0.057106856 -0.010330045 -0.04756996 -0.024405356 -0.085653976
0.073012486 0.0718489 -0.06649443 -0.06437117 0.0048981076 0.0066619273 -0.06497493 -0.05820198

fc3.weight f4 [1, 300]
00000000: 4da0 25be f548 01be a438 3fbc 6daf de3c
00000010: 8279 4dbb e7c6 64bc 8b3a baba 5df2 e83b
00000020: abf9 bd3c fa3b b93c 2c82 38bc b91d 23be
00000030: 5697 033d 4f69 413e e22a 6dbc d245 95bc
00000040: 7e4d ef3d 2036 3f3e 256e 07bd 31e0 83bc
00000050: ffb5 10bd 5b96 e43d 3c8f db3b f305 f4ba
00000060: 1204 ecbc 76b8 c8bd f9dd 6c3d ddff d0bc
00000070: 5f25 6b3e 5c0a a03e 9f6c d8bc a127 46bc
00000080: 8fdd dbbc 096b 3e3e 61a0 02be e3f8 76bd
00000090: 5eb7 cdbc 7feb c53b 5181 a83c 6ca3 b63c
000000a0: 842d 423c b20d 84bb 1fc3 43bc 8dcf 2cbc
000000b0: d773 4a3e 7fc0 28bc be99 8a3e df21 08bc
000000c0: 2960 57bb b507 babc 883e cebc b091 ac3b
000000d0: 96dd 453e 5611 a9bb a919 043c e851 7db7
000000e0: c02a a8bc cb9b 98ba b138 933c 2bd6 23bc
000000f0: d094 f03c 0bfe 323e 0d65 9c3e 7b4d f3bb
00000100: dcf9 f33c 807b d03c f4ee 7bbc 7762 3a3e
00000110: 5795 cebc fbbf 98bc e1a8 eebb bb42 4fbc
00000120: 1ebf a0be a566 7d3b d57a e5ba 861c a0bb
00000130: 3760 7cbc 1be6 fe3b 788f d83a 93c8 583e
00000140: b96f dc3b 2406 4dbb 05b9 843a dbda a8bc
00000150: d267 1e3a d384 eabc 4b34 9f3c a5cd 0cbd
00000160: a53b 23bc d80d 39bd e09e 8b3c bbd2 afbe
00000170: bc62 00bd 6262 e23c 8c25 04be 94fe 323e
00000180: b1c7 903a 19d5 1dbc a80a 9ebc acfe 993a
00000190: 298f 9f3b 9c18 85bd 27f6 8cbd 70e0 a13b
000001a0: 4576 443e 512a e83b 1ead ae3c e810 0cbe
000001b0: e14d da3c 20c0 7dbe cee6 fa3d dfe3 ddba
000001c0: b1cb 9ebc 704a 29bd 16ea 8a38 a94c 08be
000001d0: a953 eebb abc6 953c 0735 123b f75b a33d
000001e0: e844 83bc 5bab 703b 0c6b 73bc 2cc9 fcbd
000001f0: 4b75 59bc 752c acbc 104f 723b 6fb4 393c
00000200: 2a9a dcbc 53bf e73c 9dd3 ebbb db15 89bc
00000210: 14d6 14be 84ae db3b 6dbd 90bd b093 c1ba
00000220: bbdd 21be 1743 50bd ef1d 3bba f861 bd3c
00000230: aff9 2fbe d185 5d3c 1fe2 3f3e 4dd0 ba3c
00000240: 9411 813a 3fc2 9c39 8922 34bc b679 17be
00000250: 13a8 94bc 8eaf e5bc 66c6 3c3e 0960 5d3c
00000260: af51 bdbd bffc e83b 88b9 b8bd 7c97 31b7
00000270: 853a c93d 126f 563e d6f7 e93b 3996 cabc
00000280: 8991 9bbc d5cd 7b3c f06a d6bc e0b6 10bc
00000290: 4527 c83c 99f6 94ba 99fb 6e3c 2069 c0bd
000002a0: 2414 f039 caa0 94be f84b d6bc 58b0 b3bd
000002b0: 6977 a23b b999 3f3e 4c9e 9ebe 1038 73bd
000002c0: fe8d ca3d 7300 d4bd 42e3 b63c f67a e5bc
000002d0: 8528 2fbd df21 fb3b bf48 90bc 0d0a efbc
000002e0: dde3 47be f9ef 6dbc 6d26 7e3c 78c5 51bc
000002f0: f89d 1c3b 1185 dcbd 68ad d9bc 4b1e cf3c
00000300: 2829 0e3b 290d 353d e028 c93b 4c0c 293e
00000310: 1de7 403c 5f52 f1bc 2af6 20bb a6c9 973c
00000320: ac53 ba3b 9207 273b 63f0 15bc b55c 1c3c
00000330: c78e ea3b d281 0aba a70d 29bc 32db 5bbc
00000340: a069 8c3c 5117 3d3a e363 8e3b 7fca cfbc
00000350: 1b5a db3b 02e0 863b bc38 bebb b74b 9dbd
00000360: 06f9 1dba 91ca a13c bf76 a43c 3fd5 ba39
00000370: 4e6f 7f3c a723 8fbb e280 713e b4a1 05bd
00000380: fb1d 3abb 7d30 1e3e 5561 53bb d213 aa3b
00000390: f96c 373b e5d2 f63b 60b2 b63e 5825 263c
000003a0: 9d6d 40bb df22 fc3a 03d6 6e3c 689c fb3d
000003b0: 4a33 633c a97f 1dbb 0f3a 74bc 53eb 98bb
000003c0: f409 44bc cb0b 783e bc9c a4bc 99c3 1a3b
000003d0: 7944 d73c 2d4a 09bb c708 f7bd e814 a23a
000003e0: 148f 82be 1483 523e 4e9b d83b ea83 3a39
000003f0: 1d07 3bbe 5e28 643b 1f67 a4bc b9ad e9bb
-0.16174431 -0.12625487 -0.011671219 0.027183259 -0.0031352942 -0.013963438 -0.0014208121 0.00710897
0.02319034 0.022611607 -0.011261504 -0.15929307 0.032126747 0.18887828 -0.014475556 -0.01822177
0.11684702 0.18672991 -0.033064026 -0.016098114 -0.035329815 0.111614905 0.0067004245 -0.0018617496
-0.028810535 -0.09800808 0.057828877 -0.02551263 0.22963475 0.31257904 -0.026418982 -0.012094409
-0.026839046 0.18595518 -0.12756492 -0.06029595 -0.02511185 0.006040036 0.020569475 0.022294722
0.011851672 -0.004029953 -0.011948376 -0.010547531 0.19770752 -0.010299801 0.2707042 -0.008308857
-0.0032863712 -0.022708753 -0.025176302 0.0052663907 0.1932281 -0.0051595373 0.0080627585 -1.5099045e-05
-0.020528197 -0.001164311 0.017971369 -0.009999792 0.029367834 0.17479722 0.30545846 -0.007425008
0.029782228 0.025449514 -0.015376795 0.18201624 -0.025217695 -0.01864623 -0.0072833155 -0.012650187
-0.3139581 0.0038665917 -0.001750792 -0.0048862128 -0.015403799 0.0077788956 0.0016522249 0.21170263
0.0067271856 -0.0031284178 0.0010125941 -0.02061217 0.0006042692 -0.028627789 0.019434115 -0.034375805
-0.009962951 -0.045179218 0.017043531 -0.34340462 -0.03134416 0.027634803 -0.12904948 0.17479926
0.0011045841 -0.009633326 -0.01929219 0.0011748872 0.004869361 -0.064988345 -0.06882887 0.004940085
0.19185741 0.0070851226 0.021322783 -0.13678324 0.026648464 -0.24780321 0.12251054 -0.0016928873
-0.019384237 -0.041330755 6.623955e-05 -0.13310494 -0.0072731567 0.018283209 0.0022309439 0.07976525
-0.016024068 0.003672323 -0.014857065 -0.12343058 -0.013272594 -0.021017293 0.0036973394 0.011334523
-0.02692898 0.028289473 -0.007196857 -0.016734054 -0.1453479 0.0067041535 -0.0706738 -0.0014768746
-0.1580724 -0.05084523 -0.00071379443 0.023118004 -0.1718509 0.013520674 0.18738602 0.022804404
0.0009847158 0.00029899363 -0.010994562 -0.14792523 -0.01814655 -0.028037813 0.18435058 0.013511666
-0.092440955 0.007110208 -0.09019762 -1.0585292e-05 0.09825615 0.20940807 0.00714014 -0.024729835
-0.018990295 0.015368898 -0.026174039 -0.008832663 0.024432788 -0.0011364996 0.014586353 -0.09395051
0.00045791373 -0.29028922 -0.026159272 -0.08773869 0.0049580825 0.18710984 -0.30980146 -0.059379637
0.09890364 -0.10351648 0.022325162 -0.028012734 -0.04276325 0.00766395 -0.017612813 -0.029179597
-0.19520517 -0.014522546 0.015512091 -0.012803428 0.0023897868 -0.10767568 -0.026571944 0.025283
0.0021692012 0.044202004 0.006138906 0.16508597 0.011773852 -0.029458223 -0.0024560788 0.01852877
0.005686244 0.002548669 -0.009151551 0.009543587 0.0071581337 -0.0005283627 -0.010318196 -0.013418959
0.01714021 0.0007213252 0.0043454035 -0.025365112 0.006694091 0.0041160593 -0.005805103 -0.07680457
-0.0006026182 0.019749912 0.020076154 0.00035635565 0.015590502 -0.0043682638 0.23584321 -0.032624915
-0.0028399217 0.15448184 -0.003225406 0.005190351 0.0027988537 0.007532465 0.35682964 0.010140739
-0.002936221 0.0019236467 0.014577392 0.122856915 0.013867209 -0.002403239 -0.01490642 -0.0046667247
-0.011965264 0.24223249 -0.020094268 0.002361512 0.026277767 -0.0020948753 -0.12062221 0.001236585
-0.25499785 0.20557815 0.0066103106 0.00017787484 -0.18264432 0.00348141 -0.020068703 -0.007131305
