Tennis/Nets/checkpoint_actor2800.pth (torch_old, 525671 bytes, 10 tensors)

bn1.weight f4 [24]
0.35277832 0.5026248 0.35677955 0.5513337 1.2505835 1.0770466 0.15759149 0.020680578
0.27845904 -0.011833988 0.36347723 0.15559956 0.3371801 0.634284 0.36446875 0.75805014
0.9836933 0.4827219 0.32530293 0.7777847 1.0699228 1.20768 0.5089086 0.58528405
00000000: 5c9f b43e 05ac 003f cfab b63e 3524 0d3f
00000010: 1f13 a03f aadc 893f aa5f 213e 516a a93c
00000020: 2f92 8e3e 58e3 41bc b019 ba3e 7e55 1f3e
00000030: dfa2 ac3e 7060 223f a69b ba3e 930f 423f
00000040: 53d3 7b3f 5327 f73e 1b8e a63e e61c 473f
00000050: 3bf3 883f 4295 9a3f d647 023f 2dd5 153f

bn1.bias f4 [24]
-0.07727502 -0.17937483 0.027372519 0.2502406 0.32436964 0.017283639 0.096806586 -0.26870918
-0.06986162 -0.588811 0.1256892 -0.24219026 -0.07402598 -0.11908969 -0.074680336 -0.04994084
-0.08415811 -0.32956058 0.07062711 -0.03619313 0.17448238 -0.11564515 0.04677408 -0.11842347
00000000: 5e42 9ebd 09ae 37be 553c e03c 891f 803e
00000010: c713 a63e 6b96 8d3c 8842 c63d 4094 89be
00000020: 9c13 8fbd 51bc 16bf abb4 003e b900 78be
00000030: ef9a 97bd 4ce5 f3bd 01f2 98bd c48e 4cbd
00000040: 165b acbd 2abc a8be f2a4 903d 3f3f 14bd
00000050: 82ab 323e 5dd7 ecbd 2d96 3f3d 0188 f2bd

bn1.running_mean f4 [24]
-6.0212474 -0.93904096 4.4339943 -0.0031687452 0.06555445 3.140759 4.4339943 -0.0031687452
-6.1337676 -0.94764644 4.4924145 -0.01656588 0.08129274 3.1335545 4.4924145 -0.01656588
-6.217839 -0.95657134 4.795671 -0.019117473 0.09554019 3.1069207 4.795671 -0.019117473
00000000: 0fae c0c0 fd64 70bf 48e3 8d40 b9aa 4fbb
00000010: 6941 863d 3202 4940 48e3 8d40 b9aa 4fbb
00000020: d347 c4c0 f598 72bf dcc1 8f40 2bb5 87bc
00000030: cf7c a63d 288c 4840 dcc1 8f40 2bb5 87bc
00000040: 89f8 c6c0 dce1 74bf 2376 9940 3f9c 9cbc
00000050: 93aa c33d cad7 4640 2376 9940 3f9c 9cbc

bn1.running_var f4 [24]
14.65928 1.0574554 289.5694 9.486391 32.122932 3.5119433 289.5694 9.486391
14.2931595 1.0628382 296.37057 9.61705 33.543686 3.596085 296.37057 9.61705
13.93289 1.0687792 299.80264 9.83452 35.144196 3.789109 299.80264 9.83452
00000000: 698c 6a41 b35a 873f e2c8 9043 42c8 1741
00000010: e27d 0042 aec3 6040 e2c8 9043 42c8 1741
00000020: c8b0 6441 150b 883f 6f2f 9443 70df 1941
00000030: bc2c 0642 4226 6640 6f2f 9443 70df 1941
00000040: 1eed 5e41 c2cd 883f bde6 9543 325a 1d41
00000050: a893 0c42 c380 7240 bde6 9543 325a 1d41

fc1.weight f4 [400, 24]
0.10864074 -0.042233862 0.06046483 -0.08932164 -0.13615187 -0.16604157 0.020716628 0.0466084
0.19668679 0.12050575 -0.019074561 0.028690381 -0.23112893 0.23344517 -0.051587585 0.0042860988
0.28736743 0.0048287073 -0.07393902 -0.04657336 0.0989597 0.69273204 0.015234867 -0.045271955
0.042583965 -0.14764252 -0.17675023 0.11251984 0.26402894 -0.061386716 -0.21594086 0.021876844
0.28431502 0.0030455927 -0.022914235 0.12966555 -0.4880771 0.15239951 -0.075023845 0.19409055
0.35029966 -0.07252015 -0.10963415 0.09684309 -0.78392094 0.19399753 -0.15397282 0.022312485
-0.035463378 -0.0743566 0.115913086 0.072146475 0.002460557 0.18619893 0.10155081 0.04072759
-0.001614029 -0.034988243 0.10833725 0.1802469 0.2584884 0.23075882 0.032879975 0.17845996
-0.103367 0.014161578 0.053886846 0.16503477 0.53505623 0.103907555 0.0047625545 0.21591492
0.22517192 0.015797263 0.3384089 -0.17716777 -0.02119924 0.11363097 0.20565902 0.35664994
-0.084707454 0.26875213 -0.6022407 0.36935967 0.3552315 -0.027392939 -0.40106207 0.2091235
-0.060399786 0.12043489 0.25971863 -0.099492244 0.38940704 -0.16812299 0.34752148 -0.048921093
0.1904377 -0.09248453 -0.1022099 -0.06363293 -0.13809781 -0.021533303 -0.12045608 0.13024934
0.2482123 -0.049380913 -0.06776077 0.1314834 0.0069423686 0.10902064 0.018691165 0.08628103
0.55163 -0.08517855 0.2132461 -0.12249162 0.015317153 0.15240258 0.20845288 -0.07709733
0.06057911 -0.14087406 -0.025415665 -0.04430878 -0.7348706 0.3256186 0.028594453 -0.03313879
0.1265139 -0.080486104 0.13963388 -0.05845881 0.03847279 0.1333499 0.11694038 0.04583823
0.24126671 -0.15235837 0.10196581 0.02001875 0.5914376 -0.11180414 0.10509894 -0.060746327
-0.11995807 0.040776137 -0.20194484 -0.044174973 -0.28455445 0.14952724 -0.2241292 0.10652141
0.015384773 0.014861718 0.46161747 0.023982976 -0.05807218 0.14826086 0.49117365 0.22718452
-0.22499335 0.07534196 -0.53002787 -0.043417618 0.20880614 -0.08555126 -0.5581139 -0.08878135
-0.04028147 0.12925181 -0.06635116 0.22041805 0.2509705 0.40257856 0.034924768 0.099214934
0.17318873 0.25961792 0.17531645 0.14060752 0.05281395 0.3031059 0.17322592 0.27961728
0.113457784 0.2476725 -0.28361654 0.039072193 -0.095898665 0.027258866 -0.24941671 0.0054794895
0.32003888 -0.0077904365 -0.023734905 -0.074135594 0.23681429 0.3149108 -0.06326459 0.06683915
0.2767636 0.02213059 0.044163838 0.08198203 0.1452263 0.48936918 0.0874428 0.056852046
0.055745408 -0.15202934 -0.40597746 -0.3040099 -0.07781754 0.18728977 -0.43512923 -0.2270258
-0.035783246 0.5339803 -0.17019565 0.013888155 -0.09310932 -0.3038487 -0.18712297 -0.022563608
-0.2222888 0.46988502 0.04026294 0.22120303 -0.059291016 -0.19315214 0.010673739 0.30519456
-0.1945029 0.80065995 0.1394363 -0.040144186 0.107278936 -0.01546705 0.19608986 -0.1103096
0.11349831 0.06545534 0.060093377 -0.03661913 -0.02524463 -0.16160119 -0.13346377 0.35303
-0.063391015 0.36017358 -0.48258987 0.09452002 0.37073666 -0.29378137 -0.24533632 -0.28673223
00000000: 097f de3d 6afd 2cbd f8a9 773d 44ee b6bd
00000010: 656b 0bbe cd06 2abe ebb5 a93c 73e8 3e3d
00000020: 4368 493e b8cb f63d 4142 9cbc 1708 eb3c
00000030: 10ad 6cbe 400c 6f3e 814d 53bd 6772 8c3b
00000040: d321 933e 223a 9e3b 576d 97bd b5c3 3ebd
00000050: 62ab ca3d e356 313f aa9b 793c 166f 39bd
00000060: 866c 2e3d 9a2f 17be 03fe 34be cd70 e63d
00000070: cd2e 873e a370 7bbd 9a1f 5dbe 1137 b33c
00000080: bd91 913e 9198 473b a2b6 bbbc 0cc7 043e
00000090: 3ee5 f9be 9e0e 1c3e 1aa6 99bd acbf 463e
000000a0: 7a5a b33e 7285 94bd df87 e0bd ac55 c63d
000000b0: 0baf 48bf 4aa7 463e 0dab 1dbe acc8 b63c
000000c0: 0c42 11bd 4648 98bd d763 ed3d 88c1 933d
000000d0: 4c41 213b efaa 3e3e dff9 cf3d f9d1 263d
000000e0: d48d d3ba d54f 0fbd ecdf dd3d a592 383e
000000f0: 9758 843e 0a4c 6c3e 27ad 063d 35be 363e
00000100: 14b2 d3bd f705 683c 74b8 5c3d e0fe 283e
00000110: 72f9 083f 7ccd d43d 340f 9c3b cd18 5d3e
00000120: 7893 663e 4369 813c ee43 ad3e 786b 35be
00000130: 07aa adbc 5bb7 e83d 4798 523e d29a b63e
00000140: 1a7b adbd e199 893e 722c 1abf b61c bd3e
00000150: e7e0 b53e 2867 e0bc 0258 cdbe 7924 563e
00000160: c465 77bd 91a6 f63d d7f9 843e 97c2 cbbd
00000170: 5c60 c73e 6f28 2cbe 56ee b13e 7c61 48bd
00000180: 1a02 433e 8768 bdbd 6d53 d1bd fb51 82bd
00000190: 8369 0dbe 9c66 b0bc adb1 f6bd 1560 053e
000001a0: 5d2b 7e3e a443 4abd 29c6 8abd 96a3 063e
000001b0: cf7c e33b 3746 df3d 371e 993c 1cb4 b03d
000001c0: a037 0d3f 1772 aebd 305d 5a3e e3dc fabd
000001d0: ccf4 7a3c 6c0f 1c3e ac74 553e 34e5 9dbd
000001e0: cd21 783d 4a41 10be 8334 d0bc 207d 35bd
000001f0: 7b20 3cbf 7bb7 a63e ea3e ea3c 8abc 07bd
00000200: dc8c 013e e6d5 a4bd 2ffc 0e3e 8172 6fbd
00000210: a595 1d3d e08c 083e 707e ef3d dec0 3b3d
00000220: 9f0e 773e d503 1cbe 73d3 d03d 5dfe a33c
00000230: 7468 173f 92f9 e4bd 1d3e d73d 24d1 78bd
00000240: 94ac f5bd e104 273d a1ca 4ebe d1f0 34bd
00000250: 1fb1 91be ab1d 193e 2082 65be e627 da3d
00000260: 6a10 7c3c 907e 733c 2059 ec3e f277 c43c
00000270: 18dd 6dbd b2d1 173e 1d7b fb3e 0fa3 683e
00000280: a864 66be e34c 9a3d e8af 07bf acd6 31bd
00000290: 47d1 553e 8035 afbd 8de0 0ebf ffd2 b5bd
000002a0: 2ffe 24bd 965a 043e 1ee3 87bd 45b5 613e
000002b0: 357f 803e c71e ce3e 460d 0f3d 3331 cb3d
000002c0: 6358 313e a4ec 843e 2886 333e 6bfb 0f3e
000002d0: 7153 583d b230 9b3e 2362 313e ff29 8f3e
000002e0: 8e5c e83d dc9d 7d3e 3036 91be 2a0a 203d
000002f0: 8566 c4bd fc4d df3c 1867 7fbe 4a8d b33b
00000300: 23dc a33e eb46 ffbb b46f c2bc 67d4 97bd
00000310: 727f 723e fd3b a13e de90 81bd f7e2 883d
00000320: f5b3 8d3e 364b b53c 24e5 343d 32e6 a73d
00000330: 34b6 143e 998e fa3e 3615 b33d b1dd 683d
00000340: 4c55 643d 94ad 1bbe 47dc cfbe 30a7 9bbe
00000350: cd5e 9fbd e4c8 3f3e 42c9 debe 7479 68be
00000360: 7491 12bd efb2 083f c547 2ebe 258b 633c
00000370: 19b0 bebd 0f92 9bbe 2a9d 3fbe 51d7 b8bc
00000380: ad9f 63be c594 f03e c1ea 243d 0c83 623e
00000390: 23db 72bd adc9 45be e8e0 2e3c 7642 9c3e
000003a0: c52b 47be 0df8 4c3f 64c8 0e3e 3b6e 24bd
000003b0: 0fb5 db3d 8269 7dbc c8cb 483e 00ea e1bd
000003c0: cd71 e83d 730d 863d 7924 763d f1fd 15bd
000003d0: d4cd cebc c87a 25be baaa 08be 59c0 b43e
000003e0: 26d3 81bd ac68 b83e 0516 f7be b693 c13d
000003f0: 32d1 bd3e 836a 96be 7239 7bbe 91ce 92be

fc1.bias f4 [400]
-0.09589279 -0.1977162 -0.15671803 -0.43015635 -0.38399303 0.081720084 -0.25891283 0.16843829
-0.03952819 0.07844513 -0.5010232 -0.3164532 -0.109813444 -0.60948557 -0.08273003 -0.3113169
-0.23915611 -0.1937289 -0.10952365 0.14954762 -0.30911097 -0.09380824 0.11132095 0.015403876
0.1582186 -0.24358258 -0.14992718 -0.1405273 -0.4058967 -0.48339763 -0.14785054 -0.15663105
-0.3470595 -0.19556308 0.038947303 0.0875887 -0.0122456495 -0.2812449 -0.5439574 -0.071607195
-0.20490617 -0.0983853 -0.026002852 -0.048822567 -0.39753103 0.1155196 -0.2134715 0.08390309
-0.3165218 -0.19807878 -0.19059487 -0.20625292 -0.31202784 -0.053868525 -0.23009585 -0.16119215
-0.011493199 -0.028041048 -0.14927368 -0.0038930965 -0.3698976 -0.31432587 -0.3981971 -0.57964045
-0.19786844 -0.24522887 -0.07368384 -0.20905206 -0.10647122 0.10992032 0.14694254 -0.2796572
0.097229496 0.16613032 0.018967846 -0.47384647 -0.27256942 -0.2273058 -0.30682904 -0.18548392
-0.037879977 -0.0017621882 -0.286839 -0.04861095 -0.21168569 0.06591156 -0.13579442 -0.38194743
-0.5290773 0.04238315 -0.25504896 -0.14056285 -0.1968605 -0.020690093 -0.7277337 -0.040751733
-0.22090529 -0.23207085 -0.32684803 -0.19065495 0.046371385 -0.3740585 -0.10293243 -0.44436583
-0.18683714 -0.19354486 -0.056299437 -0.026571102 -0.36920795 -0.14475057 -0.11173524 0.0676775
-0.2904177 -0.3742001 -0.017371465 -0.5900024 0.021161245 -0.3764188 -0.35856286 -0.3533015
-0.40531686 -0.05613905 -0.09966474 0.23425215 -0.26785585 -0.5195447 -0.11580188 -0.038577706
-0.084467016 -0.2493217 -0.0069845943 -0.28419164 0.2714943 0.10448858 -0.056586463 -0.35592514
-0.3051713 -0.07935591 -0.37175876 -0.20448056 -0.25579277 -0.046435967 -0.258449 -0.27396983
-0.08543732 0.05658909 -0.3147974 -0.059394266 0.022376692 -0.2684144 0.055315252 -0.30714753
0.16579255 -0.08832601 -0.033116568 -0.45896655 -0.16224025 -0.4619191 -0.18404055 -0.3017808
-0.1439896 -0.03627206 -0.12081234 -0.43337017 -0.17125696 -0.2982333 -0.18570602 -0.17775542
-0.32337672 -0.04900979 -0.28025234 -0.26392016 -0.35006374 -0.30122307 -0.24572968 -0.27707964
-0.38350844 -0.31302837 -0.0910138 -0.1075646 -0.189255 -0.23881446 -0.014881474 -0.13415007
0.048228677 0.09055061 -0.14720207 -0.09064034 -0.093044974 -0.19860065 -0.28256387 -0.079595886
-0.11013921 -0.13396268 -0.074331656 0.04202873 -0.579412 -0.3463865 -0.40915996 -0.204314
-0.16744791 0.049055215 -0.17552531 0.030559452 0.013123238 -0.5046961 -0.461228 -0.3722633
-0.23047298 0.18259928 -0.056247476 -0.14607018 -0.33770412 -0.49323562 -0.0257152 -0.21234941
-0.27665085 -0.31318572 0.1718697 -0.30249748 -0.37034604 0.15255904 -0.07871223 -0.08027394
-0.3025735 -0.16888931 -0.52160734 -0.4144541 -0.20475581 -0.22058508 0.16986199 -0.40611205
-0.3855755 -0.0076834573 -0.08949568 -0.09836994 -0.14413853 -0.05573205 -0.01622017 0.25670293
0.091116495 -0.35722616 -0.38743153 -0.24398322 0.28148675 -0.16664581 -0.4703521 0.20487063
-0.7244397 -0.16690853 0.039351486 -0.18183753 -0.171702 -0.068876825 -0.1397537 -0.21610923
00000000: 7063 c4bd 1e76 4abe b17a 20be 743d dcbe
00000010: bc9a c4be dc5c a73d 3990 84be 167b 2c3e
00000020: 50e8 21bd d7a7 a03d 0e43 00bf 2706 a2be
00000030: dfe5 e0bd 3f07 1cbf 5d6e a9bd ee64 9fbe
00000040: 57e5 74be de60 46be ef4d e0bd 0323 193e
00000050: cb43 9ebe 891e c0bd 3dfc e33d 8a60 7c3c
00000060: 0f04 223e b66d 79be 8386 19be 63e6 0fbe
00000070: b1d1 cfbe e57f f7be 2266 17be e463 20be
00000080: c8b1 b1be b041 48be 3587 1f3d b461 b33d
00000090: faa1 48bc 55ff 8fbe cb40 0bbf cba6 92bd
000000a0: ecd2 51be 3b7e c9bd ef03 d5bc 2cfa 47bd
000000b0: 3089 cbbe 8a95 ec3d 4698 5abe 62d5 ab3d
000000c0: 250f a2be 2ad5 4abe 4d2b 43be f733 53be
000000d0: 1dc2 9fbe 3ea5 5cbd 3f9e 6bbe 8e0f 25be
000000e0: f84d 3cbc 57b6 e5bc 33db 18be 5223 7fbb
000000f0: 3863 bdbe 52ef a0be 7ee0 cbbe 5163 14bf
00000100: 069e 4abe 471d 7bbe 8ee7 96bd be11 56be
00000110: 950d dabd e81d e13d 1b78 163e 3b2f 8fbe
00000120: 4220 c73d 111e 2a3e 7562 9b3c 019c f2be
00000130: 388e 8bbe dac2 68be b218 9dbe 7fef 3dbe
00000140: 0928 1bbd 39f9 e6ba 90dc 92be 471c 47bd
00000150: 22c4 58be a4fc 863d b10d 0bbe 9d8e c3be
00000160: 9c71 07bf f499 2d3d c795 82be b5ef 0fbe
00000170: cd95 49be 457e a9bc c14c 3abf 4aeb 26bd
00000180: ff34 62be fba3 6dbe a058 a7be 0d3b 43be
00000190: ecef 3d3d 9984 bfbe 3dce d2bd eb83 e3be
000001a0: 3c52 3fbe a030 46be 3d9a 66bd a4ab d9bc
000001b0: d308 bdbe 7e39 14be 72d5 e4bd 809a 8a3d
000001c0: a1b1 94be 2897 bfbe 9a4e 8ebc 660a 17bf
000001d0: 595a ad3c f7b9 c0be 8d95 b7be efe3 b4be
000001e0: b185 cfbe 0ff2 65bd 071d ccbd ccdf 6f3e
000001f0: 6724 89be e200 05bf 8929 edbd a803 1ebd
00000200: 0bfd acbd 304e 7fbe 06df e4bb 9181 91be
00000210: 4d01 8b3e 1cfe d53d 35c7 67bd d23b b6be
00000220: 6a3f 9cbe 5a85 a2bd 2a57 bebe 5a63 51be
00000230: 45f7 82be a433 3ebd 6d53 84be c645 8cbe
00000240: c3f9 aebd f6c9 673d 202d a1be 6747 73bd
00000250: 534f b73c 9d6d 89be 3f92 623d 7142 9dbe
00000260: 86c5 293e 44e4 b4bd 3da5 07bd aafd eabe
00000270: 4f22 26be a980 ecbe 2075 3cbe 0383 9abe
00000280: 0272 13be 0392 14bd 766c f7bd b2e2 ddbe
00000290: fc5d 2fbe 09b2 98be b829 3ebe 8405 36be
000002a0: a291 a5be 7dbe 48bd 3c7d 8fbe 8b20 87be
000002b0: 8e3b b3be e939 9abe 90a0 7bbe 62dd 8dbe
000002c0: 385b c4be 4145 a0be 7165 babd d44a dcbd
000002d0: 10cc 41be c78b 74be 6dd1 73bc a35e 09be
000002e0: 6f8b 453d 9972 b93d 24bc 16be a4a1 b9bd
000002f0: 5d8e bebd f85d 4bbe 36ac 90be 2b03 a3bd
00000300: ab90 e1bd 832d 09be 323b 98bd 5126 2c3d
00000310: 5854 14bf 9259 b1be 6a7d d1be b037 51be
00000320: 7777 2bbe 1fee 483d e8bc 33be d157 fa3c
00000330: da02 573c c333 01bf 1426 ecbe 4c99 bebe
00000340: 1c01 6cbe 4efb 3a3e c163 66bd 6c93 15be
00000350: 8ee7 acbe 6189 fcbe afa8 d2bc 2072 59be
00000360: 2ea5 8dbe e159 a0be 9cfe 2f3e f3e0 9abe
00000370: ff9d bdbe 7038 1c3e e133 a1bd aa66 a4bd
00000380: eaea 9abe 52f1 2cbe 0f88 05bf 5433 d4be
00000390: 82ab 51be 0ee1 61be 4df0 2d3e ebed cfbe
000003a0: 276a c5be 83c5 fbbb 8349 b7bd 2e76 c9bd
000003b0: 0d99 13be 4a47 64bd 29e0 84bc 916e 833e
000003c0: 499b ba3d 59e6 b6be 6d5d c6be bdd6 79be
000003d0: 081f 903e 33a5 2abe fed1 f0be 9bc9 513e
000003e0: e174 39bf 12ea 2abe 062f 213d 9e33 3abe
000003f0: a6d2 2fbe 4b0f 8dbd 981b 0fbe bd4b 5dbe

fc2.weight f4 [300, 400]
-0.2592041 -0.22472148 0.44638187 0.109774254 -0.22523576 -0.4269094 -0.16563259 0.2589712
0.14126231 -0.2975402 0.41437283 -0.05628898 -0.132417 0.07192325 0.20664276 0.19424373
-0.08567349 -0.19353023 0.07841529 0.15243837 0.040037815 -0.016213892 -0.6312632 0.26770607
-0.041112315 0.15061794 0.27842677 0.00079885824 -0.35959837 -0.32923034 -0.10726648 0.09114416
0.13485588 -0.21962859 0.4266769 0.13954353 0.24486503 -0.47217664 -0.61800885 -0.5016772
0.23044592 0.2308622 -0.2238089 0.15134895 -0.4347949 0.10560727 -0.16185346 -0.2871883
-0.22215103 0.5145203 -0.20392449 -0.28088292 0.097500294 0.07000243 -0.16501011 -0.2594822
0.35048226 -0.2227773 -0.11919203 0.10286551 0.12501496 0.1308579 0.12385601 0.31584907
0.027746886 -0.1270978 -0.42509583 -0.09998934 0.52547795 0.03970846 -0.076221004 -0.062071133
0.26196688 0.09734121 0.043289635 -0.3233951 -0.034304053 -0.622499 0.1579552 -0.10214991
0.17950742 -0.0008736235 0.06908185 -0.09836052 -0.17250746 -0.18915299 0.38984403 -0.47359648
0.1536108 0.18455888 -0.18142837 0.2872456 -0.07587313 -0.03474755 0.078906424 0.03232588
0.07971795 0.17828591 -0.070245095 0.027269378 -0.39482182 -0.51188314 -0.22827339 0.011493699
0.023671353 0.2199613 0.17204286 0.032167066 0.26560348 0.4045208 -0.40618917 0.06529169
0.027248535 -0.21066758 -0.107973956 0.47177967 0.039353278 -0.006500914 0.30553386 -0.06835345
-0.16177744 -0.08425334 -0.032139726 0.113732964 -0.015109509 -0.13941866 -0.317183 -0.3129733
0.16381669 0.14454614 -0.2031557 0.10328195 0.06082821 -0.051350776 0.32394013 -0.12409293
-0.019718492 -0.10020683 -0.08432866 -0.06729189 -0.46459424 -0.4687945 -0.12961477 -0.6644266
0.00971214 0.11230237 -0.09440027 -0.0026324983 0.3313945 0.31346065 -0.8508128 0.02435416
0.27056947 0.069605984 -0.2972045 0.0060425987 -0.29927066 -0.7939284 -0.0057225367 -0.6853713
0.11906398 0.42383888 -0.008044047 0.14019945 -0.02187762 0.112752795 0.13971373 -0.030255666
0.036758907 -0.13401346 -0.081703655 -0.072668515 -0.17149964 -0.1516234 0.6203024 0.030935382
0.19347379 -0.25923574 0.29295167 -0.37060314 0.15923196 -0.8947584 0.19048414 -1.0745163
-0.21852265 0.26524863 -0.29381567 0.026576381 0.20164777 -0.081744105 -0.35706228 -0.40907314
0.16394356 -0.18129604 -0.06892083 -0.34745988 -0.030642765 0.048786283 -0.44882846 -0.07936795
-0.020827862 -0.018073091 -0.42609066 -0.25240952 -0.77180094 -0.5318093 0.053559367 -0.42158735
0.3101151 -0.021555291 0.14117539 0.1887368 -0.21925421 0.03834153 -0.06242771 0.0011241074
-0.45209816 0.11068986 0.15571225 -0.14047913 -0.13278964 0.25020474 -0.04099906 0.23382053
-0.029003099 -0.05359029 0.29313853 -0.056094628 0.05138632 0.20034564 0.108008705 -0.11783805
-0.124897934 -0.06991612 0.36565018 0.04433627 0.32211846 0.2968052 -0.06460754 -0.12781617
0.08963952 -0.2592213 0.23068574 0.44269475 0.028645618 -0.040523123 -0.5145595 -0.17449738
-0.40639296 0.08297865 0.0027246631 -0.18565656 0.19698049 -0.3680161 0.28531888 0.033133376
00000000: 66b6 84be 631d 66be 2a8c e43e 53d1 e03d
00000010: 34a4 66be de93 dabe 979b 29be e097 843e
00000020: 11a7 103e 3057 98be ad28 d43e 468f 66bd
00000030: 5298 07be 7f4c 933d 299a 533e d4e7 463e
00000040: 9575 afbd ca2c 46be 3298 a03d ce18 1c3e
00000050: b1fe 233d ffd2 84bc 779a 21bf c510 893e
00000060: 6365 28bd 973b 1a3e f48d 8e3e 786a 513a
00000070: 471d b8be e190 a8be 87ae dbbd caa9 ba3d
00000080: a917 0a3e 51e6 60be 6575 da3e 80e4 0e3e
00000090: e6bd 7a3e 23c1 f1be d435 1ebf eb6d 00bf
000000a0: 04fa 6b3e 2467 6c3e 292e 65be 38fb 1a3e
000000b0: 709d debe a048 d83d eabc 25be 580a 93be
000000c0: 8f7b 63be 9ab7 033f 95d1 50be e3cf 8fbe
000000d0: 3cae c73d 6f5d 8f3d 69f8 28be dada 84be
000000e0: 6972 b33e bc1f 64be f31a f4bd 27ab d23d
000000f0: ec03 003e 9dff 053e 38a8 fd3d f8b6 a13e
00000100: 704d e33c ed25 02be 29a6 d9be 36c7 ccbd
00000110: b985 063f 57a5 223d c219 9cbd 4d3e 7ebd
00000120: 8620 863e d45a c73d 7950 313d 0b94 a5be
00000130: 6882 0cbd 185c 1fbf 02bf 213e f933 d1bd
00000140: cbd0 373e e103 65ba c97a 8d3d 3e71 c9bd
00000150: cca5 30be 52b1 41be a399 c73e 3d7b f2be
00000160: 264c 1d3e 01fd 3c3e 5cc8 39be db11 933e
00000170: 5f63 9bbd 7253 0ebd b199 a13d 2468 043d
00000180: 2a43 a33d 9590 363e a9dc 8fbd 0864 df3c
00000190: 1626 cabe c60a 03bf 80c0 69be 1150 3c3c
000001a0: 6dea c13c 893d 613e 012c 303e 9dc1 033d
000001b0: 2efd 873e 5a1d cf3e 07f8 cfbe a6b7 853d
000001c0: 5238 df3c 3eb9 57be 7321 ddbd 1b8d f13e
000001d0: e730 213d 9f05 d5bb ef6e 9c3e e5fc 8bbd
000001e0: fca8 25be 048d acbd f2a4 03bd d4ec e83d
000001f0: e08d 77bc c4c3 0ebe cf65 a2be 093e a0be
00000200: 90bf 273e e703 143e 0c08 50be 7d85 d33d
00000210: 0027 793d 3155 52bd 7bdb a53e 6f24 febd
00000220: ad88 a1bc 3d39 cdbd 81b4 acbd 55d0 89bd
00000230: 4cdf edbe d505 f0be bcb9 04be dd17 2abf
00000240: ab1f 1f3c c9fe e53d ee54 c1bd fe85 2cbb
00000250: 8aac a93e ea7d a03e dece 59bf 6082 c73c
00000260: 1588 8a3e 958d 8e3d 302b 98be fe00 c63b
00000270: 013a 99be e43e 4bbf 1e84 bbbb 7e74 2fbf
00000280: d1d7 f33d 6901 d93e 2ecb 03bc 7290 0f3e
00000290: b238 b3bc f0ea e63d 1e11 0f3e bbda f7bc
000002a0: 8290 163d d33a 09be 3f54 a7bd 3bd3 94bd
000002b0: 9a9d 2fbe 2a43 1bbe 23cc 1e3f 336c fd3c
000002c0: fe1d 463e 8cba 84be c3fd 953e b2bf bdbe
000002d0: b40d 233e e30e 65bf 460e 433e c089 89bf
000002e0: 67c4 5fbe abce 873e 026f 96be b6b6 d93c
000002f0: c17c 4e3e 7469 a7bd ded0 b6be 0972 d1be
00000300: d2e0 273e aba5 39be 5d26 8dbd 43e6 b1be
00000310: 8906 fbbc 20d4 473d d8cc e5be aa8b a2bd
00000320: 319f aabc 050e 94bc 8e28 dabe d23b 81be
00000330: bf94 45bf a724 08bf 1161 5b3d 4cda d7be
00000340: 68c7 9e3e b994 b0bc 4890 103e 3844 413e
00000350: 2d84 60be 020c 1d3d 33b4 7fbd c956 933a
00000360: 6979 e7be 5eb1 e23d 0873 1f3e c3d9 0fbe
00000370: 02fa 07be d61a 803e a1ee 27bd a66e 6f3e
00000380: e897 edbc 7e81 5bbd 4116 963e 7bc3 65bd
00000390: 767a 523d 6827 4d3e ab33 dd3d 1355 f1bd
000003a0: 7dca ffbd 2f30 8fbd 8036 bb3e f399 353d
000003b0: b6ec a43e daf6 973e f550 84bd 3ee2 02be
000003c0: ed94 b73d a7b8 84be e238 6c3e e3a8 e23e
000003d0: 37aa ea3c 93fb 25bd 2cba 03bf 71af 32be
000003e0: bd12 d0be b6f0 a93d 4390 323b c11c 3ebe
000003f0: 41b5 493e 9b6c bcbe 5115 923e ddb6 073d

fc2.bias f4 [300]
-0.080042064 0.03964367 0.16311671 -0.2680945 -0.2675685 0.03181799 0.033525743 -0.11003103
0.048348486 -0.24730791 -0.044677973 -0.05261482 0.014985969 0.14931382 -0.09232268 -0.08286562
-0.011375198 -0.0955511 -0.14852439 -0.19488312 -0.015181242 0.05902085 -0.06087903 -0.0013676559
-0.091640815 -0.039383475 -0.074470066 0.0469486 -0.0040402045 -0.13753049 -0.23685163 -0.09110623
-0.18096638 -0.0021306286 -0.07939252 -0.28165877 -0.3607674 -0.06448513 0.038395382 -0.06703727
0.12312059 -0.30124488 -0.40660384 -0.26965252 -0.2726988 -0.05424588 0.0014764576 -0.19333646
-0.120879546 -0.11373364 0.0068547763 0.10936821 -0.26345134 -0.21490756 -0.10586726 0.022739256
-0.022660762 -0.05990362 -0.13465111 -0.12713897 -0.08742066 -0.16667794 -0.006282993 -0.08261516
0.053371035 -0.16173494 0.033913735 0.09835525 -0.25950453 -0.0403613 -0.062184338 -0.17842108
-0.027165128 -0.024043376 -0.19010788 -0.16735539 -0.32269296 0.07399249 -0.14428161 -0.17147419
-0.15020946 0.037065968 -0.23239133 -0.15323487 -0.08019983 -0.018075295 0.14952211 0.06980113
-0.06508468 -0.21547447 -0.2550772 -0.021386746 -0.17789319 -0.12541907 -0.30484614 -0.0022559748
-0.27459314 -0.16675356 -0.033955652 -0.19511403 -0.0014220811 -0.28915802 -0.11693538 -0.11881122
0.07736633 -0.21831277 -0.1783845 0.14266717 -0.020353056 -0.3012486 -0.1643149 -0.109287456
-0.23754066 -0.32111356 -0.05988605 0.053856246 -0.11132575 -0.054481626 -0.034767486 0.052596383
-0.06139999 -0.11147904 -0.0077750296 -0.09976583 0.13586575 -0.1460789 -0.0817276 -0.03150192
-0.051845927 -0.018773587 -0.17955476 -0.08409802 -0.32470712 -0.12267723 -0.07991985 0.04774151
-0.05069341 0.070121504 -0.27048263 -0.381986 -0.16930586 -0.29407203 -0.12631844 -0.13688752
-0.39146498 -0.1184913 -0.06621685 -0.21248966 -0.039540116 -0.24455203 0.02208554 -0.18965636
0.013883317 -0.082100436 -0.07373317 -0.15330888 -0.30027673 -0.1990748 -0.06793022 -0.15318124
-0.12056344 -0.31811386 -0.0707246 -0.092386045 -0.28797233 -0.17454903 0.20833491 -0.08800681
-0.15747657 -0.111000285 -0.42493072 -0.14961252 0.0030151308 0.037469555 -0.14174315 -0.033375904
-0.22756404 -0.11964488 0.019038359 -0.09601439 -0.09491798 -0.31993502 -0.0053609926 -0.07866976
-0.07945272 -0.2536202 -0.30290693 -0.16567023 -0.13973138 -0.07605148 -0.35350838 -0.26997358
-0.17746443 -0.04284715 -0.17294101 0.025106031 -0.15991461 -0.031740036 0.037570674 -0.08276783
-0.32522902 0.12956132 0.041816905 -0.2758774 -0.18552484 -0.21163355 0.0055666054 -0.15537405
0.03131807 0.021518717 0.029867692 -0.17816395 -0.08211221 -0.27191254 0.014498474 -0.29185176
0.020136505 -0.118418194 -0.023695586 -0.47181833 -0.0471725 -0.019931791 0.16700867 0.023465917
-0.09858081 0.0045317304 0.08052824 0.11094102 -0.1132244 -0.18328045 0.007405024 -0.1280949
-0.17867105 -0.25027284 -0.12508062 0.10109904 -0.18426386 -0.23902045 -0.14056125 0.0041564377
-0.09853379 -0.11942832 -0.08169602 -0.20710935 -0.196039 -0.054313075 -0.29620528 -0.0061196573
-0.14839862 -0.22510052 -0.16909619 0.010351956 -0.03966098 -0.05432568 0.044446275 0.00015926291
00000000: 18ed a3bd 6761 223d 1108 273e af43 89be
00000010: bdfe 88be 9553 023d 4a52 093d f357 e1bd
00000020: 1009 463d 493e 7dbe 4000 37bd a382 57bd
00000030: b687 753c b9e5 183e ac13 bdbd 73b5 a9bd
00000040: 0a5f 3abc 4cb0 c3bd c716 18be 718f 47be
00000050: beba 78bc d9bf 713d 4a5c 79bd eb42 b3ba
00000060: 2eae bbbd 9150 21bd c383 98bd 2d4d 403d
00000070: b163 84bb cbd4 0cbe 3c89 72be e795 babd
00000080: 404f 39be 04a2 0bbb 8c98 a2bd 9435 90be
00000090: 81b6 b8be c810 84bd 7a44 1d3d d64a 89bd
000000a0: a626 fc3d c53c 9abe 612e d0be e50f 8abe
000000b0: 2d9f 8bbe ee30 5ebd b285 c13a fef9 45be
000000c0: b28f f7bd 2fed e8bd 089e e03b 71fc df3d
000000d0: 18e3 86be ba10 5cbe efd0 d8bd ad47 ba3c
000000e0: 10a3 b9bc 805d 75bd fbe1 09be b830 02be
000000f0: 9a09 b3bd 9fad 2abe 91e1 cdbb 2332 a9bd
00000100: 969b 5a3d d89d 25be 21e9 0a3d 7a6e c93d
00000110: c7dd 84be e451 25bd 01b5 7ebd 04b4 36be
00000120: 6789 debc 9df6 c4bc a4ab 42be 365f 2bbe
00000130: 0338 a5be 6089 973d 8fbe 13be ee96 2fbe
00000140: 82d0 19be 7cd2 173d fef7 6dbe 9ae9 1cbe
00000150: cf3f a4bd a412 94bc 531c 193e e5f3 8e3d
00000160: 1e4b 85bd 57a5 5cbe 7b99 82be 4233 afbc
00000170: a229 36be db6d 00be cb14 9cbe fad8 13bb
00000180: 7997 8cbe 72c1 2abe 1515 0bbd f9cb 47be
00000190: 2065 baba 850c 94be d17b efbd 4c53 f3bd
000001a0: 3d72 9e3d 628d 5fbe 6daa 36be 5817 123e
000001b0: 74bb a6bc 423d 9abe 2a42 28be 1ad2 dfbd
000001c0: dc3d 73be ff68 a4be 134b 75bd 5e98 5c3d
000001d0: c1fe e3bd 2028 5fbd 5a68 0ebd 4e6f 573d
000001e0: 8e7e 7bbd 1f4f e4bd adc5 febb 0752 ccbd
000001f0: 6420 0b3e b595 15be cd60 a7bd 2808 01bd
00000200: 655c 54bd 11cb 99bc 34dd 37be 953b acbd
00000210: 0340 a6be 333e fbbd 05ad a3bd 9a8c 433d
00000220: e5a3 4fbd dd9b 8f3d b37c 8abe ab93 c3be
00000230: 845e 2dbe 9c90 96be 9f59 01be 3e2c 0cbe
00000240: 196e c8be 91ab f2bd b39c 87bd e496 59be
00000250: d1f4 21bd d96b 7abe bcec b43c 4735 42be
00000260: da76 633c 4624 a8bd 6b01 97bd 01fd 1cbe
00000270: dfbd 99be 44da 4bbe 001f 8bbd 8bdb 1cbe
00000280: f7e9 f6bd d2df a2be 0fd8 90bd e534 bdbd
00000290: 1c71 93be fbbc 32be bf55 553e ea3c b4bd
000002a0: 8a41 21be 1e54 e3bd 8590 d9be 0634 19be
000002b0: 8099 453b ad79 193d 1e25 11be 2cb5 08bd
000002c0: 8c06 69be 6008 f5bd 55f6 9b3c 31a3 c4bd
000002d0: 5c64 c2bd 86ce a3be 44ab afbb 9c1d a1bd
000002e0: 1cb8 a2bd 82da 81be 9e16 9bbe 75a5 29be
000002f0: be15 0fbe e1c0 9bbd 0dff b4be fa39 8abe
00000300: 3cb9 35be 7e80 2fbd 7317 31be 2aab cd3c
00000310: a8c0 23be d701 02bd b5e3 193d 2e82 a9bd
00000320: 6b84 a6be b9ab 043e 3448 2b3d cd3f 8dbe
00000330: 39fa 3dbe 77b6 58be 1268 b63b 601a 1fbe
00000340: 6047 003d 0548 b03c 17ad f43c 9c70 36be
00000350: 722a a8bd 1f38 8bbe 028b 6d3c 986d 95be
00000360: 50f5 a43c 3d85 f2bd 3f1d c2bc 2c92 f1be
00000370: f437 41bd ff47 a3bc 5204 2b3e 983b c03c
00000380: bce4 c9bd e97e 943b fdeb a43d 0c35 e33d
00000390: 32e2 e7bd dfad 3bbe d8a5 f23b 4f2b 03be
000003a0: 8bf5 36be c323 80be 2215 00be 030d cf3d
000003b0: aaaf 3cbe c7c1 74be 4aef 0fbe ba32 883b
000003c0: 15cc c9bd d696 f4bd 3e50 a7bd 7914 54be
000003d0: 73be 48be 6377 5ebd 38a8 97be 6887 c8bb
000003e0: cff5 17be c080 66be 8d27 2dbe 409b 293c
000003f0: 8d73 22bd 9b84 5ebd 4c0d 363d d0ff 2639

fc3.weight f4 [2, 300]
-0.34615684 -0.1887149 0.09854489 0.004358262 0.51117676 -8.08997 -0.2163937 0.15172683
-2.0667663 -5.932371 2.0161026 2.003321 -0.18917687 0.39322436 0.096186586 -0.21028328
-0.3290402 0.0044862963 1.1466004 0.743091 -0.26650694 -0.01196445 -0.05340777 -0.5671386
-0.30257526 -0.30628058 -0.5777136 0.19340283 -0.45694992 3.1201005 0.007657183 -0.244122
-0.07758714 -0.017299412 -0.06053729 0.88439924 0.002899992 0.93558997 -0.082879856 0.6751569
-0.07672681 1.3534921 0.025496451 0.9798281 -0.057650983 -0.24891433 0.21552144 -1.0156581
0.03282344 -0.8033706 0.0007189588 0.014094594 0.19372442 -0.08104609 -0.27309808 0.5239112
-0.8144305 0.067917794 0.15562306 -1.81634 0.057793707 1.6674205 -0.9563939 0.49845645
0.31663495 -1.1539855 0.054756302 -0.2044886 -0.35277948 -0.039403617 -0.31696194 -0.83435726
0.020612018 -0.43355608 0.17278041 -0.21934836 0.30576283 -2.5301638 -0.03733402 2.4310648
-0.81152016 -0.5568371 -0.26940903 0.38519993 0.054620247 -0.03926256 -0.050519075 -0.16679406
0.009751012 0.029492194 1.803463 -0.95624083 -0.09979417 -0.3155727 -0.030685673 -0.3382617
0.6225238 0.44429964 0.42172253 0.042202853 -0.07322058 0.07929187 0.01210928 0.16964205
-0.31305704 0.07102794 -0.0917463 -0.038265087 0.7877178 -0.07322535 -2.2547443 -0.018774658
-0.35465145 -2.391797 0.012699353 -0.050189942 0.50371605 -0.49801305 0.052309435 -0.20433453
-0.18913431 0.21741697 1.7049495 0.5785952 0.17245899 0.306757 -4.0281115 -1.22836
-0.027667105 0.24157707 1.0719794 -0.23835567 -0.6200883 1.44588 0.53462505 0.5489937
0.012003986 -2.6145847 1.4379667 0.010605019 -0.19337934 0.70984256 0.28425908 -0.3915726
1.3256198 0.14168721 -0.068257645 -0.89033335 -0.008431556 -1.9434056 -0.00693264 0.29188317
0.2404779 -0.25299406 -0.8899082 -0.004773837 2.9142494 -0.37039435 0.25792515 0.45133847
-0.007040437 -0.9539227 0.16559684 -0.08756661 -0.051983535 -1.7224597 0.052850075 -0.69181275
-0.12175039 -0.12642488 -0.96154195 0.07719636 -0.38908944 -0.33961403 -0.26490617 0.27568883
-0.0005836756 -0.58099824 -0.295198 -0.12173633 0.5979424 -0.047848374 0.009337684 0.532324
-0.39950117 -0.09501127 0.008126767 0.23265797 -0.47704595 0.0992068 -0.22148669 1.8456472
0.12811555 0.058428004 0.5908012 0.02441697 -0.07400139 -0.15266299 -0.22462083 -0.43248957
-0.8379353 3.7760546 0.33177987 0.72223157 2.957544 -2.3464334 -1.8911608 -0.15968925
0.09586346 -0.20251094 -0.8863474 0.072031304 -2.8864334 -0.68293613 -0.11870317 1.7382015
0.67509127 -0.036935836 1.9766283 -0.15146 -0.06383759 0.29401937 -0.24573928 -0.14342554
-0.6778571 0.1066661 -0.17259473 0.18078919 1.7921511 0.29110396 0.3945132 -1.8048868
0.124718934 0.21674615 -2.5637171 0.08797444 -0.10159939 -0.572091 0.18981092 1.8713166
-0.13971624 0.043906283 -0.6121015 -0.09417897 -0.2618604 -0.23819101 2.7361276 -0.5393223
-3.7712913 0.7746796 0.14775376 1.1872568 0.00642092 0.0022087814 0.17613864 0.25805685
00000000: 783b b1be 7b3e 41be e7d1 c93d c0cf 8e3b
00000010: 7bdc 023f 8470 01c1 4f96 5dbe 475e 1b3e
00000020: e645 04c0 fcd5 bdc0 d307 0140 6936 0040
00000030: 95b7 41be b454 c93e 79fd c43d 8054 57be
00000040: f577 a8be c801 933b cdc3 923f 363b 3e3f
00000050: 9973 88be 8a06 44bc 1bc2 5abd ff2f 11bf
00000060: 25eb 9abe cfd0 9cbe 0ae5 13bf 640b 463e
00000070: 57f5 e9be baaf 4740 1be9 fa3b 1efb 79be
00000080: 02e6 9ebd 7fb7 8dbc f3f5 77bd fd67 623f
00000090: cb0d 3e3b d382 6f3f eabc a9bd 15d7 2c3f
000000a0: f222 9dbd 3b3f ad3f efdd d03c 04d6 7a3f
000000b0: 7023 6cbd 66e3 7ebe a7b1 5c3e 1601 82bf
000000c0: df71 063d b2a9 4dbf 8278 3c3a 03ed 663c
000000d0: b25f 463e 7efb a5bd 83d3 8bbe 0b1f 063f
000000e0: 847e 50bf 7c18 8b3d a75b 1f3e d47d e8bf
000000f0: 18b9 6c3d 096e d53f 3bd6 74bf af35 ff3e
00000100: fa1d a23e ccb5 93bf 2548 603d 7665 51be
00000110: 839f b4be b065 21bd d648 a2be 7098 55bf
00000120: 89da a83c 10fb ddbe 59ed 303e db9c 60be
00000130: f28c 9c3e 34ee 21c0 8feb 18bd 9196 1b40
00000140: c9bf 4fbf e08c 0ebf fbef 89be ed38 c53e
00000150: 7bb9 5f3d c7d1 20bd 17ed 4ebd 10cc 2abe
00000160: b5c2 1f3c 9d99 f13c e0d7 e63f 33cc 74bf
00000170: e360 ccbd bf92 a1be 8560 fbbc a330 adbe
00000180: b85d 1f3f 3e7b e33e 04ec d73e e6dc 2c3d
00000190: acf4 95bd c763 a23d 0066 463c a5b6 2d3e
000001a0: 0349 a0be 1977 913d 7ce5 bbbd dabb 1cbd
000001b0: e0a7 493f 2cf7 95bd bb4d 10c0 50cd 99bc
000001c0: e094 b5be 3413 19c0 f210 503c f893 4dbd
000001d0: 89f3 003f 91fb febe 6b42 563d 123d 51be
000001e0: 6dac 41be 8ea2 5e3e c93b da3f d11e 143f
000001f0: 1799 303e 410f 9d3e 4ae6 80c0 e73a 9dbf
00000200: 20a6 e2bc fb5f 773e 9f36 893f 8213 74be
00000210: 1bbe 1ebf 9912 b93f 30dd 083f da8a 0c3f
00000220: 5eac 443c 5b55 27c0 4b0f b83f acc0 2d3c
00000230: 3c05 46be 3eb8 353f 688a 913e 347c c8be
00000240: e9ad a93f 7416 113e aaca 8bbd e3ec 63bf
00000250: 8224 0abc 84c1 f8bf 332b e3bb b671 953e
00000260: d73f 763e 7088 81be 06d1 63bf d96d 9cbb
00000270: 1083 3a40 54a4 bdbe c40e 843e d615 e73e
00000280: 77b3 e6bb 4734 74bf 3892 293e 1f56 b3bd
00000290: b0ec 54bd 8f79 dcbf 5279 583d a41a 31bf
000002a0: 4558 f9bd 8675 01be 9d27 76bf 2019 9e3d
000002b0: bb36 c7be e4e1 adbe c8a1 87be 1627 8d3e
000002c0: ce01 19ba 4dbc 14bf 3124 97be e650 f9bd
000002d0: c112 193f a8fc 43bd 16fd 183c 6346 083f
000002e0: 6b8b ccbe 4595 c2bd 2226 053c e43d 6e3e
000002f0: 5e3f f4be ef2c cb3d 68cd 62be 2b3e ec3f
00000300: b930 033e 3452 6f3d bf3e 173f 1906 c83c
00000310: 0a8e 97bd b053 1cbe 0103 66be 466f ddbe
00000320: ee82 56bf e1aa 7140 0ddf a93e 2be4 383f
00000330: 6748 3d40 f72b 16c0 8f11 f2bf 9485 23be
00000340: 1054 c43d 075f 4fbe aae7 62bf 2685 933d
00000350: 53bb 38c0 e7d4 2ebf a61a f3bd 637d de3f
00000360: c8d2 2c3f 084a 17bd 2802 fd3f 5518 1bbe
00000370: 48bd 82bd b589 963e 14a3 7bbe 25de 12be
00000380: 0b88 2dbf c273 da3d acbc 30be cd20 393e
00000390: 3565 e53f 940b 953e a2fd c93e 8806 e7bf
000003a0: a46c ff3d b4f2 5d3e f113 24c0 f12b b43d
000003b0: 5713 d0bd 8e74 12bf cb5d 423e 4d87 ef3f
000003c0: c611 0fbe 13d7 333d afb2 1cbf e7e0 c0bd
000003d0: 9112 86be 58e8 73be b71c 2f40 0711 0abf
000003e0: d65c 71c0 6751 463f c34c 173e 08f8 973f
000003f0: 9566 d23b 34c1 103b b05d 343e 0720 843e

fc3.bias f4 [2]
-0.03015302 0.30927685
00000000: 7703 f7bc 8959 9e3e
