Tennis/Nets/checkpoint_critic1300.pth (torch_old, 526870 bytes, 9 tensors)

bn1.weight f4 [24]
0.39059204 0.4300275 0.237229 0.26963952 0.8648455 0.6717546 0.22044966 0.038095936
0.25099307 0.10280134 0.30844715 0.16187362 0.58915067 0.7891948 0.27845553 0.26352134
0.49145818 0.17044806 0.24913833 0.5321614 0.5233965 0.65607846 0.40300167 0.3334073
00000000: aefb c73e 912c dc3e 29ec 723e 310e 8a3e
00000010: 8466 5d3f 1cf8 2b3f 8ebd 613e 7c0a 1c3d
00000020: 2a82 803e 8289 d23d c9ec 9d3e 33c2 253e
00000030: 94d2 163f ac08 4a3f b991 8e3e 45ec 863e
00000040: 68a0 fb3e f089 2e3e 1e1e 7f3e bb3b 083f
00000050: 50fd 053f c2f4 273f 3c56 ce3e 5db4 aa3e

bn1.bias f4 [24]
-0.055604268 -0.047737136 0.005770144 -0.1050218 0.09558399 -0.110017985 0.032029994 -0.2499472
-0.048997063 0.10083575 -0.061935004 -0.027520442 0.059096687 -0.109841436 0.051696777 -0.07900833
-0.011156554 0.096104845 0.09609133 -0.046109952 0.118298545 -0.032331046 -0.0580689 -0.115700245
00000000: 4dc1 63bd 0488 43bd 7a13 bd3b ab15 d7bd
00000010: 8ac1 c33d 1c51 e1bd e231 033d 29f2 7fbe
00000020: 25b1 48bd f982 ce3d 8faf 7dbd 8d72 e1bc
00000030: 5e0f 723d 8cf4 e0bd 00c0 533d 1fcf a1bd
00000040: fbc9 36bc 9ed2 c43d 88cb c43d cadd 3cbd
00000050: 8246 f23d 8f6d 04bd a8d9 6dbd 40f4 ecbd

bn1.running_mean f4 [24]
-5.2513604 -0.79435843 5.012741 0.46498924 0.0015961601 3.1449442 5.012741 0.46498924
-5.62339 -0.8280682 5.5440073 0.48772168 -0.030392632 3.1301448 5.5440073 0.48772168
-6.0020876 -0.8575223 5.8363156 0.55587673 -0.041815933 3.0788763 5.8363156 0.55587673
00000000: 250b a8c0 135b 4bbf 6068 a040 1213 ee3e
00000010: 3f36 d13a c446 4940 6068 a040 1213 ee3e
00000020: d0f2 b3c0 47fc 53bf 8268 b140 a8b6 f93e
00000030: f8f9 f8bc 4b54 4840 8268 b140 a8b6 f93e
00000040: 1a11 c0c0 9586 5bbf 19c3 ba40 f04d 0e3f
00000050: 2f47 2bbd 4f0c 4540 19c3 ba40 f04d 0e3f

bn1.running_var f4 [24]
18.366503 1.0307802 340.79825 6.7449493 43.5842 4.8751225 340.79825 6.7449493
17.766563 1.0452355 357.55585 8.038286 48.13758 5.2575183 357.55585 8.038286
16.698929 1.0575867 378.25714 9.24712 53.136745 6.1025877 378.25714 9.24712
00000000: 99ee 9241 9bf0 833f 2d66 aa43 a0d6 d740
00000010: 3956 2e42 0101 9c40 2d66 aa43 a0d6 d740
00000020: ec21 8e41 47ca 853f 26c7 b243 d29c 0041
00000030: e28c 4042 973d a840 26c7 b243 d29c 0041
00000040: 6897 8541 005f 873f ea20 bd43 34f4 1341
00000050: 078c 5442 6648 c340 ea20 bd43 34f4 1341

fcs1.weight f4 [400, 24]
0.038684785 -0.14489494 0.0063255145 -0.025370033 -0.17713645 0.08059404 0.009141144 0.042992763
-0.006278752 -0.13871649 -0.12055999 0.006791914 -0.08211413 0.06073442 -0.15496661 0.05971563
0.0010986928 -0.119962886 -0.0007859723 -0.07732972 0.12888145 0.18595514 0.11393273 -0.07326927
-0.056605898 0.14595586 0.023413645 -0.013249682 0.1609924 -0.1090978 -0.023219926 0.03127376
-0.04713879 -0.01673645 0.058112297 -0.02629194 0.2500535 0.025402103 0.00040974625 0.005687212
0.047934167 0.084523015 -0.02402105 0.07923154 0.21789464 0.46883255 0.0053298133 0.07331257
0.0103481375 0.055210557 0.048939995 0.21880144 0.035783466 -0.31324908 0.1086946 0.067348175
-0.01561148 0.028447766 0.001411763 0.13672268 0.050033916 0.17567943 0.06983211 0.11595527
-0.046437755 0.120270446 -0.060253374 0.111123174 -0.11734568 0.43763512 -0.10898711 0.1569811
0.12033879 0.036066502 -0.18199067 0.0818903 0.060086027 -0.114136524 -0.21806447 0.1175868
0.07495935 -0.026738293 -0.1418166 -0.0051600174 0.099038586 -0.036375247 -0.07966129 -0.047163043
-0.00900857 -0.0065594134 -0.17696212 -0.05627314 0.21557721 0.12747936 -0.11059719 8.487479e-05
-0.06190348 -0.002029144 0.0069653774 -0.038690414 0.11721807 0.0101339035 -0.02004804 0.1643383
-0.113768734 -0.13329901 -0.063180625 -0.0022780944 0.115524344 0.002718161 -0.13472468 0.039668426
-0.1827629 -0.018718753 -0.33394015 0.050639253 0.013993004 0.13582048 -0.122594945 0.030060768
-0.039864365 -0.1593795 0.11390776 0.06807768 -0.06778092 0.014894922 0.091426685 0.07062802
-0.020286214 -0.1413168 0.025580721 0.025518075 0.0071478137 0.0884773 0.0247949 0.02521804
-0.040024072 -0.07526163 -0.018636748 0.04054223 0.09425076 0.18055826 -0.009687306 0.11429631
-0.0116265565 -0.10406606 0.008477863 0.044395443 -0.10640927 -0.057119746 0.028009452 0.040584102
-0.017975282 0.028235808 -0.050373457 0.08337668 -0.037941877 -0.10373022 -0.03790047 -0.00026946052
0.034550685 0.029197397 -0.018545344 0.1625837 0.11888037 0.00071442226 0.058306623 0.17423238
0.06796553 0.13767429 -0.037195615 -0.1011258 -0.08998164 0.107554585 -0.099346206 0.087764464
-0.05875233 -0.013632853 -0.005671446 0.050016522 -0.016741177 0.06670422 -0.017171124 -0.025930833
-0.112738445 -0.08473858 -0.03924176 -0.06276235 -0.24572359 0.15522857 -0.07479151 -0.01371896
0.071577914 0.045686815 0.015287755 -0.07145081 -0.06684713 0.057839457 -0.009679274 0.08772539
0.043804727 -0.015528059 -0.12877643 -0.040087555 -0.0070292796 0.08985154 -0.103472404 -0.06745379
-0.0042717378 0.03582475 -0.114652336 0.02205634 0.099068366 0.14614792 -0.08082236 0.064925045
-0.044735353 -0.05989787 -0.044394176 0.04415137 0.12974873 0.12222903 -0.07623274 0.08222705
0.006543737 -0.15233123 0.06535 0.07206951 -0.01780699 0.071803436 0.03508225 0.08121637
-0.054934368 -0.16629097 -0.043281298 -0.07628967 -0.14456321 -0.04363737 -0.019673236 -0.052972473
-0.116482824 -0.046098154 -0.043685284 0.01951163 0.020247245 -0.120486245 -0.02789968 0.09367674
-0.088030346 -0.09846534 0.006866368 0.062241435 0.073599644 -0.06691343 0.037149258 0.09851892
00000000: f073 1e3d 575f 14be 4346 cf3b d1d4 cfbc
00000010: 4263 35be 7d0e a53d bdc4 153c 2e19 303d
00000020: fdbd cdbb b20b 0ebe 28e8 f6bd b48e de3b
00000030: 742b a8bd a8c4 783d 91af 1ebe 6098 743d
00000040: 0302 903a 1aaf f5bd b509 4eba 0b5f 9ebd
00000050: 80f9 033e 066b 3e3e 9055 e93d 330e 96bd
00000060: 96db 67bd 7475 153e f9cd bf3c 3215 59bc
00000070: 31db 243e ab6e dfbd b737 bebc ea18 003d
00000080: 9b14 41bd e11a 89bc 2907 6e3d 3262 d7bc
00000090: 0307 803e 1218 d03c 36d3 d639 cb5b ba3b
000000a0: 9e56 443d 671a ad3d cbc7 c4bc 2544 a23d
000000b0: c61f 5f3e d20a f03e b7a5 ae3b e724 963d
000000c0: 3c8b 293c 7724 623d 4e75 483d 7c0d 603e
000000d0: af91 123d 2f62 a0be 469b de3d d7ed 893d
000000e0: 4bc7 7fbc 4a0b e93c e80a b93a 0801 0c3e
000000f0: 5df0 4c3d 4fe5 333e 2304 8f3d f579 ed3d
00000100: 8435 3ebd 5a50 f63d 3ecc 76bd 8c94 e33d
00000110: ef52 f0bd b611 e03e a234 dfbd a7bf 203e
00000120: 2f74 f63d 78ba 133d c35b 3abe 1ab6 a73d
00000130: c41c 763d 69c0 e9bd 4b4c 5fbe 59d1 f03d
00000140: 4a84 993d 440a dbbc 5f38 11be 5d15 a9bb
00000150: bed4 ca3d 36fe 14bd 7525 a3bd 092e 41bd
00000160: ae98 13bc 59f0 d6bb 8f35 35be aa7e 66bd
00000170: 46c0 5c3e f389 023e c880 e2bd cefe b138
00000180: 818e 7dbd 63fb 04bb d23d e43b d779 1ebd
00000190: 0710 f03d ac08 263c ca3b a4bc 4d48 283e
000001a0: 95ff e8bd 897f 08be d864 81bd 154c 15bb
000001b0: 0798 ec3d 2d23 323b 44f5 09be 5c7b 223d
000001c0: 3326 3bbe 1258 99bc 34fa aabe 1b6b 4f3d
000001d0: ea42 653c 8614 0b3e 0f13 fbbd 0042 f63c
000001e0: d148 23bd 6134 23be 7948 e93d 506c 8b3d
000001f0: b9d0 8abd d509 743c ea3d bb3d 6ca5 903d
00000200: 462f a6bc 5ab5 10be a98e d13c 480b d13c
00000210: 3538 ea3b 9633 b53d ad1e cb3c 1096 ce3c
00000220: 48f0 23bd c522 9abd 18ac 98bc 9c0f 263d
00000230: 8b06 c13d 44e4 383e 82b7 1ebc 2f14 ea3d
00000240: 507d 3ebc 9620 d5bd bce6 0a3c ffd7 353d
00000250: 1aed d9bd 65f6 69bd 1474 e53c 843b 263d
00000260: e640 93bc c84e e73c 6654 4ebd 65c1 aa3d
00000270: f168 1bbd 8270 d4bd 863d 1bbd 6146 8db9
00000280: 0585 0d3d 612f ef3c 68ec 97bc 577c 263e
00000290: 8d77 f33d 1148 3b3a edd2 6e3d f969 323e
000002a0: 8331 8b3d 7dfa 0c3e 6e5a 18bd 0b1b cfbd
000002b0: 4b48 b8bd 9445 dc3d 0676 cbbd dbbd b33d
000002c0: 48a6 70bd 545c 5fbc 8ad7 b9bb 20de 4c3d
000002d0: cb24 89bc 399c 883d 75aa 8cbc e66c d4bc
000002e0: 6ae3 e6bd 6c8b adbd f8bb 20bd 8c89 80bd
000002f0: f79e 7bbe 3df4 1e3e 4b2c 99bd 7dc5 60bc
00000300: 7197 923d 1922 3b3d 7e79 7a3c cd54 92bd
00000310: 26e7 88bd 11e9 6c3d d195 1ebc 5fa9 b33d
00000320: 966c 333d 6669 7ebc f8dd 03be d932 24bd
00000330: df55 e6bb 1604 b83d 57e9 d3bd 3625 8abd
00000340: eff9 8bbb f9bc 123d d8ce eabd 7faf b43c
00000350: 5be4 ca3d cda7 153e 3286 a5bd 6cf7 843d
00000360: 6b3c 37bd 7857 75bd abd6 35bd 11d8 343d
00000370: dadc 043e 3753 fa3d e91f 9cbd a866 a83d
00000380: d86c d63b b8fc 1bbe 39d6 853d 2e99 933d
00000390: f7df 91bc ae0d 933d 68b2 0f3d c554 a63d
000003a0: dc02 61bd 2e48 2abe bb47 31bd c23d 9cbd
000003b0: 6108 14be 19bd 32bd c429 a1bc aaf9 58bd
000003c0: 8c8e eebd 6bd1 3cbd 57ef 32bd dbd6 9f3c
000003d0: 8ddd a53c 7ec1 f6bd df8d e4bc 97d9 bf3d
000003e0: 4149 b4bd 32a8 c9bd 45ff e03b e0f0 7e3d
000003f0: 69bb 963d e909 89bd d229 183d 4ac4 c93d

fcs1.bias f4 [400]
-0.0001741095 -0.16149403 -0.04766115 -0.18604563 -0.28487122 -0.024460606 -0.15795247 0.032994088
-0.023200573 0.08962774 -0.20295137 -0.25022087 0.075236425 -0.21858366 -0.22094077 -0.21055152
-0.07060966 -0.2730814 0.06431355 -0.006790769 -0.17487496 -0.19951065 0.06651128 0.06519129
0.016271645 0.040139165 -0.016353833 -0.0066259825 -0.15291901 -0.31215808 -0.011871838 0.053277697
-0.14402986 -0.21228723 0.033872478 -0.26852947 -0.095338054 -0.2972732 -0.23980723 0.0018808171
0.047955696 -0.116930485 -0.026242698 0.0185699 -0.15329431 0.08504402 0.07696294 0.05275687
0.01704955 -0.039080244 -0.16541429 -0.123491384 -0.1914766 -0.030581648 -0.07570126 0.066753596
0.037919763 -0.17742926 -0.067731015 0.050566778 -0.21391915 0.042457808 -0.13561094 -0.37036705
-0.18759015 -0.022663677 -0.31927735 -0.10654228 0.10267712 -0.055595636 -0.14874111 -0.07106627
-0.026373988 0.08091519 0.027290247 -0.25449473 0.053789783 -0.062498614 -0.11713097 -0.28033558
0.052061833 -0.0779773 0.015999626 0.079984024 -0.25334206 0.08060464 -0.07038662 -0.20414661
-0.2737027 -0.0522069 -0.29940304 -0.26357734 -0.14514644 0.00033353077 -0.16359034 -0.2867016
-0.11744934 -0.18115893 -0.24235979 -0.21168336 -0.14712268 -0.18335366 0.02736199 -0.032243297
-0.15247084 -0.2321525 0.06364261 -0.03355964 -0.1907419 -0.05884057 0.057180688 -0.06927528
-0.11925587 -0.12564628 -0.035245717 -0.24000022 3.397588e-05 -0.36109352 -0.28172168 -0.20652261
-0.24266149 0.033068497 -0.25342867 0.004078723 -0.10950408 -0.27240977 0.09545244 -0.082109414
-0.16574615 -0.33554694 -0.15073305 -0.17524567 -0.015227161 -0.073151864 0.009231937 -0.15321937
-0.16680828 -0.12760812 -0.29349226 -0.04615922 0.01582037 0.006849115 -0.13918768 -0.2639857
-0.0014472709 -0.06996238 -0.23253125 -0.09429935 0.025745908 -0.11517981 -0.28598335 -0.14179154
-0.047600087 -0.11603502 -0.19705625 -0.19744417 -0.053237088 -0.21010694 -0.341664 -0.22467858
-0.052864775 0.15203376 -0.2679512 -0.15567729 -0.22072755 -0.18253344 0.091556184 -0.3238259
0.051045746 -0.052944135 -0.13419217 -0.0036372168 -0.27004382 -0.20808625 -0.26607677 -0.10221335
-0.069865495 -0.13077317 -0.02152214 0.100288324 -0.022321707 -0.22118506 0.10385445 -0.11169655
0.0315141 0.0610795 0.0614045 -0.1838558 0.060457326 -0.017992899 -0.30175167 -0.21854591
-0.13746181 0.009522835 -0.30996504 0.034959834 -0.30754057 0.015095437 -0.19643362 -0.07451146
-0.0007531468 -0.114608176 -0.19752195 -0.17683603 -0.064068474 -0.16335581 -0.2721705 -0.24231319
-0.115997456 0.03278893 -0.032247152 0.04692038 -0.06415416 -0.19113685 0.079624146 0.029198937
0.18989366 -0.13808839 -0.011786661 -0.05846544 -0.08192328 0.036616042 0.041058555 0.11149425
-0.15441313 -0.20397756 -0.30694163 -0.2590896 -0.43979746 0.045809336 -0.004810553 -0.124595
-0.3317503 -0.084437095 -0.26637018 0.036632426 0.044148594 -0.13014078 -0.070129514 0.04225087
-0.007611999 -0.30269915 -0.13709842 -0.094472185 0.022302471 -0.22291268 -0.042358022 -0.001187797
-0.30255744 0.022867557 0.12685812 -0.19426359 0.001123215 -0.20235208 -0.12984455 -0.26870975
00000000: 2a91 36b9 b15e 25be 5738 43bd bf82 3ebe
00000010: a4da 91be 9c61 c8bc 4bbe 21be cf24 073d
00000020: 210f bebc c08e b73d 7cd2 4fbe f31c 80be
00000030: 8e15 9a3d 65d4 5fbe 4c3e 62be d19a 57be
00000040: cc9b 90bd 53d1 8bbe d3b6 833d 1985 debb
00000050: 6c12 33be 854c 4cbe 1137 883d 0383 853d
00000060: 1d4c 853c f768 243d 79f8 85bc c51e d9bb
00000070: cd96 1cbe 2fd3 9fbe 1982 42bc b739 5a3d
00000080: 907c 13be d361 59be debd 0a3d b27c 89be
00000090: 9940 c3bd 3134 98be 0790 75be c085 f63a
000000a0: 316d 443d 4079 efbd edfa d6bc e71f 983c
000000b0: 2ff9 1cbe 8f2b ae3d bf9e 9d3d 9617 583d
000000c0: 7fab 8b3c 9b12 20bd 5d62 29be 0de9 fcbd
000000d0: 7112 44be 5d86 fabc 4309 9bbd 1cb6 883d
000000e0: c151 1b3d 04b0 35be 8fb6 8abd 1c1f 4f3d
000000f0: 9f0d 5bbe 3de8 2d3d 98dd 0abe c0a0 bdbe
00000100: a217 40be 2da9 b9bc 5278 a3be d732 dabd
00000110: 6248 d23d 40b8 63bd 974f 18be 318b 91bd
00000120: 430e d8bc ddb6 a53d cc8f df3c 224d 82be
00000130: ad52 5c3d 8cfe 7fbd 5de2 efbd 2588 8fbe
00000140: ca3e 553d 90b2 9fbd a611 833c aace a33d
00000150: 0db6 81be 0c14 a53d dc26 90bd cf0b 51be
00000160: c322 8cbe e7d6 55bd 5b4b 99be 9cf3 86be
00000170: 45a1 14be bedd ae39 3a84 27be 8dca 92be
00000180: 4889 f0bd ba81 39be 2a2d 78be 86c3 58be
00000190: 54a7 16be 10c1 3bbe 4126 e03c 8c11 04bd
000001a0: 5121 1cbe 63b9 6dbe 0f57 823d d575 09bd
000001b0: d851 43be cf02 71bd 4c36 6a3d 33e0 8dbd
000001c0: 6c3c f4bd 6ba9 00be d05d 10bd 9ec2 75be
000001d0: 5381 0e38 40e1 b8be d33d 90be aa7a 53be
000001e0: 417c 78be d572 073d 67c1 81be cfa6 853b
000001f0: ad43 e0bd 4b79 8bbe 927c c33d fb28 a8bd
00000200: 5cb9 29be cfcc abbe c459 1abe 9a73 33be
00000210: 587b 79bc a5d0 95bd 8d41 173c 8ae5 1cbe
00000220: cacf 2abe b4ab 02be 9e44 96be 7311 3dbd
00000230: b899 813c 8a6e e03b 3787 0ebe 2229 87be
00000240: 5ab2 bdba 7048 8fbd ac1c 6ebe 0520 c1bd
00000250: 15e9 d23c 64e3 ebbd 696c 92be cd31 11be
00000260: 4ff8 42bd c5a3 edbd 1dc9 49be ce2e 4abe
00000270: 220f 5abd 4626 57be 95ee aebe 2412 66be
00000280: bc88 58bd bdae 1b3e e630 89be de69 1fbe
00000290: 6706 62be 0cea 3abe cf81 bb3d 82cc a5be
000002a0: 5815 513d f3db 58bd ac69 09be 5f5e 6ebb
000002b0: 2f43 8abe 9014 55be 373b 88be 3c55 d1bd
000002c0: a415 8fbd 67e9 05be 334f b0bc f763 cd3d
000002d0: 03dc b6bc 567e 62be a4b1 d43d 29c1 e4bd
000002e0: ee14 013d 7f2e 7a3d 4983 7b3d b244 3cbe
000002f0: 1aa2 773d d865 93bc 327f 9abe 80ca 5fbe
00000300: cac2 0cbe aa05 1c3c bdb3 9ebe 0b32 0f3d
00000310: f575 9dbe da52 773c e525 49be 7799 98bd
00000320: d46e 45ba b1b7 eabd 3243 4abe 8114 35be
00000330: 5536 83bd bf46 27be ef59 8bbe f320 78be
00000340: 1390 edbd af4d 063d 9715 04bd 962f 403d
00000350: 4263 83bd 61b9 43be fc11 a33d 9c32 ef3c
00000360: 7c73 423e 0b67 0dbe d71c 41bc 7579 6fbd
00000370: 65c7 a7bd b4fa 153d 042d 283d 1957 e43d
00000380: 7a1e 1ebe 7edf 50be 7427 9dbe 64a7 84be
00000390: 222d e1be 92a2 3b3d d8a1 9dbb aa2b ffbd
000003a0: 2ddb a9be 5bed acbd ac61 88be e20b 163d
000003b0: 28d5 343d a043 05be 10a0 8fbd 400f 2d3d
000003c0: 136e f9bb 62fb 9abe 8763 0cbe a27a c1bd
000003d0: acb3 b63c 3943 64be 9b7f 2dbd dbaf 9bba
000003e0: cfe8 9abe be54 bb3c 18e7 013e 09ed 46be
000003f0: d738 933a 6235 4fbe f8f5 04be 5394 89be

fc2.weight f4 [300, 402]
-0.07881989 -0.028850961 -0.020269522 -0.043126576 0.035811827 -0.027206672 0.16031387 0.1313771
-0.31148002 -0.021699628 0.11749763 0.06005147 -0.1332836 0.2659145 0.012773773 -0.025585879
0.030819198 -0.07491656 0.07823237 -0.0129153365 -0.012105625 -0.0989916 -0.07568597 0.021810228
0.018663643 -0.036149297 0.002348779 -0.12387597 0.102927126 0.047477268 0.08090205 0.067326866
-0.058808587 -0.29227087 -0.086436264 -0.14938627 -0.06779345 0.032812 -0.10514619 -0.0501602
-0.1103716 0.045139972 -0.057668593 -0.007607589 -0.11773921 0.0059979367 -0.08581708 0.006189547
-0.05029271 0.005279064 -0.15945156 0.040497426 -0.020333141 0.060649194 -0.14965516 -0.03700381
-0.012158575 -0.095741875 -0.01627036 0.06840899 0.04615009 -0.0081673935 -0.076276205 -0.29866114
-0.054141864 0.050139915 -0.25624582 -0.09697311 -0.20290418 0.029904177 0.00912062 -0.06879307
0.04173927 0.048277892 -0.16358806 -0.06797226 0.1309943 -0.11421421 0.0058659823 0.038783446
-0.020812927 -0.042133305 -0.07910984 0.0151683865 -0.2229314 -0.024167024 -0.06287432 -0.13110879
0.0040075337 0.08066248 -0.07466897 -0.023937209 -0.026945371 -0.0040656095 -0.023764297 0.019209458
-0.20122753 -0.0022923765 -0.05993537 0.08657874 0.021065658 0.04877615 0.057706345 -0.003059191
0.06484842 -0.24219911 0.059679408 -0.074761875 0.015349968 -0.08784689 -0.03984386 -0.12658004
0.029788233 -0.05034539 -0.05825762 -0.20944342 0.0061200974 -0.04074506 0.078677595 0.034703005
-0.038574733 0.06204213 0.16223708 0.035668332 0.13352002 0.30185834 -0.09014486 -0.053223867
-0.080796316 -0.20971672 0.013119704 0.034973297 -0.04187051 -0.0353593 0.0033718853 -0.040891428
-0.18052569 0.012290867 -0.19249098 -0.014924963 -0.013127622 -0.27877903 -0.09879479 0.24695176
0.09825822 -0.013858031 -0.14749046 0.056731883 -0.099399194 0.08913855 -0.0116181765 0.10176325
-0.004060958 -0.046764117 0.07502248 0.030373253 -0.043114856 -0.14959872 0.06026911 0.019058665
0.013550573 -0.27016756 0.4902564 0.043337833 -0.06793941 0.03137115 -0.04386822 -0.18475075
-0.04088044 0.14017053 0.031191107 -0.099417076 -0.24762623 -0.11500574 0.057680186 0.056632996
-0.03613221 0.010683175 -0.07158406 0.024544975 -0.08035266 -0.019832475 -0.11645479 -0.14291129
0.019544344 -0.019693447 0.04303317 0.052041236 -0.033689477 0.038198426 0.14074494 -0.21362232
0.091068424 -0.391931 0.06934291 -0.066303976 -0.047427926 -0.035844658 0.030655142 0.033676956
-0.036190774 -0.16819718 -0.099466115 0.14296333 -0.0031036993 -0.5264976 -0.17582987 -0.057803974
-0.029839108 -0.09722376 0.03466731 -0.02280319 -0.00040085136 -0.0053552724 -0.056690812 -0.023948548
-0.119285725 -0.076064214 0.020824902 0.050011814 0.027364245 -0.05312033 0.050782334 0.023036696
5.689516e-05 -0.025000188 -0.06382843 -0.04598863 -0.1277446 -0.056339536 -0.008791151 0.021252235
-0.16051286 0.047752257 0.045963403 -0.07060884 -0.25826532 -0.24412392 -0.05815265 0.017207757
-0.16711187 -0.25340998 -0.031964447 0.0033539021 0.09566452 -0.49969873 -0.08646477 -0.044859134
-0.05574187 0.075380936 -0.090060785 0.03714507 0.01397722 0.09019674 -0.038923703 -0.08639053
00000000: 536c a1bd da58 ecbc 450c a6bc 7ea5 30bd
00000010: 6caf 123d 87e0 debc 5229 243e b887 063e
00000020: 4f7a 9fbe 6bc3 b1bc 99a2 f03d 88f8 753d
00000030: 7f7b 08be f225 883e 1649 513c 7a99 d1bc
00000040: 8b78 fc3c da6d 99bd 4b38 a03d d99a 53bc
00000050: ac56 46bc 1cbc cabd 3f01 9bbd 5dab b23c
00000060: 7fe4 983c 4911 14bd f9ed 193b afb2 fdbd
00000070: 75cb d23d 8677 423d f9af a53d abe2 893d
00000080: 46e1 70bd 87a4 95be 7f05 b1bd b7f8 18be
00000090: 4bd7 8abd e065 063d e356 d7bd c874 4dbd
000000a0: 810a e2bd b1e4 383d e735 6cbd 1549 f9bb
000000b0: 4121 f1bd 578a c43b dec0 afbd afd1 ca3b
000000c0: bbff 4dbd 00fc ac3b 4547 23be a1e0 253d
000000d0: b091 a6bc 4a6b 783d 343f 19be 4f91 17bd
000000e0: c234 47bc 5114 c4bd 6b49 85bc 031a 8c3d
000000f0: e007 3d3d 88d0 05bc b336 9cbd 1dea 98be
00000100: dcc3 5dbd 835f 4d3d a732 83be d799 c6bd
00000110: 1dc6 4fbe 9bf9 f43c a76e 153c 62e3 8cbd
00000120: ccf6 2a3d 0abf 453d a183 27be 0a35 8bbd
00000130: 5f23 063e 24e9 e9bd 6d37 c03b 64db 1e3d
00000140: df7f aabc f993 2cbd 5704 a2bd d384 783c
00000150: 2148 64be ecf9 c5bc 40c4 80bd 6241 06be
00000160: a151 833b 5f32 a53d 0cec 98bd f717 c4bc
00000170: 8abc dcbc ce38 85bb 58ad c2bc 275d 9d3c
00000180: 970e 4ebe b23b 16bb ca7e 75bd 3250 b13d
00000190: e391 ac3c 80c9 473d 7d5d 6c3d b57c 48bb
000001a0: 40cf 843d 0b03 78be 6572 743d c11c 99bd
000001b0: 6f7e 7b3c 12e9 b3bd 5133 23bd 339e 01be
000001c0: 7406 f43c f836 4ebd 8b9f 6ebd 5678 56be
000001d0: 198b c83b 4be4 26bd b821 a13d bd24 0e3d
000001e0: 8a00 1ebd e31f 7e3d 7a21 263e f518 123d
000001f0: 79b9 083e 2d8d 9a3e de9d b8bd 4501 5abd
00000200: 8a78 a5bd fbbf 56be 07f4 563c 2940 0f3d
00000210: 6980 2bbd ead4 10bd d9fa 5c3b c57d 27bd
00000220: badb 38be a25f 493c 5b1c 45be d587 74bc
00000230: 3d15 57bc 20bc 8ebe ec54 cabd ece0 7c3e
00000240: 9b3b c93d cb0c 63bc bd07 17be b15f 683d
00000250: ce91 cbbd 468e b63d 2a5a 3ebc 4069 d03d
00000260: c911 85bb bb8b 3fbd 63a5 993d 54d1 f83c
00000270: 3499 30bd 6830 19be bedc 763d eb20 9c3c
00000280: 3903 5e3c 6753 8abe e302 fb3e 0383 313d
00000290: d123 8bbd 097f 003d 2aaf 33bd 4d2f 3dbe
000002a0: 4072 27bd dd88 0f3e 7e84 ff3c 2e9b cbbd
000002b0: bb91 7dbe 2188 ebbd 0f42 6c3d 00f8 673d
000002c0: 5eff 13bd 7c08 2f3c aa9a 92bd 8b12 c93c
000002d0: ef8f a4bd b777 a2bc d97f eebd 5657 12be
000002e0: 761b a03c 2754 a1bc 8d43 303d 3129 553d
000002f0: fafd 09bd f475 1c3d 711f 103e cfbf 5abe
00000300: 1582 ba3d 2eab c8be a803 8e3d 61ca 87bd
00000310: c943 42bd d9d1 12bd 7e20 fb3c d9f0 093d
00000320: c73c 14bd e23b 2cbe e4b4 cbbd fb64 123e
00000330: 6f67 4bbb 8cc8 06bf bf0c 34be dcc3 6cbd
00000340: 2571 f4bc 401d c7bd 4fff 0d3d c1cd babc
00000350: 5c29 d2b9 487b afbb a034 68bd bf2f c4bc
00000360: 134c f4bd 8ec7 9bbd fc98 aa3c 30d9 4c3d
00000370: fb2a e03c b494 59bd 2301 503d 74b7 bc3c
00000380: b6a2 6e38 32cd ccbc 7bb8 82bd 935e 3cbd
00000390: 7bcf 02be 49c4 66bd c308 10bc 2b19 ae3c
000003a0: 7c5d 24be df97 433d 1f44 3c3d 5e9b 90bd
000003b0: 5a3b 84be 9ffb 79be 7931 6ebd 48f7 8c3c
000003c0: 601f 2bbe f4be 81be 27ed 02bd 24cd 5b3b
000003d0: c3eb c33d 83d8 ffbe 7114 b1bd 36be 37bd
000003e0: 9651 64bd 5261 9a3d ca71 b8bd 6e25 183d
000003f0: b600 653c 12b9 b83d 766e 1fbd 85ed b0bd

fc2.bias f4 [300]
0.030845366 -0.02465877 -0.06243711 -0.0025005855 -0.06538161 0.016940204 -0.07194412 -0.048286617
-0.06485151 -0.03757127 -0.03365454 0.025157273 -0.07903842 0.010905197 -0.03630668 -0.029873056
-0.09525853 -0.10238706 -0.041434128 -0.012911904 -0.037333068 -0.060937524 -0.039172675 0.017883804
-0.018567748 -0.11613197 -0.020421395 -0.07183146 0.0016088878 0.015829112 -0.0034642445 -0.038840126
0.0034283586 0.016024563 -0.025633011 0.0093529215 -0.058008946 -0.019180989 -0.051573176 -0.043108184
-0.005304975 -0.06255349 -0.034886196 -0.0072201164 0.020984976 -0.062025588 0.021395551 -0.039221287
-0.070511654 -0.044292618 -0.031218775 -0.07226688 0.022217862 -0.07229349 -0.006893762 -0.0075620776
-0.06704315 -0.0063514058 0.0031512887 -0.032197844 -0.095879324 0.03664756 -0.0561491 -0.045365952
0.023052212 0.005122426 -0.064896874 0.0065725488 -0.058414638 -0.063148715 -0.05885142 -0.025763337
-0.026447175 -0.044461068 -0.07383922 -0.053381737 -0.014135931 -0.026811963 -0.01938153 -0.0073550646
-0.05844545 0.0047539 -0.008610909 -0.045505837 0.022606319 0.009935511 -0.088190526 -0.04478478
-0.05298904 -0.06440893 -0.024050698 -0.0012864139 0.017639374 -0.044772584 -0.023128178 0.085019365
-0.033536054 -0.026216775 0.010490518 -0.04592901 -0.054120377 0.064496964 0.060579244 -0.009616167
0.0029840118 -0.031373303 -0.048833314 -0.02728072 -0.010776942 -0.07252316 0.063044265 -0.032492127
-0.004262884 -0.059604693 -0.04266274 -0.14009844 -0.073118664 0.0046722176 -0.018088037 -0.0224436
-0.062272117 -0.045751024 0.014929287 0.010364854 -0.008052631 -0.014653094 -0.06809269 -0.050857566
-0.056150194 -0.0057251696 -0.0064314078 -0.0037365141 -0.031573027 -0.042844243 0.011364837 -0.018175682
-0.028324865 0.051592715 -0.08823787 0.029766563 0.004943367 0.035417963 -0.002978202 -0.051894434
-0.009339318 -0.01507849 -0.080701254 -0.050787706 -0.022107037 -0.052252304 -0.012831358 0.003140201
0.01610245 -0.03290172 0.065544575 -0.04450357 0.05512886 -0.08111747 -0.008528602 -0.088505685
-0.02121301 -0.010747446 -0.07457822 -0.027422452 -0.061777655 -0.01689295 -0.018541694 -0.06003642
-0.03902217 -0.035962395 -0.064986676 0.037605334 -0.059043888 0.104034536 -0.017040834 -0.09887311
0.03351664 0.010361491 -0.07574671 -0.006597429 0.055799257 -0.028290603 -0.059683945 0.04669278
0.07230423 0.0055732857 -0.023627223 -0.011024603 -0.05992325 -0.07931072 -0.085372075 -0.03325615
-0.0070354054 -0.20042446 -0.044296768 -0.014493524 -0.03649758 -0.006164621 0.021652305 -0.023968892
-0.059183173 -0.040856738 -0.07391597 -0.057129037 0.0023172277 0.02473947 -0.09541684 0.0026194996
-0.054362595 0.017704697 0.004041851 -0.055633288 -0.055972677 -0.022168772 0.0052654436 0.030166373
-0.044050533 0.014152601 -0.055038106 -0.02960826 -0.08011364 -0.013635825 -0.083897054 -0.038124103
-0.022711022 -0.026787136 -0.01023616 0.0030435321 -0.019642685 -0.023704082 -0.06051926 0.008102178
-0.0021009112 -0.012452567 -0.019956138 -0.052316695 -0.03648076 -0.06277504 -0.05747317 0.0051376172
-0.020250257 -0.04817104 -0.06638817 -0.044207167 -0.020453107 -0.03576994 -0.00076309865 -0.065462366
0.0744574 0.007105562 -0.049753137 -0.060127884 -0.010832989 -0.023761144 -0.05926699 -0.034483477
00000000: 6caf fc3c 3001 cabc 0ebe 7fbd dde0 23bb
00000010: cbe6 85bd 2fc6 8a3c 7057 93bd 30c8 45bd
00000020: ded0 84bd 55e4 19bd 58d9 09bd a016 ce3c
00000030: e5de a1bd b6ab 323c 50b6 14bd 57b8 f4bc
00000040: e716 c3bd 4fb0 d1bd d5b6 29bd 738c 53bc
00000050: 8fea 18bd a099 79bd 8773 20bd 0e81 923c
00000060: 641b 98bc 99d6 edbd c54a a7bc 5f1c 93bd
00000070: 51e1 d23a 0eac 813c 6108 63bb d316 1fbd
00000080: 50ae 603b f245 833c 52fc d1bc ff3c 193c
00000090: ca9a 6dbd 7321 9dbc 653e 53bd 3592 30bd
000000a0: 5bd5 adbb 0b1c 80bd d4e4 0ebd ba96 ecbb
000000b0: afe8 ab3c 8b0e 7ebd b945 af3c 80a6 20bd
000000c0: 6a68 90bd 2d6c 35bd 84be ffbc a800 94bd
000000d0: 3c02 b63c 9c0e 94bd 11e5 e1bb 4ecb f7bb
000000e0: eb4d 89bd 741f d0bb da85 4e3b e3e1 03bd
000000f0: 615c c4bd c01b 163d 99fc 65bd a6d1 39bd
00000100: fed7 bc3c 06da a73b a7e8 84bd 895e d73b
00000110: 3044 6fbd 1d54 81bd 300e 71bd a20d d3bc
00000120: bfa7 d8bc cf1c 36bd 0439 97bd cfa6 5abd
00000130: 649a 67bc c3a4 dbbc 04c6 9ebc c102 f1bb
00000140: 7f64 6fbd 9bc6 9b3b c514 0dbc 5464 3abd
00000150: e330 b93c 8ec8 223c 3c9d b4bd 3f70 37bd
00000160: 090b 59bd d4e8 83bd f805 c5bc e39c a8ba
00000170: 7380 903c 7563 37bd 4e77 bdbc a21e ae3d
00000180: 1a5d 09bd 90c4 d6bc 6ce0 2b3c 0f20 3cbd
00000190: 54ad 5dbd fc16 843d f121 783d 218d 1dbc
000001a0: 698f 433b 4b81 00bd 7105 48bd d17b dfbc
000001b0: c591 30bc 0687 94bd 5a1d 813d 7716 05bd
000001c0: aaaf 8bbb 0d24 74bd 20bf 2ebd f775 0fbe
000001d0: 3dbf 95bd 6719 993b 5d2d 94bc a4db b7bc
000001e0: 0c11 7fbd 6d65 3bbd f899 743c 59d1 293c
000001f0: 2fef 03bc 8813 70bc 2e74 8bbd 0650 50bd
00000200: bffd 65bd 349a bbbb 8fbe d2bb 4ee0 74bb
00000210: b852 01bd 727d 2fbd 9533 3a3c 2be5 94bc
00000220: 8c09 e8bc e252 533d 0eb6 b4bd 02d9 f33c
00000230: f8fb a13b 6d12 113d f02d 43bb 428f 54bd
00000240: f003 19bc c50b 77bc b346 a5bd c506 50bd
00000250: d119 b5bc 8306 56bd 9e3a 52bc d5cb 4d3b
00000260: 49e9 833c f4c3 06bd 3c3c 863d 6049 36bd
00000270: cdce 613d eb20 a6bd 8dbb 0bbc 7842 b5bd
00000280: e8c6 adbc 0e16 30bc 77bc 98bd 0da5 e0bc
00000290: 910a 7dbd 1563 8abc c0e4 97bc c0e8 75bd
000002a0: b6d5 1fbd 4e4d 13bd bc17 85bd 0d08 1a3d
000002b0: 01d8 71bd 0f10 d53d 3899 8bbc fc7d cabd
000002c0: bf48 093d 3ec3 293c 1721 9bbd 3f2f d8bb
000002d0: c38d 643d b2c1 e7bc 2777 74bd ee40 3f3d
000002e0: 3d14 943d 1ca0 b63b e18d c1bc 89a0 34bc
000002f0: 1572 75bd a96d a2bd 8ed7 aebd 9a37 08bd
00000300: 4289 e6bb 123c 4dbe 8770 35bd 3f76 6dbc
00000310: 7d7e 15bd 9700 cabb 2d60 b13c 695a c4bc
00000320: 0e6a 72bd 6559 27bd 4261 97bd 2300 6abd
00000330: a1dc 173b 6eaa ca3c e769 c3bd e9ab 2b3b
00000340: 50ab 5ebd 7109 913c 8171 843b bbdf 63bd
00000350: 9b43 65bd 499b b5bc be89 ac3b 781f f73c
00000360: 556e 34bd 50e0 673c a36f 61bd 068d f2bc
00000370: 9f12 a4bd cc68 5fbc 38d2 abbd 0528 1cbd
00000380: 770c babc b270 dbbc 91b5 27bc ff75 473b
00000390: b2e9 a0bc 102f c2bc 0be3 77bd ffbe 043c
000003a0: 71af 09bb da05 4cbc 0e7b a3bc 084a 56bd
000003b0: d96c 15bd 3390 80bd fd68 6bbd 7559 a83b
000003c0: dee3 a5bc ff4e 45bd 85f6 87bd 9312 35bd
000003d0: 468d a7bc 8083 12bd af0a 48ba 2211 86bd
000003e0: 1f7d 983d c6d5 e83b f2c9 4bbd a848 76bd
000003f0: d97c 31bc bba6 c2bc f1c1 72bd 8c3e 0dbd

fc3.weight f4 [1, 300]
-0.021336516 5.9428086e-05 -0.011671219 -0.0121948905 0.03339863 0.012596974 0.0040262546 0.007664854
0.005535447 -5.15765e-05 -0.011261504 -0.09105576 0.032126747 0.09336606 0.0048434255 -0.01822177
0.018660441 -0.006026113 0.005100336 -0.016098114 -0.00042011667 0.04552433 0.0067004245 -0.0015570681
0.0042464854 -0.029528785 0.108256824 -0.02551263 0.17806892 0.16131806 -0.026418982 0.002422863
-0.003930642 0.12883651 -0.04758728 -0.0379915 0.0061972407 0.005837444 -0.0047630616 -0.0056168716
-0.01827869 0.0278577 -0.015742129 -0.0001831485 0.12931319 -0.010299801 0.06864047 -0.006670184
-0.0032863712 0.0029648866 0.0009556896 -0.0057093897 0.05042779 -0.010930378 0.006680874 0.020649493
-0.020528197 0.0023952725 -2.7838025e-05 -0.010623862 0.009055336 0.13859503 0.12604047 0.005235957
0.0034429762 -0.0062731025 -0.0026331223 -0.0018397885 -0.015080657 0.002364834 0.02158033 0.014020711
0.0068328413 -0.02500041 -0.001750792 -0.06137203 -0.0036749253 -0.0073365844 0.0058422503 0.119398214
0.027131252 -0.0031625805 0.006851701 -0.025848228 0.049791172 0.010483841 -0.008252076 0.0040841736
-0.008237221 -0.0639564 -0.006795525 -0.0021271834 -0.019623628 0.027698755 0.2606891 0.14551449
-0.0013349304 0.0019325712 -0.0013652144 0.0019179456 0.023551164 -0.037484426 -0.03160694 0.00054580567
0.14932373 -0.0010977105 0.002132419 -0.058026277 -0.004535738 -0.0032462138 0.057848547 -0.004217047
0.0034671726 -0.041330755 -0.00016794853 -0.0080069285 -0.028861204 0.018283209 0.0020959126 -0.00086024223
0.012342174 0.005153159 0.00014108092 -0.0879204 -0.0045299684 -0.00417011 0.0036973394 0.027607393
-0.016452577 -0.0028865112 0.06683729 -0.0040941765 -0.051585544 -0.0066830874 -0.05732595 0.021741826
-0.061878826 -0.0290106 0.060095962 1.0219709e-05 -0.14692555 0.017187078 0.07937632 0.0275083
0.0074906144 0.07999184 -0.012897356 -0.04106673 -0.0059646415 0.020999456 0.045953717 0.0067475764
-0.05081333 0.0019623765 -0.041145965 -1.0585292e-05 0.069178656 0.026458224 0.00714014 -0.077305235
-0.018990295 0.011988469 -0.0035635359 -0.0031597412 -0.007209528 0.0049487934 0.035670623 -0.022910899
0.00045791373 -0.0022707751 -0.02955153 -0.058828644 -0.0029914891 0.088518776 0.005948272 -0.07633501
0.18385312 -0.048645772 -0.0010294754 -0.008011784 -0.014446955 0.011333295 0.023680134 -0.020083414
-0.037971593 0.012873859 -0.0029869764 -0.012803428 -0.0016014335 -0.038769756 0.012275314 -0.003523631
-0.039559804 0.038781546 0.005884119 0.1342553 0.011773852 0.0016174804 0.0015708054 -0.009961256
-0.026014859 0.002548669 0.022605062 -0.00096448074 0.0039547067 -6.7323745e-06 -0.00036464617 0.0009751074
-0.0034887597 4.7625766e-05 0.0041386816 -0.025365112 -0.0043694773 0.0047305273 -0.008458099 -0.030007
-0.0012918165 -0.05716207 0.020076154 0.003774379 0.013426353 -0.0043682638 0.1098832 0.050803766
-0.0028399217 0.09173927 0.0015570429 0.023308862 0.0016764184 -0.004825794 -0.00029879127 0.0029000577
-0.0028802427 -0.017602442 0.010117377 0.034265593 0.016394943 0.021853937 -0.01490642 -0.020739567
0.0032834285 0.045029093 -0.01998383 -0.009336552 -0.003053135 -3.8000686e-05 -0.037556674 -0.000991421
-0.04399572 -0.023891514 -0.006508881 -0.02878776 -0.051799953 -0.01736272 0.036879152 0.024913667
00000000: ebc9 aebc 6c42 7938 a438 3fbc 14cd 47bc
00000010: 00cd 083d 8a63 4e3c acee 833b 7529 fb3b
00000020: b262 b53b d853 58b8 2c82 38bc 717b babd
00000030: 5697 033d b436 bf3d 99b5 9e3b d245 95bc
00000040: c8dd 983c b376 c5bb b820 a73b 31e0 83bc
00000050: 1b43 dcb9 b877 3a3d 3c8f db3b 8916 ccba
00000060: 1a26 8b3b 5ae6 f1bc c1b5 dd3d ddff d0bc
00000070: b357 363e 9030 253e 9f6c d8bc e5c8 1e3b
00000080: 9dcc 80bb b8ed 033e e1ea 42bd fa9c 1bbd
00000090: 3912 cb3b 0848 bf3b 7513 9cbb bc0d b8bb
000000a0: 31bd 95bc d535 e43c a3f5 80bc 8d0b 40b9
000000b0: ad6a 043e 7fc0 28bc 6093 8c3d 8f91 dabb
000000c0: 2960 57bb 8b4e 423b 3e87 7a3a d515 bbbb
000000d0: 5f8d 4e3d 5415 33bc 3ceb da3b 2029 a93c
000000e0: c02a a8bc 01fa 1c3b b485 e9b7 b50f 2ebc
000000f0: d55c 143c dbeb 0d3e c110 013e 6492 ab3b
00000100: 8ea3 613b 998e cdbb 7690 2cbb 0f25 f1ba
00000110: dc14 77bc 55fb 1a3b 3bc9 b03c 20b7 653c
00000120: 07e6 df3b a9cd ccbc d57a e5ba 3d61 7bbd
00000130: 04d7 70bb bb67 f0bb 5970 bf3b 0d87 f43d
00000140: 5c42 de3c 4c43 4fbb 3c84 e03b aabf d3bc
00000150: d4f1 4b3d 6bc4 2b3c b733 07bc 88d4 853b
00000160: 69f5 06bc 93fb 82bd ffac debb 3768 0bbb
00000170: bbc1 a0bc 80e8 e23c 0b79 853e c001 153e
00000180: d5f8 aeba 544e fd3a fef0 b2ba 9363 fb3a
00000190: 5fee c03c 4589 19bd 4776 01bd 6614 0f3a
000001a0: 52e8 183e 0de1 8fba 0ec0 0b3b f6ac 6dbd
000001b0: 87a0 94bb 6ebe 54bb 99f2 6c3d 272f 8abb
000001c0: 8139 633b 704a 29bd 571b 30b9 7e2f 03bc
000001d0: 556e ecbc abc6 953c 945b 093b e181 61ba
000001e0: d436 4a3c d5db a83b 1fef 1339 9c0f b4bd
000001f0: 2170 94bb 6ba5 88bb 104f 723b e628 e23c
00000200: 8ec7 86bc 9f2b 3dbb fde1 883d 7128 86bb
00000210: 5d4b 53bd cdfd dabb 9ece 6abd ea1b b23c
00000220: a774 7dbd a3a7 edbc 2f27 763d 5175 2b37
00000230: a773 16be eacb 8c3c 0d90 a23d 1659 e13c
00000240: d473 f53b c3d2 a33d 6f4f 53bc 9635 28bd
00000250: 0a73 c3bb 0d07 ac3c f739 3c3d c61a dd3b
00000260: a321 50bd 379b 003b ac88 28bd 7c97 31b7
00000270: 8aad 8d3d ebbe d83c d6f7 e93b 3552 9ebd
00000280: 8991 9bbc 496b 443c 368a 69bb a913 4fbb
00000290: e73d ecbb 7d29 a23b 5c1b 123d a3af bbbc
000002a0: 2414 f039 49d1 14bb 0d16 f2bc 4ef6 70bd
000002b0: dc0c 44bb 5549 b53d b9e9 c23b 8855 9cbd
000002c0: fe43 3c3e ca40 47bd 76ef 86ba dc43 03bc
000002d0: ecb2 6cbc 49af 393c d7fc c13c f985 a4bc
000002e0: 1a88 1bbd e1ec 523c 26c1 43bb 78c5 51bc
000002f0: 31e7 d1ba 09cd 1ebd 661e 493c b8ec 66bb
00000300: 7609 22bd 66d9 1e3d 91cf c03b 397a 093e
00000310: 1de7 403c a301 d43a 7ce3 cd3a 8934 23bc
00000320: 1d1d d5bc 9207 273b 402e b93c 35d5 7cba
00000330: 7c96 813b a8e6 e1b6 fb2d bfb9 5a9e 7f3a
00000340: ada3 64bb c7c1 4738 c79d 873b 7fca cfbc
00000350: d52d 8fbb 8a02 9b3b d793 0abc 3dd1 f5bc
00000360: 2b52 a9ba c622 6abd bf76 a43c 925b 773b
00000370: 35fa 5b3c a723 8fbb 710a e13d 9c17 503d
00000380: fb1d 3abb cce1 bb3d b115 cc3a 3af2 be3c
00000390: 44bb db3a b221 9ebb 16a7 9cb9 e50e 3e3b
000003a0: 74c2 3cbb ff32 90bc 5bc3 253c 145a 0c3d
000003b0: b04e 863c 0707 b33c 0f3a 74bc 06e6 a9bc
000003c0: ca2e 573b 6d70 383d 21b5 a3bc 56f8 18bc
000003d0: 1b17 48bb ed62 1fb8 07d5 19bd 92f2 81ba
000003e0: db34 34bd 23b8 c3bc 7448 d5bb 4fd4 ebbc
000003f0: 302c 54bd 433c 8ebc 980e 173d bf17 cc3c
