Tennis/Nets/checkpoint_actor800.pth (torch_old, 525671 bytes, 10 tensors)

bn1.weight f4 [24]
0.63128525 0.5641521 0.4677019 0.45407495 0.86505157 0.7116471 0.28711098 0.056103706
0.5450119 0.27301693 0.53234327 0.38968933 0.57309633 0.8985609 0.49466008 0.5466774
0.6976212 0.3497971 0.42575344 0.85514295 0.2856436 0.5808753 0.58774525 0.7787606
00000000: e99b 213f 466c 103f a076 ef3e 837c e83e
00000010: 0574 5d3f 812e 363f 3600 933e 00cd 653d
00000020: e685 0b3f e0c8 8b3e a647 083f 5c85 c73e
00000030: 71b6 123f 1608 663f 1644 fd3e 0df3 0b3f
00000040: 4e97 323f 9b18 b33e 5bfc d93e a6ea 5a3f
00000050: e13f 923e 3eb4 143f 7976 163f db5c 473f

bn1.bias f4 [24]
0.025824683 -0.11514983 0.08952576 0.0794653 0.16089855 -0.0274136 0.07506072 -0.0061136885
0.04186078 -0.15304323 0.1256112 0.01439308 0.052064735 -0.10827685 0.08710122 0.043182973
0.053084556 -0.10101911 0.09729333 0.04858386 0.093170956 -0.12942971 0.1102515 0.037567582
00000000: 498e d33c add3 ebbd 4859 b73d b4be a23d
00000010: 97c2 243e 7c92 e0bc 6fb9 993d 5655 c8bb
00000020: 3676 2b3d 5db7 1cbe 39a0 003e f4d0 6b3c
00000030: d541 553d 41c0 ddbd 2062 b23d a1e0 303d
00000040: 316f 593d 1be3 cebd ba41 c73d dfff 463d
00000050: 6ad0 be3d 3989 04be 8acb e13d 77e0 193d

bn1.running_mean f4 [24]
-3.8599296 -0.38900667 12.145264 0.83987206 0.022190893 3.103809 12.145264 0.83987206
-4.0582867 -0.3912231 12.786001 0.6928569 0.018718462 3.0175116 12.786001 0.6928569
-4.221248 -0.40949127 13.82412 0.49167547 0.009191925 2.8671775 13.82412 0.49167547
00000000: 1609 77c0 e22b c7be 0053 4241 db01 573f
00000010: adc9 b53c cfa4 4640 0053 4241 db01 573f
00000020: 7cdd 81c0 654e c8be 7693 4c41 125f 313f
00000030: 7657 993c e91e 4140 7693 4c41 125f 313f
00000040: 7714 87c0 d7a8 d1be 982f 5d41 e3bc fb3e
00000050: ba99 163c d67f 3740 982f 5d41 e3bc fb3e

bn1.running_var f4 [24]
17.14911 1.0468607 304.63242 7.1604676 41.148785 5.2730355 304.63242 7.1604676
16.981646 1.0838398 320.09726 8.2151165 44.638195 5.9419074 320.09726 8.2151165
16.800829 1.1161741 323.61523 9.534242 48.16109 7.1330886 323.61523 9.534242
00000000: 6131 8941 88ff 853f f350 9843 8d22 e540
00000010: 5b98 2442 b5bc a840 f350 9843 8d22 e540
00000020: 69da 8741 43bb 8a3f 730c a043 1e71 0341
00000030: 838d 3242 1b24 be40 730c a043 1e71 0341
00000040: 1968 8641 cbde 8e3f c0ce a143 418c 1841
00000050: f5a4 4042 4342 e440 c0ce a143 418c 1841

fc1.weight f4 [400, 24]
-0.07129602 0.004823964 -0.0937961 0.061774317 -0.034359496 0.08317556 -0.08386403 0.01922118
-0.06047072 0.08254781 0.004733477 0.03861638 -0.088851154 0.16381253 -0.06235505 0.01721609
-0.013514553 0.022533074 -0.021343267 -0.053515278 0.25466076 0.19927217 0.05372812 -0.050448544
0.120847724 0.12504698 -0.04377177 -0.09606696 0.07353531 -0.08892209 -0.07554711 -0.05916076
0.1040929 0.02660324 -0.16660489 -0.07006098 -0.34000415 0.0772474 -0.19182602 -0.047354545
-0.03447211 0.0046099625 -0.1670178 -0.047579296 -0.16855493 0.11115785 -0.20130363 -0.11969255
0.1671931 -0.014823184 -0.0019482215 0.017531294 0.2805552 0.14005801 -0.016267167 0.013214297
0.08666628 -0.05257444 -0.01907791 0.112364605 0.32812476 0.04111456 -0.07224693 0.096929826
-0.0888202 0.0208251 -0.002859025 -0.026869014 0.30826858 -0.059463594 -0.056812227 0.052990664
0.040024467 0.094970584 -0.027756207 0.025844155 0.008563161 -0.076656595 -0.023921192 -0.0021718966
0.053736378 0.08289619 -0.0423025 0.03925734 0.13582997 -0.13880014 -0.0027241153 0.06811837
0.006348615 0.09842386 -0.0077054095 0.023580998 0.072266065 -0.07070574 0.037780866 -0.011191917
0.06845101 -0.18992652 -0.036066193 -0.030650115 0.0003280615 -0.11781966 -0.004119121 -0.021818528
0.03496164 -0.20318872 -0.027204584 -0.0008249485 0.03935092 -0.063216396 0.032486625 -0.014031796
0.08832341 -0.20557518 -0.0025358736 -0.012713487 0.09637164 -0.097025014 -0.019687012 -0.045416918
-0.094881274 -0.034494214 -0.018873913 0.03358217 -0.12564649 0.2554788 0.01825003 0.005744995
-0.07576814 0.018262379 0.0021713576 -0.030670602 0.10250088 0.18348947 -0.005888355 -0.04016861
0.0013774337 -0.009576959 0.06417761 -0.06698083 0.12382286 0.14206684 0.07261458 -0.122229345
-0.029013094 -0.14246678 0.1272593 -0.095456645 -0.09256011 0.09395304 0.11293269 -0.0047637112
0.024323862 -0.07796733 -0.040042114 -0.07006656 -0.06382177 0.06681602 -0.05039755 -0.026220668
-0.048497163 -0.08761363 -0.13260476 -0.012577125 0.0125989495 0.041565854 -0.18402702 -0.045199398
-0.0067701 0.18479411 -0.012683145 -0.114047706 0.06683429 0.10747607 0.044143956 -0.036825117
0.026024206 0.20392388 -0.042349398 -0.10850699 0.0317762 0.11614581 -0.027145375 -0.12632501
-0.02764206 0.1153809 -0.062502794 -0.107067384 -0.0042884974 0.020736802 -0.027158713 -0.13576303
0.11231902 -0.02642036 -0.0578132 -0.087499216 0.18089049 0.15526879 -0.088982895 -0.058559958
0.063935116 -0.052419905 -0.10251392 0.10296615 0.25548676 0.1454116 -0.032637507 0.14548916
0.029525904 -0.09232155 -0.07444188 0.04970256 0.0753942 0.028832015 -0.118435845 0.09589719
0.026547331 0.10412059 -0.07281779 -0.016174242 -0.00025439027 0.056829482 -0.10087557 0.005678985
0.016438829 0.14138392 0.0022737768 -0.022586253 0.019282974 0.034156334 -0.000855413 -0.0519783
-0.0060117026 0.20386817 0.018643701 0.043326814 0.026295466 0.12701747 0.07551471 -0.025427282
0.24342597 0.049207456 -0.123801865 0.09204561 0.19248848 -0.011718993 -0.16037002 0.093913205
0.09898342 0.0703604 -0.19941716 0.113159314 0.33223134 -0.039021015 -0.15167223 0.13053781
00000000: a603 92bd 5812 9e3b 2b18 c0bd 1107 7d3d
00000010: 8bbc 0cbd f357 aa3d e8c0 abbd bc75 9d3c
00000020: 25b0 77bd d40e a93d 481b 9b3b 362c 1e3d
00000030: 98f7 b5bd 79be 273e 0268 7fbd c208 8d3c
00000040: 256c 5dbc 4897 b83c 13d8 aebc d632 5bbd
00000050: e562 823e 010e 4c3e 0412 5c3d 22a3 4ebd
00000060: 037f f73d 510c 003e 074a 33bd c1be c4bd
00000070: ae99 963d c91c b6bd 71b8 9abd 8e52 72bd
00000080: a92e d53d 0aef d93c 799a 2abe 227c 8fbd
00000090: 0615 aebe e333 9e3d 0a6e 44be d7f6 41bd
000000a0: a132 0dbd 2b0f 973b b706 2bbe 82e2 42bd
000000b0: aa99 2cbe baa6 e33d 8a22 4ebe 5e21 f5bd
000000c0: ab34 2b3e f1dc 72bc 775b ffba ca9d 8f3c
000000d0: eea4 8f3e 5e6b 0f3e b942 85bc c780 583c
000000e0: 177e b13d 4c58 57bd 4749 9cbc 6a1f e63d
000000f0: f8ff a73e be67 283d 33f6 93bd 2583 c63d
00000100: 5de7 b5bd 6699 aa3c 7b5e 3bbb 681c dcbc
00000110: 61d5 9d3e 1990 73bd f0b3 68bd bd0c 593d
00000120: b2f0 233d f07f c23d fc60 e3bc 1fb7 d33c
00000130: 804c 0c3c 22fe 9cbd 60f6 c3bc 6156 0ebb
00000140: ad1a 5c3d 7ac5 a93d 6345 2dbd 4ecc 203d
00000150: 0317 0b3e a021 0ebe 1287 32bb a581 8b3d
00000160: 0b08 d03b 7392 c93d a97d fcbb f02c c13c
00000170: 3b00 943d 2cce 90bd 1cc0 1a3d 4d5e 37bc
00000180: 0b30 8c3d 197c 42be 25ba 13bd f315 fbbc
00000190: abff ab39 6f4b f1bd b1f9 86bb c5bc b2bc
000001a0: f033 0f3d b410 50be 26dc debc 5b41 58ba
000001b0: 6e2e 213d 9977 81bd b210 053d 9ee5 65bc
000001c0: e7e2 b43d 4d82 52be e630 26bb 3b4c 50bc
000001d0: 7f5e c53d 0db5 c6bd a846 a1bc 1707 3abd
000001e0: 1d51 c2bd ce49 0dbd 779d 9abc 758d 093d
000001f0: 79a9 00be 1ece 823e 1681 953c 8340 bc3b
00000200: 542c 9bbd fc9a 953c 564d 0e3b ea40 fbbc
00000210: fbeb d13d aae4 3b3e 1af3 c0bb d787 24bd
00000220: 018b b43a ade8 1cbc 8d6f 833d 3f2d 89bd
00000230: d796 fd3d f879 113e f4b6 943d 6153 fabd
00000240: deac edbc d0e2 11be 4350 023e c67e c3bd
00000250: 2890 bdbd 746a c03d 4149 e73d e818 9cbb
00000260: d642 c73c 56ad 9fbd 3303 24bd 0e7f 8fbd
00000270: fdb4 82bd d6d6 883d a96d 4ebd bacc d6bc
00000280: f6a4 46bd c66e b3bd 8bc9 07be 4910 4ebc
00000290: d36b 4e3c f540 2a3d 9471 3cbe 0123 39bd
000002a0: b7d7 ddbb ab3a 3d3e f7cc 4fbc d891 e9bd
000002b0: 6be0 883d 6a1c dc3d 4bd0 343d efd5 16bd
000002c0: b730 d53c 6cd1 503e 9076 2dbd ea38 debd
000002d0: c327 023d dbdd ed3d fa5f debc 585b 01be
000002e0: 9a71 e2bc d24c ec3d 7701 80bd 2546 dbbd
000002f0: 8686 8cbb 3ae0 a93c f37b debc 7705 0bbe
00000300: 8407 e63d 836f d8bc 89cd 6cbd ca32 b3bd
00000310: 5b3b 393e c8fe 1e3e aa3c b6bd 91dc 6fbd
00000320: 6af0 823d 41b6 56bd d1f2 d1bd ebdf d23d
00000330: 29cf 823e c7e6 143e e8ae 05bd 1cfb 143e
00000340: 4fe0 f13c 1513 bdbd fc74 98bd e994 4b3d
00000350: 4668 9a3d 1e31 ec3c 7e8e f2bd bf65 c43d
00000360: ca79 d93c 2d3d d53d 7e21 95bd d87f 84bc
00000370: af5f 85b9 08c6 683d da97 cebd c716 ba3b
00000380: b9aa 863c f2c6 103e a503 153b ce06 b9bc
00000390: 54f7 9d3c 83e7 0b3d cb3d 60ba 33e7 54bd
000003a0: d1fd c4bb d1c2 503e adba 983c 7577 313d
000003b0: 9769 d73c de10 023e 75a7 9a3d e04c d0bc
000003c0: a844 793e c28d 493d d58b fdbd 6982 bc3d
000003d0: b31b 453e 0501 40bc 0a38 24be 9155 c03d
000003e0: d2b7 ca3d 1d19 903d 0334 4cbe 12c0 e73d
000003f0: 3a1a aa3e 80d4 1fbd f74f 1bbe b4ab 053e

fc1.bias f4 [400]
0.02312207 -0.13976276 -0.02723789 -0.060181 -0.21250187 0.082232796 -0.16563746 0.107751824
0.028084027 0.045126695 -0.13825561 -0.09224087 0.06317319 -0.40441424 0.042336244 -0.20593376
0.09389096 -0.16930951 0.15242502 0.2045101 -0.25120476 -0.093093455 0.030033048 0.0568762
0.15823461 -0.058971748 0.016144134 0.14127494 -0.19764838 -0.2730746 0.039477084 0.05038457
-0.12174521 -0.1458137 0.08161298 -0.061472178 0.055317134 -0.23793471 -0.15292859 -0.01600902
0.03553054 -0.08974615 0.07240902 -0.012186204 -0.13759463 -0.04814971 -0.014283708 -0.015961098
-0.01895638 0.0022074871 -0.14916739 -0.10993845 -0.07866935 0.09041193 -0.03455748 0.07073558
0.1265367 -0.02685674 0.095405445 0.07437913 -0.13909093 0.03417267 0.055573426 -0.30560738
-0.19181593 0.0068336907 -0.12241192 0.03062418 0.024815623 0.0145928385 0.01053281 -0.13899624
0.096631445 0.17295912 -0.045365114 -0.20834813 -0.025787009 -0.12410071 0.021752749 -0.028582532
0.058741655 0.03260468 0.13164279 0.19287273 -0.086906515 0.15508464 -0.048903562 -0.21122366
-0.19030544 0.007380055 -0.057407834 -0.06259991 -0.06504084 0.12409172 -0.17052929 0.031583425
0.027270265 -0.08689561 -0.112611614 -0.19065495 -0.017962877 -0.22273795 0.04158645 -0.038551185
0.0072299326 -0.0017921659 0.12840074 0.07764785 -0.1678407 0.016220286 0.05637813 0.12441147
-0.045511533 -0.123005345 0.00013765541 -0.1435161 0.1348326 -0.2595379 -0.10402558 -0.16354759
-0.10326023 0.114628896 -0.13692419 0.029517395 0.04225443 -0.13189383 0.10198163 0.10021336
-0.11187036 -0.20332703 -0.115136415 -0.118574604 0.14588438 0.06129859 0.07725943 -0.19760418
-0.0576912 -0.054555755 -0.30560294 0.011485399 -0.08066596 0.020294607 -0.13258001 -0.1979732
0.021353519 0.0441071 -0.23648049 -0.06894148 0.13670968 -0.09539907 -0.21048556 -0.060757402
0.039781023 0.09228196 -0.14405966 -0.112372935 -0.0055485563 -0.17071721 -0.18404055 -0.13276573
0.123751454 0.04393018 -0.02515073 -0.31178653 -0.16652913 -0.057209913 0.049994934 -0.058702882
0.062347718 0.032553002 -0.18799525 -0.059595227 -0.14273657 -0.20526512 -0.2005711 -0.012087586
0.0321272 -0.074307784 0.1323935 -0.019787485 0.0614347 -0.054138206 0.14521089 0.021981139
0.09477186 0.10615858 0.122602046 -0.11492077 0.0048986226 0.06633979 -0.16705103 -0.022066316
-0.15512732 -0.04875537 -0.22283544 0.1129242 -0.2888247 -0.0075235353 -0.12136759 -0.10777725
0.09201777 -0.09824861 -0.106426984 -0.03919338 0.06088812 -0.3208748 -0.3689947 -0.17076313
-0.0149985645 0.17354152 0.1048531 0.008991733 -0.058154047 -0.2353852 0.102276266 -0.11622961
0.047402408 -0.13150531 -0.04250318 -0.121991776 0.049612496 0.068533264 0.13231102 0.11750815
-0.117958196 -0.16888931 -0.30998147 -0.18984401 -0.24455933 -0.030208522 0.048976816 -0.17389789
-0.35428417 -0.08845166 -0.04989067 -0.10783922 0.015058877 -0.041505314 0.027318118 0.03264186
0.14710426 -0.20978695 -0.021507671 -0.051732857 0.1639851 -0.16664581 -0.048108783 0.07306764
-0.18025284 0.093486995 0.16036873 -0.07255987 0.012854249 0.06522605 -0.057085067 -0.20387132
00000000: 7f6a bd3c f81d 0fbe ff21 dfbc 5a80 76bd
00000010: 179a 59be ab69 a83d de9c 29be fdac dc3d
00000020: 7910 e63c c5d6 383d e192 0dbe c8e8 bcbd
00000030: f260 813d 620f cfbe c568 2d3d 4de0 52be
00000040: e749 c03d 795f 2dbe 4e15 1c3e 186b 513e
00000050: e99d 80be c8a7 bebd de07 f63c 05f7 683d
00000060: 4108 223e 5c8c 71bd b440 843c 61aa 103e
00000070: 5664 4abe 6fd0 8bbe b9b2 213d 0d60 4e3d
00000080: 8d55 f9bd 3050 15be b524 a73d 40ca 7bbd
00000090: 3894 623d 28a5 73be 5099 1cbe 5925 83bc
000000a0: 7988 113d d4cc b7bd 2e4b 943d a5a8 47bc
000000b0: 9be5 0cbe a138 45bd 3706 6abc d9c0 82bc
000000c0: 694a 9bbc 7dab 103b 56bf 18be 6927 e1bd
000000d0: 651d a1bd e429 b93d 258c 0dbd d1dd 903d
000000e0: d692 013e aa02 dcbc ee63 c33d 1654 983d
000000f0: da6d 0ebe a4f8 0b3d f6a0 633d 9278 9cbe
00000100: 656b 44be 27ed df3b 1ab3 fabd 8fdf fa3c
00000110: 224a cb3c cd16 6f3c cf91 2c3c 0855 0ebe
00000120: b5e6 c53d 321c 313e c5d0 39bd 3659 55be
00000130: 473f d3bc 8328 febd d232 b23c ea25 eabc
00000140: 179b 703d 7c8c 053d 5ecd 063e 6e80 453e
00000150: 0bfc b1bd 82ce 1e3e 1a4f 48bd 044b 58be
00000160: 6edf 42be 63d4 f13b 7a24 6bbd 6234 80bd
00000170: 2234 85bd cd23 fe3d 3b9f 2ebe 9f5d 013d
00000180: e465 df3c 53f6 b1bd eba0 e6bd 0d3b 43be
00000190: e226 93bc 6b15 64be 8e56 2a3d d9e7 1dbd
000001a0: 12e9 ec3b 1ce7 eaba 7c7b 033e d605 9f3d
000001b0: 6fde 2bbe 68e0 843c c1ec 663d 71cb fe3d
000001c0: 4d6a 3abd 3aea fbbd 9857 1039 e2f5 12be
000001d0: 8f11 0a3e 27e2 84be 5d0b d5bd 0579 27be
000001e0: 197a d3bd 8ec2 ea3d db35 0cbe 77ce f13c
000001f0: fb12 2d3d 2d0f 07be bfdb d03d a93c cd3d
00000200: 4a1c e5bd f634 50be a4cc ebbd 3ed7 f2bd
00000210: b762 153e 3b14 7b3d 313a 9e3d c058 4abe
00000220: 9c4d 6cbd db75 5fbd fd77 9cbe 412d 3c3c
00000230: 3234 a5bd e040 a63c 0ec3 07be 7db9 4abe
00000240: 93ed ae3c a6a9 343d f127 72be 3131 8dbd
00000250: 9ffd 0b3e 9660 c3bd 8789 57be c1dc 78bd
00000260: 6df1 223d 53fe bc3d 6084 13be c823 e6bd
00000270: aad0 b5bb 7ed0 2ebe 2075 3cbe bdf3 07be
00000280: 6771 fd3d 22f0 333d e708 cebc 7ca2 9fbe
00000290: 9d86 2abe f154 6abd 7dc7 4c3d 6f72 70bd
000002a0: 5260 7f3d 4c56 053d d481 40be 201a 74bd
000002b0: 8929 12be 0531 52be 8362 4dbe 030b 46bc
000002c0: d097 033d ae2e 98bd 2992 073e 5d19 a2bc
000002d0: f4a2 7b3d 06c0 5dbd 2ab2 143e ca11 b43c
000002e0: c017 c23d ab69 d93d c816 fb3d 955b ebbd
000002f0: a084 a03b 28dd 873d 6d0f 2bbe 6bc4 b4bc
00000300: b2d9 1ebe b6b3 47bd f92e 64be ce44 e73d
00000310: d5e0 93be fd87 f6bb 928f f8bd 52ba dcbd
00000320: d073 bc3d 9136 c9bd 64f6 d9bd 3d89 20bd
00000330: d265 793d b449 a4be e0ec bcbe 88dc 2ebe
00000340: 8abc 75bc deb4 313e 39bd d63d 1052 133c
00000350: f032 6ebd d108 71be 3876 d13d ca09 eebd
00000360: 0729 423d 54a9 06be d117 2ebd d3d6 f9bd
00000370: 7936 4b3d 2b5b 8c3d 8a7c 073e 1da8 f03d
00000380: 1194 f1bd 52f1 2cbe e4b5 9ebe 7866 42be
00000390: c36d 7abe dd77 f7bc ea9b 483d 4a12 32be
000003a0: bc64 b5be 2526 b5bd 295a 4cbd cfda dcbd
000003b0: 82b9 763c 7a01 2abd 3fca df3c 79b3 053d
000003c0: 80a2 163e 64d2 56be db30 b0bc d5e5 53bd
000003d0: b6eb 273e 33a5 2abe b70d 45bd 7da4 953d
000003e0: 3394 38be 1c76 bf3d b337 243e 459a 94bd
000003f0: a19a 523c 3c95 853d 08d2 69bd a5c3 50be

fc2.weight f4 [300, 400]
-0.04694966 0.08905939 0.12718536 -0.043578904 -0.06115814 -0.16957116 0.029298931 0.14937149
-0.080830514 -0.029396081 0.00842359 -0.006932898 -0.04972239 -0.02818519 -0.0005423223 0.026128402
0.053354014 0.04502833 0.055307135 -0.021613814 -0.019889612 -0.01621405 -0.1536535 0.15396443
0.037188597 0.041670077 -0.07411736 -0.06480952 -0.10755072 -0.3802354 -0.035808682 0.10564365
0.051865425 -0.040107463 0.13414265 -0.0016123608 0.13253967 0.11858881 -0.039769243 -0.06389636
0.042527664 -0.011127479 -0.04263705 -0.098037705 -0.014974282 -0.002922795 -0.11072008 0.0662583
-0.21667299 0.00022997675 -0.074022084 -0.27522418 0.022321373 0.13648118 -0.039039604 -0.070390515
0.0654933 -0.047961336 0.05710903 -0.094817236 0.034928784 0.051484015 0.05443548 -0.086061835
0.027746886 0.016728766 -0.14156206 -0.009117657 0.0779174 0.012815426 -0.026869666 -0.048707895
0.05631488 0.03521761 0.059831113 -0.08993635 -0.04708262 -0.055726096 -0.10338632 -0.1349538
-0.049430415 -0.059587136 -0.0027801322 0.05824603 -0.018228909 -0.08057276 0.1462413 -0.29398817
-0.11301568 -0.035997357 -0.20696841 0.16855748 -0.067519486 -0.011819214 -0.13597234 0.037838057
-0.014595027 0.11180994 -0.10580524 0.027269378 -0.12800092 -0.15433316 0.057336427 -0.08277723
0.0034068432 0.08541892 0.10741998 -0.034921117 0.029904779 -0.006768385 0.03936237 -0.17572182
-0.021034012 -0.14061663 -0.15681922 0.013686505 -0.022166224 -0.1514819 0.0349799 0.13169524
-0.17824195 -0.018712169 -0.18837711 0.0021882793 -0.042541288 0.006440009 -0.12614718 -0.030083796
0.11051727 -0.05182054 -0.40107948 0.16910985 0.028965969 -0.023244118 0.16989319 -0.057692092
-0.044729255 -0.088483974 0.21218726 -0.15120599 -0.09190364 0.0068264455 0.024872765 -0.0040044817
-0.12837341 -0.050741676 -0.16536105 0.10389484 0.080658294 0.10178049 -0.51142293 -0.004626994
-0.1240931 0.0832279 -0.24352679 -0.03797872 -0.23498698 -0.13311562 -0.0057225367 -0.09560049
-0.03479817 0.065043055 -0.01633589 -0.06479775 -0.02187762 0.0071806167 0.06350052 0.066105016
-0.1099819 -0.14063294 -0.23518464 0.12232538 -0.29123715 0.051671904 -0.25727788 -0.031648688
-0.009181565 -0.111516185 0.120510355 -0.053643566 0.005641052 -0.046673823 0.108503826 -0.061133496
-0.04223707 0.04356433 0.071548514 0.17853394 0.029246738 -0.04924073 -0.030126864 -0.21437635
0.024347132 0.052564677 -0.13085364 0.09944915 -0.18072806 0.017197382 0.042864338 -0.101716384
-0.027489586 -0.007901278 -0.1038273 -0.09014965 0.015950333 -0.304309 0.03885604 0.039274875
0.10200797 0.109849155 0.13229439 0.00564504 -0.16242424 -0.081797585 0.11432887 0.022580475
-0.060171187 -0.061464567 0.028653407 0.06287934 -0.031338748 0.059631392 -0.07153842 -0.0036559487
-0.2981426 -0.05359029 -0.13034652 -0.2824456 0.11667917 0.07617293 0.09168907 -0.28451696
0.01884232 -0.21480148 0.07157923 -0.02125615 -0.12316206 0.044396386 0.052029617 0.03457043
0.057008326 -0.20926505 0.01696921 -0.007223419 -0.21514949 -0.040523123 0.12306915 0.022014579
-0.04824287 0.09637091 -0.07974156 0.047223806 0.012740368 -0.019289793 0.063426234 0.033133402
00000000: 494e 40bd c564 b63d e13c 023e cb7f 32bd
00000010: f580 7abd 10a4 2dbe 5004 f03c d7f4 183e
00000020: 788a a5bd 0dd0 f0bc 1903 0a3c 5d2d e3bb
00000030: b4a9 4bbd a1e4 e6bc a22a 0eba 3b0b d63c
00000040: bd89 5a3d a06f 383d bc89 623d 740f b1bc
00000050: 8aef a2bc 54d3 84bc 5857 1dbe daa8 1d3e
00000060: 1253 183d 3eae 2a3d d8ca 97bd dbba 84bd
00000070: 8d43 dcbd 37ae c2be 20ac 12bd b35b d83d
00000080: d770 543d b947 24bd b15c 093e da55 d3ba
00000090: 7bb8 073e b1de f23d 13e5 22bd 18dc 82bd
000000a0: 7d31 2e3d 0850 36bc 30a4 2ebd fec7 c8bd
000000b0: b156 75bc 5d8c 3fbb 36c1 e2bd 6eb2 873d
000000c0: 86df 5dbe ea25 7139 e498 97bd 2fea 8cbe
000000d0: 50db b63c b9c1 0b3e fee7 1fbd e728 90bd
000000e0: 5a21 863d 1b73 44bd 29eb 693d 8a2f c2bd
000000f0: 7c11 0f3d e7e0 523d bdf7 5e3d 3041 b0bd
00000100: 704d e33c c40a 893c a5f5 10be 3a62 15bc
00000110: 2893 9f3d cbf7 513c c61d dcbc ee81 47bd
00000120: 6eaa 663d 5740 103d 7811 753d 8d30 b8bd
00000130: b5d9 40bd 0c41 64bd 35bc d3bd 5431 0abe
00000140: 8c77 4abd a411 74bd e132 36bb 6493 6e3d
00000150: cb54 95bc 5503 a5bd 48c0 153e 9e85 96be
00000160: c474 e7bd f771 13bd 87ef 53be 559a 2c3e
00000170: a847 8abd 60a5 41bc 553c 0bbe 14fc 1a3d
00000180: fb1f 6fbc 9cfc e43d 6bb0 d8bd 0864 df3c
00000190: ac12 03be 8309 1ebe 9ad9 6a3d 1c87 a9bd
000001a0: 5845 5f3b 1df0 ae3d 02ff db3d 7209 0fbd
000001b0: defa f43c 54c9 ddbb 703a 213d 6cf0 33be
000001c0: 854f acbc cefd 0fbe 3895 20be 5d3d 603c
000001d0: f195 b5bc 121e 1bbe 1547 0f3d 1edb 063e
000001e0: 0f85 36be 434a 99bc eee5 40be 3c69 0f3b
000001f0: c63f 2ebd b606 d33b ba2c 01be 4b72 f6bc
00000200: e156 e23d c641 54bd 4a5a cdbe 222b 2d3e
00000210: 0a4a ed3c 736a bebc 7bf8 2d3e 8b4e 6cbd
00000220: 0636 37bd 1637 b5bd 9e47 593e bed5 1abe
00000230: fa37 bcbd 60b0 df3b f8c1 cb3c 0738 83bb
00000240: 5274 03be 81d6 4fbd 6854 29be d1c6 d43d
00000250: 2d30 a53d 4a72 d03d 9dec 02bf 0a9e 97bb
00000260: 8624 febd 6473 aa3d 165f 79be 938f 1bbd
00000270: 6da0 70be 764f 08be 1e84 bbbb 31ca c3bd
00000280: 8788 0ebd 4b35 853d d8d2 85bc afb4 84bd
00000290: b238 b3bc 614b eb3b 900c 823d 1162 873d
000002a0: 313e e1bd 1502 10be 3ed4 70be bb85 fa3d
000002b0: 091d 95be eba5 533d edb9 83be 0ea2 01bd
000002c0: 466e 16bc 9962 e4bd 22ce f63d 5bb9 5bbd
000002d0: 93d8 b83b 0d2d 3fbd 4137 de3d 1e67 7abd
000002e0: c700 2dbd 8370 323d 0788 923d 9ad1 363e
000002f0: db96 ef3c a6b0 49bd 9dcc f6bc 7985 5bbe
00000300: a373 c73c 0f4e 573d 7ffe 05be ffab cb3d
00000310: c710 39be 86e1 8c3c 8492 2f3d ae50 d0bd
00000320: d731 e1bc 5d74 01bc 68a3 d4bd 61a0 b8bd
00000330: 46aa 823c 64ce 9bbe 8327 1f3d b1de 203d
00000340: 8ee9 d03d 98f8 e03d 2e78 073e 07fa b83b
00000350: 8a52 26be 7e85 a7bd 4125 ea3d b0fa b83c
00000360: 1076 76bd 45c2 7bbd 8dba ea3c e2c6 803d
00000370: 0f5d 00bd 0c40 743d bc82 92bd a498 6fbb
00000380: 26a6 98be 7e81 5bbd 8f79 05be b69c 90be
00000390: 7df5 ee3d 8e00 9c3d 7bc7 bb3d 35ac 91be
000003a0: 365b 9a3c ebf4 5bbe 2298 923d 6121 aebc
000003b0: 643c fcbd fcd8 353d 021d 553d b999 0d3d
000003c0: 9081 693d 9449 56be 0303 8b3c 6eb2 ecbb
000003d0: 2650 5cbe 93fb 25bd ae0b fc3d eb57 b43c
000003e0: 519a 45bd 1d5e c53d 8b4f a3bd c06d 413d
000003f0: fabc 503c a105 9ebc 9de5 813d e4b6 073d

fc2.bias f4 [300]
-0.046074696 0.06104152 0.16324255 -0.055424187 0.041289624 -0.026907679 0.042461473 -0.078128114
0.021062277 -0.16780075 -0.076683275 0.06077019 0.039556257 0.054274883 0.04142386 -0.02455272
0.035801627 -0.06446561 0.024970027 -0.03434163 -0.0017759008 0.010637915 -0.06087903 -0.01775329
0.07147662 -0.07914432 -0.08548811 0.06368439 -0.013030736 -0.01892927 -0.014348784 0.03364919
-0.0034404697 0.05145289 -0.016681788 -0.040108476 0.12851728 0.008778592 0.08261791 0.023965094
0.022187453 -0.04552081 -0.15009023 -0.044175204 -0.0070840553 -0.013301859 -0.0120343845 0.03494369
-0.012755664 -0.0046538375 0.017711628 -0.044423558 0.07478241 -0.060279164 -0.037028845 0.008711176
0.076923326 0.020575762 -0.13119794 -0.114274256 0.0017276056 -0.02512441 0.022217762 -0.031409122
-0.0878192 -0.0024039221 0.009324768 -0.022192061 -0.056470506 -0.038763206 0.034059126 0.027457248
0.068244465 0.018607251 -0.014179567 0.02814439 -0.053432703 0.05954461 -0.05947025 -0.036095273
0.06731635 -0.023593897 -0.12790613 -0.023975793 0.020767838 -0.0181788 0.060260035 0.009671128
-0.06508468 -0.014852833 -0.05552016 0.04490505 0.06023381 -0.07545701 -0.02065498 -0.019613568
-0.009042054 0.0074354247 -0.023086783 -0.03306928 -0.0010422812 -0.031151988 -0.008780002 -0.11881122
0.013321506 -0.05836956 0.052217104 -0.026292462 -0.043577265 -0.044351395 -0.07376993 -0.018031484
-0.14588645 -0.07579299 -0.05988605 0.06444712 0.02504095 -0.01897783 0.003494946 0.054017734
-0.036773562 -0.07306203 -0.008532034 -0.07779676 0.006371237 0.006108995 -0.002131675 0.06662107
-0.022368073 0.07691884 -0.040266536 -0.034243003 -0.048613332 -0.004747021 -0.011879821 0.14960594
0.010499725 -0.025827033 -0.050755125 -0.057031453 -0.0505022 0.04828226 -0.024713727 -0.04859142
-0.033996854 -0.014263671 0.09112779 -0.04121003 -0.0064906054 -0.02255524 -0.027625503 -0.014168825
-0.010749485 -0.039168883 0.0026267846 -0.011140729 0.054755524 -0.17372143 -0.031780723 0.008300049
-0.05118363 -0.02128767 0.016847013 0.06919225 -0.012022523 -0.076726675 0.06968916 0.009113216
0.014503337 -0.0055426634 -0.06038691 -0.01335565 -0.013302788 0.023815386 -0.043969847 0.013639883
0.045681957 -0.038553674 0.022393556 0.027046608 -0.13302696 -0.017692152 0.00037551273 -0.0150762815
-0.069292836 -0.04969137 0.024570296 0.03670158 0.005301854 -0.056543563 -0.048223794 -0.071323775
0.061330196 0.035278358 -0.011829117 -0.035311695 0.0036012288 0.0009873089 0.037472114 -0.12986715
-0.06658751 0.12453642 -0.056523226 -0.020669527 -0.033263665 0.014269078 -0.028492171 -0.060292706
0.03300474 0.022420729 -0.06491358 0.032073226 0.014606514 -0.016343718 0.027150605 -0.077563435
-0.0057199583 0.04607682 0.06836396 0.092421494 -0.0471725 0.032696817 -0.02695087 -0.017733965
-0.02010422 -0.015670009 0.13124698 -0.025480215 0.017943513 -0.11343892 0.00404657 0.111045204
-0.047909424 0.0018817012 0.084652096 0.0019562193 0.122276686 -0.024265083 0.008541255 0.017202456
0.052369088 -0.02434865 -0.0124040665 0.052319854 -0.007585881 -0.015295286 -0.0046767322 -0.038831294
-0.019977912 -0.041261032 0.035823878 0.033967447 -0.036583353 -0.04380355 -0.0036511798 -0.046223316
00000000: d2b8 3cbd ac06 7a3d 0e29 273e 7904 63bd
00000010: 4f1f 293d 7e6d dcbc 15ec 2d3d a201 a0bd
00000020: cc8a ac3c f6d3 2bbe 1f0c 9dbd 2aea 783d
00000030: be05 223d 574f 5e3d 11ac 293d c922 c9bc
00000040: baa4 123d 8c06 84bd f18d cc3c cfa9 0cbd
00000050: 58c5 e8ba a64a 2e3c 4a5c 79bd 596f 91bc
00000060: 5662 923d 6b16 a2bd 6414 afbd f66c 823d
00000070: de7e 55bc 8e11 9bbc 2a17 6bbc bcd3 093d
00000080: 8179 61bb 44c0 523d 3fa8 88bc c948 24bd
00000090: 099a 033e 15d4 0f3c 9433 a93d 7252 c43c
000000a0: 76c2 b53c 0774 3abd 41b1 19be 0ff1 34bd
000000b0: 5d21 e8bb 0af0 59bc de2b 45bc 1d21 0f3d
000000c0: 22fd 50bc 387f 98bb fa17 913c 7af5 35bd
000000d0: 8527 993d 49e7 76bd 8fab 17bd 52b9 0e3c
000000e0: fa89 9d3d 808e a83c c158 06be 9f08 eabd
000000f0: d370 e23a b5d1 cdbc 0602 b63c daa6 00bd
00000100: 8dda b3bd 1f8b 1dbb e9c6 183c 20cc b5bc
00000110: 9e4d 67bd 2bc6 1ebd 9581 0b3d 06ee e03c
00000120: c1c3 8b3d 3c6e 983c 6a51 68bc 108f e63c
00000130: 40dc 5abd 0de5 733d 1497 73bd a3d8 13bd
00000140: 28dd 893d fd47 c1bc d3f9 02be e268 c4bc
00000150: 5021 aa3c b5eb 94bc 3ad3 763d a773 1e3c
00000160: 1e4b 85bd 4c59 73bc 1b69 63bd 5cee 373d
00000170: bab7 763d 3489 9abd a234 a9bc a2ac a0bc
00000180: 2025 14bc dda4 f33b 7e20 bdbc a773 07bd
00000190: 279d 88ba 7432 ffbc ffd9 0fbc 4c53 f3bd
000001a0: 7242 5a3c eb14 6fbd 9ae1 553d 4a63 d7bc
000001b0: 137e 32bd cfa9 35bd b014 97bd c3b6 93bc
000001c0: 4263 15be 5b39 9bbd 134b 75bd dafc 833d
000001d0: ae22 cd3c 6577 9bbc 770b 653b b341 5d3d
000001e0: e09f 16bd 8ca1 95bd f2c9 0bbc e853 9fbd
000001f0: cfc5 d03b f72d c83b 92b3 0bbb a170 883d
00000200: 403d b7bc a087 9d3d 86ee 24bd 6442 0cbd
00000210: c61e 47bd e68c 9bbb 95a3 42bc 4d32 193e
00000220: 0a07 2c3c 3793 d3bc 9be4 4fbd d099 69bd
00000230: 65db 4ebd 9ec3 453d 7174 cabc cc07 47bd
00000240: 4940 0bbd 2cb2 69bc 35a1 ba3d d9cb 28bd
00000250: 25af d4bb c4c5 b8bc e14e e2bc 5c24 68bc
00000260: 9c1e 30bc 8d6f 20bd 2226 2c3b 9b87 36bc
00000270: 5447 603d 08e4 31be 812c 02bd eefc 073c
00000280: eda5 51bd 7b63 aebc bf02 8a3c abb4 8d3d
00000290: 1efa 44bc e022 9dbd 31b9 8e3d 994f 153c
000002a0: 689f 6d3c 3b9f b5bb 4458 77bd a8d1 5abc
000002b0: f0f3 59bc 7c18 c33c ba19 34bd d179 5f3c
000002c0: 011d 3b3d 75ea 1dbd b172 b73c d990 dd3c
000002d0: 3838 08be 22ef 90bc 77e0 c439 8202 77bc
000002e0: 67e9 8dbd 2e89 4bbd a547 c93c 6554 163d
000002f0: 2dbb ad3b 399a 67bd 5086 45bd 3312 92bd
00000300: 5f35 7b3d 0a80 103d eace 41bc ffa2 10bd
00000310: 9802 6c3b 9768 813a 5c7c 193d e5fb 04be
00000320: 085f 88bd f30c ff3d e684 67bd 2453 a9bc
00000330: 7b3f 08bd dac8 693c 6a68 e9bc 7cf5 76bd
00000340: fa2f 073d adab b73c 69f1 84bd 375f 033d
00000350: 2950 6f3c 43e3 85bc f26a de3c 94d9 9ebd
00000360: 7d6e bbbb 0cbb 3c3d 6702 8c3d 7b47 bd3d
00000370: f437 41bd 19ed 053d 12c8 dcbc d246 91bc
00000380: 9bb1 a4bc 645e 80bc 9c65 063e e2bb d0bc
00000390: 46fe 923c aa52 e8bd 1799 843b ab6b e33d
000003a0: ac3c 44bd 6aa3 f63a 145e ad3d ea33 003b
000003b0: 336c fa3d 91c7 c6bc 9ff0 0b3c 2aec 8c3c
000003c0: f880 563d d276 c7bc 6d3a 4bbc 584d 563d
000003d0: fb92 f8bb 1499 7abc 463f 99bb 900d 1fbd
000003e0: b8a8 a3bc 5401 29bd 0fbc 123d 7321 0b3d
000003f0: 6dd8 15bd 5a6b 33bd a248 6fbb a954 3dbd

fc3.weight f4 [2, 300]
-0.119234614 -0.29339045 -0.059156265 0.012442161 0.016919484 -0.3665822 -0.2192717 0.11853354
-0.011988315 -0.47234318 0.11710927 0.6525302 -0.19623047 0.17904782 0.013121262 0.010738964
-0.05641533 0.015935674 0.12848997 0.18430148 -0.27709624 0.035791315 -0.05340777 -0.030741496
-0.07117991 -0.010088452 -0.124134794 0.23976287 -0.041040804 0.14391133 -0.002760926 -0.16633841
0.0008679656 -0.041247655 -0.06957128 0.13829476 -0.007840804 0.13335373 -0.14325234 0.72434145
-0.031645034 0.028960513 0.042683296 0.05341592 -0.0034906792 -0.010586905 -0.019765213 -0.036720242
-0.004502858 -0.23816565 -0.009152106 -0.025851946 -0.034128882 -0.0017834867 -0.035012018 0.016882977
-0.19771045 0.034984943 0.48662478 -0.4712623 0.17999795 0.088108234 -0.24759729 0.1422898
0.06822603 -0.07415814 0.01952422 -0.17797725 -0.19559833 -0.04516653 -0.11567912 -0.08409206
-0.0011927941 -0.05788925 0.14010638 -0.04763639 0.011406644 -0.19471407 -0.009387978 0.011134638
-0.09262612 -0.0152452625 -0.44594538 0.12194157 -0.08867694 -0.039260592 -0.0029390734 -0.049006615
0.009751012 -0.035686776 0.14234573 -0.3716408 -0.022203868 -0.2125432 -0.0063539683 0.025312874
0.048348796 0.060787506 -0.027088419 -0.08693294 -0.07325537 0.010333371 0.10142835 0.16964205
-0.01616411 0.0016450888 -0.009365675 -0.21117775 -0.01540235 -0.04498574 -0.34146503 0.008655594
-0.33861345 -0.220032 0.012699353 -0.065985106 0.08350273 -0.031291056 0.021075478 -0.14471568
-0.22857559 0.14710839 0.46167028 0.09080626 -0.0336785 -0.011392252 -0.4859578 -0.09273385
-0.04283665 0.15548961 0.046816655 -0.13529696 0.0061169225 0.08832608 0.20463106 0.1472721
0.0021365788 -0.22347228 0.09736114 -0.009113664 0.0039597084 -0.002277116 0.19056053 -0.010934203
0.047562733 -0.0079296185 -0.023765817 -0.065364756 0.04981872 -0.008438615 -0.0018459884 0.05697801
0.041809328 0.008287356 -0.014439749 0.09349879 0.014601696 -0.516699 0.09438268 0.21609128
-0.102108784 -0.20917653 -0.079889715 -0.00063918775 0.010702079 -0.16012399 -0.037553057 -0.15737443
-0.0031371447 -0.15842496 -0.007870138 0.008210435 -0.24996784 0.01192779 -0.107326366 0.060105782
-0.0139869815 -0.04650539 -0.13548125 -0.01230789 0.018295044 -0.0008577543 0.009144344 0.07833369
-0.3996153 0.011155393 -0.002866739 -0.020419566 0.004911209 0.07421587 -0.15849844 0.07890131
-0.066576496 0.06647846 0.04519941 -0.079235494 -0.037404515 -0.17369093 -0.22462033 -0.18091151
-0.07386862 0.36246306 0.14253362 0.10042023 0.0311529 -0.093459114 -0.039861016 0.0040134573
0.011304287 -0.2025095 -0.3464932 0.10697386 -0.060554814 -0.037980113 -0.12770465 0.009408824
0.026679669 -0.09259562 0.35989365 -0.003053239 -0.06383759 0.18568157 -0.28354478 -0.01279448
-0.39186448 0.09559213 -0.19897953 0.066379756 0.04874923 0.016504887 -0.044417914 -0.24515358
0.006487378 0.046498753 -0.50105935 0.21638316 0.008391195 0.007117899 0.0119359465 -0.00021741443
0.0070457207 -0.012522769 -0.08827949 -0.045545496 -0.11202673 -0.016081622 0.10020925 -0.10065301
-0.37042385 0.09248206 0.0073045306 0.7153763 0.0078011183 0.0022112853 -0.0029235128 0.022970855
00000000: 4731 f4bd 4637 96be d74d 72bd 35da 4b3c
00000010: bb9a 8a3c aab0 bbbe c388 60be b6c1 f23d
00000020: a36a 44bc f7d6 f1be fcd6 ef3d 380c 273f
00000030: a4f0 48be 5058 373e 90fa 563c 7bf2 2f3c
00000040: c313 67bd 888b 823c e092 033e 87b9 3c3e
00000050: 8fdf 8dbe ea99 123d 1bc2 5abd 97d5 fbbc
00000060: c6c6 91bd 094a 25bc 623a febd 6684 753e
00000070: 671a 28bd 7e5d 133e a7f0 34bb 9e54 2abe
00000080: 2f88 633a 4df3 28bd 637b 8ebd 249d 0d3e
00000090: b776 00bc e18d 083e beb0 12be 716e 393f
000000a0: 399e 01bd 993e ed3c aed4 2e3d a7ca 5a3d
000000b0: e1c3 64bb b374 2dbc a8ea a1bc f767 16bd
000000c0: b68c 93bb b2e1 73be b7f2 15bc 76c7 d3bc
000000d0: baca 0bbd e2c3 e9ba c368 0fbd 2b4e 8a3c
000000e0: 9c74 4abe 5f4c 0f3d e226 f93e 4b49 f1be
000000f0: 6251 383e 1772 b43d 258a 7dbe 6bb4 113e
00000100: 17ba 8b3d 39e0 97bd 42f1 9f3c ab3f 36be
00000110: ee4a 48be 8a00 39bd 2de9 ecbd 7538 acbd
00000120: 8757 9cba 471d 6dbd 0c78 0f3e 601e 43bd
00000130: efe2 3a3c 2063 47be 09d0 19bc 0f6e 363c
00000140: c3b2 bdbd 44c7 79bc f452 e4be 80bc f93d
00000150: 419c b5bd b7cf 20bd 789d 40bb 29bb 48bd
00000160: b5c2 1f3c 4c2c 12bd 14c3 113e b447 bebe
00000170: e3e4 b5bc eda4 59be f334 d0bb f25c cf3c
00000180: 6309 463d 52fc 783d 88e8 ddbc e609 b2bd
00000190: e906 96bd 4d4d 293c abb9 cf3d a5b6 2d3e
000001a0: 986a 84bc 05a0 d73a 7d72 19bc fb3e 58be
000001b0: 235a 7cbc f842 38bd 81d4 aebe 31d0 0d3c
000001c0: be5e adbe 1250 61be f210 503c 3323 87bd
000001d0: 7b03 ab3d 0d2b 00bd 7ba6 ac3c 5930 14be
000001e0: b80f 6abe 95a3 163e 0c60 ec3e a2f8 b93d
000001f0: 78f2 09bd 91a6 3abc 76cf f8be 3feb bdbd
00000200: 7c75 2fbd ab38 1f3e d2c2 3f3d 498b 0abe
00000210: 7770 c83b 4ee4 b43d ce8a 513e 7fce 163e
00000220: d805 0c3b ebd5 64be 4765 c73d 7a51 15bc
00000230: 71c0 813b ab3b 15bb 4d22 433e 5f25 33bc
00000240: 24d1 423d 3beb 01bc 88b0 c2bc f5dd 85bd
00000250: b70e 4c3d 1e42 0abc 18f5 f1ba c661 693d
00000260: 4240 2b3d b1c7 073c b294 6cbc 4b7c bf3d
00000270: f43b 6f3c 6346 04bf b54b c13d 0847 5d3e
00000280: 691e d1bd 5f32 56be 389d a3bd 2a8f 27ba
00000290: c657 2f3c 8bf7 23be 3cd1 19bd c326 21be
000002a0: 8e98 4dbb 273a 22be c0f1 00bc 0f85 063c
000002b0: 92f7 7fbe c76c 433c edcd dbbd 7b31 763d
000002c0: a729 65bc 707c 3ebd 99bb 0abe 08a7 49bc
000002d0: 7ddf 953c ebda 60ba 29d2 153c 6a6d a03d
000002e0: 609a ccbe 1cc5 363c e6df 3bbb ef46 a7bc
000002f0: 35ee a03b 7dfe 973d 6a4d 22be 0397 a13d
00000300: 4259 88bd dc25 883d 0423 393d 3846 a2bd
00000310: 7a35 19bd 09dc 31be df02 66be de40 39be
00000320: 6e48 97bd c294 b93e 55f4 113e 1fa9 cd3d
00000330: 5e34 ff3c 7e67 bfbd 4e45 23bd 5283 833b
00000340: 9e35 393c a65e 4fbe 8f67 b1be 1c15 db3d
00000350: 5308 78bd 0991 1bbd 02c5 02be 7827 1a3c
00000360: 528f da3c c6a2 bdbd fb43 b83e da18 48bb
00000370: 48bd 82bd 4f23 3e3e c82c 91be f09f 51bc
00000380: 76a2 c8be cfc5 c33d 4ac1 4bbe 1cf2 873d
00000390: 46ad 473d 4235 873c 8fef 35bd 8a09 7bbe
000003a0: 1294 d43b 7a75 3e3d 6d45 00bf 8c93 5d3e
000003b0: 397b 093c 443d e93b fd8e 433c bef9 63b9
000003c0: cadf e63b 4d2c 4dbc e1cb b4bd ea8d 3abd
000003d0: 456e e5bd 9bbd 83bc 823a cd3d 2a23 cebd
000003e0: 32a8 bdbe 3c67 bd3d d85a ef3b e722 373f
000003f0: 86a0 ff3b 36eb 103b 6898 3fbb 602d bc3c

fc3.bias f4 [2]
-0.055646196 -0.06503868
00000000: 44ed 63bd 0033 85bd
