Tennis/Nets/checkpoint_actor1500.pth (torch_old, 525671 bytes, 10 tensors)

bn1.weight f4 [24]
00000000: bc90 2d3f d3a8 2b3f b637 483f 4f4d 2e3f
00000010: b551 813f 5a7d 593f b360 163f 8389 813e
00000020: 3a5c 323f 5d41 da3e 9ca4 373f edec 293f
00000030: fe64 363f 1ce0 9b3f 585c 2c3f 6692 563f
00000040: 3d1b 523f 6d7f 113f 464b 113f b4bb 8e3f
00000050: 1540 d03e d1b9 763f b256 383f ed6f 783f
0.6779897 0.6705448 0.7821001 0.68086714 1.010306 0.84956896 0.587413 0.25300226
0.69671977 0.42627993 0.7173555 0.66377145 0.7124785 1.2177768 0.67328405 0.83817136
0.8207281 0.5683506 0.56755483 1.1151032 0.4067389 0.96377283 0.72007287 0.97045785

bn1.bias f4 [24]
00000000: 03f7 7cbd c7ce 533d e9f9 ce3d 546c 523d
00000010: 8867 abbb f703 2e3d b81b b13d 17f3 8d3c
00000020: a7d2 efbd b7fc a53d 48c0 ae3b 0d95 c7bd
00000030: cb02 b9bc 7686 513c 4505 eabb a5db a9bd
00000040: 447b ba3d ae9b 273e e446 c93d 6288 51bd
00000050: b430 f83c a553 3cbd 72c3 d53d fa82 d6bd
-0.061759006 0.05171087 0.1010626 0.05137284 -0.0052308477 0.04248425 0.08647865 0.017327828
-0.117101006 0.08104842 0.0053329803 -0.09745226 -0.02258434 0.012788406 -0.0071417415 -0.08293847
0.09105542 0.16367981 0.098279744 -0.051155455 0.030296661 -0.045978207 0.10437669 -0.104742005

bn1.running_mean f4 [24]
00000000: 919d a9c0 32f6 33bf c776 9f40 5fda f53e
00000010: 3d65 803c 71c1 4a40 c776 9f40 5fda f53e
00000020: f99d b5c0 a993 3cbf 7f90 ad40 b783 023f
00000030: 65a0 b53c bebe 4b40 7f90 ad40 b783 023f
00000040: 0356 c1c0 28c7 43bf 3d22 b940 523e 113f
00000050: 2de2 b43c 734f 4a40 3d22 b940 523e 113f
-5.300484 -0.7029754 4.983249 0.48018166 0.015673274 3.1680567 4.983249 0.48018166
-5.675534 -0.7366281 5.4238887 0.5098223 0.022171209 3.183517 5.4238887 0.5098223
-6.0417495 -0.76475763 5.7854295 0.5673572 0.022080505 3.1610992 5.7854295 0.5673572

bn1.running_var f4 [24]
00000000: 9221 9141 1478 843f c44d ad43 e672 f940
00000010: 67b2 3042 4ae4 9840 c44d ad43 e672 f940
00000020: e215 8b41 6259 873f 9f63 b643 fae3 0f41
00000030: 5f32 4442 6c5c a240 9f63 b643 fae3 0f41
00000040: 3e31 8241 f604 8a3f ffe1 c243 295c 2141
00000050: 997b 5942 c23b b940 ffe1 c243 295c 2141
18.141392 1.0349145 346.60754 7.7952757 44.17422 4.7778673 346.60754 7.7952757
17.385685 1.0574152 364.7783 8.993158 49.04919 5.073782 364.7783 8.993158
16.274044 1.0782764 389.7656 10.085 54.3707 5.7885447 389.7656 10.085

fc1.weight f4 [400, 24]
00000000: 6545 5e3c 7cef 1abe bdcb 16bd fc7e 843c
00000010: 74b5 1abd 537a a33e d3e0 b4bc 0b6e 97bd
00000020: 6987 fb3b 125e eabd 2731 d63d bffb 113d
00000030: 3b6f a5bd e25e ba3e 7549 103d c81a 513c
00000040: 1908 56bc be95 1abe ef27 bebd 9a6b d9bd
00000050: 739b 75bd 87e3 af3e 8714 8bbc a43d 03be
00000060: 3879 9fbb 9123 34be 0f77 9a3d 1d6d 45bd
00000070: 24d4 81be 4bf0 9c3e 5a8b 0c3d 37a7 08bc
00000080: 232b 833d 5920 a2bc a529 1bbe 01ac 193e
00000090: 7526 96be 9d8a b03e 5176 3ebe a64a 333e
000000a0: 2815 dc3d 3e3c 6e3d 16c5 fe3c 9cd8 873e
000000b0: 9fa4 35be 7f24 b03e 6b8a 70b8 1b10 323e
000000c0: 031b c1bd 9119 8dbe 5a99 c93c 18df 3fbd
000000d0: 3ca0 9f3e 7315 373e 71f5 133c 11ce d3bd
000000e0: 7718 a1bd 920e 90be 762e 29be 6c43 213e
000000f0: 2e12 823e dfc5 be3d d63c 62be ab15 0e3e
00000100: 91f7 50be a5ec e0bd 0270 aebd 01e5 d13d
00000110: 30bf 5e3e d8a2 1dbd 6d6e 07be 5fd2 383e
00000120: 6f1b 0ebe 7b70 513e fe23 6cbe 1a22 213e
00000130: 2ed0 c23b 72f4 703e 0257 6abe d00b 503e
00000140: 91a4 243d c236 303e 1016 4b3e 9fd8 c43b
00000150: 3f97 88bd 49aa 003e 2079 713e 52b7 ec3c
00000160: 26a5 883d 7365 503e 761f d9bc 60c4 c4bd
00000170: 0344 87be b7e3 133e 7961 ae3c 61ce dcbd
00000180: a093 15be b89e 923e 15cd 8d3d 0146 b2bc
00000190: eff5 a63d 860f 9f3e 6bc2 c93d 8f78 073a
000001a0: 4fbd babd cf72 ab3e fc1b ba3d fb39 9dbd
000001b0: 5ad5 313d af29 903e 853a 173e d363 a3bd
000001c0: 0cf8 15be a43c b23e 3a3e 7abe 1dcc 03bd
000001d0: 343e f1ba c94e 7b3e 5647 87be c5fd 8dbd
000001e0: 3d08 f1bd eeb6 2d3d b1e7 cf3c 2e19 363d
000001f0: 8202 5f3e 9453 a53e 9c79 853d 0bf7 d5bd
00000200: a6b8 29be c4a7 903d f1c6 c4bd 3cfa 96bc
00000210: 8020 363e e5f6 5f3e 008a d1bd 0974 d1bc
00000220: ceaf 8bbd 7258 b43d 7f85 2e3e 475d 0f3e
00000230: 2790 493d bede 593d da4c 3a3e ebea bb3d
00000240: 35f9 223e 9ecb 19be 026b 73bd fd1f 9c3d
00000250: 088b be3e b401 2fbe 6ef5 acbd 7f1b ac3c
00000260: 7e0d 7e3e 36a2 25be 0764 c33e 2ffc ad3d
00000270: 48e6 973e 62c8 0ebe 9f4c be3e c2ff f93d
00000280: fe6a 6d3e e55e b9bd 1b80 233e e579 b7bd
00000290: d8cb fb3d 941e 6bbe 0d69 043e 27a5 0abe
000002a0: f556 02bc 2420 64bd cb79 dc3d ecbb ebba
000002b0: 9d3f fe3c 5a20 3d3e 139f 2a3e 75c4 b83d
000002c0: 9fa0 ba3b 61b6 f5bd 824a 69bd d04d 793d
000002d0: e1cb a13b 3422 853e 32e2 37bd f32b 243d
000002e0: f427 09be 1fdc 03be f30c a8be 20f8 6d3d
000002f0: b2c2 283d 2d4b 213e 4b1e 93be e4de 233d
00000300: c815 cfbd 9553 6a3e 7619 70bd 1093 e03d
00000310: 8413 c13d 4504 1c3e af9b babd 5164 3f3e
00000320: 612c 63bd ae94 893e 8482 3dbe d42b 623d
00000330: 3832 863d 109f 573c 9867 efbd 0ef0 c73d
00000340: 16d2 a5bd aded 493e 9007 063e 973c 12be
00000350: 6158 843d 6ef2 d7bd a0ee bf3d 2260 b4bd
00000360: c5e7 083d 308d ffbd 85ef a93c 8eaa 80bd
00000370: 8e36 d3bd ffc8 3d3e 8675 acb9 4bd2 66bc
00000380: 6203 ae3d fa83 36be 6f10 cc3d 820d 3e3d
00000390: 6ed3 68bd 11bc 433e 1cfb b93d e29c c83c
000003a0: aa83 883c 9324 f5bd 9c61 e33c 560a a73d
000003b0: 436b eabc 5e72 ab3e a56b ab3d f520 8d3c
000003c0: 410f 9ebc b6cb 5f3d d0c6 fbbc 3fc5 c13c
000003d0: b4b9 13bc e4ea 09be 8bd0 b3bd 107c a9bd
000003e0: cf14 95bd 0077 0d3e a7c2 babd da38 073e
000003f0: e855 44bd 3368 80be 0885 62bd 6d20 173e
0.01356635 -0.15130419 -0.036815394 0.016173832 -0.037770703 0.31929263 -0.02207986 -0.07394036
0.0076760543 -0.11443724 0.10458594 0.035640474 -0.08077856 0.36400515 0.035226304 0.012762733
-0.013063454 -0.15096185 -0.092849605 -0.106162265 -0.0599627 0.34353277 -0.016977562 -0.12816483
-0.0048667453 -0.17591693 0.0754224 -0.04819976 -0.25357163 0.3065208 0.034312584 -0.008340648
0.06404712 -0.019790815 -0.15152605 0.1500702 -0.29326215 0.34480754 -0.18599822 0.17508945
0.10746223 0.05816292 0.031099837 0.26532447 -0.17738579 0.34402844 -5.734937e-05 0.17388956
-0.0942898 -0.27558568 0.024609257 -0.04684362 0.31176937 0.17879276 0.009030686 -0.103420384
-0.078659944 -0.28136116 -0.1652163 0.15748376 0.25404495 0.09315085 -0.2209352 0.13875453
-0.20406939 -0.10982636 -0.085174575 0.10248757 0.2175262 -0.038485378 -0.13225718 0.18049
-0.13877653 0.20453064 -0.23060605 0.15735665 0.005945227 0.23530748 -0.22884753 0.20317006
0.040196005 0.17208388 0.19832635 0.0060072686 -0.06669473 0.12564959 0.23581362 0.028896008
0.066721246 0.203512 -0.02650426 -0.09607768 -0.26419076 0.14442335 0.021286713 -0.10781551
-0.14607096 0.28636718 0.06923882 -0.021761896 0.08152377 0.3106653 0.098515354 0.0005167806
-0.09118139 0.3348603 0.09087369 -0.076770745 0.04341636 0.28156802 0.14768417 -0.07978024
-0.14645404 0.3481189 -0.244378 -0.03217708 -0.0018405379 0.24541773 -0.26421613 -0.06933168
-0.117691495 0.042410783 0.025379034 0.044457607 0.217783 0.32290328 0.06517336 -0.1044751
-0.16574344 0.07063249 -0.096082576 -0.018429868 0.17785835 0.21871527 -0.102313995 -0.025568025
-0.068206415 0.08805932 0.17043112 0.14000426 0.04920974 0.05319094 0.18193379 0.091756664
0.15915377 -0.1501908 -0.059428222 0.07623289 0.37215447 -0.17090493 -0.084452495 0.021009205
0.24809834 -0.1617516 0.38162252 0.08495366 0.29667878 -0.13943627 0.37167832 0.12206985
0.23185346 -0.09051303 0.15966837 -0.089587964 0.122947395 -0.22960883 0.12930699 -0.13539563
-0.0079553025 -0.055694714 0.10765418 -0.0017985082 0.031036193 0.18469372 0.16662244 0.09021846
0.005695417 -0.11997677 -0.05695582 0.060865223 0.0049376343 0.26002657 -0.04489345 0.040080976
-0.13394147 -0.12876938 -0.3282238 0.05809796 0.0412013 0.15751334 -0.2873405 0.040007487
-0.10111576 0.22883447 -0.05861803 0.1096555 0.094275504 0.15236004 -0.091117255 0.18690611
-0.055462245 0.26871246 -0.18506819 0.05521758 0.06552547 0.013160482 -0.11689681 0.09762584
-0.08096711 0.19719572 0.13088822 -0.14280926 0.064621694 -0.10544287 0.09371686 -0.088073984
0.033424158 -0.12478101 0.020744095 -0.06282531 -0.1031314 0.18533705 -0.00032893958 -0.014088224
0.08496739 -0.17823783 0.09964072 0.0463996 -0.05684226 0.1911471 0.090810984 0.02448887
0.016664345 -0.119698666 0.027756505 0.08156268 -0.0286156 0.33485693 0.08370141 0.01722763
-0.019294383 0.054637633 -0.03073445 0.023653625 -0.009016443 -0.1346851 -0.08780011 -0.08275616
-0.072793595 0.13814926 -0.09119158 0.13205281 -0.04793349 -0.25079498 -0.05530265 0.14758463

fc1.bias f4 [400]
00000000: c36e 483d 012a 8bbd fbed c03c da07 33be
00000010: c30e 08be 7a60 a23c c415 c9bd c110 973d
00000020: f63a 76bd 5d10 eb3d 5cb8 4dbe bb77 6b3e
00000030: 129d 2b3e d215 3bbe 3dc9 efbd 01ba 5bbd
00000040: 3bf4 6e3d eab9 62be a148 b43d 6a21 3b3e
00000050: 68d3 b8bd bc07 dd3c d653 453d fb48 123e
00000060: 75b0 793d 3781 cc3d 5e9c 093e 54c3 173e
00000070: ad3d d2bd 3945 1dbe e839 8c3d 918e 553d
00000080: ce02 e0bd d0d6 42be bede d33d 551f f0bd
00000090: 1e83 b83d bc40 a0be 66fb 1dbe e76e 563c
000000a0: d4d6 df3d eda0 143d 3b10 503d c307 31bc
000000b0: 02de 073d 7a4a 3a3e 6dc1 f23c bbf1 d03d
000000c0: 9e43 4eba 31d2 063e c974 08be 2e8b 04be
000000d0: a7b8 c6bd 2ebd 8f3d e09b 72bd 63fc 293e
000000e0: 1e21 533e 7ae5 1cbe 04ed 18bc 7519 0a3e
000000f0: e8d3 9cbe c9a5 9b3d 925c 3d3c ae62 15be
00000100: bf99 4cbe e451 f33d cd50 b9bd 3e74 223d
00000110: c5d0 e23d 375f e03c aa07 a63d c335 9a3d
00000120: 4aa8 d2ba 1199 d73d a743 703c fc41 86be
00000130: 9188 f93d 5eb3 d9bd a636 a2bd 8c53 43be
00000140: 2db0 d33d c104 d33c eb82 f03d 6da5 4c3e
00000150: 5b5d 91be 5503 ad3c 6f28 63bd ae50 a4be
00000160: 41a8 c83c b41b 993d ecd0 1dbe 1610 8abe
00000170: d9bd 0abd 4343 103d 4b50 1cbe 9ee2 99bc
00000180: e6e5 40bc dcb2 d0bd 5cc3 6cbe 402f 0ebe
00000190: da85 29be a072 40be 8291 e13c cbd5 ecbd
000001a0: 067c 76bb 2924 823c f1f5 c23d 1c74 47bc
000001b0: 4b98 b9bd d894 073d c03b 803d 9b1f 353d
000001c0: 1c9c 123e 6deb a8bd afd4 5dbd 177e fd3c
000001d0: ba5e 3a3d c607 9dbe aed5 78bd 55e3 15be
000001e0: 4b0d 5fbe 9d28 993c ca51 7dbe bac2 8b3d
000001f0: e2cf fdbd 1567 23be 0689 d83d 5ab3 afbc
00000200: 2a45 60bc fc16 acbe 36d6 3cbe 5d24 85bd
00000210: 0027 013d 5cbc debd f0ff 603b b14d 45be
00000220: 5c37 543d 0066 f23c eca8 47be 2a1f ecbd
00000230: ec6e ff3c c35d a33c b652 24be 0ec6 5bbe
00000240: 9843 0f3d e227 453e d281 fdbd 1c53 c13c
00000250: 4ebd 3d3d 5fb8 c238 566d 5cbe e404 ecbd
00000260: e139 33bd 068e 883b 5a9e 9ebe b7fc 81be
00000270: 3ea1 913d 3ad5 493d a7f7 43be 7514 20be
00000280: 21d8 0c3e e2cb 4b3e 6f08 b5bd 858e f6bd
00000290: a280 31be 766b efbd 35f2 ef3d 629b 23be
000002a0: 7b97 09bd c160 ddbb d758 5ebd 4c32 52bd
000002b0: cd1d 01be 3693 9ebd afe9 6fbd 5177 353d
000002c0: 8971 e1bc e8b4 89bd 3c12 153e 41ec 023e
000002d0: 15c1 9c3d fdb2 32be 532e e73d b46b 313d
000002e0: 5901 5e3e f0a8 bc3d 2951 833c ece5 1fbe
000002f0: e637 ee3d 7fae 88bd 8aac ddbd 3c2e 23be
00000300: 2fff 12be 89b8 893d 531b 0fbe 1eda db3d
00000310: 76ab c93d 62f6 bf3d 582b 12be d048 f4bd
00000320: 31ce 9e3d d80f 69bd 80be 88bd 3244 d9bd
00000330: 1c2e d3bb 61b8 52be b73d e4bd 4ba6 5ebe
00000340: aa52 41be 0eb5 403e ba50 c13d abfd 043e
00000350: 0893 b4bd b888 4fbe dd17 0f3e b022 ec3d
00000360: 33b4 2d3e fc70 8fbd dc0f fcbc 158f fcbd
00000370: 4d1f 3c3e 991c 453e c36a 183d 45d7 133e
00000380: 02f7 d0bc 8e42 2bbe 96b0 c4bd 6f4e 0dbe
00000390: 3a36 24be fb18 fabc b568 e43d f0a4 5bbd
000003a0: 5314 90bd 7db4 59bd e2e6 42be 0948 d4bb
000003b0: c8a9 003d be0e d9bd 0455 043e e330 333e
000003c0: d621 513d eb84 2cbe 3fa0 9dbc dc3f 23bc
000003d0: 2df3 533e cd4f 15be c522 343d b23f 93bc
000003e0: 082d 46be 77f4 aa3d 9096 da3d a473 e1bb
000003f0: 3747 203e 0711 c13d 9bb4 4f3d 8065 3dbe
0.048933756 -0.06795121 0.023550978 -0.17483464 -0.13286881 0.019821394 -0.098186046 0.073762424
-0.060114823 0.114777304 -0.20089859 0.22994892 0.16759136 -0.18270043 -0.11708305 -0.053644184
0.058338385 -0.22141233 0.08802915 0.18274465 -0.090246975 0.026981227 0.048175655 0.14285652
0.0609593 0.09985583 0.13438556 0.14820606 -0.1026567 -0.15358438 0.06846982 0.052137915
-0.10938035 -0.19027257 0.10345219 -0.11724726 0.090093836 -0.31299388 -0.15427932 0.013087965
0.10929647 0.036286283 0.05079673 -0.010805073 0.033170708 0.18192473 0.029633248 0.102023564
-0.0007868352 0.13166119 -0.133258 -0.12943718 -0.097031884 0.07018505 -0.059230685 0.16600184
0.20618102 -0.15321913 -0.009333853 0.13486274 -0.30630422 0.075999804 0.011557715 -0.14588425
-0.19980524 0.11880854 -0.09048615 0.03966164 0.11074976 0.027389152 0.081069306 0.075297855
-0.0016071883 0.10527242 0.014664567 -0.26222217 0.12184251 -0.10629915 -0.079205796 -0.1907484
0.10336337 0.025759103 0.117437206 0.1998498 -0.28391537 0.021119753 -0.055458482 -0.32092804
0.024494292 0.07475987 -0.15411729 -0.26965398 -0.03387246 0.035220396 -0.15265004 -0.018784817
-0.011773562 -0.10190365 -0.23121399 -0.13885212 -0.16554967 -0.18793726 0.027535204 -0.11564215
-0.0037610545 0.015886383 0.09519566 -0.012173679 -0.09062251 0.033100933 0.062613964 0.044219594
0.14317364 -0.08248029 -0.05415791 0.030943913 0.045500495 -0.30669993 -0.060750656 -0.14637502
-0.21782415 0.018696124 -0.24738231 0.068242505 -0.12393166 -0.15957291 0.1057301 -0.021447826
-0.013688365 -0.33611286 -0.1844109 -0.06501076 0.031531334 -0.108757704 0.0034332238 -0.19267918
0.051810607 0.029589653 -0.19498032 -0.115293816 0.031180821 0.01994217 -0.16047177 -0.2146227
0.03497657 0.19253495 -0.12378277 0.0235992 0.046323113 9.284983e-05 -0.21526083 -0.1152437
-0.04375637 0.004167321 -0.30980188 -0.2538812 0.07110833 0.049275614 -0.1913744 -0.15632804
0.13754322 0.19901994 -0.08839499 -0.12038902 -0.17334226 -0.116904184 0.11716119 -0.15977243
-0.03359173 -0.0067559187 -0.054283943 -0.051317498 -0.12609024 -0.07742922 -0.058572467 0.044303242
-0.027519958 -0.06723958 0.14557737 0.12785436 0.07654015 -0.17451091 0.112881325 0.043315604
0.21680202 0.0921191 0.016029911 -0.15615052 0.116317555 -0.066739075 -0.10823925 -0.15935606
-0.14355157 0.067246504 -0.13975267 0.10734962 0.09847157 0.09373166 -0.14274347 -0.119279504
0.07754172 -0.056899875 -0.0667696 -0.1060871 -0.0064447057 -0.20578147 -0.11144584 -0.21743123
-0.1887919 0.18819067 0.094392255 0.12987392 -0.088171065 -0.20266998 0.13973947 0.115300536
0.16963272 -0.07003972 -0.030769281 -0.12331978 0.18371315 0.1924919 0.03721119 0.14437588
-0.025508408 -0.16724607 -0.096039936 -0.13799451 -0.16036311 -0.03052949 0.11152784 -0.053624094
-0.070351265 -0.053150643 -0.19033387 -0.006478314 0.031411916 -0.10598515 0.12923056 0.17499118
0.05105766 -0.16847579 -0.01924145 -0.009963956 0.20698233 -0.14581223 0.04397847 -0.017974708
-0.19353116 0.08347409 0.10673249 -0.0068802405 0.15652166 0.09427076 0.05070935 -0.1849575

fc2.weight f4 [300, 400]
00000000: 8086 87bd c9ab e33c 4e2b 94be 7c3e ffbd
00000010: 7780 df3d 3433 a0bc 2486 2bbe 3c00 96bd
00000020: a468 5ebe 93f7 73bd 5ca6 7bbd a857 7fbc
00000030: 4329 603e 6d09 c23c 8c50 84be e89f 923c
00000040: ca80 26bc b252 aabc 5e94 bbbc bea4 cc3c
00000050: 1167 49be 519d cd3c 8d8f 14bd 0330 883c
00000060: ee8c 873b b4e6 6bbe bc4a 65bd d732 59be
00000070: e4e9 66bd c368 2dbe 5c6a a63d c2fe 04be
00000080: b41a ae3d 3bb6 c1bd 18d2 38bd 21b9 19bd
00000090: 38b2 ca3d 367a d7bc 3d57 16be 2c35 0c3e
000000a0: f257 033e 70da b33d a7c1 9fbd 448a d0bc
000000b0: e09d 19bf 396b 79bb fc6a c7bd 1cf5 e7bd
000000c0: 40ec 3c3e b714 3abd cbc0 a83d 7cd0 173e
000000d0: c6e4 65bc fa07 02bc 4326 c0be 6391 273e
000000e0: 6d0b 603d a9a9 6fbe 2a09 f63d f680 aebd
000000f0: c32e 653d 5104 973d f791 80be 0428 453e
00000100: 4e30 de3c ad70 0ebc 49b4 833e 405f 043e
00000110: 2e25 363b 9ea2 a03c 1466 d13d 0d0f e1bd
00000120: ac90 3cbd 3485 a9bd bc42 32be 1151 4abe
00000130: 3666 4cbd 2297 a13d 1546 a0be 64ff 9a3d
00000140: 7e55 a03c d482 1cbd 4532 153e 9971 853d
00000150: 2dc9 1dbe a65c 82bd b2d5 b4bd b1f4 743d
00000160: 3f3f c13d bfa4 273d 4d30 ca3d 27ec 7dbc
00000170: 4130 d7be 15d8 23be 4148 57be dc38 1abe
00000180: 68a2 f2bc dbf0 abbe 7f53 98be 7462 9cbd
00000190: 7026 893d 075f 61be 63a6 1fbd c0c7 67be
000001a0: ee7a edbc c0c4 eebd 3cc3 0bbd 1db7 96bd
000001b0: ae3e bf3d 9836 4c3e 1604 453e 9a15 d83b
000001c0: d70e 1abd 5825 9cbe 79d9 b3bc 4237 dc3d
000001d0: d228 363d d7e6 843e b498 8d3c caac 54be
000001e0: 66e2 b0be c64b a7bd adff e9be 773c 1bbd
000001f0: 9e3c 30bd 4c79 0d3e 5b1c c9ba 6ad1 12bd
00000200: 1350 0cbd c8d4 65bd 2461 91be b4b9 243e
00000210: f2fc 8ebd a233 efbc f787 d1bd 15a6 45be
00000220: f6dd 7b3d e3c7 ae39 903a 5bbe e99f 00be
00000230: 5e99 b7bd eee8 e0bd 1f29 c73d 5628 9cbe
00000240: 7257 0dbe 08cf 593d 43bb b03d aa24 553d
00000250: b5b6 c43d 82ca b8be 4078 86bd c513 073e
00000260: 5312 b33d 01f8 97bd 556f 39be 9f63 973e
00000270: 20cb 74be 9c58 9b3d 2392 873d 03c1 003e
00000280: c7de d8bd ecf4 e7bc 3192 993c fb5c 4ebd
00000290: 3933 b3bc 8dcb 8f3b eb62 6e3d 735a 0bbe
000002a0: ae8e afbd 1ea6 c0bd 5a56 e63d 477c a7be
000002b0: b6be 023e d1bd 49bd 5005 893d 71d3 38be
000002c0: 14c0 7ebc 0398 cebd f49e 5a3e cee9 d3bd
000002d0: f912 43be 53bf b7bd 00d3 f53d e769 343d
000002e0: a754 dabd 8040 e9bd 03f9 30be 1f2d adbd
000002f0: 6ab2 73bd acb5 c1bd 787c 87be 6660 1abe
00000300: 4e9b b0be 9a68 be3d 311d bcbd 5503 b13d
00000310: e783 acbd 7f83 22bd c480 f1be 468e 803d
00000320: 6096 533d ee57 15bd b3f1 13be 0479 0ebe
00000330: 620e 2f3e 559c 87be 6366 a9be a5ac e3be
00000340: c5f1 103e 4b12 963d f15a 1abe 3728 51bd
00000350: da29 67bd cd08 0abf c205 093d c36b 1c3e
00000360: 7356 dfbc a099 4bbd 7d7a b03d d003 d5bd
00000370: 3b30 c8bb b6f8 293c c37e 503c 6a56 9fbd
00000380: 848f 7ebd 3304 57bd 7955 ea3d a342 ba3d
00000390: b0e3 0bbe a2bf 963d 1cd6 e2bd efcb e5be
000003a0: 824d db3d 340a 883d 558c b6bd 3f58 81be
000003b0: 9d06 e33d e09a b53d 20a3 b7bc 0bde 673d
000003c0: b3a7 a4bc 7119 3cbe 31fd cbbe 3ab0 493e
000003d0: 49f3 b3bd 46f5 44be 8ff9 2cbc 2316 a7be
000003e0: 479a 85be fae0 eebd 8f60 1c3e 1141 59bd
000003f0: 298e 6dbb 4c3b 02be 1bdb b2be 9d1f db3d
-0.06617451 0.027791874 -0.2893929 -0.1246309 0.109131746 -0.019555666 -0.1675039 -0.073242635
-0.21719605 -0.059562277 -0.06143795 -0.015584864 0.2189074 0.023686135 -0.25842702 0.017898515
-0.010162542 -0.020791385 -0.022897895 0.024980899 -0.19668223 0.025099428 -0.036269713 0.016624456
0.004136673 -0.23037225 -0.055979475 -0.212108 -0.0563754 -0.16934495 0.08125755 -0.12987807
0.08501187 -0.09458586 -0.045122236 -0.03753007 0.09897274 -0.026303392 -0.14681716 0.13692158
0.12826517 0.08781898 -0.07800608 -0.025456555 -0.60006523 -0.0038058294 -0.097372025 -0.11326048
0.18449497 -0.04542991 0.08239897 0.14825624 -0.014031595 -0.007936472 -0.3752919 0.16364054
0.054698396 -0.23404564 0.12013467 -0.08520691 0.0559528 0.0737387 -0.25111362 0.19253546
0.027122643 -0.008693856 0.25723484 0.1292696 0.0027793157 0.019608792 0.10224548 -0.10989199
-0.046036407 -0.082773596 -0.1740827 -0.19757487 -0.049902163 0.078901544 -0.31303468 0.07568243
0.019572016 -0.038210705 0.14569958 0.06515808 -0.15408774 -0.063653275 -0.08829822 0.05980367
0.09435891 0.0409286 0.09872494 -0.015498198 -0.42029002 -0.16000398 -0.21023656 -0.15060753
-0.029618457 -0.33582196 -0.29751202 -0.07635966 0.066967845 -0.22008906 -0.038977038 -0.22634792
-0.028989282 -0.11658621 -0.034121737 -0.07359145 0.09338127 0.19942701 0.1923984 0.006594372
-0.03761181 -0.3049724 -0.021954285 0.10752727 0.044472523 0.25957367 0.017284729 -0.20769039
-0.34547728 -0.081687495 -0.45702878 -0.03789946 -0.04302656 0.13815802 -0.0015343534 -0.035844244
-0.034256052 -0.056111127 -0.28394425 0.16086465 -0.06981839 -0.029199425 -0.10231011 -0.19301637
0.061490975 0.00033336793 -0.21409059 -0.12561001 -0.08964799 -0.10981928 0.0972464 -0.30499524
-0.13802889 0.053175956 0.08629467 0.05203692 0.09605161 -0.36092 -0.065659046 0.13191135
0.087437294 -0.0742035 -0.18108876 0.29568192 -0.23905611 0.0758526 0.0661967 0.12573628
-0.105893664 -0.02831503 0.018746467 -0.05038164 -0.02187501 0.004388279 0.058199804 -0.13608722
-0.08572136 -0.09406684 0.11246939 -0.32712004 0.12768063 -0.04925329 0.066904664 -0.18049408
-0.015548725 -0.10087588 0.21349698 -0.10347329 -0.19050206 -0.08972039 0.12003136 0.04404631
-0.106606774 -0.113892555 -0.1728249 -0.08455872 -0.05949632 -0.09458479 -0.2646215 -0.15075836
-0.34493488 0.09297295 -0.09185255 0.08643214 -0.08423596 -0.039676186 -0.47168553 0.062771365
0.05165708 -0.03646081 -0.1444767 -0.13913351 0.1709533 -0.2648646 -0.33085927 -0.44467655
0.14154728 0.07327708 -0.15073754 -0.051063742 -0.056436397 -0.5391968 0.033452757 0.15275483
-0.027262902 -0.049707055 0.08617113 -0.10401118 -0.006109265 0.010374239 0.012725535 -0.07780154
-0.062148586 -0.05249424 0.11442084 0.09094741 -0.13661075 0.0736077 -0.11075994 -0.4488215
0.10708143 0.06642571 -0.08913485 -0.2526264 0.11085246 0.08867431 -0.022416651 0.05660824
-0.020099496 -0.1836908 -0.39841607 0.19696131 -0.08786637 -0.1923419 -0.010557546 -0.32634076
-0.26094267 -0.116640046 0.15271209 -0.053040568 -0.0036248064 -0.12717932 -0.3493279 0.10699389

fc2.bias f4 [300]
00000000: eef3 e4bb 09a6 973d 2310 c9bc b2c6 013d
00000010: 3e03 7b3d eefd 00bc b7ca 0b3d 970f 84bd
00000020: 5940 913d 8597 a7bc a20f babd e6e6 d53b
00000030: 9961 823c c3a9 a3bd 6c61 3e3d 6835 83bd
00000040: 15fd 4bbc 2f5d 41bd ca40 db3c 538e 9d3c
00000050: e580 d03c aa43 333d f8d7 39bd 2a18 cfbc
00000060: 7e23 aa3d c093 7a3c e189 32bd 8a0e a7bb
00000070: 04c1 c93c 4081 44bd 6407 9fbc 1bd7 80bd
00000080: fddc 94bd 037d 973d 7f4c 85bd 97cd 183d
00000090: 572a 6f3d 4038 593d cb0a 7dbc 61cb aabd
000000a0: 1b10 b8bd fe5e 40bd 95da 42bd 8b75 69bc
000000b0: 3794 39bd 8e49 373c f28d 0ebc 5868 ea3c
000000c0: 8c2e 88bc a4ef 6ebc 4628 443c 3752 a83c
000000d0: 15fc 33bd b07c 71bd 3e88 4cbd 46a1 8bbd
000000e0: b7e4 a13d c469 3b3d f245 56bb da7d 893d
000000f0: b98b 2f3d 3221 4e3c 7a09 703d 8b81 85bc
00000100: b948 34bc 31e4 22bd 1b03 47bc 9dea ce3c
00000110: 08de 7dbd c922 8cbc e53a bcbb afe8 c5bc
00000120: 107a 06bd f178 c1bc 56cc 2f3d 409e 8c3c
00000130: e437 77bd e1e3 493c 613f 4ebd 9d53 7c3c
00000140: 9cb4 c63d 819c e13c 27ac 82bd 683d a7bb
00000150: f8ef c9bc 83df dabc 66c3 1d3d b2e2 523d
00000160: d5f3 34bb d344 0a3d fc1b 7dbd ecd5 8bbc
00000170: 818d ac3a 277c 25bd 7799 d63b d6d0 17bd
00000180: 9812 af3d 6f6e d7bc e7ca c63c 131f a8bd
00000190: c2d9 8b3d a4dc e2bc 2e35 bbbc caa5 bebb
000001a0: d6cf fc3c 7f82 073d 2e56 fc3d 0e04 59bc
000001b0: 2538 0ebc 065e da3b a56b 9dbd 9235 39bd
000001c0: 6a41 1e3d de1d bb3d 1bf6 e7bc 36dd e63d
000001d0: 594f a13d e0e1 10bd d7ca b0bb c435 ebbd
000001e0: 5564 81bb 7ed9 a43d 258e 20be 8af9 7c3d
000001f0: c18c 803c d9e7 1c3b 84af 633d 5ee0 923d
00000200: 246f 293a e91b 863c c88e a33b d860 93bc
00000210: 7e3f 71bd 2992 0b3d ffbd 45bd e60f 443d
00000220: f469 923d 3ba7 72bd b533 523d 19e2 cb3c
00000230: 67f6 adbb 0bd3 12bd d6e2 f83c 6297 403b
00000240: c657 13bd 6f00 adbc f317 b63d ae0a 9cbc
00000250: ab6e f8bc 0786 da3c 08b8 a2bd 6344 ac3c
00000260: f662 c33b b703 84bd a067 f93c e384 9c3c
00000270: 645c d83d 04ef a1bb b7fb 2abd 5e34 0d3d
00000280: 354e 263d 79f9 943c 9dc8 223d ed26 10bc
00000290: b09e cb3d 93b8 bbbd a110 103d 796b 933c
000002a0: 13c2 073e 5319 973d 786d 81bd f890 453d
000002b0: d783 0d3e 7f03 0fbd fbf9 2cbd 02a7 133c
000002c0: 633c 2e3d 3daa f6bb 809d de39 605f 853d
000002d0: 718d 0a3d 51a7 563d aa2d d53d e432 a9bd
000002e0: 4166 8bbd f3ff 29bd 94b2 243d b045 643d
000002f0: 5590 e6bc 8bde 57b9 f194 0d3d 17fc 463c
00000300: cfc1 343d 6e9b 9f3b c69a 1cbd 823c 13be
00000310: 77cf f4bc 3ce2 38bd fd94 573d 953a 39bd
00000320: e080 bdbb 8179 4abd e424 b63c 80da 70bc
00000330: 8529 adbc ee79 62bd 1961 80bc 8b1f d43d
00000340: f1df 353d 00ac 103d d651 653d f970 a03d
00000350: d2f5 c83d 26ce a13d 9369 973d 5d28 5fbc
00000360: 5e5c 293a cc02 2abd 8124 e2bd c1be 873d
00000370: 8c6b bf3d 2f23 b43d 192c 93bd 7d24 963d
00000380: 1d31 10bb 082c 963a 0ad9 afbc 73f9 3ebd
00000390: 300d c53c fa9f de3c d012 b9bc 3b4a 5f3c
000003a0: 37ed d0bc 39d5 523d 6ba9 493c c036 c13c
000003b0: 7bd8 ae3d 9990 513d b6d1 51bd 7e93 313c
000003c0: 82ee 61bd e2c4 6dbd 3c0d 233d ba48 42bd
000003d0: 317b 39bd 945f 9ebc d5fa 9d3d 67fd 4d3c
000003e0: 25e3 85bc 4052 f23c fa93 fa3d f5e3 e23c
000003f0: 1589 fe3c 15e5 7a3d 02df c73c 0736 0bbe
-0.0069870865 0.074047156 -0.024543827 0.03168363 0.06128239 -0.007873042 0.03412887 -0.06448286
0.070923515 -0.020457992 -0.09085013 0.0065277694 0.015915679 -0.07991364 0.046479627 -0.06406671
-0.012450476 -0.047208007 0.026764292 0.019232905 0.025452087 0.0437657 -0.04537198 -0.025280077
0.08307551 0.015294015 -0.043588523 -0.0050981687 0.02462817 -0.047974825 -0.019412704 -0.06291028
-0.07268713 0.07396891 -0.06508731 0.03730544 0.058389988 0.05303216 -0.015444468 -0.08339573
-0.08987447 -0.04696559 -0.047571737 -0.014249216 -0.045307364 0.01118697 -0.008700835 0.028614208
-0.016623758 -0.014583502 0.011972493 0.020547016 -0.043941576 -0.058956802 -0.04993462 -0.0681787
0.07904952 0.045755163 -0.00326955 0.067134574 0.04285786 0.012581157 0.058602788 -0.016297122
-0.011003667 -0.0397684 -0.0121467365 0.025258357 -0.061979324 -0.01710643 -0.0057443255 -0.024158804
-0.03283125 -0.02361724 0.04291948 0.017165303 -0.060356036 0.012322397 -0.05035341 0.015400794
0.09702417 0.027540447 -0.06380492 -0.0051037557 -0.024650559 -0.026717907 0.038516425 0.051485725
-0.0027611156 0.033757042 -0.061794266 -0.01706978 0.001316473 -0.040401604 0.006549056 -0.037064396
0.08548468 -0.026297776 0.024266673 -0.08209052 0.068286434 -0.0276931 -0.022852506 -0.0058181034
0.030860823 0.033083435 0.12321125 -0.013245596 -0.008680378 0.0066640405 -0.07686547 -0.045217104
0.038636602 0.09136556 -0.028315594 0.112726614 0.078764625 -0.03537166 -0.005395274 -0.11484864
-0.003948728 0.08049296 -0.15679224 0.061761416 0.015692117 0.0023941903 0.055587307 0.07171701
0.00064633996 0.01637073 0.004991386 -0.017990515 -0.05889844 0.034074936 -0.048276898 0.047866724
0.07149115 -0.059241515 0.051318843 0.024888085 -0.0053089145 -0.035845798 0.030381601 0.0029387106
-0.03597238 -0.02111837 0.08891287 -0.019048061 -0.030326208 0.026675237 -0.079452574 0.021028703
0.005962725 -0.06446021 0.03044492 0.019106334 0.10564497 -0.004941823 -0.04174396 0.03447377
0.040601928 0.018185364 0.0397421 -0.008798343 0.099423766 -0.09166064 0.03517211 0.017995583
0.13257627 0.07377877 -0.06319708 0.048233956 0.13819824 -0.034915444 -0.042230587 0.009011986
0.042538058 -0.007527618 0.00042460486 0.06512332 0.033826295 0.05240566 0.104091 -0.0826166
-0.06806613 -0.041503858 0.040209368 0.05573052 -0.028144995 -0.00020586902 0.03456587 0.012145064
0.044130143 0.0048708236 -0.03823354 -0.1437855 -0.029884083 -0.04513763 0.05263232 -0.045221884
-0.0057831854 -0.04943228 0.022234388 -0.014700532 -0.021137962 -0.055292062 -0.0156713 0.10357579
0.04440302 0.035320282 0.055986248 0.07834048 0.098125115 0.07900648 0.073931836 -0.013620463
0.0006460602 -0.041506574 -0.11042119 0.0662818 0.09346685 0.08795773 -0.07186145 0.07331178
-0.002200193 0.0011457214 -0.021465797 -0.046624612 0.02405414 0.027175892 -0.022591978 0.013628538
-0.025503738 0.051472876 0.012308459 0.023585677 0.08537384 0.05116329 -0.051225387 0.0108383875
-0.0551591 -0.05804909 0.039807543 -0.04743264 -0.0452835 -0.019332685 0.07713858 0.012572623
-0.016343663 0.029580235 0.122352555 0.027696589 0.031071225 0.061253626 0.02439833 -0.13594829

fc3.weight f4 [2, 300]
00000000: bd1d 59bd 3612 fbbe 427b bdbc 265a 95be
00000010: 6ff9 e3bd 90b4 81be a5ee b0bb 5f29 46be
00000020: c005 133e 26e3 103d 01c9 1ebd 322e afbc
00000030: 3c77 f03b 29d3 0d3e 72f4 cdbe 8f40 85be
00000040: a18f 06bd 4a74 debc 74ef 853d f7bd 59be
00000050: c2a4 1fbe 9c27 18be 1bc1 dbbe 15d3 f33b
00000060: 1536 f3bd ce16 d1be 08d4 46bc fb6a b83d
00000070: 2860 6ebe d96b ebbc 7d2d 0fbc adb0 a63e
00000080: 0b4c f3bb e67e 82be f13e 5cbd 7972 cbbc
00000090: 9fd1 03be 8cc4 b1be a668 8abc cbdc 7ebc
000000a0: a2cb 993e d6f2 e1bd e470 5b3d c236 2abd
000000b0: 4b0f 523e ac5d 11be 7821 febc cea5 96bc
000000c0: 0b81 b3be 0138 163e 1f64 3bba 6cfb c83d
000000d0: b377 f43d 1df5 dbbc 8761 06bd a69c 8cbd
000000e0: 2f69 d4be b697 8abc 52d5 f23b 924f 98be
000000f0: b117 3abd 3729 83bd 98d8 45be c8a7 d2be
00000100: 5fc8 8cbe db0f a8bc 52ac 4a3c 8cec 07bd
00000110: 2b52 58bc e2a4 913d 1769 7abe 8eee 38bc
00000120: b514 783e 3bed 3d3b f1b9 bebe 42b9 0bbe
00000130: 6dc2 133d 8e68 893c 3348 79be 4d70 28be
00000140: 514c 4c3d 7fc9 16bf bc4c 913e aebf edbc
00000150: 58d4 093d f65a 383e 3315 dabe 9fe8 40bf
00000160: 1c4f 15be 9518 19be be08 003c 3965 6ebc
00000170: ac21 63be db56 c2bc 868e 54bd 709c 053d
00000180: 8199 c2be b353 08bb c6d4 033e f57b dabd
00000190: caf0 28bc 5879 47bb 4eab c0bc 004d a9bc
000001a0: 35c7 0fbe 4c20 4bbe ff40 3f3d 49a1 aebe
000001b0: 6a37 adbd 6a7a 92bd ac07 45bf a930 1abd
000001c0: 1ee5 e7be e75d 47be 1abc b03d 9ed8 a53d
000001d0: 3e0b 3abe 5c80 87bd 5a0a 9abc 696f 49be
000001e0: edfb d7bc 7268 2ebc 7295 2d3f 5ede 35bf
000001f0: 96e1 4bbd 4f9a 2c3e 062b 31bd 5142 4abf
00000200: b0ac d9be a9eb 003e e26f 583d 9e75 04bf
00000210: 0321 df3c 4b12 dcbe 263f 62be aff0 133e
00000220: a453 6abe 57b5 62bc 4e79 38bf dda5 303d
00000230: 5678 c63d 4ed2 b5bd 639b 2d3e efed 73bd
00000240: 261e a4bb 4a13 1d3d 9043 34be c56c da3c
00000250: 5a26 043d 85d1 49be a37e 35bf d67e e7be
00000260: ffb8 53ba f79b c53b 48f7 5cbe 4dc7 7bbe
00000270: 9e87 55bf 63dd 933e 67f8 2bbc e24e 94be
00000280: 8643 54bf ca8e d4bc 02b3 ac3e 1d97 64bc
00000290: 9602 e6be d4d2 c3be 5af9 03bd 8adc c3bc
000002a0: 51aa 7fbe cc78 573c 50b7 a8be 152f 20bb
000002b0: 8af2 8abd 7c40 38bd db9c d1bc 466a 31bd
000002c0: ae23 373d 5001 9abc 6aa5 83bb 944b 77bd
000002d0: b9b8 453d e485 59bd f28b 4e3e f971 77be
000002e0: 968b 2dbb 76d8 1e3e c68c e43d a4ab b5bd
000002f0: aee3 74bc cea7 13be a04e 17bd 04d2 a3bb
00000300: 5586 723d 7299 973c b139 6abd 4ac3 9dbe
00000310: ca75 9bbd b521 23be 7ff7 73be ddfb d3be
00000320: 0574 79be 551b e63d 89cb d7bd 9cbb b0bc
00000330: a92b 813d c9fb 06bf 7b0b bb3d e047 d8bd
00000340: 9732 a5be 7951 2dbf 7c24 bebe 8041 b33c
00000350: b143 bebd a00e ca3c 2e52 3b3c 01e9 8cbc
00000360: 70c0 9b3d b462 e93d cb31 b9be 295f 67bd
00000370: f50d 7abf 9654 a0be 2c53 c8bd 8310 98be
00000380: 1751 c33d 225d 92bc a433 d2be 2548 54be
00000390: 0242 8abe 0c0b 8bbe f65d f3bc 03f7 9dbc
000003a0: 2b68 fbbc ddde c7be c74c bcbc 14fd 063d
000003b0: 3f26 2a3d 2a64 74bf f2d1 4abd 09d0 10be
000003c0: b8df de3b 4c9d ae3d d4e3 e7be 879e 4abd
000003d0: 6078 6b3d 3060 483e b7db bc3c 3c00 61bd
000003e0: 3d62 97be 8434 0c3e 6b39 8ebf c6b0 383e
000003f0: 5c79 69be d4f1 23be ea9d b9be 0025 24bf
-0.053006876 -0.4903733 -0.023130063 -0.2917034 -0.1113156 -0.2533307 -0.0053995424 -0.1935172
0.14357662 0.035372876 -0.03876591 -0.021384332 0.0073384326 0.13850082 -0.4022556 -0.26025817
-0.03285182 -0.02715506 0.06539813 -0.21263872 -0.15590194 -0.1485886 -0.42920765 0.0074409344
-0.1187555 -0.4083771 -0.012135513 0.0900478 -0.23278868 -0.02873795 -0.008738873 0.32556668
-0.0074248365 -0.2548744 -0.053770963 -0.024834858 -0.12872933 -0.34720266 -0.016895603 -0.015555571
0.30038172 -0.110326454 0.053574458 -0.041556127 0.20513646 -0.14195889 -0.031021819 -0.018389609
-0.3505939 0.14669801 -0.0007148403 0.0981358 0.11936893 -0.026850278 -0.032807853 -0.06865816
-0.414865 -0.016918045 0.0074106837 -0.29748207 -0.04543275 -0.064043455 -0.19320905 -0.41143632
-0.2749662 -0.020515373 0.012370186 -0.033184573 -0.013203184 0.07111527 -0.24454151 -0.011287345
0.24226649 0.0028980512 -0.37251237 -0.13644889 0.03607409 0.016773488 -0.24343948 -0.1644909
0.04987747 -0.5890121 0.28378856 -0.029022064 0.033649772 0.18003449 -0.425943 -0.7535495
-0.14580959 -0.14950784 0.007814584 -0.014550501 -0.22180814 -0.023723057 -0.051893733 0.032619894
-0.3800774 -0.0020801842 0.12874135 -0.10668174 -0.010311315 -0.0030437317 -0.023519184 -0.0206666
-0.14040835 -0.19836539 0.046692844 -0.34107426 -0.08457835 -0.07152255 -0.7696483 -0.037644062
-0.4529199 -0.19469415 0.086296275 0.08097957 -0.18168351 -0.066162795 -0.018803764 -0.19671406
-0.026365245 -0.010645019 0.6780616 -0.7104243 -0.049775682 0.16855739 -0.04325392 -0.7900744
-0.42514563 0.12589897 0.052841075 -0.5174197 0.02723742 -0.42982706 -0.22094402 0.14447282
-0.22883469 -0.01383718 -0.72060096 0.04312693 0.09690921 -0.08878003 0.16953807 -0.059553083
-0.005008477 0.038348474 -0.17603898 0.026663193 0.032263137 -0.19708832 -0.7089636 -0.45213956
-0.0008076578 0.0060305553 -0.21578705 -0.24587746 -0.8341006 0.28879842 -0.010496235 -0.28966433
-0.8291553 -0.025946993 0.33730322 -0.013952044 -0.44923848 -0.38246787 -0.032220222 -0.023908872
-0.24967314 0.013151359 -0.32952356 -0.0024442126 -0.06784542 -0.044983372 -0.02558749 -0.04331424
0.04471176 -0.018799454 -0.0040175216 -0.06037481 0.04827187 -0.053106204 0.20170572 -0.24164571
-0.0026480905 0.15512261 0.11159663 -0.088706285 -0.014946861 -0.14419481 -0.036940217 -0.004999401
0.05921014 0.018505786 -0.057183925 -0.30813056 -0.07590826 -0.15930827 -0.23824881 -0.41403094
-0.24360664 0.11235682 -0.10536868 -0.021573834 0.06307156 -0.52727944 0.09133049 -0.10560584
-0.3226516 -0.6770244 -0.3713721 0.021881819 -0.09290255 0.024665177 0.011433167 -0.017200949
0.07605064 0.11395779 -0.36170802 -0.056487236 -0.97677547 -0.31314534 -0.09781489 -0.29700097
0.09536951 -0.017866675 -0.41055024 -0.20730646 -0.27003485 -0.27156866 -0.02970789 -0.019282823
-0.03068932 -0.3903722 -0.022985829 0.032956198 0.04154038 -0.9546534 -0.049516626 -0.14141859
0.0068015717 0.08526096 -0.45291007 -0.04946759 0.057487845 0.19567943 0.023053987 -0.054931864
-0.29567137 0.13691908 -1.1111273 0.18036184 -0.22800201 -0.16010219 -0.3625329 -0.6411896

fc3.bias f4 [2]
00000000: 6546 d8ba 7fec acbc
-0.0016500471 -0.021108864
