Tennis/Nets/checkpoint_actor1900.pth (torch_old, 525671 bytes, 10 tensors)

bn1.weight f4 [24]
00000000: 00df 243f 6ddd 243f a7de 303f 9ebb 373f
00000010: 0407 823f 95b9 473f fb0d 003f fd1a 963e
00000020: 59c3 243f ec06 d13e cd2d 213f e2c1 1e3f
00000030: bfba 3c3f 5ccf 923f bdb8 173f a521 483f
00000040: 8437 623f 36dd 123f 39c7 093f 5b5e 8b3f
00000050: ff2d 0f3f 22d5 813f f31c 313f 4368 763f
0.6440277 0.6440037 0.6908974 0.71770656 1.0158391 0.7801755 0.5002133 0.29317465
0.64360577 0.40825593 0.6296051 0.6201459 0.7372245 1.1469531 0.59266263 0.7817634
0.8836596 0.5736879 0.53819615 1.088817 0.5592956 1.0143168 0.691848 0.9625284

bn1.bias f4 [24]
00000000: 6698 a2bd e2f4 d63d 6832 e43d 2d29 c43d
00000010: 4d68 ca3d de6d 183d ae9e bf3d 9592 903d
00000020: fafa 19be 5390 473e 0094 1a3d afa5 d9bd
00000030: 21d1 843d 05e9 973b 3115 813c 491a cabd
00000040: f59c aa3d e9b2 813e 4b6a d33d 6937 3abd
00000050: 5977 cc3d 9502 68bd 0cf8 e93d 9d96 cfbd
-0.07939224 0.104959264 0.11142427 0.09578166 0.09883175 0.037214153 0.093564376 0.07059208
-0.15037146 0.19488649 0.0377388 -0.10627305 0.06485201 0.0046359324 0.015757175 -0.09868295
0.083307184 0.2533181 0.10323008 -0.045463 0.09983701 -0.056643087 0.11424264 -0.10136149

bn1.running_mean f4 [24]
00000000: 590b b5c0 526c 27bf 4b5d 9140 e623 a63e
00000010: ddb8 fb3c 0074 4840 4b5d 9140 e623 a63e
00000020: 6025 bec0 89bf 2dbf b9dc 8d40 2728 b23e
00000030: df21 0a3d 1b4c 4940 b9dc 8d40 2728 b23e
00000040: baef c5c0 1bdf 31bf 899d 9b40 482b cc3e
00000050: 7777 be3c 7460 4740 899d 9b40 482b cc3e
-5.657635 -0.6539966 4.5426383 0.32449263 0.030727798 3.13208 4.5426383 0.32449263
-5.9420624 -0.67870384 4.4331937 0.3479626 0.03372371 3.14527 4.4331937 0.3479626
-6.1855135 -0.69481057 4.8629804 0.3987677 0.023250325 3.115262 4.8629804 0.3987677

bn1.running_var f4 [24]
00000000: 62d0 8741 59a0 823f a9ed b443 039f 1d41
00000010: 0711 1a42 9914 8040 a9ed b443 039f 1d41
00000020: 574a 8041 14c9 843f fd26 c043 2dd3 2b41
00000030: f2d5 2842 d915 8640 fd26 c043 2dd3 2b41
00000040: 09bb 7341 f127 873f c921 c743 306b 3841
00000050: adb9 3842 979a 9540 c921 c743 306b 3841
16.97675 1.0205184 361.85672 9.851321 38.51663 4.0025144 361.85672 9.851321
16.036299 1.0373864 384.3046 10.739057 42.20893 4.190167 384.3046 10.739057
15.233163 1.0559064 398.26395 11.526169 46.181324 4.675121 398.26395 11.526169

fc1.weight f4 [400, 24]
00000000: 7e80 cfbc faae 21be ab22 7ebd 415b 723b
00000010: e226 903c f694 953e 67bc 42bd 8d69 b4bd
00000020: 48bf 433b aa63 00be c39b 8a3d 3d16 e03d
00000030: 4497 b1bd cdeb bd3e d99b a4b8 5694 ab3d
00000040: 3984 aabd b5f5 20be 6702 5abe d14f 75bd
00000050: 6e1d 1cbe 3bc1 df3e 00f1 0bbe 0b72 98bd
00000060: f08e 693d fae4 4dbe ac07 8b3d 0228 d3bd
00000070: ce5a c3be f96b 923e 99f0 dc3c 87d5 85bd
00000080: 0a33 233e 1374 38bd 26a3 acbd a4a1 863d
00000090: 4e5c 91be 83e7 9c3e 8ec4 f1bd 06c0 b23d
000000a0: f78e 403e e9a5 f13c 441f f53c 9b36 5d3e
000000b0: 47bf d1bd a5bc ab3e 902b 63ba b22c 013e
000000c0: 1db9 09be 24e2 59be d5f6 373c 8623 943d
000000d0: afc7 c63e 3a36 683e 0e5c 85bb 3658 623c
000000e0: b979 e0bd 1c4f 32be 4b10 0ebe 0455 de3d
000000f0: ae0d b93e b1de 8b3c 7026 48be d121 bb3d
00000100: f6a6 87be 3628 333c 1a1e 15be 083d be3d
00000110: 0212 c03e 2059 32be ac2a 46be 5bfb 2d3e
00000120: 4c20 8cbe 072f 063e dc02 89be 4756 b73b
00000130: 8bfc 2bbe d43c e63e b496 88be 44b9 5c3d
00000140: fd03 e5bd 62d9 893d 0d5f 753d bbb9 17be
00000150: 91c0 dcbd dd61 4d3e 28d0 cc3d fbea 04be
00000160: 1729 d8bd 8318 653d 2735 d23c 116d 43be
00000170: ee34 56be eccc 3e3e 5640 9a3d 0499 4bbe
00000180: a9e0 adbd afe5 af3e d7c8 873d da5b 88bd
00000190: 1f5b 8fbc 6104 d53e ab62 c33d 9631 1fbd
000001a0: 4f10 35bd 4a54 c73e d354 083e 3593 ccbd
000001b0: 0393 053d ecad 833e 3cff 423e ff0b d0bd
000001c0: bf10 39be fa7d c63e f497 9bbe fa45 dabd
000001d0: 6897 3f3d 910c e13d 8dd1 a5be 7bd8 10be
000001e0: 0fea 68bd 1bf9 d8bc cf9f bf3d 44cc 44bd
000001f0: 5738 0e3e 55ff f23e d714 0a3e 3b17 3cbe
00000200: a8fd 27be b516 f83c 5185 ddbc 1374 a73c
00000210: 6edb 3c3e 8c0a 983e 4aa1 1abd 6cc2 913c
00000220: 3a79 98bd 4896 8c3d 7d69 073e 17df b73d
00000230: 5796 023e 3b19 3f3d 2998 0f3e dcfd 003d
00000240: 8fd3 e33d 3f8f 89be 3d70 bd3c 3011 953d
00000250: efbc 843e cef5 febd 177e a23a a299 3f3c
00000260: ebbb 4b3e 30c3 76be 43d9 9c3e 4772 e43d
00000270: ff09 513e 8458 c2bd 3e09 9b3e 8658 133e
00000280: 92ad 563e 9da4 28be bf14 493e b09c 5abd
00000290: 3391 3b3e ce9b 6abe 900f 2f3e 9ddb c6bd
000002a0: c972 3abd 68b6 67bd 7843 163e d9da fc3d
000002b0: dc04 373e 23c5 313e dac9 513e ac3d 523e
000002c0: 188b 16bd ba04 edbd da50 78bd 0587 ce3d
000002d0: 8bbc 9b3d 551c 913e 6160 40bd 9c88 a33d
000002e0: 0a38 60be ed5c 03be cdca b5be 77c7 d13d
000002f0: 5a93 6f3d 3a11 3d3e c0ad a0be 0974 ae3d
00000300: 9d77 963c 34aa 8a3e 9f03 003c f733 823d
00000310: 66c6 f83d fdbd 683e 0bfd ddbc e380 0d3e
00000320: b14d 953a 82e0 853e 28be 43be ff94 883d
00000330: 7a3f 383e 88e9 d03c 0a80 f8bd 7e46 db3d
00000340: a85c e7bc 1d11 2b3e 9ba3 363e 7dbf 20be
00000350: 7ea4 833e bc03 34be e8b6 123e cb22 cabd
00000360: 8ebb f53c 383e 99bd 87e1 d4bc 2fdc ca3c
00000370: 1993 96bd 2521 5e3e 0333 3fbd 233e 893d
00000380: ecf5 a43d 0026 11be 45cc fc3c 8389 0d3d
00000390: 5f54 a5bd 495e 7d3e 2ee3 ba3c f37a 4b3c
000003a0: bc12 3abc 7744 eabd ce29 67bd d1c5 1a3d
000003b0: 04df f6bd 7f5c ce3e 2cb7 ca38 3d92 c3bc
000003c0: c62d 02bd cdd8 de3d c1ae 34bd 4d66 ed3d
000003d0: 8b5a 97bb e0e9 53bd 2217 d2bd fa30 6d3b
000003e0: 5efa cabd 209c 1f3e db44 ffbd 5c55 213d
000003f0: 3e97 c6bc 7015 4cbe 6b4d afbd feb0 573d
-0.025329825 -0.15789405 -0.06204478 0.003698066 0.017596666 0.2921521 -0.047542956 -0.08809195
0.0029868651 -0.12538019 0.067679904 0.109417416 -0.0867143 0.37093964 -7.849158e-05 0.08377902
-0.08326001 -0.1571873 -0.21289979 -0.059890572 -0.15245602 0.4370211 -0.13666153 -0.07443627
0.05702108 -0.20106879 0.06788573 -0.10310365 -0.38155216 0.28598002 0.026970195 -0.06534868
0.15937439 -0.045032572 -0.084295556 0.06573799 -0.28390735 0.3064538 -0.11805068 0.08728032
0.18804537 0.029498057 0.029922135 0.21602862 -0.102415614 0.33542362 -0.0008665854 0.12614706
-0.13449521 -0.21277672 0.011228283 0.07233338 0.38824221 0.22676936 -0.0040698117 0.013814976
-0.10960717 -0.1741299 -0.13873403 0.10856059 0.3614325 0.017073961 -0.19545913 0.09137309
-0.2649457 0.01093488 -0.14562264 0.092889845 0.3751374 -0.17416811 -0.19352216 0.16990416
-0.2736839 0.13103877 -0.26759994 0.005595002 -0.16795556 0.44968283 -0.26677477 0.05388762
-0.11182401 0.067309156 0.0599051 -0.14816944 -0.107789166 0.20056863 0.1000064 -0.12980263
-0.10554712 0.05593158 0.02566011 -0.19084574 -0.20918629 0.18632859 0.07531802 -0.1988259
-0.08490116 0.34354922 0.06630104 -0.06658144 -0.017499505 0.41604903 0.09540304 -0.03886565
-0.044205006 0.38931495 0.13313608 -0.09989015 0.032610904 0.2571863 0.19042677 -0.10158538
-0.18072794 0.38767987 -0.3038937 -0.10657878 0.04677525 0.10988725 -0.32386437 -0.14145081
-0.05686384 -0.02648597 0.09356653 -0.048046365 0.1388868 0.47460428 0.13484512 -0.18368237
-0.16405356 0.030284265 -0.02704111 0.02044109 0.18443081 0.29695547 -0.037751473 0.017792903
-0.07444997 0.068646014 0.13223834 0.08978098 0.12752663 0.04665492 0.14022888 0.0314921
0.11124336 -0.268671 0.023124808 0.07278669 0.25925395 -0.12449227 0.0012397197 0.011694344
0.19895904 -0.24097896 0.30634508 0.11154609 0.2041397 -0.09489539 0.3028049 0.14389238
0.2096465 -0.16469045 0.1963682 -0.053372085 0.18317108 -0.22910997 0.1709578 -0.09709857
-0.045519624 -0.05657044 0.14674175 0.123464294 0.17872947 0.17360358 0.20487157 0.20531338
-0.036753744 -0.11573167 -0.06062398 0.10084347 0.07604321 0.28341928 -0.046966914 0.079850405
-0.21896377 -0.12828417 -0.35506287 0.10243123 0.058490135 0.18463603 -0.3138256 0.08518226
0.018367583 0.2708298 0.007813363 0.06357568 0.121472165 0.22728725 -0.0270982 0.13818698
0.0011390952 0.26147848 -0.19115508 0.06669044 0.17992964 0.025501981 -0.121337965 0.10706805
-0.028242424 0.16705747 0.17835848 -0.15698047 0.25711435 -0.1757955 0.14327586 -0.098699175
0.02999666 -0.074825704 -0.025986446 0.024763195 -0.073522754 0.21692331 -0.046679508 0.06701305
0.080547184 -0.14174652 0.030859122 0.03455497 -0.08072733 0.24742998 0.022813406 0.01241945
-0.011357006 -0.1143884 -0.056436352 0.03778631 -0.120542556 0.40304944 9.666229e-05 -0.023873443
-0.031781934 0.10881195 -0.04411197 0.11591778 -0.004618948 -0.051736712 -0.102583185 0.0036192522
-0.09911035 0.155869 -0.12464305 0.039388046 -0.02424204 -0.19930053 -0.08559688 0.052659027

fc1.bias f4 [400]
00000000: 6162 adbc 49bf 9abd 0aa4 013d 1346 7abe
00000010: 366c fcbd a669 0a3e ff9f 02be f730 3e3d
00000020: 48fe 13be 687d 7b3d fe14 6ebe 9b0f 263e
00000030: a78a 4f3e a80a 10be 6c1b 63be 1d70 1abe
00000040: 4202 3d3d 1144 2fbe f6d4 b13d 2779 1e3e
00000050: 574c d2bd 9b19 aa3b f72f 103d 0247 f13d
00000060: 731c e73c 16c6 1b3e be43 093e 1abe 383e
00000070: 23c8 53be 2ce1 20be 846a 54bc d4f7 043d
00000080: 4c99 eabd 23a9 7abe fd6f cf3d 9f1a b1bd
00000090: ce04 423d 42ae f3be 9c10 f3bd e65d 54bd
000000a0: 7619 b73d 1ee7 5bbc cbf8 633d 6e54 84bd
000000b0: 0ce7 b53d 44b8 423e 73f8 69bc cc1b 053e
000000c0: bde4 83bd 5131 253e 31ac 34be c32d 8cbe
000000d0: f106 dfbd 0800 34bd c4e6 13be 18f3 6f3e
000000e0: 6850 253e 50b0 24be 6913 043d 92ec f13d
000000f0: 2e60 82be 14af d7bb db18 97bd 7059 1ebe
00000100: bf99 4cbe bda1 e13d 2da1 16be 3484 ae3d
00000110: fc56 a0ba 91a1 803c 8f7a 9dbc caf3 d93c
00000120: 4aa7 e6bd cae0 f13d ed83 aebd 790c 8cbe
00000130: 7958 253e f17a 1fbe d728 8ebd 3ead a4be
00000140: f3bd 2d3d e6d7 863c 7c02 e03d 517b d73d
00000150: d1a6 96be 10a3 dcbc 4a3a 17bd ee45 9dbe
00000160: 9d7b 8bbb f2d7 2b3d 869c dbbd 2d9b 8fbe
00000170: 84d8 1dbe f0fe 7f3d da48 cebd da78 afbd
00000180: f6c4 e5bd a2ab 6abe 590a a5be e44e 40be
00000190: dd9a 85be c95b 6abe d7d2 30ba d55a a5bd
000001a0: 1fa5 5fbd a154 efbc 432b ad3d b682 5c3d
000001b0: d720 f5bd 712b d3bd f804 b03d 0fa3 efbb
000001c0: 5070 243d 16d9 eabd f6b0 44bd 5827 9fbb
000001d0: 4581 8c3d d107 c0be 9d41 abbc e022 34be
000001e0: f837 91be e8f0 d93c b847 78be b3f0 e4bc
000001f0: c939 94be d3d4 32be 5637 943d 92a1 9a3c
00000200: 69a0 c0bd a6ce b9be 39ea 5fbe 59bb 2bbe
00000210: 1dc7 2b3c 3856 1abe cc5a 57bc f7de 60be
00000220: f1ad afba 7e27 913c 9f84 01be cbe6 e1bd
00000230: 265c 343c c4ad 9c3b 3804 4fbe c463 87be
00000240: fa76 7d3c 605d 0a3e bbd6 3bbe 86b7 4bbd
00000250: 5cd9 2f3b 3b28 923c 737c 8cbe 2bd5 dcbd
00000260: 200c c2bd 6418 1cbd 73f5 d1be a492 84be
00000270: 6125 343d 7104 a9bc a4d1 d7bd 26ca 06be
00000280: 5c66 193e aeec 4d3e f846 7ebc 4839 a0bd
00000290: a280 31be 2152 66be 35e5 df3d d274 6abe
000002a0: cf6b 02bd ed4c d8bc 762b 2fbd 390f 2dbe
000002b0: 7712 4dbe c5fe f4bd ef66 e3bd bfc5 c33c
000002c0: 6931 9dbd 8267 98bd 93a7 383d 02c3 4abd
000002d0: 0294 b13d 7d72 81be 34fc 2a3e a88d 8fba
000002e0: 9f79 693e 22d7 d73d 58d6 923c b53a 71be
000002f0: 1ecd 4a3d c2c2 4ebe 2cb0 47be ccb4 57be
00000300: 2f5e 7abe 261e 393c 0903 53be 621e 7d3c
00000310: a28d cb3c 2918 263d 3bf7 03be 3e87 06be
00000320: 19d5 0e3d dd19 b6bb efaa d5bd b492 27be
00000330: 0cad aabc 3eb8 7fbe b70a ebbd 2320 96be
00000340: a8ce 6cbe 706f 8f3d 083f b43c 4e6a c23d
00000350: a93b 4cbe 61bf 47be ed46 283e 201b e5bc
00000360: f20a 3d3e 3d46 ffbd 718a 96bd 66ec 2bbe
00000370: bb3c 2c3e 8156 4a3e cb66 7c3d 3f8a 233e
00000380: c66e 8fbd 8e42 2bbe 4fe8 c0bd 65fc 2bbe
00000390: 739f 6ebe 635b 8dbc 1bd0 713d 426c c7bd
000003a0: 49f4 22be 913e a6bc 27da 69be 1f97 a7bb
000003b0: d7f3 4d3b e08e 5cbe 2a3b 263d 9312 003e
000003c0: 28d5 67bd 04ad 54be 0a9d 8cbc a5e7 53bd
000003d0: ceba 5c3e e42c 24be 8797 543c 2d8a 5c3d
000003e0: c2c4 58be 01a0 f03d 7a8b 033d 8c30 42bd
000003f0: fdfa e43d 1bb0 a43d 2e83 633d c6b1 85be
-0.021165075 -0.07556016 0.03165058 -0.24440794 -0.12325327 0.13516864 -0.12756346 0.046433415
-0.1445247 0.061398894 -0.23250195 0.1621689 0.20267735 -0.14066565 -0.2217843 -0.1508183
0.04614473 -0.17115809 0.08683197 0.15475903 -0.10268467 0.0051910407 0.035201993 0.11781122
0.028211808 0.15212283 0.13404748 0.18041268 -0.20681815 -0.15710896 -0.012964848 0.03246291
-0.1145502 -0.24478583 0.10128782 -0.08647656 0.047367863 -0.47593886 -0.11868402 -0.05184736
0.08940403 -0.013421802 0.05565719 -0.06461416 0.08881959 0.19015604 -0.014280426 0.12998885
-0.06440113 0.16132094 -0.17643811 -0.27378663 -0.10889996 -0.043945342 -0.14443499 0.23432577
0.16143954 -0.16082883 0.032245073 0.118127 -0.25464004 -0.0065821502 -0.07377788 -0.15463805
-0.19980524 0.11017177 -0.14709921 0.085213095 -0.0012232955 0.01570204 -0.01922348 0.026605505
-0.112623766 0.11810453 -0.085212566 -0.27353266 0.16147031 -0.15574242 -0.06941383 -0.32163423
0.042417478 0.01646037 0.10937974 0.105215676 -0.29424146 -0.026933223 -0.036920823 -0.30717415
-0.004256679 0.04195399 -0.10723214 -0.28048077 -0.15414625 0.062498987 -0.10072489 -0.085679725
-0.11219208 -0.22917035 -0.32234457 -0.18780094 -0.26094714 -0.22886576 -0.0006745285 -0.080739655
-0.05460083 -0.029215159 0.08455517 0.053835593 -0.11969154 -0.1031102 0.08594698 -0.0073131393
0.040146172 -0.11467187 -0.048020326 -0.004856985 0.06860594 -0.37505963 -0.02090531 -0.17591429
-0.28363013 0.02660413 -0.24246109 -0.027946806 -0.28950337 -0.17463998 0.07237117 0.01887587
-0.09405596 -0.36290473 -0.21866693 -0.16770686 0.010484484 -0.15071952 -0.013144206 -0.21960054
-0.0013403279 0.017719027 -0.12648247 -0.110303484 0.011008298 0.0047814567 -0.20216453 -0.26443303
0.015470261 0.13512182 -0.18343632 -0.04973557 0.0026832437 0.017841449 -0.27438697 -0.10782846
-0.09474969 -0.0381092 -0.41007575 -0.25893128 0.04398096 -0.020632 -0.10538033 -0.13163051
0.14980453 0.20109817 -0.01551985 -0.078234255 -0.17334226 -0.22492267 0.1093239 -0.22896126
-0.031841096 -0.026403869 -0.042766057 -0.16900338 -0.20026575 -0.11962656 -0.111036174 0.023898004
-0.0767544 -0.074416175 0.045081686 -0.04950238 0.086708084 -0.2528266 0.1669777 -0.0010952251
0.22800301 0.1053908 0.017924473 -0.23557551 0.04951202 -0.20191482 -0.19500798 -0.21065062
-0.2444999 0.011298692 -0.20606627 0.015449138 0.02484781 0.040550385 -0.1288728 -0.13137528
0.034871195 -0.0055572824 -0.104329936 -0.16364557 -0.020834468 -0.24972627 -0.11476653 -0.29321393
-0.23125708 0.07003677 0.022002712 0.09492932 -0.19944634 -0.19506599 0.16433306 -0.027967036
0.18461207 -0.12464569 -0.07350624 -0.16789398 0.16820042 0.19759561 0.06162147 0.15970705
-0.0700355 -0.16724607 -0.09419309 -0.167955 -0.23303013 -0.01725549 0.059036355 -0.097374454
-0.159135 -0.020293506 -0.22837125 -0.0051144506 0.0031425857 -0.21538877 0.040583767 0.12507086
-0.056599766 -0.20769125 -0.017164726 -0.051734585 0.21555635 -0.1603275 0.01297558 0.053842712
-0.21168807 0.11749268 0.032115437 -0.04740958 0.11180685 0.08041402 0.055545025 -0.26112193

fc2.weight f4 [300, 400]
00000000: 49f5 15bd 7c96 3f3d 932b 01bf 3fe9 2abd
00000010: 214d a4bd e607 093c 8a63 c3be d27d 25be
00000020: 05a5 e7bd 828c 7a3b f5ea 36bd ff21 1e3e
00000030: f0b6 2d3e 8629 103e 1d54 3abe d2b5 873d
00000040: b2ec 72bc e948 623d 010a ccbd 5b74 a53d
00000050: 7642 82be da61 0f3e 14b2 46be 7a79 7d3d
00000060: b1e1 cabc 1104 20bf 8f91 b7bb 45d5 d3be
00000070: 591d cfbc 9a4c 32be d781 323d a5d9 57be
00000080: f72f 393e 1acb 33be b1c7 c1bd 2da8 183d
00000090: ee6e 073e 2da9 013d 9ca1 c9bd 2e02 9f3d
000000a0: 1cbc 183e 8f2f 0b3d 9360 9fbd 1324 63bd
000000b0: 5bbc 34bf 9086 82bd d3e4 2fbe 1760 5fbe
000000c0: 06d0 113e d937 c6bd 505f e53d 9098 1c3e
000000d0: 483c 89bc a5d3 2cbe 1833 cebe 29ae f53d
000000e0: f617 e7bc 4e1f e9bd 1d25 803d a11c 89be
000000f0: 91ba 153e 0474 e9bc a0c7 53be 730c c83e
00000100: 4e30 de3c 98af ea3c c27b 153e a34e 863d
00000110: 0715 22bd 06d0 00bd 8620 9b3d c174 23be
00000120: 608d a4bd 682c 3ebd 1ddb 23be 5802 7fbe
00000130: e607 1fbe 9b17 913e 839f 4dbf df75 213d
00000140: f0c4 c53b 4bbb a83d d63e a13d 5cfa 303d
00000150: d0af c6be 5c2d 01be a2ed 53be 1902 0b3e
00000160: 4e52 f93d 9e2a a0bc 73ec 053e b456 c4bb
00000170: 756c ffbe 72ed 9d3c 3d8f c9be b79c e9bd
00000180: efef 9abb 47d6 adbe 5257 9ebe 40bf 03be
00000190: 9cbc 153e 66f2 7cbe fcd8 923d a058 b3be
000001a0: 8941 70bd 1bab cebd 6c78 92bd 1233 6ebe
000001b0: 3e39 153e 9840 653e 29f8 893e 36e2 90bd
000001c0: e3fe afbd aea4 96be 98ff d73c 9e86 133e
000001d0: cd6a 263d 96d9 783e 8711 2fbb af3b 59be
000001e0: 4271 a6be a6be 6abe e85c 21bf c8b3 7ebd
000001f0: 44d6 c53c 98f4 2a3e b986 53bc 935d 9cbc
00000200: 871e 963c 93dd 803e 7a80 34be 1fbe 213e
00000210: fdb6 37be c3a8 c5bd ec52 6bbe 88d5 00bf
00000220: 6a73 663d 48f3 13be f6c9 95be 2218 9bbd
00000230: e805 8b3d af72 06be ae41 f2bd 0ba0 39be
00000240: 4632 61be c637 c83c a887 603e a37e 173e
00000250: ffe5 e33c 6b11 07bf 4efd e1bd bb59 bf3c
00000260: 0b1e 543e 1396 71be 175f c7bd dd10 e73e
00000270: 757e 88be 40eb 083e 544d e53d 5cc1 dc3d
00000280: 3224 3abe 2d09 49be 9c44 8dbe f9e7 0b3e
00000290: 3933 b3bc 0c69 debd ebca 533d b9f8 4bbe
000002a0: 8f39 203d e5e4 31bd 57d6 c13d cf4e b9be
000002b0: d4ab c03d 980b 5f3d b040 963d b12e 8abe
000002c0: ab8a f1bd f2cd 2cbe 6164 313e f951 13be
000002d0: 4d33 a8be ac36 b4bd f509 263d 7ecb c53d
000002e0: 70f3 b3be 46b9 0bbe 753f abbe 3cc3 c3be
000002f0: f1f1 bebd 497a 99be 459f c5be 4a7d 6bbe
00000300: 5f4e b8be c267 753d 246e b1bd b1bd dd3d
00000310: ec64 1cbe 1345 99bc d1b2 d4be 7069 3a3e
00000320: 802e 23bd d721 4d3e dda5 31be 93cc b3be
00000330: 94d5 c13d fdbd 79be 5ac2 03bf 0431 adbe
00000340: c7a0 303d d627 2f3d 2f57 00be b905 0e3d
00000350: 47c6 fe3d 7dd3 00bf ce35 82be a410 e23d
00000360: 1feb 08be 1417 39bd dac1 e03d aca1 9d3c
00000370: a165 abbd 3226 83bd a4a4 5bbe 1b91 11be
00000380: 8ba3 1ebe 3304 57bd fa11 a13d eff9 163e
00000390: c8d0 52be c381 bbbd e851 44be c220 1fbf
000003a0: 299a 933d a18d 403d 6a9e 77be abb7 50be
000003b0: 3b25 7b3d 12c2 7c3d 7b42 a3bd 2ba4 803d
000003c0: c74f dbbd d9ec 8dbe 01d4 1ebf a558 6d3e
000003d0: 7d53 1abe b62e 91be 993d 98bd a892 12bf
000003e0: 57ab 87be 6e5d 56be ab83 ef3d 5f0f edbd
000003f0: ef2f 08bc 3ecf 853d 71fc 91be 9c67 bc3d
-0.036610875 0.046774372 -0.50457114 -0.041726347 -0.08022524 0.0083637 -0.3816188 -0.16161278
-0.11310772 0.0038230722 -0.044657666 0.15442656 0.16964316 0.1407834 -0.18196149 0.06626476
-0.01482694 0.055245314 -0.099628456 0.08078834 -0.2544133 0.14002171 -0.19403869 0.061883427
-0.024765821 -0.62506205 -0.0056020687 -0.4137365 -0.025282549 -0.17412034 0.043580856 -0.21079119
0.18084703 -0.17557946 -0.09461916 0.03726976 0.1322591 0.03165548 -0.09845278 0.077640876
0.14915508 0.033980902 -0.07782092 -0.055454325 -0.7059991 -0.06373322 -0.17177133 -0.21813999
0.14239511 -0.09678621 0.1119982 0.15292573 -0.016752377 -0.16877611 -0.40273356 0.11996109
-0.028209668 -0.11382924 0.06257079 -0.26779655 0.1462195 -0.028497703 -0.2068162 0.39071998
0.027122643 0.028648183 0.14597991 0.065579675 -0.039570834 -0.031448387 0.07574563 -0.15962507
-0.08034778 -0.046429068 -0.16001554 -0.24903238 -0.15530357 0.28338322 -0.8032152 0.03941905
0.0060354397 0.08238848 0.07873313 0.04320751 -0.3880601 -0.1261496 -0.20696118 0.13575019
0.121739015 -0.019551571 0.1307848 -0.005991781 -0.49887434 0.019278262 -0.39367095 -0.11406844
-0.0047283093 -0.33952543 -0.30925995 -0.12865925 0.1462273 -0.24701843 0.07170293 -0.35028553
-0.05865625 -0.100912295 -0.07151875 -0.2326167 0.14572617 0.22387922 0.26947144 -0.07074396
-0.08593538 -0.29422516 0.026366994 0.14406821 0.040629197 0.24301752 -0.0026713328 -0.21214174
-0.32508284 -0.22924289 -0.6303239 -0.06218317 0.024150021 0.16694868 -0.012910538 -0.019087588
0.018325103 0.25169048 -0.17627135 0.15795182 -0.17940898 -0.09651329 -0.22980851 -0.5032582
0.05626241 -0.14448273 -0.29255646 -0.07572962 0.06788236 -0.13129686 -0.11828934 -0.18127458
-0.21991834 0.024440657 0.21926749 0.14794402 0.027819632 -0.5276095 -0.11034642 0.023358217
0.20714585 -0.23592405 -0.09734934 0.45130053 -0.2665898 0.13370991 0.1119639 0.10779068
-0.1817787 -0.19632407 -0.27591407 0.1366271 -0.02187501 -0.1085988 0.05170719 -0.19919099
0.039117392 -0.04343118 0.0946471 -0.3619294 0.094077736 0.054454416 0.07336557 -0.26988748
-0.11794027 -0.16875437 0.17323448 -0.14386739 -0.3285164 -0.0879949 0.04053684 0.09657954
-0.35146666 -0.13644895 -0.3344685 -0.3823489 -0.093234904 -0.2997611 -0.38598076 -0.22997013
-0.35997292 0.059913404 -0.08663586 0.108271964 -0.15272874 -0.018709695 -0.41542676 0.18204284
-0.039839268 0.2003244 -0.17348428 -0.35117015 0.09464565 -0.24388881 -0.5146843 -0.33826458
0.04312208 0.0427626 -0.12533258 0.034673426 0.12440162 -0.50322706 -0.25431675 0.1103833
-0.13370942 -0.045188025 0.10974474 0.01924213 -0.083689936 -0.064037696 -0.21449524 -0.1421551
-0.15492074 -0.05249424 0.07864757 0.1474378 -0.20587456 -0.091556095 -0.1917187 -0.6215936
0.07207138 0.047010068 -0.24181524 -0.20382564 0.061314803 0.061708517 -0.079716645 0.062813126
-0.10708576 -0.27719763 -0.6204224 0.23178346 -0.15070911 -0.2835595 -0.07433624 -0.5725503
-0.2649791 -0.20934078 0.116950355 -0.115751974 -0.0083122095 0.06533669 -0.2851291 0.091994494

fc2.bias f4 [300]
00000000: e6d6 80bd 8146 bf3d 2310 c9bc 358f dd3c
00000010: ee8d ef3c 25f3 ec3b 5bc4 fd3c b206 5ebd
00000020: a999 c93d 8597 a7bc 6f94 bbbd d9d1 e6ba
00000030: 9f9f 92bc ca25 77bd 75ce f53c ec6c adbd
00000040: 6345 a13c 2f5d 41bd 649d 543d b183 f53c
00000050: dffc c13c 9340 983d ef87 98bd 2a18 cfbc
00000060: f3bd 283d 9c4f 033b e189 32bd 449c f0bb
00000070: 1c82 243d ceec 4cbd 370d 8abd e24d 8dbd
00000080: 3fc4 f5bd 7167 753d 7f4c 85bd 1c02 323d
00000090: 9ae8 873d 4774 b93d cb0a 7dbc e912 dbbd
000000a0: bd4c bebd 6db5 33bd 6e98 61bd ccf8 86bd
000000b0: 0404 21bd f50e fbbc f28d 0ebc 5868 ea3c
000000c0: b98e f53b 69dc 72bc 4628 443c a488 1d3d
000000d0: bdc1 fcbc b07c 71bd b829 6bbd 2c17 b9bd
000000e0: 65f6 813d f87f 1b3c c7da 253d af7d 313d
000000f0: a7de e03c b58d 5cbc 1513 2f3d b1d8 7ebc
00000100: 5b2e 99bc 31e4 22bd 7951 1dbd cfbd 373d
00000110: 0835 7ebd c925 85bc a0cc 523c afe8 c5bc
00000120: 887b 5a3c ee1f d0bc e216 2f3d c856 0bbd
00000130: 7065 9cbd 8b12 44bc c0eb 39bd e4e8 863d
00000140: 9a28 b43d 8322 20bc b3fb 86bd 683d a7bb
00000150: b73c 80bd 8cd9 95bd f3e0 26bd 0313 b03d
00000160: cc73 89bb af91 023d 9915 b7bd ecd5 8bbc
00000170: 88d1 db3d bedc 3eba 0ba0 c6bc f4bd 6dbd
00000180: 8f5c 403d 0d07 e5bc e9d8 a03c 4f4e b3bd
00000190: b450 963d ebac 0fbd e95c 603d 74e0 c5bb
000001a0: 08bd 323d 50bd 463d ea98 fc3d 6f29 17bd
000001b0: 60f7 85bb 13be 543d a56b 9dbd ac23 39bd
000001c0: 3fe6 f4bb aff4 ef3d 64f0 16bd c970 c23d
000001d0: a66b e23d 8301 933c d7ca b0bb c435 ebbd
000001e0: e805 1fbc 6b47 8f3d 14b7 16be bc21 ae3d
000001f0: ea18 a73b 7743 de3c 1b68 033d b42f 0c3e
00000200: 4be5 243c a612 1bbd 8e0c 8abb f2d1 3ebc
00000210: f93d b4bd 226a fa3c 5bea 9cbd 9a28 2e3d
00000220: 400e 9d3d e9fa 77bd 824d 8c3d 01f0 a73d
00000230: 55aa 81bc 5838 2ebd d8bb f93c 45bf a0bc
00000240: 1fa6 27bc 3a00 2fbd 4960 133d a598 8fbc
00000250: 0710 1ebd 0268 7a3c 30a4 7ebd bc1e 343d
00000260: b3ae a93c a541 10be c2ec c53d 35a2 9d3c
00000270: 68d3 b73d 70f3 dfbc 78b3 72bd b552 21bd
00000280: fbe3 7c3d 3f8f 563c 1207 d93d ed26 10bc
00000290: e113 c33d 219c 60bd 0e45 253d 298b 673c
000002a0: 207b f83d 64b9 3c3d 786d 81bd 629f 343d
000002b0: 83d8 013e 7f03 0fbd fbf9 2cbd c9a2 93bd
000002c0: 715a 963d 3daa f6bb 8355 acbb 38a3 b93d
000002d0: 9c19 05bc 234e 6c3d bd92 d73d e432 a9bd
000002e0: 4166 8bbd cff0 43bd 33ad e03c 4e96 6d3d
000002f0: 5590 e6bc 74bc 563d 1120 2b3d c2fb e0bc
00000300: 104f e13b a237 88bc ce9a 1cbd 504a f5bd
00000310: 77cf f4bc 041a f6bc 55e0 4d3d 6757 40bd
00000320: 1086 c3bb 8179 4abd 07f8 843c 80da 70bc
00000330: 880b d0bc 98c7 65bd 6bbe a9bb dcd1 883d
00000340: cc0d a73d 9c86 813d f1ff 0c3d 2509 3c3d
00000350: 82a9 523d 5018 7b3d 0b54 343d 5d28 5fbc
00000360: 5805 b4ba b77a 1abe 79be bbbd 5fd3 173d
00000370: fe22 003e 4c44 c33d 2da9 6abd b7f3 ea3d
00000380: c626 c5bd 082c 963a 0a4c 3c3c 61f4 d0bc
00000390: f917 0d3d 550d 1c3d d012 b9bc 3b4a 5f3c
000003a0: 37ed d0bc bc58 d03d 6ba9 493c f1a8 783c
000003b0: a7bc e93c dc29 923d b6d1 51bd 6ceb 523c
000003c0: 61f1 cdbc f23d 90bd ac42 c53c 2d61 60be
000003d0: af6c 34bd f808 76bc 3b53 253e c01b 433b
000003e0: 128a 703c bcad cf3c 9d89 033e ef77 de3c
000003f0: 1ee4 8fbb a42f 7a3d e36e 20bd 4f0a b7bd
-0.062909886 0.093396194 -0.024543827 0.027045825 0.029242482 0.0072311335 0.030977419 -0.054205604
0.098437615 -0.020457992 -0.09159171 -0.0017610147 -0.017898379 -0.060338773 0.030005673 -0.08468041
0.019686406 -0.047208007 0.051907912 0.029970022 0.023680149 0.074341916 -0.07447802 -0.025280077
0.041196775 0.0020036465 -0.043588523 -0.007342847 0.040163144 -0.050030522 -0.06740802 -0.068996206
-0.120003216 0.059913103 -0.06508731 0.043459043 0.06636162 0.09055381 -0.015444468 -0.10696966
-0.092919804 -0.043874193 -0.05507701 -0.06590423 -0.03931047 -0.03064678 -0.008700835 0.028614208
0.0074938205 -0.014823058 0.011972493 0.03846039 -0.0308541 -0.058956802 -0.057412833 -0.09037623
0.06345824 0.009490959 0.040491845 0.04333275 0.027449919 -0.01346152 0.042742807 -0.015554593
-0.018698862 -0.0397684 -0.038407777 0.04485875 -0.062062293 -0.016253369 0.012866169 -0.024158804
0.013335116 -0.02540585 0.042746432 -0.034018308 -0.07636535 -0.011967312 -0.045390844 0.06587389
0.08796807 -0.009773853 -0.065909766 -0.0051037557 -0.062615804 -0.073168844 -0.040741872 0.08597376
-0.0041947123 0.031877216 -0.08939666 -0.01706978 0.10733324 -0.0007280818 -0.024246236 -0.05804248
0.04696327 -0.027957464 0.01963468 -0.087551706 0.07339612 -0.035077017 0.054776106 -0.00603872
0.043637305 0.048520386 0.123338535 -0.03690475 -0.0040883273 0.05193908 -0.07686547 -0.045200035
-0.0074737365 0.117165916 -0.036850348 0.09494168 0.110556886 0.017945057 -0.005395274 -0.11484864
-0.009705998 0.06996044 -0.14718276 0.08502528 0.0050994055 0.02713178 0.032081705 0.13690072
0.010064433 -0.03785958 -0.0042129224 -0.011646735 -0.08800883 0.030568186 -0.07661887 0.04251919
0.076687336 -0.06054202 0.06850721 0.08200074 -0.015828291 -0.042534202 0.030485079 -0.019622454
-0.010232477 -0.042724825 0.035980497 -0.017528841 -0.038589504 0.015283586 -0.0621683 0.043974623
0.020713186 -0.14087541 0.096642986 0.019242385 0.089758694 -0.02733776 -0.059253186 -0.039385516
0.061740857 0.013095676 0.10597052 -0.008798343 0.09525276 -0.054836396 0.04034906 0.014132299
0.12132859 0.04607524 -0.06319708 0.04409731 0.12680249 -0.034915444 -0.042230587 -0.07208783
0.07341469 -0.007527618 -0.005259217 0.09064335 -0.0081237815 0.057691704 0.10526035 -0.0826166
-0.06806613 -0.047837075 0.027426338 0.05800467 -0.028144995 0.052425817 0.041778628 -0.027463797
0.00687588 -0.01662809 -0.03823357 -0.119770646 -0.029884083 -0.030041702 0.050262768 -0.046958353
-0.005966909 -0.04943228 0.01623155 -0.014700532 -0.025396124 -0.05609855 -0.0051801703 0.066806525
0.081569284 0.06324503 0.034423772 0.04590716 0.051431186 0.061302483 0.044025462 -0.013620463
-0.0013734503 -0.15085874 -0.09167189 0.037066814 0.12513348 0.09534511 -0.057290245 0.11472266
-0.09626536 0.0011457214 0.0114927385 -0.025507154 0.03444669 0.038098652 -0.022591978 0.013628538
-0.025503738 0.10173175 0.012308459 0.0151769975 0.02853234 0.0713689 -0.051225387 0.012873512
-0.025139512 -0.07043065 0.024079643 -0.2191207 -0.04404896 -0.015016787 0.16145031 0.002977118
0.014681356 0.025351398 0.12845464 0.027156798 -0.0043912074 0.06108059 -0.03916825 -0.08937513

fc3.weight f4 [2, 300]
00000000: 4bbe 68be 42cf 52bf 427b bdbc f8ac a3be
00000010: 3127 95be 781e f8be 9029 a3ba 65e3 7dbe
00000020: 580a bc3e 26e3 103d 735d 1ebd 43e3 8ebc
00000030: 3e00 54bd 4653 463e c894 0ebf b360 edbe
00000040: 5b5b 3fbc 4a74 debc c62f 0a3e ca7f 5bbe
00000050: 3b3e 23be 7a28 04be 1fe5 5bbf 15d3 f33b
00000060: 3d1f edbe c7cf 1cbf 08d4 46bc e541 a63d
00000070: 4380 f1be 14cc ecbc 4f13 413d 46aa 883e
00000080: 6016 9bbc 1f3d fdbe f13e 5cbd 2de1 e2bc
00000090: f693 91be 0a78 4bbf a668 8abc 49e0 fd3b
000000a0: 6269 8f3e b945 c5bd 421a fc3c 9e57 89bd
000000b0: e794 ca3e c774 94bd 7821 febc cea5 96bc
000000c0: a39f a6be 9fc9 143e 1f64 3bba 4b96 a93d
000000d0: 23a7 083e 1df5 dbbc 6b2e b7ba a0b1 4ebe
000000e0: 534d 4abf f9ec 24bc 4798 533a 268d 6abe
000000f0: 7dad 3dbd 4df0 053c c1ff 07be 1a1d e7be
00000100: e315 a1be db0f a8bc 1103 aabd 823e e7bc
00000110: 09fe 57bc a376 813d d60b 34be 8eee 38bc
00000120: 2b25 033f 3a5f a73b 0f0e 25bf f96f 83be
00000130: 785b d13b e392 1c3c a3e5 56be e36f 49be
00000140: f209 7f3d f48c 28bf ac33 cc3e aebf edbc
00000150: 0ab2 883e 16ce 333e daaf 3ebf f2e1 3dbf
00000160: c05d 0bbe 0792 dfbd e9d9 c2bd 3965 6ebc
00000170: 20d7 e5be 1c0d 0d3d ae26 c4be d0d9 033c
00000180: cf8c cfbe d71a 883b e500 eb3d 7e84 9abd
00000190: 77c1 92bc 0025 c4bc 5a4d 123d c4cc a7bc
000001a0: 2282 15be 7577 45be e07f c03d 9761 d0be
000001b0: 8e83 4d3c fc7a 92be ac07 45bf 2b30 1abd
000001c0: 291d b8be cc0f 47be 929c 0d3e c1ae dc3e
000001d0: d0e2 19be 7227 3bbd 5a0a 9abc 696f 49be
000001e0: ecc7 c1bc 2dc9 fdbb 3f5f 353f e36f 25bf
000001f0: e664 87bd 9412 1a3e 75bb 81be ffde 8bbf
00000200: c41f d0be feb8 413e 273b 913d 5c7a f9be
00000210: 8a54 853a 3046 e2be 6c75 85be 9a1d 043e
00000220: 9e3a 19bf fc90 5bbc 5475 2fbf b65c 073e
00000230: c32d 943d bb39 58be 2a15 133e 88ee 943b
00000240: 4406 76bc e6ea 943d f6b9 e2bd 3b0d 553b
00000250: c32c 58bd e0f2 07be 3fec 23bf 1106 20bf
00000260: cd69 a13b 57bb 863c 5054 11bf 9e4e 8bbe
00000270: 3aa4 67bf db99 a13e 9ca8 c93c d4cf a9be
00000280: 5ee9 61bf bbc2 cbbc 7fca c13e 1d97 64bc
00000290: e621 e5be e838 95be 4ae0 62be 5ce1 07bd
000002a0: 2a9a 0cbf 0022 bb3a 50b7 a8be c25f f83b
000002b0: bbae 47bd 7c40 38bd db9c d1bc ac32 43bc
000002c0: e949 693d 5001 9abc e97d 083c 8849 0cbc
000002d0: 8998 993d 1f56 1cbd 02da 413e f971 77be
000002e0: 968b 2dbb 12b4 783e 5691 c83d 769d 3fbc
000002f0: aee3 74bc f7a1 3fbe 4cda 763d d339 353d
00000300: bf88 0c3e 1e77 163d b139 6abd fe4d 62be
00000310: ca75 9bbd e966 13be 6293 69be a681 17bf
00000320: db86 63be 551b e63d 3415 a7bd 9cbb b0bc
00000330: 6344 4c3d 90aa 2bbf 9997 973d 1181 d7bd
00000340: 006f 76bf e7bf 74bf 4079 cbbe 5da2 9a3c
00000350: 8298 67bb 1d37 f83c 01b7 df3c 01e9 8cbc
00000360: 8642 673d bcb8 d23d 4656 b9be fcf8 6abd
00000370: ce3d c5bf e37d 9cbe 7cf2 b6bd eeb6 9dbe
00000380: d86a 703e 225d 92bc 412d 0dbf 333f 82be
00000390: d176 b1be bbaa 44be f65d f3bc 03f7 9dbc
000003a0: 2b68 fbbc 3c86 c8be c74c bcbc 0095 f53c
000003b0: 0a8e 033d d663 6abf f2d1 4abd 58c1 12be
000003c0: b859 aabc c40b 383e b2c9 cdbe 7827 cc3c
000003d0: 069f 0b3e a495 4e3e 7d00 1a3c a9b0 aebd
000003e0: 83ca 12bf 4835 103e 8cef 82bf 24a9 2e3e
000003f0: 0386 99be 6d64 06be 3186 09bf 334b a4bf
-0.22728841 -0.823475 -0.023130063 -0.31967902 -0.29131463 -0.48460746 -0.00124483 -0.24793775
0.36726642 0.035372876 -0.03866334 -0.017442351 -0.051758043 0.19367704 -0.5569577 -0.46362838
-0.011679496 -0.02715506 0.13494787 -0.21435466 -0.15941708 -0.12906066 -0.85896486 0.0074409344
-0.46312895 -0.61254543 -0.012135513 0.08118037 -0.47168168 -0.028905906 0.047137555 0.26692408
-0.018931568 -0.49460694 -0.053770963 -0.027695263 -0.28433198 -0.7948004 -0.016895603 0.007747684
0.28010088 -0.09632439 0.03077424 -0.06706165 0.39566728 -0.07248836 -0.031021819 -0.018389609
-0.32543668 0.14530037 -0.0007148403 0.08280619 0.13345008 -0.026850278 -0.0013975626 -0.20184946
-0.7902424 -0.010066264 0.00080717023 -0.22905406 -0.04630803 0.008174968 -0.13281156 -0.4513939
-0.3146201 -0.020515373 -0.08301366 -0.028228048 -0.013183125 0.06321456 -0.1758264 -0.011287345
0.5122859 0.0051077874 -0.64474577 -0.25671366 0.0063890778 0.009556505 -0.20986037 -0.19671588
0.062265344 -0.6584008 0.39883173 -0.029022064 0.26698333 0.17559084 -0.7448708 -0.7417289
-0.13609982 -0.109165244 -0.09514219 -0.014550501 -0.4489069 0.03443633 -0.3831076 0.008047536
-0.40537116 0.00415359 0.1147478 -0.07544802 -0.017914517 -0.023943424 0.0357183 -0.020483382
-0.14600423 -0.1928385 0.0939939 -0.40699455 0.012543572 -0.28609455 -0.7696483 -0.037643593
-0.35959747 -0.1943962 0.13829258 0.43102077 -0.15027928 -0.045691915 -0.018803764 -0.19671406
-0.0236549 -0.0077449293 0.7084846 -0.6462385 -0.06611042 0.1504615 -0.2533833 -1.0927428
-0.40649235 0.18918225 0.070913605 -0.48726165 0.0010172289 -0.44194174 -0.26066148 0.12901917
-0.5985507 -0.013401266 -0.68538404 0.1321896 0.07235291 -0.21115772 0.14363542 0.0045450367
-0.015016142 0.07271366 -0.110706255 0.0032509107 -0.052777063 -0.13276243 -0.6403236 -0.62509257
0.0049259425 0.016446752 -0.56769276 -0.27208418 -0.90484965 0.31562695 0.024616532 -0.33166373
-0.88246715 -0.024873128 0.37849805 -0.013952044 -0.44752425 -0.2914498 -0.22155872 -0.033173904
-0.54922736 0.00142771 -0.32952356 0.0075797746 -0.04875062 -0.044983372 -0.02558749 -0.011913937
0.05695525 -0.018799454 0.008330801 -0.008562453 0.07499797 -0.03816807 0.1893082 -0.24164571
-0.0026480905 0.24287441 0.09793346 -0.011695256 -0.014946861 -0.18714128 0.060266778 0.0442446
0.1372404 0.036734693 -0.057183925 -0.22100064 -0.07590826 -0.14394726 -0.22810128 -0.591822
-0.22219412 0.11235682 -0.08158341 -0.021573834 0.049869906 -0.6705713 0.07401962 -0.10522664
-0.9626312 -0.9560532 -0.39740944 0.018876249 -0.0035338704 0.030299718 0.027308943 -0.017200949
0.056459926 0.102891415 -0.36198634 -0.057366356 -1.5409486 -0.30564794 -0.08932969 -0.30803627
0.23478258 -0.017866675 -0.55147177 -0.25438842 -0.34660962 -0.19205754 -0.02970789 -0.019282823
-0.03068932 -0.39164913 -0.022985829 0.029978275 0.03211788 -0.9155859 -0.049516626 -0.14331567
-0.020794734 0.17973238 -0.40192944 0.024921164 0.13634881 0.20174271 0.0093995305 -0.08529789
-0.5734026 0.14082825 -1.0229354 0.1705671 -0.29985055 -0.13124247 -0.53720385 -1.2835449

fc3.bias f4 [2]
00000000: 8899 bb39 04aa 6cbc
0.0003578181 -0.014444832
