Tennis/Nets/checkpoint_actor1300.pth (torch_old, 525671 bytes, 10 tensors)

bn1.weight f4 [24]
0.7502439 0.75186366 0.84280574 0.63340604 1.0140798 0.8295824 0.64018655 0.21291167
0.76227915 0.4883785 0.76937443 0.64186937 0.71024406 1.1147152 0.72118706 0.81488883
0.91324157 0.67013025 0.6435635 1.1580142 0.40534863 0.9424409 0.79649043 1.0151206
00000000: fc0f 403f 237a 403f 1ec2 573f e626 223f
00000010: 5ecd 813f 835f 543f 44e3 233f 8405 5a3e
00000020: ba24 433f bf0c fa3e b9f5 443f 8d51 243f
00000030: 8ed2 353f fdae 8e3f b79f 383f 8e9c 503f
00000040: 33ca 693f a88d 2b3f 94c0 243f cf39 943f
00000050: db89 cf3e cf43 713f cce6 4b3f 79ef 813f

bn1.bias f4 [24]
-0.007049382 0.032484364 0.06858583 0.03877856 0.02984467 0.020066133 0.047624364 0.044870898
-0.026685962 0.0713006 -0.046107076 -0.04642574 -0.026754556 -0.015090614 -0.039312113 -0.041402757
0.10457743 0.09009582 0.02959198 -0.03016942 -0.0005719921 -0.042400893 0.03224301 -0.07283215
00000000: 81fe e6bb 530e 053d ba76 8c3d 44d6 1e3d
00000010: cf7c f43c bb61 a43c c411 433d 8cca 373d
00000020: 859c dabc 0d06 923d c6da 3cbd eb28 3ebd
00000030: 5f2c dbbc 9f3e 77bc bd05 21bd f095 29bd
00000040: b12c d63d 2884 b83d e16a f23c dc25 f7bc
00000050: bdf1 15ba 8fac 2dbd 3f11 043d 0629 95bd

bn1.running_mean f4 [24]
-5.4261603 -0.7586191 5.449128 0.51669234 0.07889335 3.1722584 5.449128 0.51669234
-5.7955127 -0.78728986 5.6221786 0.5170686 0.11139751 3.1346729 5.6221786 0.5170686
-6.135012 -0.81101304 6.4082093 0.5894021 0.12191244 3.0633476 6.4082093 0.5894021
00000000: 1ba3 adc0 dd34 42bf 425f ae40 f345 043f
00000010: d692 a13d 4806 4b40 425f ae40 f345 043f
00000020: d774 b9c0 d48b 49bf e3e8 b340 9c5e 043f
00000030: 6124 e43d 7b9e 4840 e3e8 b340 9c5e 043f
00000040: 0552 c4c0 8d9e 4fbf 0d10 cd40 0ee3 163f
00000050: 3bad f93d e30d 4440 0d10 cd40 0ee3 163f

bn1.running_var f4 [24]
19.058838 1.0447118 324.15973 7.1840677 43.2453 4.9278054 324.15973 7.1840677
18.309244 1.0704089 347.60114 8.261256 47.481438 5.38129 347.60114 8.261256
17.257288 1.0893438 364.30737 9.463491 52.117233 6.3002567 364.30737 9.463491
00000000: 8078 9841 1eb9 853f 7214 a243 e2e3 e540
00000010: 30fb 2c42 95b0 9d40 7214 a243 e2e3 e540
00000020: 5579 9241 2903 893f f2cc ad43 1b2e 0441
00000030: feec 3d42 8733 ac40 f2cc ad43 1b2e 0441
00000040: ed0e 8a41 9e6f 8b3f 5827 b643 766a 1741
00000050: 0c78 5042 b49b c940 5827 b643 766a 1741

fc1.weight f4 [400, 24]
-0.026754502 -0.18830721 -0.10051662 0.063539736 -0.10378777 0.030528318 -0.08629478 -0.011375194
-0.02530181 -0.10460915 0.06227067 -0.008576472 -0.12646939 0.13800181 -0.008266811 -0.027296195
0.022090716 -0.14736289 0.05442889 -0.119771466 -0.07804469 0.25375986 0.12947309 -0.1480888
0.08019047 -0.11777954 0.01307913 -0.037590135 -0.22208267 0.20353878 -0.028127018 0.006375481
0.14529048 0.044177882 -0.03745426 0.1877574 -0.24432902 0.3341732 -0.071352884 0.21000956
0.19485587 0.09088447 0.09726524 0.23062836 -0.0813172 0.41301382 0.06705498 0.13931489
-0.0049753683 -0.20766482 -0.015889473 -0.025054619 0.3329323 0.034357972 -0.030962301 -0.07135437
0.03593852 -0.17809103 -0.15883818 0.22268027 0.29553133 -0.03909829 -0.21065226 0.20204648
-0.08279451 -0.044426456 -0.089979455 0.10874737 0.24536794 -0.16381477 -0.13709651 0.18955071
-0.24237742 0.18310001 -0.10147867 0.21811405 -0.022622807 0.1310572 -0.09834671 0.2169832
-0.085200086 0.2302812 0.11297336 0.10069506 -0.056763005 0.11849356 0.14721715 0.12652431
0.09869838 0.3230961 0.26113036 0.03937676 -0.19472998 0.21825269 0.30389252 0.022935232
-0.23517822 0.1392812 -0.16730486 -0.13107653 0.051247798 0.20054439 -0.1397786 -0.06666822
-0.23179248 0.092146635 -0.07332148 -0.12572154 0.071802214 0.21325889 -0.013937955 -0.13298051
-0.2438986 0.08512586 -0.035357997 -0.17036429 0.045910805 0.13145502 -0.056536164 -0.19266507
0.028192976 0.06490864 0.02747525 0.15472874 0.10585958 0.17076531 0.06871047 0.025346337
-0.0589411 0.14113693 -0.17211305 0.08621687 0.13099663 0.21928337 -0.17860015 0.0812595
-0.030958943 0.17044717 -0.008843294 0.20053472 0.040086728 0.2259918 0.0014905023 0.15260574
0.045789868 -0.2733195 0.008783547 0.027938094 0.38723165 -0.06320888 -0.015385297 -0.058972612
0.19466706 -0.24240328 0.280202 0.084221214 0.27965233 -0.051545035 0.2671935 0.12336269
0.26227772 -0.15892418 0.21331593 0.060718354 0.20699787 -0.06854719 0.17704809 0.009295991
0.102807015 0.035260834 -0.19758575 -0.053804677 0.0011354691 0.06924371 -0.13974357 -0.05178959
0.16108902 -0.06466081 0.05660771 -0.056929857 -0.036856964 0.16862686 0.06434679 -0.076876566
0.09106759 -0.10852239 -0.24118067 -0.038731754 -0.0015842206 0.09842362 -0.20953839 -0.06326832
0.025120826 0.15788853 0.06587135 0.033050187 -0.06984208 0.008117629 0.03292588 0.081703566
0.013895777 0.16294965 -0.0717057 -0.07747365 -0.12026324 -0.12319084 -0.003564101 -0.03065797
-0.118357465 0.076540835 0.0366789 -0.20039228 -0.09382223 -0.22211224 -0.0034224913 -0.15438937
-0.006507509 -0.1161839 0.14946207 -0.16448526 -0.104091346 0.08998085 0.1303322 -0.1163838
0.054467767 -0.15694232 0.16855069 0.048036553 -0.08732762 0.059348147 0.15957503 0.023980042
0.006294808 -0.014130615 -0.010255298 0.20185967 -0.10486967 0.20392765 0.044249877 0.14261529
-0.22045395 -0.024114186 -0.13307121 0.12553471 -0.005510691 0.024566583 -0.18860531 -0.015961403
-0.3127788 -0.036021575 -0.12922296 0.037960682 -0.042070147 -0.057905063 -0.09555618 0.055550236
00000000: 422c dbbc 9bd3 40be a8db cdbd 1f21 823d
00000010: af8e d4bd 8616 fa3c 51bb b0bd 065f 3abc
00000020: be45 cfbc 523d d6bd 880f 7f3d 5584 0cbc
00000030: 3181 01be 5950 0d3e 8571 07bc 459c dfbc
00000040: 97f7 b43c 4ce6 16be d4f0 5e3d be4a f5bd
00000050: e5d5 9fbd d0ec 813e 9894 043e 97a4 17be
00000060: e73a a43d 6636 f1bd d949 563c 1df8 19bd
00000070: a469 63be 786c 503e a26a e6bc 69e9 d03b
00000080: 07c7 143e def3 343d a369 19bd 7a43 403e
00000090: 6331 7abe c018 ab3e 7621 92bd bf0c 573e
000000a0: 4c88 473e a321 ba3d 0033 c73d d729 6c3e
000000b0: a289 a6bd 8c76 d33e 1f54 893d 90a8 0e3e
000000c0: 6a08 a3bb 16a6 54be a42a 82bc 583f cdbc
000000d0: 1a76 aa3e f2ba 0c3d a7a4 fdbc 3d22 92bd
000000e0: 4534 133d 7f5d 36be 7aa6 22be 4c06 643e
000000f0: e24f 973e 8725 20bd 3ab5 57be 46e5 4e3e
00000100: 2b90 a9bd 84f8 35bd 2647 b8bd f1b6 de3d
00000110: bc41 7b3e 0fbf 27be 0763 0cbe 9519 423e
00000120: c931 78be 927e 3b3e 0dd4 cfbd 4a59 5f3e
00000130: 7753 b9bc dc33 063e 006a c9bd d830 5e3e
00000140: 627d aebd d6ce 6b3e 945e e73d 3639 ce3d
00000150: 5380 68bd c0ac f23d 18c0 163e 978f 013e
00000160: 6022 ca3d da6c a53e e1b2 853e 8749 213d
00000170: 4c67 47be a27d 5f3e cd97 9b3e abe2 bb3c
00000180: 8fd2 70be bb9f 0e3e f751 2bbe ed38 06be
00000190: 36e9 513d 825b 4d3e 1f22 0fbe 5989 88bd
000001a0: 025b 6dbe 60b7 bc3d 9229 96bd 26bd 00be
000001b0: 0a0d 933d 8a60 5a3e 055c 64bc 0b2c 08be
000001c0: 8ec0 79be 7856 ae3d 8cd3 10bd fa73 2ebe
000001d0: f80c 3c3d 259c 063e 7792 67bd fe49 45be
000001e0: f5f4 e63c d2ee 843d c713 e13c 3671 1e3e
000001f0: e8cc d83d 1add 2e3e 13b8 8c3d 1fa3 cf3c
00000200: 396c 71bd 3386 103e 673e 30be 7892 b03d
00000210: fb23 063e d28b 603e f5e2 36be 616b a63d
00000220: 9c9d fdbc b489 2e3e 77e3 10bc f958 4d3e
00000230: fb31 243d 656a 673e f55c c33a ae44 1c3e
00000240: 288e 3b3d 89f0 8bbe dee8 0f3c 6ede e43c
00000250: 3a43 c63e a873 81bd 9d12 7cbc 448d 71bd
00000260: cd56 473e 9138 78be a376 8f3e 2c7c ac3d
00000270: 972e 8f3e e320 53bd 96cd 883e 94a5 fc3d
00000280: 4449 863e 05bd 22be 7e6f 5a3e cfb3 783d
00000290: 40f7 533e 7862 8cbd 184c 353e 364e 183c
000002a0: 7c8c d23d aa6d 103d eb53 4abe 4b62 5cbd
000002b0: 05d4 943a a5cf 8d3d f018 0fbe 5221 54bd
000002c0: 85f4 243e e36c 84bd 7cdd 673d 482f 69bd
000002d0: 54f7 16bd 85ac 2c3e 40c8 833d 7671 9dbd
000002e0: a581 ba3d fd40 debd 11f8 76be 30a5 1ebd
000002f0: 9fa5 cfba 5392 c93d 3b91 56be d292 81bd
00000300: 31ca cd3c 88ad 213e 8fe7 863d a25f 073d
00000310: 5d09 8fbd ceff 043c 4add 063d 3354 a73d
00000320: 1dab 633c 46dc 263e 70da 92bd 81aa 9ebd
00000330: 934c f6bd 7b4b fcbd b193 69bb 6c26 fbbc
00000340: 6665 f2bd 71c1 9c3d 9d3c 163d a233 4dbe
00000350: df25 c0bd 6471 63be e04b 60bb 3f18 1ebe
00000360: f13c d5bb d3f1 edbd 960c 193e d36e 28be
00000370: d82d d5bd e147 b83d ce75 053e a15a eebd
00000380: 9819 5f3d 7db5 20be 8d98 2c3e fac1 443d
00000390: d3d8 b2bd 0b17 733d a367 233e cb71 c43c
000003a0: ad44 ce3b 1884 67bc d605 28bc 4db4 4e3e
000003b0: e9c5 d6bd 69d2 503e 5c3f 353d be09 123e
000003c0: aebe 61be 1d8b c5bc d243 08be 2c8c 003e
000003d0: 0793 b4bb dc3f c93c c021 41be 7dc1 82bc
000003e0: 8b24 a0be 5c8b 13bd 0653 04be a97c 1b3d
000003f0: bf51 2cbd dc2d 6dbd f5b2 c3bd a588 633d

fc1.bias f4 [400]
0.14423102 -0.09286142 -0.04063152 -0.056317866 -0.20557006 0.034367375 -0.01734576 0.1356329
0.057053942 0.08404513 -0.18049292 0.11284989 0.10306347 -0.18474786 0.0417808 -0.055466592
0.080041654 -0.25891498 0.14343077 0.1480458 -0.08476184 -0.023969466 0.09186516 0.09135492
0.14629707 0.16865999 0.15019178 0.21081722 0.020281097 -0.22438572 0.09922861 0.08148942
-0.15242355 -0.03627705 0.01659983 0.004125181 0.026420763 -0.34410506 -0.062745005 0.008831834
0.14434129 0.031830132 0.08691526 0.015090378 0.046945207 0.092245966 0.0750168 0.1820106
-0.031454004 0.11445798 -0.08565656 -0.21299195 -0.02947692 0.151324 0.029219978 0.17631881
0.19876327 -0.04622531 0.19063328 0.10752747 -0.3725249 0.12468076 0.014719734 -0.12444278
-0.19980524 0.0965831 -0.058171365 0.06787618 0.088536605 0.057263825 0.008760529 0.029246502
0.05922271 0.048952203 0.02753111 -0.19325279 0.09655229 -0.023275366 -0.057164036 -0.13986957
0.20209894 0.0050597717 0.10928897 0.2202372 -0.21560395 0.066309564 0.016339798 -0.27790403
0.01564693 0.2022806 -0.1567837 -0.19698085 -0.045299035 0.10636449 -0.14451125 0.07283312
0.049926933 -0.16192423 -0.13688213 -0.07097968 -0.14665319 -0.14483206 0.04122978 -0.054403264
-0.11386548 -0.055105064 0.03286754 -0.00468796 -0.04886928 -0.0065339673 0.026707765 -0.07745253
0.015484734 -0.030347884 -0.06333494 -0.0033140143 -0.06297302 -0.28698418 -0.029835237 -0.09979327
-0.07269293 0.19679473 -0.13707253 0.024891319 -0.072466664 -0.16078079 0.2180435 0.005953592
-0.025055645 -0.34117055 -0.15331346 -0.03219018 -0.11169517 0.11865252 0.051205747 -0.14414272
-0.09195121 0.010723101 -0.080902375 -0.016517736 -0.08402449 -0.008181315 -0.018872228 -0.23422118
0.09874023 0.17783551 0.014103962 0.06504688 0.041693985 -0.047776658 -0.13894282 -0.09823818
-0.00959347 0.12137276 -0.10380169 -0.12911579 0.03516 -0.055973876 -0.05565979 0.014470058
0.10064168 0.1024309 -0.15552899 -0.091347195 -0.17015085 -0.14808787 0.203393 0.0043612407
0.06902439 0.08166032 -0.102570124 0.021305066 -0.16969736 -0.07195601 -0.11791146 0.07631385
0.08855915 -0.05880425 0.13366073 0.14307486 0.12707557 -0.06851292 0.20992868 0.24634548
0.21123108 0.104845665 0.1270955 -0.13545793 0.256779 0.082366705 -0.0263303 0.05941076
-0.02092841 0.06601844 -0.12134229 0.08152633 -0.014576866 0.046487615 -0.06826025 -0.09516704
0.078099735 -0.03171465 -0.027278058 0.024243938 0.11460259 -0.16167964 -0.18229604 -0.2052168
-0.05277676 0.18758331 0.11700998 0.16846542 -0.06532945 -0.15881526 0.2460183 0.11104666
0.13305195 0.043617856 0.14360292 -0.054041967 0.113443054 0.148714 0.15704568 0.16200453
-0.06533882 -0.16724607 -0.17982738 -0.08101484 -0.007196411 0.15820867 0.1426551 -0.093849875
-0.08617752 -0.0003854729 -0.099303104 0.023137657 0.04743208 -0.10952617 0.08631442 0.16431503
0.13250042 -0.21093605 -0.17361657 -0.03227209 0.16972621 -0.020891571 0.01840067 0.09417033
-0.13967553 0.1172417 0.1827758 -0.029090697 0.08407206 0.0340691 0.05982117 -0.19796501
00000000: 4cb1 133e 212e bebd 3d6d 26bd 90ad 66bd
00000010: f580 52be cec4 0c3d b218 8ebc 5ae3 0a3e
00000020: 65b1 693d da1f ac3d 23d3 38be d81d e73d
00000030: f112 d33d 8b2e 3dbe 5822 2b3d f030 63bd
00000040: e1ec a33d 8190 84be 84df 123e 5199 173e
00000050: 9e97 adbd 9d5b c4bc cd23 bc3d 4a18 bb3d
00000060: e6ce 153e 34b5 2c3e e0cb 193e 78e0 573e
00000070: 8b24 a63c 5fc5 65be 5f38 cb3d ede3 a63d
00000080: eb14 1cbe 3e97 14bd 5efc 873c 872c 873b
00000090: 5b70 d83c 8a2e b0be 7480 80bd 66b3 103c
000000a0: 34ce 133e 5060 023d a100 b23d a23d 773c
000000b0: 9e49 403d 74eb bc3d 68a2 993d fd60 3a3e
000000c0: ead5 00bd f268 ea3d b56c afbd 901a 5abe
000000d0: 9579 f1bc aef4 1a3e bc5e ef3c eb8c 343e
000000e0: 9988 4b3e c056 3dbd 5f35 433e 5d37 dc3d
000000f0: 95bb bebe a058 ff3d 0a2b 713c dbdb febd
00000100: bf99 4cbe 5ccd c53d 1945 6ebd ab02 8b3d
00000110: ae52 b53d 798d 6a3d 5288 0f3c 5c96 ef3c
00000120: 8393 723d 1b82 483d ec88 e13c 0fe4 45be
00000130: 35bd c53d fbab bebc d624 6abd f839 0fbe
00000140: 06f3 4e3e 71cc a53b e5d2 df3d dc85 613e
00000150: 48c7 5cbe 4fcd 873d 0adb 853c 7049 8ebe
00000160: fe2d 803c a522 4f3e e88b 20be 59b5 49be
00000170: 7b8b 39bd a0d5 d93d c2fa 13be 8829 953d
00000180: 2f80 4c3d 77cf 25be d42a 0cbe cb5d 91bd
00000190: 412c 16be db4e 14be 8fe0 283d f5d5 5ebd
000001a0: 4e32 e9bd d9b5 61bd 1da0 063d 759d 99bb
000001b0: 272b 48bd e41a d6bb 3eca da3c 6f9f 9ebd
000001c0: afb3 7d3c 209c f8bc c0b5 81bd ef2f 59bb
000001d0: 00f8 80bd 97ef 92be 0769 f4bc 6a60 ccbd
000001e0: 08e0 94bd 8f84 493e be5c 0cbe e1e8 cb3c
000001f0: 6769 94bd b8a3 24be cc46 5f3e 5916 c33b
00000200: 7f41 cdbc e8ad aebe 34fe 1cbe dad9 03bd
00000210: 70c0 e4bd 1800 f33d 1ebd 513d 269a 13be
00000220: ea50 bcbd f2af 2f3c 25b0 a5bd 3450 87bc
00000230: 0815 acbd ec0a 06bc ee99 9abc add7 6fbe
00000240: 5138 ca3d 831a 363e 4e14 673c 4c37 853d
00000250: 50c7 2a3d 75b1 43bd 0747 0ebe 1931 c9bd
00000260: ee2d 1dbc 4892 f83d fb95 d4bd ee36 04be
00000270: ef03 103d dd44 65bd 85fb 63bd d213 6d3c
00000280: 3a1d ce3d 4bc7 d13d fe42 1fbe 3d14 bbbd
00000290: 063c 2ebe 59a4 17be 4146 503e bde8 8e3b
000002a0: a95c 8d3d 873d a73d 4910 d2bd f687 ae3c
000002b0: 25c5 2dbe ac5d 93bd 907b f1bd 704a 9c3d
000002c0: 805e b53d badc 70bd 5cde 083e 3782 123e
000002d0: 1920 023e 8050 8cbd 8bf7 563e fd41 7c3e
000002e0: f64c 583e 53b9 d63d 5325 023e 7cb5 0abe
000002f0: 8978 833e e0af a83d a4b2 d7bc b258 733d
00000300: 0f72 abbc ad34 873d 4e82 f8bd 47f7 a63d
00000310: cfd3 6ebc cc69 3e3d 08cc 8bbd f0e6 c2bd
00000320: c1f2 9f3d 39e7 01bd 3c76 dfbc 399b c63c
00000330: c3b4 ea3d 598f 25be d0ab 3abe 5a24 52be
00000340: 722c 58bd d715 403e eea2 ef3d 3382 2c3e
00000350: 72cb 85bd 78a0 22be 39ec 7b3e 6e6c e33d
00000360: c53e 083e a3a8 323d a50c 133e 1c5b 5dbd
00000370: d554 e83d 7c48 183e 95d0 203e 84e4 253e
00000380: 5cd0 85bd 8e42 2bbe ab24 38be 1ceb a5bd
00000390: dfcf ebbb 7401 223e 2e14 123e 5d34 c0bd
000003a0: d77d b0bd 4c19 cab9 6d5f cbbd 2f8b bd3c
000003b0: 2448 423d 424f e0bd 9dc5 b03d 3342 283e
000003c0: 31ae 073e 9fff 57be 8bc8 31be bd2f 04bd
000003d0: b5cc 2d3e cd24 abbc 00bd 963c 60dc c03d
000003e0: 1a07 0fbe 6b1c f03d 9429 3b3e 9d4f eebc
000003f0: f92d ac3d 0a8c 0b3d 0b07 753d 57b7 4abe

fc2.weight f4 [300, 400]
0.07114346 0.15504721 0.03815549 -0.0584671 0.1690496 0.09629298 -0.14415637 0.06706454
-0.17080723 0.04636509 -0.0021088608 0.058763623 -0.07591687 -0.01098094 -0.38100657 -0.012374361
0.11948763 0.05075377 0.11113991 0.04112609 -0.0717348 0.101940684 -0.11799719 0.065227374
-0.16374363 -0.13674563 0.05141161 -0.099271975 -0.09805421 -0.173156 -0.04556103 -0.07979572
0.12698852 0.21313232 0.20540069 -0.0449836 0.008011202 0.016249908 -0.05494327 -0.100336336
0.19868426 -0.008128045 0.11171884 -0.04518568 -0.2990333 0.024230469 -0.17345633 -0.014105279
-0.0731016 0.00028187264 0.19771487 -0.056627072 -0.049002577 0.08207126 0.06272868 0.00542542
0.05251935 -0.02832038 -0.06344174 -0.03631887 0.043822605 0.010824186 -0.10356826 0.068200245
0.027122643 0.03980342 -0.08826237 -0.017177625 0.05200167 0.1526731 0.043618493 -0.07882608
-0.024933795 0.150815 -0.13416328 -0.1817228 0.0707064 -0.14005825 -0.11626207 0.1109199
-0.10324166 -0.050934087 0.1644015 0.12777542 0.02306638 0.049909864 0.01651675 0.11412798
0.09518913 -0.032036133 0.023634354 -0.03584315 -0.26840025 0.044650443 -0.2359551 -0.21038848
0.0046648877 -0.12911914 -0.06107353 -0.110812455 0.20165116 -0.153479 0.06359327 -0.36409402
0.061585277 -0.01938315 0.23089157 0.028574578 0.004993599 0.021538721 0.10009999 0.0028764226
0.084862195 -0.13125834 -0.043138742 0.07747789 0.24085683 0.06842106 0.021070303 -0.053186506
-0.120667085 -0.02658324 -0.27202493 0.0352726 -0.17993452 -0.11590559 -0.06956716 0.080162965
-0.2734368 -0.09698596 -0.19219775 0.03266381 0.056333892 0.093621284 0.10178525 -0.021667836
0.16406283 -0.08335655 -0.10735219 -0.3021922 -0.0045221816 -0.20700195 0.004882408 -0.23112713
0.0036433742 0.030347252 -0.17761779 0.095434576 -0.033890873 -0.15569708 -0.011246594 -0.14725475
-0.19243659 0.070651464 -0.16884306 0.0016043192 -0.20523874 0.18899448 0.28461465 0.014080852
0.0052124136 0.090914935 0.078098975 -0.07967609 -0.02187501 0.087118655 0.08670623 -0.17074935
-0.010889565 -0.0630387 -0.08480101 -0.11664354 0.15105104 -0.044686977 -0.019710638 0.031204078
0.11272435 -0.16286851 0.03553333 0.043686435 -0.09568054 -0.15683262 0.07231289 0.1986972
0.000727916 0.11619808 0.22491184 0.012021633 0.09395579 -0.0689948 -0.15692835 0.05841256
-0.1676587 0.030870106 0.030305358 0.18801397 -0.072604135 0.14956489 -0.098618984 0.058339927
-0.05481936 -0.17279029 0.10072367 -0.42541987 -0.09973867 -0.098688126 -0.100125685 -0.39773813
-0.14259823 0.14091216 0.14425309 0.07620995 -0.023491576 -0.17937402 0.075165845 -0.011475748
0.03446807 -0.20553654 0.08267777 -0.18719806 0.030497823 0.032539595 0.011353548 0.023590384
-0.06201588 -0.05249424 -0.16657418 -0.16880232 -0.1914354 0.07460835 0.09724132 -0.3565255
0.122548334 -0.2045409 0.03298613 -0.24755901 -0.05472134 -0.06552327 -0.046367932 0.105620444
0.111451276 -0.10985999 0.019597152 -0.1376352 0.03659765 0.104881406 0.17594136 0.072010905
-0.13465738 0.042169347 0.09591317 0.10925029 0.07640902 -0.04810734 -0.12279148 -0.10952333
00000000: aab3 913d b2c4 1e3e ee48 1c3d 337b 6fbd
00000010: 571b 2d3e 4135 c53d ba9d 13be 2259 893d
00000020: 17e8 2ebe 52e9 3d3d d034 0abb 20b2 703d
00000030: 4e7a 9bbd 67e9 33bc 4b13 c3be d5bd 4abc
00000040: eeb5 f43d 2fe3 4f3d 529d e33d d573 283d
00000050: b2e9 92bd 47c6 d03d 83a8 f1bd ee95 853d
00000060: 69ac 27be 0c07 0cbe fb94 523d 1b4f cbbd
00000070: a5d0 c8bd ce4f 31be 349e 3abd f06b a3bd
00000080: 4709 023e 5c3f 5a3e 8f54 523e b940 38bd
00000090: 6b41 033c 871e 853c 320c 61bd 237d cdbd
000000a0: e373 4b3e 7e2b 05bc d9cc e43d 9f14 39bd
000000b0: e51a 99be fa7e c63c 899e 31be d419 67bc
000000c0: 4bb6 95bd 4ec8 9339 c475 4a3e caf1 67bd
000000d0: edb6 48bd fa14 a83d e577 803d b9c7 b13b
000000e0: 881e 573d 2400 e8bc beed 81bd 18c3 14bd
000000f0: 557f 333d ed57 313c 991b d4bd 92ac 8b3d
00000100: 4e30 de3c e908 233d e7c2 b4bd 17b8 8cbc
00000110: b4ff 543d 5656 1c3e 4ea9 323d 916f a1bd
00000120: f541 ccbc 3f6f 1a3e 1962 09be 8b15 3abe
00000130: 84ce 903d 6e6b 0fbe cf1a eebd f929 e33d
00000140: 5d70 d3bd 43a0 50bd de58 283e 8fd7 023e
00000150: b4f5 bc3c 496e 4c3d 234e 873c eebb e93d
00000160: 85f2 c23d 5238 03bd d59c c13c 44d0 12bd
00000170: c26b 89be 62e3 363d 379e 71be 1470 57be
00000180: eadb 983b cf37 04be 3d28 7abd a4f1 e2bd
00000190: a47d 4e3e 9929 1dbe 303d 823d 886a babe
000001a0: d840 7c3d 69c9 9ebc d76e 6c3e 3c15 ea3c
000001b0: 58a1 a33b f971 b03c 3901 cd3d 5d82 3c3b
000001c0: 3bcc ad3d 9668 06be 40b2 30bd baac 9e3d
000001d0: 2ca3 763e 5720 8c3d a19b ac3c 18da 59bd
000001e0: 4e20 f7bd 18c5 d9bc da46 8bbe 007a 103d
000001f0: c140 38be e95f edbd 3a79 8ebd 7b2c a43d
00000200: e9ff 8bbe 93a0 c6bd 7dcf 44be 7dca 053d
00000210: 5ebe 663d 84bc bf3d c974 d03d bf80 b1bc
00000220: 1600 283e d7b6 aabd 77db dbbd f0b8 9abe
00000230: cf2e 94bb 52f8 53be 9bfc 9f3b 97ac 6cbe
00000240: adc5 6e3b cd9a f83c 70e1 35be 3473 c33d
00000250: 28d1 0abd 0e6f 1fbe a243 38bc f3c9 16be
00000260: 190e 45be b7b1 903d 32e5 2cbe 0548 d23a
00000270: 1b2a 52be c587 413e 03b9 913e 60b3 663c
00000280: e5cc aa3b 9c31 ba3d 5bf2 9f3d 382d a3bd
00000290: 3933 b3bc 446b b23d 0993 b13d ebd8 2ebe
000002a0: 256a 32bc 6f1a 81bd 27ac adbd cfe2 eebd
000002b0: 20ad 1a3e b109 37bd 3478 a1bc b29f ff3c
000002c0: 06dc e63d 01c7 26be 668b 113d 8cf0 323d
000002d0: 29f4 c3bd bb98 20be c818 943d 4777 4b3e
000002e0: 9ed1 3e3a 42f9 ed3d 4a4f 663e 62f6 443c
000002f0: e56b c03d 254d 8dbd d3b1 20be 0242 6f3d
00000300: b9ae 2bbe 4ee3 fc3c f142 f83c bc86 403e
00000310: 7ab1 94bd 8a27 193e c0f8 c9bd d9f5 6e3d
00000320: 448a 60bd f0ef 30be 3648 ce3d a2d0 d9be
00000330: ca43 ccbd 001d cabd b20e cdbd 55a4 cbbe
00000340: 4505 12be 474b 103e 15b7 133e f613 9c3d
00000350: 6871 c0bc d3ad 37be 8df0 993d c704 3cbc
00000360: 642e 0d3d 2c78 52be f652 a93d d9b0 3fbe
00000370: 92d6 f93c 3d48 053d 3b04 3a3c 9f40 c13c
00000380: 5d04 7ebd 3304 57bd 6c92 2abe 84da 2cbe
00000390: a407 44be 43cc 983d 7526 c73d 838a b6be
000003a0: 9ffa fa3d 2b73 51be 771c 073d 1c80 7dbe
000003b0: 7c23 60bd 1031 86bd 4dec 3dbd 884f d83d
000003c0: 9140 e43d 46fe e0bd 358a a03c 3ef0 0cbe
000003d0: 6be7 153d 10cc d63d f929 343e 747a 933d
000003e0: a0e3 09be c4b9 2c3d 206e c43d 9ebe df3d
000003f0: 557c 9c3d 340c 45bd 197a fbbd c54d e0bd

fc2.bias f4 [300]
-0.0530106 0.01163192 -0.016608924 0.016880924 0.08465408 -0.02169961 0.03412887 -0.018920304
0.032101654 0.046671584 -0.09029425 0.032570794 -0.042499304 -0.045628164 0.012750499 -0.093808
0.053694908 -0.047208007 0.030486425 0.055613987 0.046876285 0.015186375 -0.07399974 -0.015518187
0.058011305 -0.019127814 -0.041116104 -0.005478694 -0.016591629 -0.041782755 -0.012445353 -0.06725142
0.043939978 0.042211156 -0.061686307 -0.041267652 0.08600023 0.047540393 -0.011777621 -0.06400788
-0.07811674 -0.079917416 -0.004494701 -0.0011947143 0.023923593 0.0074708476 -0.008697743 0.028396051
-0.05221831 -0.046966083 0.06666619 0.0011224255 -0.01605471 -0.041820534 -0.048584566 -0.075126775
0.018994298 -0.015810903 0.036215853 0.009049281 0.03777927 -0.011108727 0.06303501 -0.094491996
-0.031119902 -0.024190594 0.03038834 -0.053501975 -0.053256195 -0.03750468 0.06865387 -0.022048978
0.04865632 -0.031834707 -0.000913183 0.023925556 -0.013182385 0.062375035 -0.024771305 0.034046914
0.06296791 -0.027060496 -0.11081818 -0.05916713 0.04360576 0.03173129 0.09330561 -0.009238904
-0.025106939 -0.007162034 -0.0074785505 -0.03403296 -0.042185858 -0.064879484 0.0009905451 0.010963626
0.017495545 0.04571649 0.05391743 -0.1383344 -0.029261066 -0.044528075 0.016908176 -0.005849998
0.070327535 0.029861545 0.033294946 -0.058336362 -0.065533966 0.003324906 -0.0764856 -0.045217123
-0.013199454 0.066732034 -0.039965402 0.0952228 0.0317861 0.01685025 -0.0005300535 -0.106882505
-0.013055399 0.05787198 -0.07685343 0.010341604 0.006584534 0.069884166 0.025918089 0.093200654
-0.009532524 -0.0009560159 -0.01378115 -0.013855965 -0.0087923445 -0.03443914 -0.0048759114 0.11190778
-0.009640449 -0.057617866 0.03997126 -0.03185969 0.0554743 0.004238064 0.057998765 -0.0452616
-0.02938858 0.021844422 0.1049664 0.005363874 -0.021603307 0.043803286 0.039396293 0.037449557
0.059943736 -0.008802691 0.0065884176 0.003279263 0.06189636 -0.0018422625 0.011541389 0.029069372
-0.029447557 0.018121533 -0.02955322 0.06052453 0.028848184 -0.058349386 0.019248083 0.030617645
0.073639795 0.09289169 -0.060729362 0.047940582 0.085537665 -0.032204203 -0.042230587 0.030560233
0.03686105 -0.007527618 -0.011289129 0.051416468 -0.056889866 0.039372277 -0.0074290456 -0.07744491
-0.046107907 -0.048992105 0.078307055 0.07190423 -0.028560456 -0.049472693 0.011448574 -0.11170165
0.06695472 0.05663919 -0.03808905 -0.01621897 -0.027732806 -0.19022599 -0.02982493 -0.06969655
-0.04652508 -0.04943228 -0.046650946 -0.0144662075 0.022179926 0.02346772 -0.03614316 0.04797266
-0.113909245 0.037382264 0.0050333273 0.11396467 0.0033712622 0.04989185 0.05550024 -0.013639554
0.028164495 -0.027949303 -0.06325418 0.009491761 0.028052518 0.07546521 -0.08384969 0.020969935
0.058504596 -0.0061876206 0.0066846954 -0.122002326 0.01476949 -0.02572073 -0.022422248 0.015278758
-0.024058523 0.038465288 0.010962027 0.0126934 0.049508 0.0034121003 -0.036779657 0.007869541
0.027425379 -0.04522804 -0.048909888 -0.015965631 -0.043822393 0.038791567 0.05725558 -0.014506019
-0.0421615 0.07800469 0.050497733 0.06001549 -0.02455102 -0.030617395 0.035400182 -0.15535574
00000000: a521 59bd cf93 3e3c 700f 88bc dd49 8a3c
00000010: 1e5f ad3d 61c3 b1bc b7ca 0b3d c1fe 9abc
00000020: 067d 033d b42a 3f3d 31ec b8bd f468 053d
00000030: c013 2ebd 99e4 3abd 78e7 503c 691e c0bd
00000040: 31ef 5b3d 2f5d 41bd abbe f93c 7ecb 633d
00000050: 5901 403d 46d0 783c 2d8d 97bd fe3f 7ebc
00000060: 439d 6d3d efb1 9cbc 5c69 28bd 9e86 b3bb
00000070: 2beb 87bc 6524 2bbd 98e7 4bbc 1dbb 89bd
00000080: 68fa 333d 9be5 2c3d c8aa 7cbd 4508 29bd
00000090: e320 b03d b7b9 423d ecf6 40bc 9016 83bd
000000a0: abfb 9fbd beab a3bd 4948 93bb f697 9cba
000000b0: 69fb c33c 03ce f43b fa80 0ebc d69e e83c
000000c0: dee2 55bd 825f 40bd 4988 883d 5a1e 933a
000000d0: 2b85 83bc 024c 2bbd 9c00 47bd 11dc 99bd
000000e0: ee99 9b3c de85 81bc 1357 143d 6f43 143c
000000f0: 70be 1a3d 6101 36bc 8018 813d 0585 c1bd
00000100: 2aef febc 5a2b c6bc f8f0 f83c e324 5bbd
00000110: 2b23 5abd 829e 19bd 669a 8c3d 0fa0 b4bc
00000120: d94b 473d 1c65 02bd ac62 6fba 87ff c33c
00000130: eefa 57bc f77c 7f3d 31ed cabc c774 0b3d
00000140: 52f5 803d f9ad ddbc a4f4 e2bd 3c59 72bd
00000150: f49b 323d abf8 013d 0317 bf3d c65e 17bc
00000160: 11ad cdbc 7faf eabb a10e f5bb 2566 0bbd
00000170: 14cb 2cbd 89df 84bd 2ed5 813a c8a0 333c
00000180: d152 8f3c 3741 3b3d 86d8 5c3d 88a7 0dbe
00000190: e7b4 efbc 1263 36bd 0483 8a3c 57b1 bfbb
000001a0: e207 903d 33a0 f43c 4860 083d 1cf2 6ebd
000001b0: ac36 86bd abe6 593b 7ba4 9cbd 9735 39bd
000001c0: 8642 58bc ceaa 883d c3b2 23bd 2c04 c33d
000001d0: 2432 023d 8909 8a3c 4af3 0aba 37e5 dabd
000001e0: 50e6 55bc 2b0b 6d3d 5565 9dbd d56f 293c
000001f0: 13c3 d73b 6e1f 8f3d 2c52 d43c fcdf be3d
00000200: 4e2e 1cbc 249d 7aba 55ca 61bc 2104 63bc
00000210: c40d 10bc 0e10 0dbd 1cc6 9fbb e82f e53d
00000220: f9f2 1dbc b600 6cbd e7b8 233d 4e7f 02bd
00000230: 0539 633d 75df 8a3b 1d90 6d3d 3a64 39bd
00000240: 52c0 f0bc 13f3 b23c a0f8 d63d 70c3 af3b
00000250: 6bf9 b0bc 136b 333d 025e 213d b564 193d
00000260: 9087 753d 2939 10bc a7e3 d73b e7e8 563b
00000270: 0a87 7d3d 1278 f1ba 1818 3d3c e422 ee3c
00000280: 013c f1bc 9c73 943c 9819 f2bc 92e8 773d
00000290: 0753 ec3c c4ff 6ebd 28ae 9d3c dbd1 fa3c
000002a0: 76d0 963d 003e be3d 5abf 78bd 585d 443d
000002b0: 5f2e af3d 8ee8 03bd fbf9 2cbd 7459 fa3c
000002c0: 9dfb 163d 3daa f6bb 0af6 38bc 139a 523d
000002d0: 5905 69bd d344 213d 5a6f f3bb 709b 9ebd
000002e0: a5db 3cbd f2ab 48bd 735f a03d 8642 933d
000002f0: 9ef7 e9bc e1a3 4abd cd92 3b3c d6c3 e4bd
00000300: 8e1f 893d 7ffe 673d 4403 1cbd a5dd 84bc
00000310: e92f e3bc 9aca 42be 6953 f4bc 11bd 8ebd
00000320: 1591 3ebd 8179 4abd 1015 3fbd ac03 6dbc
00000330: adb2 b53c 603f c03c da0a 14bd fb7e 443d
00000340: 4049 e9bd 251e 193d 9cee a43b 4f66 e93d
00000350: 65f0 5c3b 665b 4c3d 3854 633d 7078 5fbc
00000360: 3ab9 e63c f0f5 e4bc 688b 81bd 5583 1b3c
00000370: 65ce e53c 818d 9a3d 63b9 abbd 24c9 ab3c
00000380: 84a2 6f3d 86c1 cabb 4a0b db3b 5bdc f9bd
00000390: bbfb 713c 48b4 d2bc ddae b7bc c153 7a3c
000003a0: 6116 c5bc c78d 1d3d 139a 333c faf7 4f3c
000003b0: e7c8 4a3d 8b9d 5f3b 44a6 16bd 3fef 003c
000003c0: 30ab e03c 0a41 39bd bc55 48bd 5bca 82bc
000003d0: 1c7f 33bd e8e3 1e3d d484 6a3d a7aa 6dbc
000003e0: 89b1 2cbd ecc0 9f3d b6d6 4e3d cdd2 753d
000003f0: 381f c9bc 55d1 fabc c8ff 103d 9315 1fbe

fc3.weight f4 [2, 300]
-0.11134794 -0.5612735 -0.032229032 -0.040465917 -0.3503117 -0.015320603 -0.0053995424 -0.42201355
0.059711497 -0.39685285 -0.038818616 0.049204543 0.09395977 0.09901679 -0.4084615 -0.26270413
0.027325833 -0.02715506 -0.055581078 0.023186639 -0.025254352 -0.21170785 -0.55316395 -0.010254051
-0.03076729 -0.24664415 -0.012135513 0.16168042 -0.01804353 -0.32774752 -0.025900206 0.38150918
-0.0054050963 -0.1778139 -0.22499175 -0.0058982666 -0.05510312 -0.23587076 -0.0027921645 0.0027104672
0.26407894 -0.1205736 0.057159428 0.025457293 0.063407734 -0.0846367 -0.031021839 -0.01838988
-0.29926282 0.29955366 -0.32387346 0.12401812 0.06549634 -0.21994804 -0.03308426 -0.45147228
-0.7518436 -0.25000486 -0.09288535 -0.29073328 -0.038907073 -0.046661153 -0.033631794 -0.4351403
-0.3972103 -0.27349347 0.037501298 -0.31498128 -0.00865769 0.094089046 -0.35373348 -0.011280619
0.04955367 -0.002586088 -0.4566401 -0.044544533 0.04166092 0.02670872 -0.2295395 -0.78203255
0.049950402 -0.15551598 0.28254226 -0.28254297 -0.052641608 0.01312956 -0.37821752 -0.94246584
-0.2509376 -0.22691712 0.02487548 0.020607706 -0.3799824 -0.03809453 -0.086820185 0.039449472
-0.62818635 0.040923953 0.14526306 -0.054182135 -0.08877551 0.00070120086 -0.14551167 -0.0206666
-0.10342288 -0.040242072 0.06022811 -0.0045005023 0.055393886 -0.063918434 -0.7700824 -0.037644062
-0.36009303 -0.2587556 0.006583407 0.0230925 -0.22428198 0.15390034 -0.023655407 -0.19714491
-0.027868647 -0.0100755105 0.69765 -0.4082651 -0.050461177 0.13853289 -0.22631761 -0.37880313
-0.18243338 0.10851057 -0.002843616 -0.5034949 0.03257004 -0.02011423 -0.17207915 0.13829772
-0.009319696 -0.013646035 -0.57676476 0.02091087 0.10879211 -0.079246104 0.18865004 -0.11368687
0.011571853 0.0019039486 -0.09277535 -0.009968453 -0.031459186 -0.1659632 -0.50627434 -0.0063241543
0.20643286 0.017933032 -0.16887906 -0.249471 -0.6293551 0.27582526 -0.03485562 -0.3809035
-0.6184396 -0.026071556 0.0027343556 0.5004225 -0.3707384 0.15184252 -0.018596293 -0.011722813
-0.25135216 0.022623237 -0.33007768 -0.004569874 0.020443508 -0.045613617 -0.02558749 -0.11908466
0.022052368 -0.018799454 -0.009539951 0.0024149076 0.025277598 -0.1035777 0.23870052 -0.2425622
-0.010403629 0.13188633 0.0928203 -0.15464365 -0.014935495 -0.06627898 -0.108655125 -0.088109374
0.114720754 0.029515889 -0.057494614 0.37322158 -0.07531347 -0.30273184 -0.25845405 -0.4429831
-0.29119897 0.11235682 -0.43386015 -0.021692503 0.06305574 -0.3372895 -0.016637381 -0.19332016
-0.34760466 -0.19417629 -0.44179022 0.028560797 -0.13805386 0.112071104 -0.24060325 -0.017058859
0.09756085 0.12066259 -0.11685336 -0.27973834 -0.4907725 -0.40719435 -0.5458924 -0.29659572
-0.06829483 -0.11232399 -0.45515886 -0.11801878 -0.14319982 -0.26424673 -0.029710196 -0.02227801
-0.031617768 -0.3151581 -0.023179315 0.016496794 0.04225447 -0.8150939 -0.057226814 -0.08625038
0.031217827 0.061319947 -0.27442127 -0.079136394 -0.019987173 0.2557713 0.09155947 -0.09677653
-0.37737572 0.14173113 -0.7155431 0.1805141 -0.022477483 -0.23251998 -0.014528244 -0.4614779
00000000: 640a e4bd 9faf 0fbf 9702 04bd 97bf 25bd
00000010: 0e5c b3be 4403 7bbc a5ee b0bb 2912 d8be
00000020: 0b94 743d 4c30 cbbe 4500 1fbd b48a 493d
00000030: fb6d c03d 51c9 ca3d de21 d1be 2881 86be
00000040: 6dda df3c 4a74 debc fca8 63bd e8f1 bd3c
00000050: 37e2 cebc f1c9 58be 279c 0dbf 9b00 28bc
00000060: af0b fcbc 4990 7cbe 08d4 46bc 8d8f 253e
00000070: 06d0 93bc 86ce a7be ab2c d4bc 2c55 c33e
00000080: 3c1d b1bb d914 36be 3d64 66be 3f46 c1bb
00000090: cfb3 61bd 1b88 71be bffc 36bb 18a2 313b
000000a0: 5b35 873e 4bef f6bd 0120 6a3d d08b d03c
000000b0: eadb 813d 0256 adbd 8321 febc 60a6 96bc
000000c0: fa38 99be 195f 993e bed2 a5be 36fd fd3d
000000d0: f222 863d 0f3a 61be 5c83 07bd 6027 e7be
000000e0: d278 40bf a300 80be ad3a bebd feda 94be
000000f0: 065d 1fbd c41f 3fbd 7ec1 09bd b6ca debe
00000100: 265f cbbe 5607 8cbe f69a 193d 3a45 a1be
00000110: fcd8 0dbc c2b1 c03d 8e1c b5be 58d2 38bc
00000120: caf8 4a3d 5b7b 29bb bbcc e9be 5474 36bd
00000130: a4a4 2a3d 3fcc da3c 670c 6bbe 4933 48bf
00000140: cb98 4c3d 953f 1fbe 61a9 903e 79a9 90be
00000150: ba9e 57bd 5e1d 573c baa5 c1be 7145 71bf
00000160: e57a 80be f65c 68be aac7 cb3c 7ed1 a83c
00000170: 0e8d c2be 0309 1cbd c8ce b1bd c595 213d
00000180: d2d0 20bf e09f 273d d7bf 143e 16ee 5dbd
00000190: efcf b5bd cbd0 373a 0301 15be 004d a9bc
000001a0: 60cf d3bd dfd4 24bd c0b1 763d f378 93bb
000001b0: b3e4 623d abe7 82bd 1f24 45bf a930 1abd
000001c0: 1d5e b8be 9d7b 84be 9fb9 d73b 7c2c bd3c
000001d0: 2daa 65be 0d98 1d3e fcc8 c1bc 5be0 49be
000001e0: ca4c e4bc c113 25bc 3199 323f 2008 d1be
000001f0: 61b0 4ebd 91db 0d3e cebf 67be 7cf2 c1be
00000200: d1cf 3abe ca3a de3d f65b 3abb 0be5 00bf
00000210: 2a68 053d 99c6 a4bc 8435 30be eb9d 0d3e
00000220: a3b1 18bc 9f93 5fbc dba6 13bf 464d ab3c
00000230: 66ce de3d c84b a2bd 7a2d 413e a9d4 e8bd
00000240: df97 3d3c ea8d f93a 0101 bebd b952 23bc
00000250: 59db 00bd 42f2 29be 329b 01bf da3a cfbb
00000260: 2363 533e 4be8 923c a2ee 2cbe 5375 7fbe
00000270: 6a1d 21bf f838 8d3e c4c4 0ebd c905 c3be
00000280: 0f52 1ebf 0494 d5bc e032 333b b01b 003f
00000290: 6cd1 bdbe 9b7c 1b3e 4157 98bc 0b11 40bc
000002a0: 3bb1 80be 5e54 b93c f1ff a8be e2be 95bb
000002b0: 2579 a73c 58d5 3abd db9c d1bc a9e2 f3bd
000002c0: 2ba7 b43c 5001 9abc 744d 1cbc 6d43 1e3b
000002d0: f712 cf3c 8c20 d4bd e96d 743e 3a62 78be
000002e0: fc73 2abc 360d 073e 9218 be3d e85a 1ebe
000002f0: 02b4 74bc 46bd 87bd 9486 debd b072 b4bd
00000300: b7f2 ea3d 4ecb f13c 797f 6bbd e616 bf3e
00000310: f33d 9abd abff 9abe 1754 84be aece e2be
00000320: 0818 95be 551b e63d eb22 debe 7ab4 b1bc
00000330: 5e23 813d 36b1 acbe 1e4b 88bc b8f5 45be
00000340: 3df9 b1be 26d6 46be 5432 e2be 55f8 e93c
00000350: fe5d 0dbe 8985 e53d b360 76be 05bf 8bbc
00000360: fccd c73d f31d f73d d050 efbd dd39 8fbe
00000370: 8846 fbbe c77b d0be 9bbf 0bbf 65db 97be
00000380: 29de 8bbd 1f0a e6bd 950a e9be d5b3 f1bd
00000390: f9a2 12be 594b 87be cc62 f3bc 6080 b6bc
000003a0: a281 01bd 675c a1be 8ce2 bdbc 4924 873c
000003b0: 0613 2d3d fea9 50bf aa66 6abd 0aa4 b0bd
000003c0: 87bc ff3c a02a 7b3d f280 8cbe 4312 a2bd
000003d0: 24bc a3bc 75f4 823e 8883 bb3d c632 c6bd
000003e0: 6437 c1be f721 113e d52d 37bf b0d8 383e
000003f0: b322 b8bc b819 6ebe df07 6ebc d546 ecbe

fc3.bias f4 [2]
0.023223562 0.0142858345
00000000: 573f be3c 220f 6a3c
