Tennis/Nets/checkpoint_actor900.pth (torch_old, 525671 bytes, 10 tensors)

bn1.weight f4 [24]
00000000: 2d3d 303f ef75 1e3f 36a0 3f3f 2ccd 1b3f
00000010: e309 7d3f 4f5b 4b3f 530f 113f 8372 113e
00000020: f831 333f 8623 b33e c50e 3d3f c417 293f
00000030: 4e05 2f3f 5262 913f e5d6 323f 7911 533f
00000040: 6c15 463f 76ce 0e3f 6eb8 f63e d909 8d3f
00000050: 96fe 9e3e b38e 5d3f 4b73 243f d43d 753f
0.68843347 0.618987 0.7485384 0.6085994 0.9884321 0.794362 0.5666401 0.14203839
0.6999812 0.3498804 0.7385066 0.6605189 0.6836747 1.135813 0.69859153 0.82448536
0.7737644 0.55783784 0.48187584 1.101863 0.3105361 0.86545867 0.64238423 0.9579747

bn1.bias f4 [24]
00000000: ae40 95bd 981f dbbc c278 9e3d 362d 213d
00000010: 0466 4d3c 9d9d 033c d574 6f3d 2a25 5cbc
00000020: f97b f8bd 76e5 d2bc 4ed1 81bc 8a21 a8bd
00000030: 2d49 dbbc 1205 febb ff4b a6bc 9360 94bd
00000040: 9c9a d23b 9f00 78bb 0ea8 013d d681 b4bd
00000050: 11c3 8a3c 1ca3 f6bc c4a0 013d 10cb 0fbe
-0.07287727 -0.026748464 0.077378765 0.039349757 0.012536529 0.008033183 0.05846103 -0.013436595
-0.12133021 -0.025744181 -0.015846875 -0.08209522 -0.026768291 -0.0077520693 -0.02029991 -0.072449826
0.0064271223 -0.0037842167 0.03165441 -0.08813827 0.016938718 -0.030107073 0.03164746 -0.14042306

bn1.running_mean f4 [24]
00000000: 4a80 ccc0 f8dc 8cbf 2c0b 5b40 aa9f e23e
00000010: 0592 1c3e 18c9 4040 2c0b 5b40 aa9f e23e
00000020: 2c47 dbc0 b6bd 91bf e41f 5b40 5cac 093f
00000030: ec54 fc3d e45b 3b40 e41f 5b40 5cac 093f
00000040: 1422 eac0 fa42 95bf dc1c 7240 1f9e 293f
00000050: f767 b23d 8627 3340 dc1c 7240 1f9e 293f
-6.3906603 -1.1004934 3.4225569 0.4426244 0.15290077 3.0122738 3.4225569 0.4426244
-6.852438 -1.138602 3.4238214 0.53778625 0.12320885 2.9274836 3.4238214 0.53778625
-7.31666 -1.1661065 3.7830114 0.662569 0.08711236 2.7992873 3.7830114 0.662569

bn1.running_var f4 [24]
00000000: f20b 9d41 4af0 593f cb40 7c43 4d63 9e40
00000010: 67e0 2742 69bf a740 cb40 7c43 4d63 9e40
00000020: 7faf 8e41 a35e 5b3f b100 8743 a8ec b540
00000030: f3d8 3642 c3f1 bd40 b100 8743 a8ec b540
00000040: aecf 7841 c45c 5e3f ef14 9043 d84b d040
00000050: 6af0 4642 9451 e540 ef14 9043 d84b d040
19.630833 0.85132277 252.2531 4.9496217 41.969143 5.2421155 252.2531 4.9496217
17.835691 0.8569128 270.0054 5.6851387 45.711864 5.935762 270.0054 5.6851387
15.550703 0.868603 288.16354 6.5092583 49.73478 7.1662083 288.16354 6.5092583

fc1.weight f4 [400, 24]
00000000: a638 c0bc 8d98 46be 4312 18bd 9d24 b33c
00000010: 67c7 4ebd a49c 493e 931e b9bc a1b8 92bd
00000020: b753 1dbd 16ad 01be 5cbd 843d cee7 363d
00000030: 18f1 c0bd 68c7 783e 4f64 bebb 0149 c23c
00000040: 59cf e9ba 6464 23be 3c53 133d a11b e0bd
00000050: 03f3 7bbd 5d5b 533e 3218 e53d 0bb1 09be
00000060: 954f fd3d efa1 05be 2dac 413d f986 72bd
00000070: 9603 85be 57a7 8d3e 31ba bd3b 2019 a7bc
00000080: ace4 3e3e 8f14 853b e9da 6abd 08b2 043e
00000090: 4ca6 95be 0c9c ae3e 94f1 b9bd 60d0 1b3e
000000a0: 2439 4e3e ab59 743d 9691 c63d aa46 823e
000000b0: d07d 37be 5275 b13e c63c 8a3d f390 293e
000000c0: 3116 20bd dd7c 4dbe 756e df3d 3a59 c6bd
000000d0: 3fd0 a63e 945b e43d 1d52 bf3d 634b 17be
000000e0: f996 c7bc b49b 3abe 033a 3dbe 9fd1 343e
000000f0: d7f7 8b3e 6e70 ae3d 256d 73be 13d2 203e
00000100: e31c dcbd f042 66bd 5407 3cbd 4d5f 583d
00000110: 64cd 6a3e 44f1 87bb 0234 bebd f273 043e
00000120: 7813 9fbd cf21 5e3e 5e38 2fbd 1511 dc3d
00000130: d222 c93d 8beb 2b3e 531a 21bd a6f8 1f3e
00000140: 85e1 103d b7ce 403e 4275 0f3e 380a c0ba
00000150: fe3e 6c3d 986f b03d 2601 343e 168c cf3c
00000160: 10a2 b73d fc6e 6d3e c675 a33d bcd7 bfbd
00000170: ca47 c1bd 1af6 bb3d 9716 fe3d e3eb dfbd
00000180: b12b 12be a70f 5f3e 5cde a73d 7f80 3fbd
00000190: 2842 403e 2768 2f3e 2534 e33d 5a94 79bc
000001a0: cbd4 c8bd 9b31 883e 76a7 af3d 39b4 9ebc
000001b0: 88ed 523e 69d2 003e 74e4 123e a120 d7bc
000001c0: 6159 f6bd 4bb9 8a3e d582 43be e9af 8ebd
000001d0: b3ec 303e 9a0f 883d c7cd 56be 8a85 c9bd
000001e0: 5b1c 0b3c df64 433d 1bf1 a23d 2bf5 0c3e
000001f0: 2c93 0d3e 4864 6c3e 9c9e f63d d838 91bb
00000200: 5a28 5bbd 3de2 b43d b277 efbd 1b44 cd3c
00000210: a550 153e c899 463e e978 fdbd a7f8 ac3c
00000220: cf9c 153c 1a1f e23d 463a 333d 147b fa3d
00000230: ddd9 ab3d a6f7 d93d a421 583d ebca 8e3d
00000240: c483 fe3d 15f9 39be a99e 8d3b 9089 ac3d
00000250: 4d31 cf3e 0689 d0bd 3f82 9fbc 5de8 e73c
00000260: 4d03 4a3e 233c 3cbe 3fcc 903e b728 a13d
00000270: adc1 a23e bb12 29be 03b7 8a3e eb3b ef3d
00000280: 0ffe 4d3e 3ac2 08be c813 663e 25cd 83bd
00000290: 3c80 623e df7b 80be d9af 413e d95a e5bd
000002a0: 5758 e83b 8c3d abbd 32b4 bbbb e6dc dcbc
000002b0: bde6 9e3c 8927 fd3d ff4b 583d 9fa3 873c
000002c0: 923c de3c bade 17be 520c 4cbd b944 e9bc
000002d0: 092d a0bc 5538 113e a262 29bd 2eb8 36bd
000002e0: 8783 1abd 5b43 07be 55e9 43be d0bc 4c3d
000002f0: 6748 d83c 6682 743c af3c 23be e196 a63c
00000300: de07 acbd dfeb 473e 0fde 14bc 7e43 f53c
00000310: 5e36 f2bb 77ae d43c 42a7 2bbd a713 bc3d
00000320: 45ce 85bc 4fbb 683e a6e6 33bd 1a92 043c
00000330: f7b3 5dbb f582 9bbd d83b c63c a98b 543d
00000340: c742 c1bd 9272 293e 26b6 193c 7ce0 1abe
00000350: 5a56 193d e0af 1cbe 1980 efbc 1fa2 c7bd
00000360: cef1 813d 8ce6 193c 0315 b63d 7049 773c
00000370: 0f96 27bd 37ae ce3d c421 8d3d abce 923d
00000380: 02d3 b23d a3cc 26bd 53c7 373d 0697 063d
00000390: 5bdb cdbc 329e d43d 6ded 103d f534 213c
000003a0: b775 ea3c 0ad0 fb3c bb4a 003c f2c5 073e
000003b0: 4f93 bebc a2cb 843e 89ee 7f3d 0e61 913d
000003c0: 097d 4fbd a547 ca3d 1ead 69bb 7735 e33d
000003d0: 4adb 27bd 23ef fabd 6f30 79bd a2c6 03bb
000003e0: 6802 cebd bed5 473e 6fcd 80bd 59a5 e83d
000003f0: 786d 9abd 87a8 7ebe 2ffe f5bc 9f5e 093e
-0.023464512 -0.19394131 -0.03712679 0.021868045 -0.050483134 0.1968866 -0.022597587 -0.071641214
-0.038409915 -0.12663683 0.0648143 0.04465466 -0.09420985 0.24294817 -0.0058102976 0.023716452
-0.0017838284 -0.15956265 0.03596805 -0.1094277 -0.06151105 0.20640321 0.111862555 -0.13446443
0.12368695 -0.13050054 0.04728334 -0.05921075 -0.25979298 0.27666733 0.005790018 -0.020397723
0.18641919 0.0040612887 -0.057337675 0.12958539 -0.29228437 0.3410343 -0.090792805 0.15216208
0.20138985 0.059655827 0.09695737 0.25444537 -0.17919087 0.3465982 0.06749873 0.165592
-0.039083663 -0.20067163 0.1090974 -0.09684987 0.32580754 0.1115028 0.09341834 -0.14774852
-0.024363982 -0.18223459 -0.18479161 0.17658089 0.27337524 0.08517538 -0.23772104 0.15705137
-0.10747697 -0.05621618 -0.045905426 0.05282526 0.22929913 -0.004148634 -0.092872635 0.12934855
-0.07767385 0.21692584 -0.042778365 0.10745446 0.098210946 0.16789071 -0.039331745 0.15622196
0.035371322 0.18828855 0.14009574 -0.0014651483 0.05767726 0.08615035 0.17578563 0.025335353
0.08966458 0.23186868 0.07981448 -0.0936732 -0.09437521 0.091777995 0.124066524 -0.10933664
-0.1427448 0.21783315 0.081967086 -0.046753403 0.18775237 0.17129575 0.1109393 -0.015233124
-0.09806212 0.26600346 0.085768625 -0.019373046 0.20598423 0.12580265 0.1434496 -0.026260676
-0.120287664 0.27094492 -0.19092877 -0.06967146 0.17277794 0.06643601 -0.20976935 -0.09839924
0.008490647 0.04770362 0.079561435 0.13765399 0.13825673 0.2308513 0.12041971 -0.004431825
-0.05350528 0.08832214 -0.11692752 0.02505689 0.14581545 0.193946 -0.123765774 0.02111466
0.009131624 0.110410884 0.043756746 0.122305065 0.083911635 0.10642938 0.052766457 0.06972297
0.12427476 -0.18161424 0.0043218923 0.084246755 0.404673 -0.10182385 -0.019471286 0.028309042
0.19727822 -0.18382315 0.28280827 0.07869094 0.31788388 -0.16511051 0.27092752 0.1168135
0.20116447 -0.13355342 0.22468483 -0.064356126 0.2211923 -0.25094506 0.18914737 -0.111989684
0.007090609 -0.083613485 -0.005728268 -0.026960801 0.019397134 0.12361056 0.05280685 0.016557513
0.027128492 -0.14831057 -0.049816437 -0.028475152 -0.019552724 0.14181645 -0.04135383 -0.04460924
-0.03772309 -0.13209288 -0.19131978 0.049984753 0.026401712 0.014923668 -0.15941118 0.020335617
-0.08399938 0.19523571 -0.009086146 0.02993941 -0.007391735 0.025962098 -0.041907556 0.09183436
-0.016333709 0.22727703 -0.043921135 0.008091474 -0.0033829191 -0.075933374 0.024198458 0.051891003
-0.09436565 0.16547611 0.0093818065 -0.15124696 0.037435867 -0.15301466 -0.029235886 -0.09747719
0.06344949 0.009393346 0.088907264 0.015093192 -0.04091459 0.100918226 0.06891206 0.07168325
0.08731653 -0.0407225 0.044867825 0.03285887 -0.02512901 0.10381736 0.035382677 0.009839286
0.028620584 0.03073885 0.007830317 0.13259104 -0.023263602 0.2593661 0.062483344 0.0709859
-0.050656352 0.09876946 -0.0035656164 0.11094182 -0.040980615 -0.12252643 -0.060837205 -0.0020107408
-0.10059053 0.1951513 -0.06289183 0.113596626 -0.07540411 -0.24868976 -0.03002843 0.13415001

fc1.bias f4 [400]
00000000: 57b1 c13d 7a6c e8bd 9350 ce3c 4bd5 e7bd
00000010: f3c5 34be 32c4 763d 34a0 dcbd 7aab 413e
00000020: 2aa4 34bd e2a0 023e 4407 95bd c2e4 393e
00000030: ccef 0c3e 4905 7dbe 9a74 85bd 8c74 80bd
00000040: 126d a73d 7f17 53be 2c19 143e a43d 5c3e
00000050: fb30 e8bb e982 06bc c511 b33d b723 e03d
00000060: 27b0 243e e16a 0a3e cc0c f53d 377a 573e
00000070: a316 a9bd e20a 3bbe 3f8b f93d f907 9a3d
00000080: b28e f9bd 8e86 febd c5a3 a13d d4b4 013d
00000090: c287 d03d 8d6e a1be 50c2 c5bd 21a1 d13c
000000a0: 8f4f 013e 515d d43c ad56 cf3d daeb c63d
000000b0: 554d 1abb 0b24 243e 4464 9a3d 384c 3c3e
000000c0: d783 213d 97f7 fc3d 1c6b 6bbd 5097 a0bd
000000d0: dbd5 64bd db0c 173e 5434 76bd da41 4c3e
000000e0: 52ee 453e 0dcc c8bd c91c ad3d 97ab 0e3e
000000f0: 3594 98be 78d4 353e 2f34 b33d 8ba2 24be
00000100: bf99 4cbe e227 033e 9b4f 6abb 9090 813d
00000110: 2f5f ea3d 9057 773d d314 8a3d 2994 893d
00000120: dd86 973d 3937 c03d 4c84 903d 9c3e 7abe
00000130: 4fae e33d 6045 4dba a824 54bd e450 0bbe
00000140: 59ff f73d c459 693d fc51 ed3d 02c6 543e
00000150: 205a 88be a725 513d 6ba4 6f3d b7f0 a1be
00000160: 8b38 693c fa69 013e 6756 56bd 59b5 49be
00000170: bb55 f4bc a8f4 ea3d ecd2 24be 2213 c03c
00000180: 4389 e03c e01b efbd c4d6 17be 9775 59bd
00000190: 235a 0bbe f09a 45be 8b49 603d 6b27 87bd
000001a0: d037 a7bd 5b76 50bd 5810 bd3d 699c 12bc
000001b0: 9f30 9fbd 9b23 353d e2bd c63d 1488 1abc
000001c0: 2084 ce3d 6a2b a6bd 3023 92bd 02ee 38bd
000001d0: c0a9 e63c 92b1 82be 78d5 1cbd f547 25be
000001e0: 9430 e5bd 373f 163e 6fe4 35be 6983 033d
000001f0: e367 a9bb 3961 36be 30f2 0e3e 3e12 9cbc
00000200: e32b 78bd 0a56 abbe c307 0cbe 8f22 613c
00000210: 4faf b23d e25e 373c 22b0 7839 44b8 44be
00000220: 7a9e 1a3d edd7 e53d 848e f5bd 57c3 00bd
00000230: 9fce 9b3d f5fb 5f3d 808a 82bd b17c 2dbe
00000240: b3be d83d d7ad 3c3e 4551 0cbe a88d bd3d
00000250: 013d a33d d973 c23c 8300 17be 9c5a fabd
00000260: 1a88 bebc 6d4a 503c 9443 47be 3c6f 55be
00000270: a415 a43d 1dd9 f73c 31d7 44be 2671 c0bd
00000280: 9603 1b3e 4cbd 1a3e e795 edbd b4eb cdbd
00000290: 0912 2cbe c481 b2bd 7aa2 273e c3e4 2fbd
000002a0: 65cd 833d dddd 8e3c 8447 4fbd 2318 d43c
000002b0: 3f98 2ebe f9f2 8abd d4b2 a6bc 2568 9f3d
000002c0: 24ff fbbc 37d5 d7bd e115 283e b855 173e
000002d0: abb8 2c3e 69ad b9bd 43e4 053e 0988 1b3e
000002e0: 744b 6c3e 6dc1 153e 2086 083d 3e8e 05be
000002f0: 475e ba3d f452 b43d 7cb3 98bd 2ff5 5dbd
00000300: bc67 02be 84d5 96b9 f25d e6bd 880d ba3d
00000310: 5358 b13d 23f5 f33d c1fd debd 762e c2ba
00000320: 0142 f03d 795e 913c 7082 8d3c 404e 543b
00000330: 2f23 a33d 67a2 45be c4dd 3dbe e6e8 12be
00000340: eb00 19be b043 3e3e 0f37 fc3d 34d8 f23d
00000350: e72d 18bd 1c6c 4cbe e889 313e 3f20 1d3e
00000360: 144b 113e d262 42bd b949 b53c 660c a4bd
00000370: 0801 113e 3267 193e c515 223e 567b 2e3e
00000380: e031 74bc 8e42 2bbe 5352 bebd 1bcb 22be
00000390: a5fa bfbd cbb0 083e 284a d73d 1b89 85bd
000003a0: 5b65 bdbd d9cb 04bd 2b75 36be a34d 0b3b
000003b0: 87e7 a23d 5edc 10bd f906 1b3e 2d96 323e
000003c0: 7c80 f53d 559e 3fbe cd2f 49bd a493 123d
000003d0: 960b 083e 8415 febd 70cd 933d b57f c83d
000003e0: c07d 56be 5f8a c43d 3b4d 6f3e 5629 183d
000003f0: d61a 093e a96c 913d b772 d53d 79eb d9bd
0.09457653 -0.11348815 0.025184905 -0.11319979 -0.17653637 0.0602457 -0.10772744 0.1891307
-0.04410187 0.12756684 -0.072767764 0.1815367 0.1376335 -0.24709047 -0.065163806 -0.062722296
0.081751004 -0.20614432 0.14462727 0.21507889 -0.007085917 -0.008209922 0.08743624 0.10944312
0.16082822 0.13517334 0.119653314 0.21042715 -0.08256271 -0.1826587 0.12184762 0.07521052
-0.1218542 -0.12428008 0.07892565 0.03166659 0.10182144 -0.31529656 -0.09656203 0.025589528
0.12628005 0.025923403 0.10123954 0.09712954 -0.0023544629 0.16029374 0.075386554 0.1838845
0.039432373 0.123519115 -0.057475194 -0.078413606 -0.05586801 0.14750998 -0.060108498 0.19946995
0.19329193 -0.098045446 0.08452756 0.13932644 -0.29800573 0.17756832 0.087501876 -0.1607763
-0.19980524 0.12808183 -0.0035753015 0.06326401 0.11443936 0.06038624 0.06742253 0.067177124
0.0739877 0.09385533 0.070564836 -0.24437946 0.11117231 -0.0007830467 -0.05179277 -0.13605076
0.121092506 0.056970373 0.11587903 0.20778659 -0.2663126 0.0510613 0.05850641 -0.31628963
0.014234672 0.12638083 -0.052328493 -0.19698085 -0.029826036 0.11472446 -0.16096085 0.023446623
0.027409201 -0.116752386 -0.1482802 -0.053090658 -0.13608603 -0.19297385 0.054757636 -0.06599315
-0.08164942 -0.050894123 0.09231633 -0.008948424 -0.077729456 0.04422341 0.09704186 -0.009431858
0.100837946 -0.08113749 -0.07135618 -0.045148857 0.028157115 -0.255261 -0.038289517 -0.1614073
-0.11190906 0.14672552 -0.17762922 0.032107744 -0.005169855 -0.17810525 0.13959575 -0.019051667
-0.06058873 -0.3346408 -0.13674836 0.01374115 0.08724844 0.011192055 0.00023716738 -0.19210917
0.03774879 0.11222825 -0.11990073 -0.03143629 0.07607769 0.054683644 -0.06374073 -0.16942097
0.10583248 0.1842569 -0.13702877 0.092555344 0.0797062 0.023736881 -0.14746289 -0.122243136
-0.023258258 0.012713057 -0.19459373 -0.20843214 0.0801194 0.030254895 -0.19222714 -0.09396581
0.15138087 0.15111274 -0.11600857 -0.100547224 -0.16803755 -0.08716157 0.16370574 -0.042942774
0.0643566 0.017439777 -0.050605312 0.025890416 -0.17050265 -0.067846246 -0.020348944 0.07783536
-0.030761309 -0.105387144 0.16414596 0.14778793 0.1686732 -0.090662785 0.13075356 0.15188612
0.23075658 0.14624567 0.033331037 -0.13042542 0.09100013 0.088048846 -0.07456109 -0.054188903
-0.12734884 -0.0002876931 -0.112483874 0.09084612 0.08659425 0.119119905 -0.108882435 -0.0014814872
0.11731339 0.017745243 0.017274112 0.0032395273 0.07965695 -0.19300233 -0.18541628 -0.14346656
-0.14941756 0.18580508 0.12315189 0.11857644 -0.03715315 -0.19963115 0.17337763 0.15344332
0.14188796 -0.047457524 0.02212988 -0.08010177 0.1416055 0.14980772 0.15828617 0.17039236
-0.014904469 -0.16724607 -0.09293046 -0.15897791 -0.093739785 0.13348691 0.10512191 -0.065202914
-0.09247848 -0.032420967 -0.17818134 0.0021255992 0.079543166 -0.03536641 0.15139379 0.174401
0.11987397 -0.18712743 -0.049117852 0.035785332 0.1328567 -0.124064475 0.072169185 0.09789983
-0.20946407 0.09596705 0.23369305 0.037148796 0.13389143 0.071008034 0.10422271 -0.10640616

fc2.weight f4 [300, 400]
00000000: 1669 ac3d efe0 7e3d 9832 25be e5f9 e8bd
00000010: 7939 d73d b33d be3c 281b 13be 96c6 cc3d
00000020: 4f7e 4cbe de56 6c3c abed 6abe 2d9e eb3c
00000030: 6f6a 0c3e 6bc0 12bd be21 f0bd 4d95 50bd
00000040: b5bc 9b3d f5c4 5a3c 4ebb 473d a4d4 1a3e
00000050: aed7 09be 9113 37be f46a 1ebd 6af2 813c
00000060: 5d6f debb bfde 46bd e1e6 983d 274e f8bc
00000070: 6abe c6bd b015 3ebe f657 813d b2bb 9abb
00000080: a4d8 c33d 27e8 cb3c be2e 973d bcb0 f5bb
00000090: 9291 a4bc 9839 b9bc b655 47be 8fb4 793b
000000a0: 7b16 503e def0 db3c ee92 2a3e aa71 5abd
000000b0: 33eb aabe 05ef d53d 18d7 d6bd 5f0e 3fbd
000000c0: 746c 833d 33c2 603d 95a8 583e 6076 db3c
000000d0: d0d0 18bd 963f bc3d 17c3 4bbe faa5 933d
000000e0: c845 0b3e ead7 73bd 6093 893d c30f 8a3d
000000f0: 920b d2bc e0fc 8f3d 7a32 fdbd 4d59 1cbd
00000100: 4e30 de3c 8bd6 053d 8e32 9b3b 6aa0 a03d
00000110: 516e 323e ea9d df3c c3df 5f3d 380c 43bd
00000120: 7d61 ecbd 0ea2 fe3c ce0f eabd 5d17 d4bd
00000130: da88 423d fe9e 8c3b 8944 e2bd 9d53 cb3d
00000140: fb85 d7bd df82 d4bc a64d 543e abf9 e43d
00000150: ec11 993c 668d 22bd efeb 8cbd 163f 0c3e
00000160: f7f3 1f3e d3aa 70bd db2d 86bd 44d0 12bd
00000170: 2e4c 56be 01ea f8bd af36 35be 6953 17be
00000180: 5d33 1fbe 5474 68be f065 c8bd da24 a1bd
00000190: f816 f93d 3e9b f9bd 48e5 433c 061c 46be
000001a0: 09a9 79bc ad25 58be a41f 013e 05b8 71bd
000001b0: 3667 28bc c1bb bf3c 91c1 f13d 1a6b 32bd
000001c0: e693 963c 6b3f d8bd b593 4bbd 7b30 c03c
000001d0: 180e e83d 0591 583e 2cdb 763d cbed 8cbd
000001e0: de83 79be 8cf8 07bd a5ae 67be c78b 603d
000001f0: 8a9d 19be 7f3c fa3d dfbd a8bd eb01 de3d
00000200: 8b2f 60be 7a0b eabd 0838 45be bf4e af3d
00000210: 7400 b1bd 7605 83bd f1fd 8c3d f796 1abe
00000220: 8b47 ef3d 18ad 953c 70e6 54be 05b0 2dbe
00000230: a214 a23d 3535 37be eb2a 62bd ad0c 24be
00000240: af71 b93c c1b5 a73d a37c 1cbd c958 233d
00000250: 07da b7bc 6ec1 2cbe eae9 5ebe 902e 703d
00000260: 4c21 0ebd 368c 643d 0da1 83be 2efd dd3c
00000270: 438f f3bd 1519 3ebd d442 233e f96e c73c
00000280: 3319 f23c 69ef 0b3e 632c ed3d b0dc 36bd
00000290: 3933 b3bc 01fb e2bd ece1 c43d 8d43 51bd
000002a0: 1c26 7abd c991 a9bd 9313 143d 0ef7 10be
000002b0: 2c40 b93d a628 e0bd 7d10 ab3d 6a0e c0bd
000002c0: e957 153e 8602 09be d1e3 2a3e bc60 c9bd
000002d0: 0993 1fbe 6677 f4bd a4ea 193e 0fee c63d
000002e0: d38c 61bb 66ee 153d 0389 5b3d ebfd 92bd
000002f0: adbc 263d 91a0 7dbd cb71 acbe 5e8d 0ebe
00000300: 4d69 52be 0f06 7d3d 37c4 04be 8f67 133e
00000310: 3ce3 c0bd 8e5c 713d 821c 7bbe 2531 643c
00000320: b40a ae3c 11f7 adbd f14c a8bd 6d65 13be
00000330: 9e9a 1f3d 33c7 28be bfd3 edbd bc8c 92be
00000340: cf58 4e3d 032a 1b3e 9412 753d 31e5 533d
00000350: 5b7b 4fbe 0bb2 85be 1a07 193e c601 023e
00000360: b9dd 8b3c e74d e3bd 527b 13bd 9686 bebd
00000370: f336 053d 037a cf3d 5abe 2abd 587a 9dbc
00000380: df0a 91bd 3304 57bd eba8 eb3b 09c4 e03c
00000390: ccb1 36bd 16ac 8d3d b760 973d 36cd 9bbe
000003a0: 8b03 ca3d abc3 2fbd 7ada 52bb ab77 3bbe
000003b0: 0844 0b3d a0d6 03bd dba6 203c 4d42 103e
000003c0: be0c 993d 530d 96bd 851b c8bd 1fba ba3d
000003d0: 8793 773d 425f 08be 316b b93d 4180 03bd
000003e0: 27fd 03be ee4f de3c a49f 0a3e 5902 443d
000003f0: eaea 143d e1ab 9fbd 67ca 27be d50b 10bb
0.08418481 0.062226232 -0.16132581 -0.113757886 0.10509009 0.02322278 -0.14365828 0.09998815
-0.19970058 0.014425008 -0.22942226 0.028761948 0.13712476 -0.035828035 -0.11725186 -0.050923634
0.076043524 0.013352622 0.048762612 0.15120178 -0.13461182 -0.17878558 -0.038676217 0.015862662
-0.006788178 -0.04855227 0.07465912 -0.030310703 -0.09704287 -0.1856296 0.06315605 -0.004722082
0.09562805 0.024890972 0.07381962 -0.007497875 -0.020088945 -0.02261047 -0.1946629 0.0038102006
0.20321076 0.026848253 0.16657612 -0.053331055 -0.33382568 0.1044598 -0.104902446 -0.046644565
0.0641717 0.054872703 0.21158059 0.026789844 -0.037308514 0.091918156 -0.1989864 0.07209392
0.13600838 -0.059532084 0.06717563 0.067412876 -0.025640283 0.07030654 -0.12363143 -0.0381711
0.027122643 0.032675307 0.004736251 0.078430966 0.17424895 0.027296979 0.054656755 -0.047619075
-0.11542032 0.031083133 -0.11428796 -0.10356019 0.047493793 0.0042914143 -0.11048228 0.09928057
-0.105236016 -0.02594131 0.20732746 0.11180433 0.018685304 -0.03968563 -0.06880938 0.1369594
0.15620409 -0.05875666 -0.06551715 -0.03584315 -0.20927498 -0.12154008 -0.17696641 -0.14777912
-0.15546937 -0.22700626 -0.09785068 -0.07868357 0.12162584 -0.12187813 0.01195652 -0.19346628
-0.015238055 -0.21108122 0.12609726 -0.059013385 -0.010278514 0.023404958 0.11804498 -0.04355917
0.01838107 -0.10558971 -0.04970141 0.023460617 0.11330813 0.2114907 0.060267612 -0.06881293
-0.2436671 -0.033196017 -0.22625215 0.054820802 -0.15001503 0.1221857 -0.0823934 0.108402096
-0.21893136 -0.1142797 -0.19259655 0.085599415 -0.086426646 -0.06397526 0.06884373 -0.15096651
0.116835676 0.018271014 -0.2079103 -0.16961677 0.07914092 -0.1789139 -0.05521671 -0.1602046
0.022637216 0.08188964 -0.0382048 0.039879594 -0.02244283 -0.16870663 -0.21768919 0.058638155
-0.034699723 0.055797778 -0.2570881 0.027098265 -0.118925594 -0.04641064 0.15943462 0.024344908
0.029553032 0.13665546 0.11580732 -0.044644058 -0.02187501 -0.110830314 0.09613404 -0.051089812
-0.0610715 -0.082797594 0.03615148 -0.14156744 0.09045443 -0.10945253 0.08352754 -0.09377749
0.14584316 -0.13379869 0.16688468 -0.09832904 -0.15583433 -0.11936836 0.15030915 0.09713375
-0.0034416213 0.036604308 0.05359746 -0.07177337 0.04070728 -0.061920706 -0.33680567 -0.13921115
-0.20547982 0.061773356 -0.12965475 0.14394973 -0.094183415 0.058926158 -0.24522594 0.013927733
0.021245338 -0.0849439 -0.082178004 -0.1439416 0.038965814 -0.16482238 -0.11612653 -0.28622997
0.050377663 0.15152745 0.05983217 0.051732246 -0.202619 -0.26112399 0.14944115 0.12695989
0.017073499 -0.11098843 -0.03600628 -0.09303014 0.032523107 0.10130694 -0.04168544 -0.019223377
-0.070821516 -0.05249424 0.0071917675 0.027437227 -0.044603154 0.069175884 0.07391494 -0.3043
0.09863957 -0.042911213 -0.003217368 -0.18307368 0.034000427 -0.032187104 0.009805406 0.14087792
0.074731335 -0.0732676 -0.09770874 0.09117531 0.060443427 -0.13317588 0.09053648 -0.032104734
-0.12889539 0.027137723 0.1353746 0.0478538 0.036356844 -0.07796455 -0.16385804 -0.0021979709

fc2.bias f4 [300]
00000000: 6826 11bd 206a 193d 2310 c9bc b5f0 a93c
00000010: 4860 243d f9cb 4cbc b7ca 0b3d 2253 52bd
00000020: dc4c b63d b4b3 f5bb a20f babd 5ebc 573d
00000030: f12b 583d dade 4cbd 0160 b23c 6755 a0bd
00000040: 2145 de3c 2f5d 41bd c93d 853b b671 16bb
00000050: 19bf a13d bb1a 153d 6947 79bd 66c6 78bc
00000060: 2abc ae3d 5794 37bd dc5b 1fbd ee44 c93b
00000070: 2beb 87bc 7f37 3cbd 9e16 4ebc 804f 96bd
00000080: 85f8 803c 7c8d fc3c a5dd 72bd 5c96 fc3a
00000090: 0229 a53d b35b e43c fd50 40bc 1db4 aabd
000000a0: dd84 c6bd 1ddd 62bd 1754 d0bc ac5a 65bd
000000b0: e165 173b 1ab9 abbb f28d 0ebc 5868 ea3c
000000c0: fdb5 4cbd 627d 83bb 388e de3c a635 fb3b
000000d0: 4a6f dbbc dd0e 6ebd 3e88 4cbd 9dc5 73bd
000000e0: bcfb e23c da0f d93c fbf7 273d 01c9 773a
000000f0: e46f 9d3c 9d0e dcba 396a a13d e197 19bd
00000100: 469d d6bc 31e4 22bd 169d d53c ca1d 763a
00000110: 2b23 5abd ccff f63c df76 433d 7351 b4bc
00000120: 17b4 0cbc f178 c1bc 87a3 9d3c 54cf 103d
00000130: 974b 01bd 3d05 3f3d c58d e4bc 169c cc3c
00000140: 9551 d13d d077 36bc 6b5c 4cbd 2771 8fbb
00000150: 5b26 df3b 163b 3d3d b929 9e3d 7a76 a63b
00000160: 4919 d43a 8521 22bd 285c b4bc 164f 56bc
00000170: 270b 713c b195 25bd 1ca4 013c dfc2 e5bb
00000180: 6723 f63c 9288 023d 808f 0a3d f85b b6bd
00000190: df71 a9bc 2c62 f0bc e429 8b3b caa5 bebb
000001a0: fc39 9a3b 1a16 e3bc 7778 d03d 3650 2ebd
000001b0: c385 46bd 3657 9fbb 5a5d 96bd 9735 39bd
000001c0: 0214 48bb 8775 973d 153d 05bd 496b 003e
000001d0: a8c3 fc3c 0b06 e93c 4b42 82ba 8044 dabd
000001e0: 424e 49bb 4fed 743d 2294 01be 3563 a93b
000001f0: 832a 90bb f3e4 fb3c 22a3 793d 3cd9 1d3d
00000200: 0ebe 01bd 6f40 c73c 4da6 593c 455e 18bd
00000210: 4010 d0bc 7765 fbbb 3554 08bd 8326 ca3d
00000220: a1ab 863b fa9e 6abd f48a 9dbc 4351 023d
00000230: fe36 b43c 43a4 f63c bb2f d33c e3a5 4bbd
00000240: 2c65 1fbd eb75 aa3c 123d 023e feea 06bc
00000250: 3f1a a1bc 79ca 2d3d c038 3c3c a55a 8c3c
00000260: a533 72bc 2eb1 9cbc 0f12 d63c 5de9 4a3d
00000270: 7429 863d 2357 e63a 70fc b73c a884 213c
00000280: 16f4 8f3c 79f9 943c ebbe 863c 293e 97ba
00000290: 642e 433d 6016 d4bd 349f c63c 9e8c 9e3c
000002a0: ffdb c13d 84eb 663d 786d 81bd 585d 443d
000002b0: bc3d d93d 7f03 0fbd fbf9 2cbd 3302 8c3c
000002c0: a241 583d 3daa f6bb 809d de39 5f26 da3c
000002d0: 94f8 a03b 87e2 ad3d d294 873d 1e62 9ebd
000002e0: 6bfa 60bd 2aeb 4abc 0ae7 a43d c99d 653c
000002f0: 5590 e6bc e88a 56bc e101 38bb 7de1 70bd
00000300: 9e1a bd3d 8831 273d b614 16bd ac8e c0bd
00000310: 3841 e3bc c888 87bd 1345 723c c056 8ebd
00000320: 7e40 05bd 8179 4abd d1f8 f43c 80da 70bc
00000330: f902 8439 3d8a babc e651 33bd 4875 823d
00000340: d93a 93bd 38f9 893c eddd fd3a 53ac dc3d
00000350: c93f aa3c d8ee 5a3d 6d46 1a3d 5d28 5fbc
00000360: 9896 c83c e696 e6bb 6e83 cebd c8cd 7c3d
00000370: e52c 853d d2b0 4c3d f259 41bd 65a0 273d
00000380: d3a6 3b3d 62e9 2c3b 32ce 0ebd 3c5d e0bc
00000390: a239 e13c b036 a5bc d012 b9bc 3b4a 5f3c
000003a0: 37ed d0bc c095 b93c 4980 983c d271 4a3d
000003b0: 52e5 ac3d 0056 753c f67c 0fbd 710e 7f3b
000003c0: 2978 623c ce38 23bc a747 a6bc f854 5abd
000003d0: 53ff 1abd d3f4 ab3c d673 3f3d f71e f0ba
000003e0: e799 d2bb 65e5 8d3d f31e b93d 37fa 0f3d
000003f0: 3793 28bc 16cc b3bc 0eab 0c3c a68d d0bd
-0.035437018 0.037454724 -0.024543827 0.02074466 0.040130883 -0.012499803 0.03412887 -0.051348813
0.089013785 -0.007498229 -0.09085013 0.052669875 0.05277628 -0.050017215 0.021774294 -0.07828789
0.027132573 -0.047208007 0.0040662033 -0.002295596 0.07897777 0.036402445 -0.060859118 -0.015184021
0.08531983 -0.044819202 -0.038905963 0.0061422503 -0.016591629 -0.045951363 -0.012578635 -0.07339382
0.015743503 0.030829184 -0.059293408 0.0019270885 0.08064462 0.027875757 -0.011738059 -0.08335135
-0.096933104 -0.05538665 -0.025430722 -0.055994675 0.0023101496 -0.0052405717 -0.008700835 0.028614208
-0.049978245 -0.0040127495 0.027167425 0.0076663075 -0.026786465 -0.058119643 -0.04993462 -0.05951463
0.027707927 0.026496816 0.041007977 0.0009452254 0.019218393 -0.0016789023 0.078815885 -0.03749836
-0.02619804 -0.0397684 0.026075881 0.0009388594 -0.053256195 0.03015127 0.047720786 -0.022011494
-0.008587859 -0.02361724 0.019243015 0.035353974 -0.03156623 0.046635855 -0.027899632 0.024976771
0.10220639 -0.011136964 -0.049892824 -0.0043775025 0.0068099923 0.046198927 0.07722802 0.0050800415
0.0016181852 -0.039582748 -0.0220166 -0.013080379 0.014712132 -0.04042596 0.007912662 -0.007011756
0.030046178 0.031868525 0.03382826 -0.089042604 -0.02068418 -0.029343687 0.004246937 -0.0058181034
0.0047066193 -0.0277205 0.10179227 -0.042556964 -0.04846741 -0.0048626913 -0.07342024 -0.045217123
-0.0030529504 0.073954634 -0.032528955 0.12540926 0.030855015 0.028445264 -0.000993797 -0.106575966
-0.0030716811 0.059796628 -0.12654164 0.005169297 -0.004399599 0.03074882 0.06094659 0.03853725
-0.03167539 0.024322717 0.013284278 -0.037199277 -0.025398374 -0.0076720077 -0.03328343 0.09870627
0.004109815 -0.057280518 -0.019231297 0.03181578 0.021998879 0.030107623 0.025779596 -0.04971875
-0.038914844 0.02080818 0.12718609 -0.008234737 -0.019665835 0.04242942 0.01148814 0.017133066
-0.014782821 -0.019127455 0.026131658 0.04953896 0.06550875 0.0017573576 0.022459239 0.009858288
0.017572444 0.018185364 0.016448459 -0.0011538911 0.047651663 -0.1035583 0.024245836 0.01935416
0.09465789 0.05637695 -0.06319708 0.047940582 0.10607478 -0.034915444 -0.042230587 0.017090892
0.052796967 -0.007527618 0.00042460486 0.026629625 0.0049124453 0.08490472 0.06620182 -0.07733558
-0.054926317 -0.012385169 0.0805188 0.01401467 -0.028144995 -0.013094641 -0.0028077292 -0.058808792
0.092335925 0.04081872 -0.036640845 -0.094022125 -0.02774106 -0.06617886 0.014786976 -0.0695014
-0.032532208 -0.04943228 0.029903801 -0.014700532 0.00025179217 -0.022770995 -0.043779276 0.06370026
-0.07188959 0.01684247 0.0019368507 0.10775056 0.020782368 0.053450435 0.03766482 -0.013620463
0.024485871 -0.0070370315 -0.10083662 0.061719686 0.065027036 0.049973316 -0.04720492 0.04092445
0.045813393 0.0026384224 -0.034864612 -0.027388208 0.027493302 -0.020167679 -0.022591978 0.013628538
-0.025503738 0.022654414 0.018615859 0.049424954 0.08442177 0.014974117 -0.03503128 0.003891852
0.013822594 -0.009962274 -0.020297838 -0.05330369 -0.037841152 0.020990765 0.04674133 -0.0018319775
-0.006427038 0.06928519 0.09039106 0.035150733 -0.010289005 -0.021947902 0.0085857045 -0.10183267

fc3.weight f4 [2, 300]
00000000: 343e b5bc 8cea a0be 427b bdbc 17a7 1cbd
00000010: 91b2 29be 63ae c2bc a5ee b0bb 1043 36be
00000020: 29d1 b83c fedb 453c 01c9 1ebd a93d 53bc
00000030: 5ba4 c33c 7493 f83d 6622 6bbe 4ce1 ffbd
00000040: 7fb1 80bd 4a74 debc dafd b4bd 3d2b 2cbe
00000050: 005e 92bd f894 96bd f3c2 32be a91d 29bc
00000060: 3c80 f3bd e762 84be 08d4 46bc df7f b93d
00000070: 06d0 93bc 80be debc 8025 2bbd 086e a83e
00000080: 6c6d 72bc 5068 2cbe f13e 5cbd 36a2 c43c
00000090: 079b 0bbd e8e7 59bc 488f 37bb 60c6 cdbb
000000a0: c113 093e d02d 1cbd ff15 5f3d b07f 1dbd
000000b0: 2ca9 9dbc ed27 d0bc 7821 febc cea5 96bc
000000c0: a958 9dbe 59ff f33d f896 24bc 3e70 9e3d
000000d0: a68d c43d a6e4 dcbc 8761 06bd ee8f 36bd
000000e0: 85b7 f5be 40aa 4bbd f12c 91bd a0d5 7abe
000000f0: 79ea 90bc 25d7 65bd 889a d2bd fae3 c1be
00000100: 7853 84be db0f a8bc 8558 de3c a22f 75bd
00000110: fcd8 0dbc 3ee0 943d 06fe 2dbe 8eee 38bc
00000120: 1c8a 823c 3bed 3d3b ee18 c4be 8fc4 89bd
00000130: 97f0 103d a4bf d53c 7a6e 44be 1f96 05be
00000140: 8ea8 b83c 30fe 3fbe 7ed5 0d3c ad5b eebc
00000150: fd8c 2cbb 6c34 523d ad41 a1be ad8e 20bf
00000160: 9095 3fbe ff94 9fbd 2e5f c13c 3965 6ebc
00000170: 7ec0 f9bd 1752 c2bc 9131 edbc d156 003d
00000180: d389 a5be 17ba 133d e348 093e a528 c9bd
00000190: 5c2b c23b b16e d03a 9e91 0fbc 004d a9bc
000001a0: 0bf3 91bd 87fb e4bd 6523 173c 740f 4dbd
000001b0: 4c1d 57bb 7959 b5bd be09 45bf a930 1abd
000001c0: 0ca7 babe f07f 69be 5486 893d a50e 043d
000001d0: eb9f 87bd 3114 01be d402 c9bc 25da 49be
000001e0: 157c d8bc 16f5 23bd f369 263f 73e4 c8be
000001f0: 88ad 3bbd 22de 063e 6b11 fdbd 5992 c1be
00000200: 4568 33be bd6e b83d 1fbd d03c 3d67 ccbe
00000210: c754 e23c ebfc 9cbd 2005 fcbd 5183 043e
00000220: ee93 0fbd 57b5 62bc 836a 98be 20a1 6abb
00000230: 2d44 f33d d40a ffbd 3363 563e 3b0f b2bc
00000240: 1dbb 003c da41 2cbd 70d9 a1bd d267 963a
00000250: 2428 543c 3377 08be 790d f1be 2718 5bbc
00000260: f3a6 3cbc 223c ba3c 2863 9fbd 18f8 80be
00000270: 51d7 18bf 5e62 923e a360 2ebd d6ac a3be
00000280: 6389 0fbf ca8e d4bc 08d6 263e 8d39 38bc
00000290: 8878 bbbe 3b2a 7bbe 4b1a a2bc 0805 c4bc
000002a0: 77c5 87be d892 38bc 50b7 a8be e2be 95bb
000002b0: d5e3 bbbd 7c40 38bd db9c d1bc a61f 44bd
000002c0: 7760 31bc 5001 9abc 6aa5 83bb 6953 2fbc
000002d0: a089 00ba e223 cabd 9684 373e 095f 78be
000002e0: e750 64ba f33b e83d 4b59 c63d 52f4 f4bd
000002f0: aee3 74bc aff8 a1bd 2d37 c2bd d587 b6bd
00000300: 8b66 8f3d 476e ec3c 4354 6abd 9815 41be
00000310: 108b 9bbd 7cec 3dbe ecd0 71be 034a 8abe
00000320: cb0c 92be 551b e63d 0a09 ecbd 9cbb b0bc
00000330: 729e 5c3d fed8 74be 8c6e 9a3c d917 02be
00000340: c726 2bbe 6734 7dbe 8acb 8fbe 6b66 973c
00000350: c2f0 40bd 3846 cfbb 35a6 52bd 01e9 8cbc
00000360: 9afa c03d 7ad6 b83d 90f5 91be d075 99bd
00000370: e685 00bf 0297 b0be d65d 98bd 4b6f 98be
00000380: 240d 8abd df0c 93bc 7649 aebe bfba 21be
00000390: c6c5 3b3c 1d00 48be f65d f3bc 03f7 9dbc
000003a0: 2b68 fbbc 86e4 54be ba3d bcbc 0f14 433c
000003b0: a516 b63b b173 07bf 46f0 6bbd 7683 c4bc
000003c0: efc5 8e3c 35b9 54bc f562 91be e6f4 6ebe
000003d0: 25bd 183d ff45 1a3e a753 0abd 9743 68bd
000003e0: fd13 87be b06a 013e a3d3 16bf 48c1 313e
000003f0: d8e2 20be adcd 54bd 7ee4 cbbd c3a9 5cbe
-0.022124387 -0.31428945 -0.023130063 -0.038245287 -0.16572024 -0.023764795 -0.0053995424 -0.1779902
0.022560673 0.012076376 -0.03876591 -0.012893119 0.023882082 0.121374995 -0.2296234 -0.12494144
-0.06283855 -0.02715506 -0.08837481 -0.16813369 -0.07146835 -0.07352632 -0.1745718 -0.010322013
-0.11889693 -0.25856707 -0.012135513 0.090575926 -0.01804353 -0.027190447 -0.04178381 0.32896447
-0.014796596 -0.16836667 -0.053770963 0.02400313 -0.034083392 -0.01329992 -0.0028008986 -0.0062797517
0.13386442 -0.038129628 0.054464336 -0.03845185 -0.019245706 -0.025409663 -0.031021819 -0.018389609
-0.30731705 0.11913938 -0.010045759 0.07736252 0.0959733 -0.026964497 -0.032807853 -0.044570856
-0.47991577 -0.04972291 -0.0708865 -0.24495554 -0.01768993 -0.05611338 -0.10283381 -0.37869245
-0.25844932 -0.020515373 0.027141819 -0.05985988 -0.00865769 0.07269333 -0.16991434 -0.011287345
0.015934996 0.0028980512 -0.3830027 -0.06726944 0.035385694 0.026092358 -0.19182768 -0.13045548
0.02254131 -0.18749309 0.008656858 -0.029096449 -0.0026329153 0.051319525 -0.3149542 -0.62717706
-0.18709397 -0.077920906 0.023604956 -0.014550501 -0.12194918 -0.023720784 -0.0289543 0.031332795
-0.32331714 0.03606614 0.1340671 -0.098222055 0.005925579 0.0015902129 -0.008762745 -0.0206666
-0.07126435 -0.111807875 0.009224747 -0.050063565 -0.0032823859 -0.08854956 -0.7696799 -0.037644062
-0.36455572 -0.2280271 0.06715074 0.03224053 -0.06622299 -0.12605359 -0.024537481 -0.19712122
-0.026426354 -0.040028654 0.65005416 -0.39236793 -0.04581979 0.13170674 -0.12356838 -0.37806967
-0.17520244 0.09005497 0.025480805 -0.39922515 0.027628316 -0.07665428 -0.12305665 0.12940718
-0.035053186 -0.01383718 -0.29768762 -0.0035801604 0.11878238 -0.12453237 0.20936279 -0.021735778
0.007857111 -0.04205499 -0.07902801 0.0011475033 0.012949023 -0.13326721 -0.4708059 -0.013372458
-0.011514413 0.022733752 -0.077825844 -0.2518928 -0.59703547 0.28590673 -0.04257263 -0.319678
-0.5606901 -0.025946993 0.16292584 -0.01124419 -0.36615396 -0.24527828 -0.019787928 -0.02392818
-0.2651784 -0.011265479 -0.32952356 -0.004569874 -0.09174315 -0.044983372 -0.02558749 -0.047881745
-0.010826222 -0.018799454 -0.0040175216 -0.010701039 -0.000490332 -0.09870125 0.17921671 -0.24255003
-0.0008709565 0.113395594 0.09685 -0.11960663 -0.014946861 -0.07908761 -0.0948318 -0.08912627
0.070019804 0.028861178 -0.057209264 -0.18855894 -0.075948834 -0.18547243 -0.23614854 -0.2700959
-0.28525385 0.11235682 -0.115251616 -0.021573834 0.053862043 -0.23910901 0.018851541 -0.1270441
-0.16714011 -0.24727021 -0.28084975 0.018481454 -0.047104605 -0.0063255094 -0.05142804 -0.017200949
0.094227985 0.09025283 -0.28507662 -0.07493174 -0.5020431 -0.3449021 -0.07439773 -0.2977241
-0.067407876 -0.017950473 -0.3404042 -0.15793894 0.011460727 -0.19531293 -0.02970789 -0.019282823
-0.03068932 -0.207903 -0.022978652 0.011906638 0.0055568987 -0.52910906 -0.05760219 -0.023988467
0.017428366 -0.01298361 -0.2839581 -0.23335609 0.037289757 0.15065764 -0.033771183 -0.056705084
-0.26382437 0.12638354 -0.5891668 0.17358887 -0.15711534 -0.05195396 -0.09955691 -0.21549134

fc3.bias f4 [2]
00000000: bc0e 17bb 53a3 893a
-0.0023049554 0.0010500945
