Tennis/Nets/checkpoint_actor1000.pth (torch_old, 525671 bytes, 10 tensors)

bn1.weight f4 [24]
00000000: 66dc 333f a2e5 303f 05f0 413f 6495 1d3f
00000010: 4e06 813f cd28 5e3f 8bf1 133f 6da0 143e
00000020: 1fe2 313f f69f d53e 65d3 3e3f 31b5 273f
00000030: ae39 333f 2070 973f 81f7 343f 4295 523f
00000040: f834 453f 75ed 1c3f 24a1 053f 7de4 8f3f
00000050: 5a9b a63e 98c0 653f 89ba 2d3f 3445 7c3f
0.70258176 0.6910039 0.75756866 0.61556077 1.0080049 0.8678101 0.5779044 0.14514323
0.6948566 0.41723603 0.7454131 0.6551085 0.7000989 1.1831093 0.7069016 0.82259
0.7703395 0.6129983 0.52199006 1.1241604 0.325404 0.89747 0.67862755 0.98543096

bn1.bias f4 [24]
00000000: e598 99bd 23ce bebc d451 833d fa8b 623d
00000010: 16da 9bba 733f a43c 873c 423d 86b0 81bc
00000020: fbd5 f3bd 5a84 d2bc 6c08 e2bb 7b00 dbbd
00000030: 0d3a 2fbd 4402 b03b dfa3 99bc 1fc5 d0bd
00000040: 3888 8b3c ebcd adbb 1deb ec3c dad0 c6bd
00000050: 598b cd3b 1da6 87bc 9722 ed3c 1f15 16be
-0.074998654 -0.023291653 0.06412092 0.055309273 -0.0011890556 0.020049786 0.047421005 -0.015831243
-0.11906048 -0.025697876 -0.0068979766 -0.10693451 -0.04277997 0.005371364 -0.018754898 -0.10193848
0.017032728 -0.0053040884 0.028920704 -0.09707804 0.006272715 -0.016558701 0.028947158 -0.14656495

bn1.running_mean f4 [24]
00000000: 28ef c1c0 9837 82bf f1e2 7840 3ddf e93e
00000010: ea07 133e 1a38 4540 f1e2 7840 3ddf e93e
00000020: 0cb1 cfc0 218c 86bf a193 8940 503a 113f
00000030: 5717 073e ce49 4140 a193 8940 503a 113f
00000040: c751 ddc0 6979 89bf 4433 9240 bbd0 273f
00000050: cfb3 053e 7151 3a40 4433 9240 bbd0 273f
-6.060444 -1.0173216 3.8888514 0.4567813 0.14358488 3.0815492 3.8888514 0.4567813
-6.490362 -1.0511514 4.299271 0.567296 0.13192497 3.0201297 4.299271 0.567296
-6.9162326 -1.0740176 4.568758 0.6555287 0.13056873 2.9112208 4.568758 0.6555287

bn1.running_var f4 [24]
00000000: 77ff 9c41 6a38 6b3f 91b9 8b43 bbb7 ae40
00000010: 032f 2a42 f6ff a240 91b9 8b43 bbb7 ae40
00000020: ad9e 9141 b609 6e3f 47aa 9443 b79e ca40
00000030: 16df 3942 ede3 b540 47aa 9443 b79e ca40
00000040: 28b8 8141 4ee5 713f b9ef 9e43 21c6 e440
00000050: 6276 4a42 0539 d940 b9ef 9e43 21c6 e440
19.624739 0.91882956 279.44974 5.459928 42.54591 5.093745 279.44974 5.459928
18.202478 0.9298357 297.3303 6.3318744 46.467857 5.684073 297.3303 6.3318744
16.21492 0.94490516 317.87283 7.1491857 50.61561 6.7882104 317.87283 7.1491857

fc1.weight f4 [400, 24]
00000000: abde 3ebc 6163 5ebe 4244 09bd 7504 0b3d
00000010: 1fbd 92bd 2a5c 733e a155 9bbc dc45 78bd
00000020: e812 c8bc dc86 20be 1163 873d 8797 c73c
00000030: f162 f1bd bde7 8a3e d0b7 9bbb 434b 863b
00000040: 3229 963b 1962 3abe 07e8 3e3b 3608 d5bd
00000050: a8d5 b7bd 1429 613e 6bb1 a03d 593d 05be
00000060: e390 dc3d 6527 12be 1d10 713d 6371 8abd
00000070: ca93 92be 4b36 813e 3fee 8f3c a1b5 f5bc
00000080: 63d9 263e 76be ba39 3cad cabd 5ccd 083e
00000090: 1669 a7be 7c56 9c3e e3f6 07be b010 203e
000000a0: 2ac2 403e c69e 793d 8982 a13d 3aa1 863e
000000b0: 9342 68be 27bf 9c3e 9429 4a3d a94d 323e
000000c0: 7501 61bd 3641 66be 4e0f d83d be7e f9bd
000000d0: 48d0 a53e ba4d aa3d 3817 b83d 371e 30be
000000e0: d357 53bd d923 72be c23c 66be aa5b 1f3e
000000f0: 38d4 8a3e 846d 8b3d 9d28 8ebe 1401 0b3e
00000100: c8a9 24be 7c74 d7bd a644 c5bd 6efe 533d
00000110: c835 643e bb57 babc 4365 12be 02b4 043e
00000120: 2746 c7bd 1057 5c3e ca49 a7bd bc45 d13d
00000130: dd09 443d cfd6 243e b48f a1bd 3296 1a3e
00000140: eb10 8e3c afb9 493e d205 123e 609d 853c
00000150: 89dc 7ebb 67ee 7c3d 51c8 363e df9f 2d3d
00000160: 3c58 783d 6c56 723e 56f2 6d3d 5693 c3bd
00000170: 83c6 30be 3838 8c3d 2ee8 d23d 784f e1bd
00000180: 53fe 20be 7ff4 803e 78b0 a83d 6482 81bc
00000190: 4cb4 343e 60df 293e cc16 e43d dcba 513c
000001a0: b30c e9bd 8b04 9a3e 2c55 bd3d 34b7 313b
000001b0: a88b 443e 3b20 013e 7393 193e 2912 48bb
000001c0: 4bf5 0bbe bc6b a03e 620c 40be fb8f 20bc
000001d0: 175a 213e d6b3 803d e160 53be dac5 37bd
000001e0: 28f3 11bc ec6e 903d ec59 823d 5be2 e63d
000001f0: 8aed 273e 5aac 793e e77c d53d a46e 03bd
00000200: 96c8 94bd 1333 dc3d 01ad 08be 2fb3 e23b
00000210: 12d9 2d3e e701 403e 27e2 0fbe 430c 5d3b
00000220: dc19 283b 2ad2 023e ae3b 8b3d 9bf9 fe3d
00000230: 4925 cf3d 2da2 c53d e77a 9d3d 5491 913d
00000240: 5b6e ff3d fe83 38be 6a77 2dbc efe4 c73d
00000250: 465a c63e 0829 06be d389 0dbd 4c5e 353d
00000260: 5f6f 433e f8e6 46be 227c 913e 39b3 893d
00000270: c374 9a3e 6c25 1abe ea87 8b3e c3aa d63d
00000280: 5bd7 3b3e 844b 25be 81a5 6b3e a6f6 e1bd
00000290: 1535 513e 1b1a 4ebe 3e82 473e b091 21be
000002a0: b43f 583b 8f5f 8abd 495d 8639 87e3 97bd
000002b0: f576 0e3d 030a 353e 0936 723d 7a10 12bc
000002c0: c6f4 ee3c 2123 00be 9e64 87bd 216a 3ebd
000002d0: cd60 02bb eec6 313e efd2 67bd 94c9 86bd
000002e0: 24e3 7dbd cf91 f6bd 86ad 7cbe 2dd3 1a3d
000002f0: 98ec 3c3d 45aa 493d 92c5 59be fd86 433c
00000300: ce54 00be 3463 683e f803 c3bb 6f43 1b3d
00000310: 1a38 6e3c 58db 7b3d 8c77 1ebd f72f d13d
00000320: 8db6 23bd b074 803e 380b 2dbd 9e65 39bc
00000330: a26e 593c 7e22 7abd 695f d43c 9b7c 053d
00000340: f317 d2bd 183a 3a3e 68d6 213c ad15 26be
00000350: 6212 4e3d b495 23be 29aa ebbc f03e debd
00000360: 7874 5b3d dcc3 33bb a4a0 3f3d c5d9 74bc
00000370: 0490 7abd 9bed d03d d660 d83c 6908 3a3d
00000380: 8568 c03d 709f 8dbd 8cbf 7b3d 092e b4bb
00000390: 7d61 18bd 952a fb3d b20e 573d 2515 f3bc
000003a0: 9c54 833c 660c 20bc db57 d0bc 585a c23d
000003b0: ff9d 06bd ed72 983e 7886 f63c 4f0e 0f3d
000003c0: b5d0 81bd b5c7 f13d b6b7 95bc 03ef 983d
000003d0: 0000 4cbd e518 e9bd f6b9 9abd ac1e 1cbd
000003e0: fbdf cdbd 1be5 583e aa95 68bd d396 f63d
000003f0: 4609 b1bd d170 74be 035e c0bc 7a61 0f3e
-0.011649768 -0.21717598 -0.03351236 0.033939797 -0.07164978 0.23765627 -0.01896173 -0.060613498
-0.024423078 -0.15676445 0.06610692 0.024364246 -0.1178645 0.27129927 -0.0047521368 0.0040983274
0.0045825476 -0.18201484 0.0029129998 -0.10401957 -0.089762986 0.21988326 0.0784634 -0.13011684
0.107698224 -0.1427284 0.058853257 -0.06759908 -0.2862838 0.25236735 0.01756966 -0.029993834
0.16293864 0.0003561859 -0.09896323 0.13359588 -0.32697362 0.30534732 -0.13277774 0.15631366
0.18824068 0.060942434 0.07886226 0.2629488 -0.22681646 0.30614588 0.04935606 0.17412437
-0.05493303 -0.22485813 0.10549794 -0.12182377 0.32385468 0.083156064 0.089888036 -0.17199026
-0.051597428 -0.23646487 -0.22484115 0.15562311 0.27115035 0.06807998 -0.2776536 0.1357463
-0.16080391 -0.105202645 -0.09632234 0.051756315 0.22286141 -0.022746911 -0.14296441 0.12959293
-0.097301774 0.21517587 -0.08168371 0.10218379 0.04786097 0.16097568 -0.07888737 0.15096357
0.017342051 0.19699739 0.14260033 0.016310394 -0.0038888773 0.061750796 0.17849852 0.042388793
0.06063102 0.2366578 0.058092438 -0.095495865 -0.17263226 0.068466604 0.10298191 -0.110014856
-0.15722017 0.25186536 0.08236784 -0.015809245 0.17646903 0.16589117 0.11137161 0.012800898
-0.11379375 0.3008159 0.09244761 0.0027117254 0.191939 0.12609951 0.14997654 -0.0030528402
-0.1366779 0.31332195 -0.18754724 -0.009799953 0.15757023 0.06284301 -0.20642425 -0.04486642
-0.008908071 0.07052407 0.063648075 0.11273643 0.16399208 0.24382153 0.10424214 -0.032087937
-0.07264821 0.10751929 -0.13347246 0.006918333 0.16977337 0.18750726 -0.14051114 0.0033729232
0.002565018 0.12775484 0.06798492 0.12449952 0.101145335 0.09650073 0.076894574 0.07107797
0.124722205 -0.18019101 -0.010587553 0.097604625 0.38740748 -0.1310159 -0.034555268 0.04427938
0.19085453 -0.19424045 0.28415018 0.06723637 0.30167207 -0.15053338 0.27252132 0.10481789
0.1834387 -0.16142088 0.23012353 -0.110333726 0.20430405 -0.20127146 0.19483277 -0.15778232
0.0032996954 -0.067565076 0.00025627975 -0.07416444 0.034781415 0.176796 0.059133563 -0.008915061
0.029169451 -0.125134 -0.06610988 -0.04648793 -0.0019894124 0.17361042 -0.056597646 -0.06581417
-0.061984196 -0.120395295 -0.24675569 0.03779905 0.04612407 0.049234647 -0.21266773 0.011934039
-0.1253235 0.22694093 -0.005951401 0.037906107 0.014539743 0.06148848 -0.038688228 0.10214227
-0.039969016 0.25089025 -0.042247027 -0.011315731 0.013271006 -0.06106805 0.025924401 0.032589536
-0.10258474 0.18186224 0.009877779 -0.16219206 0.0503105 -0.15975076 -0.028767662 -0.10851848
0.05357787 -0.0027429974 0.04678406 -0.014944498 -0.0611725 0.1020157 0.026413362 0.045418177
0.093949355 -0.06915176 0.06146197 -0.005498652 -0.037202347 0.12263981 0.05250425 -0.029673168
0.016031556 -0.009768581 -0.025432518 0.09489888 -0.03286552 0.2977518 0.030093417 0.034925755
-0.06338636 0.11805669 -0.018276077 0.07467463 -0.049804688 -0.113817014 -0.075550005 -0.03811519
-0.100524865 0.21181147 -0.056783356 0.12040486 -0.08644347 -0.23871161 -0.023482328 0.14002028

fc1.bias f4 [400]
00000000: f3eb da3d 89c1 dcbd 120a 2abb 5e07 09be
00000010: 9071 2fbe fa83 8f3d fd32 ffbd 373a 243e
00000020: 40bf 35bd ae70 bd3d 4109 d7bd 8cf9 653e
00000030: e108 2c3e dd5e 86be b86a c6bd f0c5 52bd
00000040: f897 a73d 1917 7abe db78 083e 64e9 673e
00000050: 7a85 d1bc a8b1 6ebc e808 a63d 14c5 eb3d
00000060: d641 1b3e e4cf 193e fbcf cd3d 6911 633e
00000070: 9ed0 afbd 1d26 3fbe 5d86 043e 4e85 ad3d
00000080: 375a d6bd 998d 15be 6298 e53d 055f d83b
00000090: 6c35 ac3d 535c 9bbe 0b0a d3bd dfce 083d
000000a0: 8eff 173e 15c5 173d 726c f33d d4f8 b73d
000000b0: aa14 793d 6fe1 173e 790b 963d 9690 3b3e
000000c0: c0b2 973c 87fb ee3d 2571 6cbd ca97 b1bd
000000d0: 5659 60bd 3650 333e c45b 62bd b476 413e
000000e0: 5bea 563e 3d12 fcbd f3bf a03d 2ae2 183e
000000f0: f978 8ebe 7bd5 1e3e 77f0 6e3d 19c1 12be
00000100: bf99 4cbe 34df f23d 4932 16bc b80a 7e3d
00000110: ef29 f33d 3273 803d 156e 883d 2204 903d
00000120: 36a7 873d 2430 f03d a3f3 b03d e927 7ebe
00000130: 491d 023e de91 45bc 894d 96bd 93f3 16be
00000140: c115 f73d af42 523d 0e94 f73d 4984 6b3e
00000150: 9600 8fbe 90ba 163d 77a4 853d 69ff 9bbe
00000160: ca3d 3d3c 4a69 da3d 90fa cabd 59b5 49be
00000170: d82d debc e684 043e cb6b 36be 930d f53c
00000180: 4490 9b3c 88ed 0ebe 722a 42be 796c 43bd
00000190: 3ee4 e7bd 2243 5abe 16f4 8b3d 5fa6 c9bd
000001a0: ddef 37bd 36c4 963b 28c3 753d f43b 66bc
000001b0: d998 91bd b8f1 653d d4f7 4c3c 0d0a 6dba
000001c0: 1999 083e 358f c1bd 6d22 77bd f8cb 14bd
000001d0: 4ea7 1f3d e706 99be b8e9 4ebd 48d2 2cbe
000001e0: a9f2 12be caf7 183e a6a1 59be ebb6 3b3d
000001f0: 6218 17bc 7586 19be cfb3 113e 5588 b5bc
00000200: a7d1 4bbd 0c27 adbe fd42 14be 4bff d23b
00000210: 63eb 5d3d cca8 25bc 07ec 113d 0456 35be
00000220: 3dfe d23c 2509 de3d 02a0 f9bd da56 d1bc
00000230: 0219 6f3d f910 543d 9e40 d3bd d521 38be
00000240: e4cd e63d 0151 4d3e 9467 14be ea43 a63c
00000250: 3acb 993d eca3 bd3c b5b7 2cbe 2238 01be
00000260: 6a13 42bd 53d0 1b3d 6f9b 74be 5496 44be
00000270: f3d7 a03d 1553 333d 2026 50be f2fa f0bd
00000280: 5b2c 233e 779e 363e 32c2 f1bd c985 a6bd
00000290: 416a 2cbe 9f07 acbd 0e61 1b3e 6488 26bc
000002a0: a103 5a3d a5ad 0a3d 11d3 5f3a 6f5b c63c
000002b0: 8e82 1bbe eaf1 7ebd 5752 62bc 0a34 c53d
000002c0: a4fd 2cbd b10e 02be c93e 483e f19f 043e
000002d0: 0363 2c3e c32e a2bd 961c 263e 9891 f53d
000002e0: 661e 8d3e d13c 233e a8d7 293d 887d e7bd
000002f0: 9a8f 003e af7f 993d 18fc e3bd ebc2 adbd
00000300: bb1c 1ebe 4e99 97ba 51ce 07be 05a4 593d
00000310: 270c 333e cdcf 0a3e 6a18 d4bd e217 ed3c
00000320: da4c ed3d 8d6e 56bc db6e 123d 037b 0d3b
00000330: a164 8f3d da0b 77be eb0e 2bbe 0c67 0bbe
00000340: c016 34be 4081 7d3e 96a0 e83d 1a41 f43d
00000350: e7f6 01bd ead0 74be 46b7 393e 6bde 4b3e
00000360: 9144 233e 8727 93bd 3e2b 3b3c 9964 c1bd
00000370: 5b63 343e 524d 403e 5246 183e 8f0c 453e
00000380: 77fa d4ba 8e42 2bbe fe78 c0bd 9ff6 fbbd
00000390: 6951 82bd 4007 d03d b10c cd3d b2e5 74bc
000003a0: 1491 8bbd 0a7d 2cbd 3714 59be 2ac6 ca3c
000003b0: a9a7 8a3d bf67 1bbd d659 443e 1e35 3f3e
000003c0: 9082 073e 4691 42be 6e72 42bd 0eb6 6d3c
000003d0: 2741 2e3e e177 11be d9a6 c03d f29c dc3d
000003e0: 322b 4fbe 554a ac3d a405 5a3e a7b1 4a3c
000003f0: 6092 173e b76c ab3d 18bc 973d 5b6b 11be
0.10689535 -0.107791014 -0.0025945944 -0.13381717 -0.17133164 0.070075944 -0.12460897 0.16037832
-0.044371843 0.092500076 -0.10499812 0.22458476 0.16800262 -0.2624425 -0.09688324 -0.0514583
0.081832826 -0.24422874 0.13327353 0.22647625 -0.025576342 -0.014568724 0.081071675 0.11512199
0.15161833 0.1502071 0.10049435 0.2217461 -0.085847124 -0.18666883 0.1294188 0.084726915
-0.10466426 -0.14604796 0.11210705 0.006603124 0.08408627 -0.30343875 -0.1030465 0.033400413
0.1484358 0.037053186 0.11885919 0.08983007 0.060810722 0.1483209 0.07326407 0.18316874
0.018517852 0.11669069 -0.05772509 -0.086715296 -0.054772697 0.17511067 -0.055263296 0.18892938
0.20987837 -0.12308166 0.078491114 0.14930025 -0.2782667 0.15511124 0.058334794 -0.14331473
-0.19980524 0.11858979 -0.009167262 0.06202194 0.118732326 0.06271972 0.066616215 0.07032038
0.0662369 0.11727932 0.0864022 -0.24819912 0.12706484 -0.012058703 -0.073390074 -0.14741354
0.12064696 0.051333126 0.12088786 0.22999682 -0.27930135 0.036799014 0.0652551 -0.304683
0.011550376 0.106646135 -0.09911072 -0.19698085 -0.02712147 0.12941322 -0.17814557 0.0299137
0.01898969 -0.13957798 -0.18961504 -0.04771087 -0.113228306 -0.21314672 0.06833665 -0.09846186
-0.044906486 0.004601027 0.06000057 -0.01405238 -0.071092315 0.056138724 0.012510259 -0.000904233
0.13339652 -0.09451143 -0.060335565 -0.036327332 0.038977914 -0.2988808 -0.05051586 -0.16877091
-0.1435038 0.14938274 -0.2125307 0.04582874 -0.009222122 -0.14992698 0.14228748 -0.022159735
-0.049760487 -0.33818853 -0.14478679 0.0064391247 0.05417956 -0.010111045 0.035625484 -0.17708594
0.025755996 0.10841588 -0.12188722 -0.02555411 0.05837346 0.051774 -0.10315059 -0.17981656
0.11269739 0.20050432 -0.14492637 0.020296056 0.075094655 0.023149453 -0.16866954 -0.12619069
-0.047381796 0.03804047 -0.23887418 -0.1919797 0.07853689 0.043780405 -0.20327044 -0.11766614
0.15934889 0.17833887 -0.11804618 -0.08130986 -0.16837408 -0.08399891 0.15173742 -0.010164354
0.053226117 0.033857007 0.0008538226 0.02421352 -0.15186521 -0.062242426 -0.013813577 0.09629066
-0.042234078 -0.12700917 0.195552 0.12951638 0.16834645 -0.07919075 0.16221842 0.119906604
0.27562255 0.15941168 0.04146543 -0.1130324 0.1255478 0.07495057 -0.111320674 -0.08484443
-0.15440647 -0.0011566074 -0.13262297 0.053134937 0.17485105 0.13555832 -0.10356219 0.028942052
0.11586924 -0.013087881 0.03575025 0.0021588213 0.07001615 -0.24125615 -0.1670491 -0.13613528
-0.17586803 0.24756336 0.11358754 0.1192648 -0.031729605 -0.2390782 0.1813632 0.19909064
0.15944125 -0.071852736 0.011423884 -0.094430156 0.17616026 0.18779495 0.14870575 0.19243072
-0.0016248961 -0.16724607 -0.093980774 -0.123028986 -0.06363184 0.10157633 0.10012186 -0.014947342
-0.06814781 -0.042111434 -0.21199118 0.024752695 0.0677026 -0.037940737 0.19174895 0.18672606
0.132334 -0.1900073 -0.04747241 0.014508737 0.17017041 -0.14205886 0.09406824 0.107721224
-0.20231321 0.08412615 0.21291214 0.012371457 0.14801931 0.08370345 0.07408923 -0.14201109

fc2.weight f4 [300, 400]
00000000: d464 c03d 7a1f 8d3d c452 6abe 986c bcbd
00000010: 841f 213e 531b 063d 56da 1ebe 4947 b63d
00000020: 7721 93be 42bb 9b3c 64b9 6ebe c416 193d
00000030: 35f8 0c3e 8c8d 8fbc 578c 3bbe ee4e 15bd
00000040: 2f2e 6d3d f5c1 b83d c918 373d bfec 273e
00000050: cac4 16be 939d 2cbe 3296 b1bc 1d09 ce3c
00000060: 4518 45bd 42d8 afbd b9d5 ba3d 51ea 52bd
00000070: a757 bcbd eeb9 09be d882 623d 8d43 233d
00000080: 3d06 ee3d 1ea8 7fbc d1ac b53d 1e33 11bc
00000090: 3329 a83a cb39 e0bc 1fe7 5bbe e34e b7bb
000000a0: 6185 6d3e c6a8 d63b a5ee 523e dbbe d9bd
000000b0: 8d81 e9be 1129 cb3d ca8e 20be e78c 83bd
000000c0: f017 853d 322d 413d 9495 823e 23ac 2f3d
000000d0: a4f0 a2bc 8a2e de3d a702 a5be eb94 aa3d
000000e0: 8359 043e 0497 92bd 55bd 803d 4470 973d
000000f0: 6a4f dbbc 23d3 643d 5163 20be 5d70 61bd
00000100: 4e30 de3c 5942 f73c 084e 423d eba6 e43d
00000110: 64b9 173e 072c 1d3d 8887 2e3d d3c1 92bd
00000120: 49b7 05be b191 913c 0d2f cdbd b211 d9bd
00000130: 8704 d33c 4b37 26bc 0252 d6bd 9ba0 d13d
00000140: 0afe d8bd 2a4e c8bc 1297 7b3e bcc7 f23d
00000150: 8b56 1d3c 41b8 04bd 6b08 89bd 2802 1b3e
00000160: 2ba1 283e 759b a8bd 5ad3 8fbd 44d0 12bd
00000170: a836 89be 38ef e8bd c1c2 fcbd 9127 0fbe
00000180: 480f 3abe 15fd 72be 02d4 bbbd 6a96 abbd
00000190: ef16 1e3e ab84 0cbe 545f 073d 2a94 56be
000001a0: 9921 2dbc 20ee 11be 38ca fb3d 2c5d c6bc
000001b0: fa04 cfbb 6ac8 273d 63fe 003e d5bb f9bc
000001c0: 52e8 b93c 2e86 04be ecf5 50bd 108e 343d
000001d0: bcb6 063e 8622 8c3e f0e0 5b3d 55b7 71bd
000001e0: 59c5 8ebe 62d7 86bd eebd 75be 3d95 6f3d
000001f0: 6d3f 31be b019 1b3e 784a c4bd 573c 1b3e
00000200: cb7e 47be b055 c7bd 296e 54be 1fc8 c43d
00000210: badc 1dbe 034e f6bd 3caa 2f3d d68c 33be
00000220: 00a3 0f3e 70bf 173c 8c78 91be c15d 3fbe
00000230: e8ea 823d 1d27 34be 75c5 3cbc 9880 1dbe
00000240: 0a85 efbb fa74 953d 9bf3 1abd 27a2 063d
00000250: e250 323c 38c7 6abe ada6 64be 5d84 473e
00000260: 3cb5 f8bc 36ed 5f3d b2dd a2be 8b0b 043e
00000270: d1e6 2dbe 7c5d 1dbd 2daa 1c3e d7cf d13c
00000280: 1f0d 5e3d 225f d33d d8d6 293e 5baa 18bd
00000290: 3933 b3bc 2cdf 06be f351 e33d 4710 66bd
000002a0: f32e 8cbd 5417 e0bd 9fd6 fc3c 2648 4cbe
000002b0: 4438 ac3d 480f c9bd fa2f cb3d aec1 12be
000002c0: 6824 3e3e 52c6 2abe 9218 333e 086a 14be
000002d0: 69c7 27be 4aa9 1abe 9d7c 213e 88d3 ca3d
000002e0: f363 e0bc 0472 463d 3eb9 c23c bcfe cabc
000002f0: 01e2 aa3c b8b3 0abe 6d0f d0be 13d9 19be
00000300: 2e5f 87be be26 8c3d 5f6d 1cbe f897 1c3e
00000310: 6eb9 aabd 30c3 c73c 222d cfbe 5d8d 913c
00000320: 280f 953b ed07 d8bd fbb5 acbd 23dd 1ebe
00000330: 1509 123d f6dc 0dbe c9a6 a2bd 3f41 b2be
00000340: 2c03 ac3d f8bc 1e3e f16f e23c dcb3 9a3d
00000350: 8f34 4cbe 328d 91be 7de8 363e 12c5 fa3d
00000360: 7ed5 b73c d4c4 02be 6108 71bd 8ec4 dcbd
00000370: 0d0e 083d 1cee f33d dcad b5bd 334b aabc
00000380: bcb2 1ebd 3304 57bd d089 803c d258 863c
00000390: 64a0 1bbd 5351 073c 2443 803d 3005 b3be
000003a0: f49f d53d 93a4 41bd 60d0 6a3d 90c7 79be
000003b0: 1306 093d c302 a9bc 8679 a5bc 85ea 2d3e
000003c0: 6728 d63d 9a76 97bd 1848 06be f8c8 b63d
000003d0: 4d17 8f3d c460 d2bc 64fd 363d 2470 0cbe
000003e0: 66d7 17be 10fc 68bc e10c ea3d d717 88bc
000003f0: c5e6 0b3d 1716 7abd 4c0c 8ebe 36d4 163c
0.093942314 0.06890769 -0.22883135 -0.092004 0.15734679 0.032740902 -0.15512976 0.08900315
-0.2873647 0.01901019 -0.23312908 0.037375227 0.13766558 -0.01752355 -0.18315254 -0.036452226
0.057905372 0.09021369 0.04470137 0.16398905 -0.14723507 -0.16856985 -0.021678064 0.02515083
-0.04811885 -0.0858617 0.091227956 -0.051492993 -0.09196406 -0.13449833 0.055300564 0.039859343
0.116222836 -0.015604047 0.08870853 -0.008862285 0.0012829661 -0.027371308 -0.21474884 -0.005594121
0.23195411 0.006550881 0.20598848 -0.10632106 -0.45606652 0.09919942 -0.1567947 -0.06423359
0.06498706 0.047162242 0.25504744 0.04288877 -0.019890137 0.1084872 -0.32228586 0.08329185
0.12924771 -0.0715771 0.06286112 0.0739446 -0.026771266 0.05586542 -0.15662886 -0.0550388
0.027122643 0.030183004 0.047437698 0.111646496 0.14816815 0.038372066 0.04260972 -0.07165875
-0.13058199 0.017769666 -0.1001874 -0.10599078 0.025758995 -0.010145019 -0.104648605 0.10235711
-0.10595329 -0.024451334 0.24569348 0.118545026 0.009603153 -0.03240228 -0.06691059 0.15137541
0.1646773 -0.08232776 -0.07022734 -0.03584315 -0.26799512 -0.11373752 -0.12341834 -0.13979937
-0.18169892 -0.23729356 -0.09171297 -0.083782986 0.15438436 -0.13722484 0.033049896 -0.20954958
-0.010567092 -0.14250994 0.122944295 -0.02421435 -0.006317732 0.040962614 0.12597041 -0.030485073
0.022693787 -0.1294181 -0.05101578 0.044080794 0.13155645 0.2737009 0.053681314 -0.05901273
-0.2788494 -0.0658405 -0.23998234 0.058491934 -0.17309351 0.15146518 -0.09584516 0.15159737
-0.19481961 -0.097331405 -0.20745148 0.096084826 -0.15416232 -0.12026598 0.042886958 -0.17534193
0.14027023 0.009261951 -0.28412282 -0.18688108 0.06392461 -0.17593046 -0.011521687 -0.15381086
-0.0073095607 0.07297702 -0.037829977 0.032869484 0.010883542 -0.22927558 -0.22329207 0.19484086
-0.030359857 0.05466958 -0.31809765 0.12895028 -0.1698258 -0.03841923 0.15299292 0.025611801
0.054211732 0.103208795 0.16585863 -0.03727184 -0.02187501 -0.13171071 0.11099615 -0.056167867
-0.06844892 -0.109419495 0.030864058 -0.19949397 0.08409169 -0.09817368 0.0992126 -0.14331695
0.18568575 -0.16677216 0.17489842 -0.14493573 -0.16384663 -0.15103641 0.15770192 0.09903628
-0.02739141 0.048448578 0.023769971 -0.02477967 0.02085972 -0.1354512 -0.4063677 -0.15024213
-0.26439804 0.06843327 -0.15276097 0.15292346 -0.08336149 0.024385065 -0.4046412 0.017767603
0.004548926 -0.10548387 -0.084331475 -0.15514044 0.035653193 -0.13853821 -0.07941968 -0.34815404
0.083990425 0.15501773 0.027641268 0.07553837 -0.19941925 -0.28428036 0.17862125 0.122446194
0.022440668 -0.12770396 -0.05884588 -0.10779677 0.033216525 0.1191065 -0.08871052 -0.02078781
-0.038744673 -0.05249424 0.015690714 0.016399775 -0.037994757 0.008259135 0.06262806 -0.34964895
0.10430899 -0.04727609 0.057327628 -0.24392533 0.03345306 -0.0206312 -0.020199548 0.16983993
0.10456925 -0.07395668 -0.13113439 0.089250505 0.06986866 -0.025680907 0.044675246 -0.13714653
-0.14828262 -0.014220253 0.11428238 -0.01661293 0.034155626 -0.061056223 -0.27743757 0.0092058685

fc2.bias f4 [300]
00000000: a9a5 64bd 3d25 183d 2310 c9bc f5d6 a53b
00000010: 6cec 253d f9cb 4cbc b7ca 0b3d e96e 6abd
00000020: a2ad c63d 8597 a7bc a20f babd 65b4 593d
00000030: 47aa 8e3d 37cf 50bd 8333 773c 7e2e c4bd
00000040: 9c05 f53b 2f5d 41bd 48d8 0a3a 2397 dfba
00000050: b799 5e3d e37b 183d eed1 88bd 4971 86bc
00000060: d917 a73d 077c 19bd dc5b 1fbd 905a 843c
00000070: a471 8cbc 4081 44bd 4a16 443a 9293 5dbd
00000080: e6bb d3bb d78e ec3c a5dd 72bd e430 81bc
00000090: ae9a 8f3d a678 a63c fd50 40bc d98e b6bd
000000a0: 12a8 a7bd ab4b 4fbd 4ea7 a3bc 6246 86bd
000000b0: 1d8c db3b c614 22bc f28d 0ebc 5868 ea3c
000000c0: 6910 36bd c7c0 703c 388e de3c c8fd aa3c
000000d0: 1e35 17bd 68b2 70bd 3e88 4cbd 9dc5 73bd
000000e0: afbe 583d 26c2 f63c d86f 1d3d a8c2 fb3c
000000f0: 6e0a 1e3c a6a0 30ba 2101 713d 0b57 11bd
00000100: 34ec 50bc 31e4 22bd 5a56 d53c 17d1 b1bc
00000110: 2b23 5abd b1c3 343d e8fe dd3c 7351 b4bc
00000120: 23ed 8abb f178 c1bc 241a ac3c a4ab fa3c
00000130: 54fb 04bd 7a66 333d 9bfc 0bbd 2482 1d3c
00000140: 788a fe3d 1b87 17bc 6b5c 4cbd 2771 8fbb
00000150: 47d6 99bc 5e38 db3c 460b 573d f86b e33c
00000160: e212 d33b b14d f6bc 7ab3 c5bc 164f 56bc
00000170: a14a ad3c b195 25bd 56e3 cb3c 7deb 0fbc
00000180: 073e 143d 9427 b53c 3310 273d c1bc e9bd
00000190: 2878 fbbb 11d5 04bd fec4 c2bb caa5 bebb
000001a0: 795a ac3b a513 1fbb 7117 f23d 444c 27bd
000001b0: a687 5fbd 3ed6 2aba 5a5d 96bd 9735 39bd
000001c0: 370c 053c 82de 983d c3cc 35bd 9d46 003e
000001d0: 953b 2d3d 1358 f23c 4b42 82ba 8044 dabd
000001e0: fe4c 62bb ea97 863d 39be 04be 5522 0d3c
000001f0: 5cca 463b 9e48 d63c f8ba 813d 5d2b 3b3d
00000200: c487 0ebd 8bac 203d f2d6 4fbc 8504 83bd
00000210: a14b e4bc 9586 24bc e45c 10bd 6c43 dd3d
00000220: 3836 cf3c bbdf 6abd 4dcb 49bc c635 313d
00000230: 14da af3c 7e9b 0b3d 2f2e fe3c f976 3abd
00000240: 6b34 27bd 2a28 483c 2f04 df3d 25dd 97bc
00000250: 9148 2dbd b715 df3c d97f 1cbd bf46 ac3b
00000260: 88e9 c2bc 9e39 b2bc 2b14 2e3d 7c3d 0b3d
00000270: 426f 913d c295 823c fc25 983b 017e 123d
00000280: e6a5 c03c 79f9 943c 5034 ef3c 293e 97ba
00000290: 6f1e 5e3d 6a23 debd efe4 c33c ffda 9d3c
000002a0: b792 c03d a2eb 903d 786d 81bd 405e 443d
000002b0: da3d 023e 7f03 0fbd fbf9 2cbd 80c8 bd3c
000002c0: e863 9c3d 3daa f6bb 809d de39 1168 b63c
000002d0: 0035 013c 718b a03d 27e1 ae3d 1e62 9ebd
000002e0: ee01 61bd 7c13 ce3b 8942 a43d 1cd8 043c
000002f0: 5590 e6bc 4f60 1d3b 18dc 903b 2154 19bd
00000300: e553 e73d 43ee 223d b614 16bd 8198 fcbd
00000310: 1b44 e3bc d1f0 a3bd 63b9 8f3c 26aa 6ebd
00000320: 9e67 dbbc 8179 4abd abf2 803b 80da 70bc
00000330: 91e4 843a 5ccb 0bbd c35b 8d3b c324 9d3d
00000340: d5c6 82bd bd99 a13c b544 3a3c dabe d63d
00000350: 9612 df3c 6951 803d 2098 193d 5d28 5fbc
00000360: 5024 be3c 82dd 3c3c c474 c9bd 78f5 4c3d
00000370: 35b1 983d 96e0 633d d559 6fbd 6224 1a3d
00000380: 5f77 4b3d 62e9 2c3b c04c c3bc e721 69bd
00000390: a992 e13b 25b1 a0bc d012 b9bc 3b4a 5f3c
000003a0: 37ed d0bc 914b 30bb 4980 983c 59ea 4a3d
000003b0: 1147 ca3d fdd0 d93c 7eb1 3cbd b0dc b6b9
000003c0: 6493 0dba c2dc ffba cd5b 84bc 3fc2 59bd
000003d0: 3220 76bd 18d8 073c e7f8 373d bc09 41bb
000003e0: 1c68 b2bb 0695 963d 0086 c83d fbcc 473d
000003f0: 9d39 35bc 6df3 1bbc 9e32 64bb cf32 cbbd
-0.05582205 0.03714489 -0.024543827 0.0050610253 0.040508673 -0.012499803 0.03412887 -0.05723468
0.097010866 -0.020457992 -0.09085013 0.053150553 0.069660716 -0.050978865 0.015087965 -0.0957918
0.0074774753 -0.047208007 0.00052965106 -0.0017058592 0.054345813 0.037227523 -0.06680666 -0.01641144
0.081588455 -0.037471797 -0.038905963 0.016156465 -0.017144032 -0.047974825 0.0007480128 -0.054095812
-0.006461608 0.028876705 -0.059293408 -0.015770383 0.07011925 0.020321202 -0.011738059 -0.08913965
-0.08186354 -0.050609272 -0.019977238 -0.06556393 0.0067000524 -0.009892648 -0.008700835 0.028614208
-0.044449244 0.014694399 0.027167425 0.020872965 -0.03691589 -0.05876389 -0.04993462 -0.05951463
0.052916225 0.030121874 0.03843674 0.030732468 0.009646041 -0.00067378057 0.058838967 -0.0354834
-0.012751628 -0.0397684 0.026042152 -0.021706147 -0.053256195 0.04413194 0.027099088 -0.022011494
-0.0042396947 -0.02361724 0.021008559 0.030599423 -0.032466248 0.0437989 -0.03417645 0.0096135475
0.124287546 -0.00924852 -0.049892824 -0.0043775025 -0.018778933 0.026760276 0.052500986 0.027761444
0.00644146 -0.030066343 -0.024133433 -0.013080379 0.02115375 -0.04042596 0.024888676 -0.008784172
0.036191966 0.022113599 0.040786933 -0.11412955 -0.007674236 -0.03242976 -0.0059438935 -0.0058181034
0.0052598086 -0.0024273184 0.11820877 -0.040844217 -0.054572724 -0.000651691 -0.07342024 -0.045217123
0.008120588 0.07464315 -0.04438473 0.12526937 0.04229315 0.029583013 -0.000993797 -0.106575966
-0.0034530754 0.06571944 -0.12963189 0.008614142 0.0030333018 0.026157673 0.063344896 0.04569565
-0.034797445 0.03922705 -0.012685524 -0.063973464 -0.027868094 -0.0100418525 -0.035244837 0.10803875
0.025294408 -0.057342272 -0.012316537 0.043264173 0.021466292 0.034083836 0.031027881 -0.045523617
-0.040821474 0.012216607 0.1088947 -0.018538067 -0.042305533 0.027232034 -0.038207863 0.005257457
-0.023792997 -0.02175599 0.042499702 0.033994183 0.07101299 0.01594055 0.0046432 0.035764698
0.023516607 0.018185364 0.02919975 -0.0011538911 0.054228242 -0.108465984 0.023912875 0.019269465
0.09402984 0.070761934 -0.06319708 0.047941446 0.12718907 -0.034915444 -0.042230587 0.023166895
0.07636243 -0.007527618 0.00042460486 0.02226642 0.007886171 0.07839096 0.08539038 -0.07733558
-0.05493348 0.006288944 0.08020503 0.008108165 -0.028144995 0.0024013703 0.0044207685 -0.037433747
0.112952985 0.039778005 -0.036640845 -0.12333775 -0.027742436 -0.080049165 0.017544454 -0.058267735
-0.026782807 -0.04943228 0.0039351783 -0.014700532 0.0010138919 -0.034129485 0.0043139174 0.07673027
-0.063855805 0.019726628 0.01136892 0.10485621 0.027230542 0.06265528 0.037498593 -0.013620463
0.023210675 0.011527421 -0.098367244 0.050038785 0.074556746 0.055634104 -0.05843528 0.037632354
0.049674388 0.0026384224 -0.023840308 -0.056917097 0.0068839383 -0.01961572 -0.022591978 0.013628538
-0.025503738 -0.002690051 0.018615859 0.049539898 0.09876836 0.026588911 -0.046067707 -0.0003487817
-0.0005400686 -0.0019520747 -0.016157055 -0.053163763 -0.060089298 0.008291267 0.044915106 -0.0029455265
-0.0054445397 0.07352643 0.097911835 0.04877947 -0.011061099 -0.009518486 -0.003482021 -0.099218

fc3.weight f4 [2, 300]
00000000: f099 0ebc 1e73 bbbe 427b bdbc 1847 8cbd
00000010: a9d5 30be 63ae c2bc a5ee b0bb 85e8 33be
00000020: c07a d73c 26e3 103d 01c9 1ebd 3160 743c
00000030: a157 bf3c 66e5 133e 8081 6dbe b0c2 0fbe
00000040: af29 acbd 4a74 debc b360 9fbd cf5f 6dbe
00000050: d849 bdbd ec4e f8bd 6079 61be 2224 29bc
00000060: a2c7 dabd dc31 99be 08d4 46bc d035 ca3d
00000070: d9cf 93bc d96b ebbc 8bfb eb3c 6886 bf3e
00000080: 40c5 9abc 61b6 4cbe f13e 5cbd a4bc 793c
00000090: 5116 7abd ca37 6cbd 488f 37bb 5acc 11bd
000000a0: 9d2e 5d3e 2898 06bd 5a03 843d d9fd 21bd
000000b0: 5e37 1f3d 3f52 7ebd 7821 febc cea5 96bc
000000c0: 091f c3be 84da 083e f896 24bc 1532 af3d
000000d0: fc9c f83d 510e dcbc 8761 06bd ee8f 36bd
000000e0: feb4 0cbf 50c3 7dbd 1752 6fbd f5fd 8abe
000000f0: 6fdf 98bc 8bbd 55bd b651 ecbd 1e96 cfbe
00000100: 5cfd 8ebe db0f a8bc f596 1a3d 9b68 edbd
00000110: fcd8 0dbc 9aed 9b3d 5421 2ebe 8eee 38bc
00000120: 4682 7f3d 3bed 3d3b e0e8 c1be 91fb 97bd
00000130: f996 433d 9652 1c3d 5575 32be fbcc 22be
00000140: b63f 2f3d cf09 8fbe 7ed5 0d3c ad5b eebc
00000150: 7d29 d2bb c5a3 b63d ae06 cebe d8c3 2dbf
00000160: 64c3 2cbe aede 11be 0858 0a3d 3965 6ebc
00000170: 7fa5 30be 1752 c2bc 3e00 47bc a9a6 2f3d
00000180: c869 b9be 00ae eb3c 51dd 0a3e df30 dcbd
00000190: 2b58 4b3c f8d1 8e3b 54b1 b7bc 004d a9bc
000001a0: 15cd a1bd 1348 2ebe 8cce af3c 09d9 51be
000001b0: 61ab e3bc b3fd d5bd be09 45bf a930 1abd
000001c0: 07dd cabe 259d 67be 75ea 923d 0d12 b53c
000001d0: 5f76 f9bd 9304 19be d402 c9bc 25da 49be
000001e0: 82fb d7bc 7c95 78bc 3071 383f e36b eebe
000001f0: 78b9 48bd 7aca 283e d490 e0bd bb4a 0cbf
00000200: 3318 42be 3a2c d23d c08b ea3c cdc8 d7be
00000210: f246 213d 3d4e 31be a59c 25be f66b 073e
00000220: d11d 04be 57b5 62bc dc42 b4be 6e8b 003c
00000230: 1be4 ed3d c107 15be db79 4f3e d735 2dbd
00000240: a627 d73b f80a d5bc c7ad bdbd 56f5 893b
00000250: 2d65 0e3c edc3 23be 8b7e 0abf 0581 bfbe
00000260: 39d4 9dbc 3f4d 013d a364 fabd 8e90 78be
00000270: 1c0e 2abf 730e 953e 2913 3bbd 9233 a4be
00000280: 9e03 25bf ca8e d4bc 9c08 733e 8d39 38bc
00000290: 4ae2 cfbe bc8f babe 621a a2bc 6300 c4bc
000002a0: 9ee8 93be 7b0d 7e3b 50b7 a8be efbe 95bb
000002b0: 166f d2bd 7c40 38bd db9c d1bc ec78 09bd
000002c0: 01a6 bf3c 5001 9abc 6aa5 83bb 6d0d 64bd
000002d0: 7b26 c8bb b7dc b3bd 7543 403e 095f 78be
000002e0: 3bc0 60ba 1660 ee3d 8349 db3d f3a2 11be
000002f0: aee3 74bc a945 03be 88a7 f7bd a569 a2bd
00000300: 184b a93d 643b 1c3d 4354 6abd 91af 95be
00000310: 108b 9bbd 58b5 3abe 1f76 8dbe 07a4 9abe
00000320: a1e2 8fbe 551b e63d bbd2 d0bd 9cbb b0bc
00000330: e357 893d 3e07 9bbe 9f61 513d 5d9a f2bd
00000340: c777 35be 2940 eabe 491f a0be b546 f23c
00000350: 903b a5bd 1f3b c93b 716d 5fbd 01e9 8cbc
00000360: 4de1 c73d 3db8 ca3d 3149 8fbe 40e0 a0bd
00000370: 0052 12bf cbb8 c0be 9399 dabd ed80 aabe
00000380: 6359 51bd df0c 93bc 09d6 c2be 7f41 1ebe
00000390: 02ec 813c 0b08 7fbe f65d f3bc 03f7 9dbc
000003a0: 2b68 fbbc f68d 8ebe ba3d bcbc f98a d73c
000003b0: 1c9e b13c edb8 19bf 5641 45bd 30ed 9ebc
000003c0: ecb4 233c 0d47 90bb 4950 a6be b43c 5cbe
000003d0: c5fa 133d d155 373e 46e2 29bd 9b51 8abd
000003e0: 8e7e aabe c90c fc3d 5ae9 29bf 5698 3c3e
000003f0: e799 2abe b4de c7bd 536a e4bd 31cd 6ebe
-0.008703694 -0.36611265 -0.023130063 -0.068494976 -0.17269005 -0.023764795 -0.0053995424 -0.17569168
0.026303649 0.035372876 -0.03876591 0.014915512 0.023357214 0.14442977 -0.23193932 -0.14039111
-0.08406388 -0.02715506 -0.07782116 -0.2318108 -0.092426 -0.12124428 -0.22018957 -0.010323556
-0.10682608 -0.29920852 -0.012135513 0.09873545 -0.018043445 -0.02873795 0.028806468 0.3740723
-0.018892884 -0.19991447 -0.053770963 0.015242729 -0.06105644 -0.057670392 -0.0028008986 -0.035595275
0.21599813 -0.03285995 0.06445952 -0.03954873 0.03887116 -0.062090155 -0.031021819 -0.018389609
-0.38109615 0.13364607 -0.010045759 0.08554474 0.121393174 -0.026862295 -0.032807853 -0.044570856
-0.5496367 -0.061953843 -0.058427896 -0.2714688 -0.018661229 -0.052182715 -0.115390226 -0.40544218
-0.27927673 -0.020515373 0.03774162 -0.115922175 -0.00865769 0.07613678 -0.17004901 -0.011287345
0.062380098 0.0028980512 -0.37872982 -0.07421029 0.0477514 0.038164698 -0.17427571 -0.15898506
0.04278537 -0.2793717 0.008656858 -0.029096449 -0.006413637 0.08917955 -0.4023947 -0.6787696
-0.1687141 -0.14245102 0.03377536 -0.014550501 -0.17250632 -0.023720784 -0.012146054 0.04288355
-0.36213517 0.028769493 0.13560988 -0.10751509 0.012411158 0.0043585263 -0.022423424 -0.0206666
-0.079004444 -0.17019682 0.021460794 -0.20492949 -0.02779168 -0.1044878 -0.7696799 -0.037644062
-0.39621755 -0.2261854 0.071736254 0.022103334 -0.121807806 -0.14943151 -0.024537481 -0.19712122
-0.026365045 -0.015172359 0.7204771 -0.46566686 -0.049005 0.16483489 -0.10965124 -0.5480153
-0.18954544 0.10262342 0.028631091 -0.42145386 0.0393743 -0.17315002 -0.16173036 0.13224778
-0.12901999 -0.01383718 -0.3520726 0.007845743 0.11615773 -0.14553739 0.20261328 -0.042287674
0.0065660058 -0.026006207 -0.09261661 0.0042101545 0.008691114 -0.15992709 -0.5409934 -0.37403122
-0.019266235 0.03156781 -0.12226226 -0.24273893 -0.6642778 0.29112586 -0.04567257 -0.32070595
-0.64458644 -0.025946993 0.23733753 -0.01124419 -0.40602332 -0.36437786 -0.01978797 -0.023925966
-0.2888841 0.003876536 -0.32952356 -0.00456988 -0.10275094 -0.044983372 -0.02558749 -0.033562586
0.023394587 -0.018799454 -0.0040175216 -0.055676866 -0.006108103 -0.087823324 0.18775733 -0.24255003
-0.00085735664 0.11639421 0.107073806 -0.14222316 -0.014946861 -0.12819542 -0.12092501 -0.07930306
0.08266276 0.038142577 -0.057209264 -0.2923551 -0.075948834 -0.1823324 -0.27629182 -0.30203268
-0.28102592 0.11235682 -0.10196444 -0.021573834 0.06706216 -0.30278963 0.05111849 -0.11845849
-0.17721473 -0.45752075 -0.3127387 0.029574731 -0.08068001 0.006141081 -0.05454773 -0.017200949
0.097597696 0.09898422 -0.27985528 -0.07855272 -0.5715637 -0.37640986 -0.10673823 -0.33301488
-0.051110636 -0.017950473 -0.3805392 -0.15454672 0.015859608 -0.24905412 -0.02970789 -0.019282823
-0.03068932 -0.27842683 -0.022978652 0.026311385 0.021681838 -0.600478 -0.048158012 -0.01940021
0.009991866 -0.004403001 -0.32483128 -0.21507531 0.036127824 0.1790383 -0.041475557 -0.06753846
-0.3329968 0.12307126 -0.6637169 0.18417487 -0.16660272 -0.09759274 -0.11153092 -0.23320462

fc3.bias f4 [2]
00000000: 86be 7b3c c8c0 2bbc
0.015365249 -0.010482974
