Tennis/Nets/checkpoint_critic1800.pth (torch_old, 526870 bytes, 9 tensors)

bn1.weight f4 [24]
000000 e3 77 58 3e 75 ad 97 3e de d8 4c 3e f5 4c 2c 3e
       0.21139483 0.29624525 0.20004603 0.16826232
000010 13 62 5a 3f d8 8b 0a 3f f3 e3 ec 3d 3c 96 ba 3b
       0.853059 0.54119635 0.11566915 0.005694179
000020 5e 7f 4f 3e e4 79 92 3d 18 19 4d 3e 79 f3 69 3d
       0.2026343 0.07152155 0.20029104 0.05711696
000030 67 40 5d 3b a8 96 17 3f e4 55 62 3e 4d 76 7d 3e
       0.003376031 0.5921426 0.22103077 0.2475216
000040 9f 4b 1c 3f ee 57 98 3e 69 4a 17 3e 8a 6b 9d 3e
       0.6105289 0.29754585 0.14774479 0.30746108
000050 4a 67 2b 3f 00 67 30 3f 88 e3 ad 3e d4 77 a0 3e
       0.6695448 0.68907166 0.33962655 0.31341422

bn1.bias f4 [24]
000000 0b 83 3e 3b 03 f7 25 3d 8a 3c 19 3d 56 13 f8 3c
       0.0029069807 0.04051877 0.03741125 0.030282658
000010 f6 1f 79 3d 28 de 5d 3e 7c f7 47 3d 20 42 2c 39
       0.060821496 0.21666777 0.048820004 0.00016427832
000020 5d 95 f2 bd 3d a1 9b 3e 56 a5 e7 bb 3a f5 9f 3a
       -0.11844895 0.30396453 -0.00706927 0.001220382
000030 60 b8 b3 bb 43 82 86 3e 2d fe dd 3b 3e 86 23 3c
       -0.0054846257 0.26271257 0.006774685 0.009980736
000040 2c c8 b0 bd 41 db 59 3e 99 dd 0d bc da 41 a0 3c
       -0.0863193 0.21275045 -0.00865879 0.01956265
000050 db f0 bc 3d 03 71 38 3e dd 36 97 bd ec 59 8a bb
       0.09225627 0.1801186 -0.07383511 -0.0042221453

bn1.running_mean f4 [24]
000000 fd d4 c9 c0 14 d9 8c bf c8 79 64 40 be 4e 3d 3e
       -6.3072495 -1.1003747 3.569933 0.18487069
000010 93 ba d7 bc 4e 7b 23 40 c8 79 64 40 be 4e 3d 3e
       -0.026334083 2.554401 3.569933 0.18487069
000020 b7 f9 cf c0 16 09 90 bf 2a be 67 40 c9 ce 15 3e
       -6.499233 -1.1252773 3.6209817 0.14629664
000030 f8 66 05 bc fc 6d 21 40 2a be 67 40 c9 ce 15 3e
       -0.008142225 2.522338 3.6209817 0.14629664
000040 88 f2 d4 c0 bf e9 92 bf 96 b8 82 40 ee cf 0c 3e
       -6.654606 -1.1477584 4.0850325 0.13751194
000050 1d 1e 08 bc d8 c0 1c 40 96 b8 82 40 ee cf 0c 3e
       -0.008307961 2.4492702 4.0850325 0.13751194

bn1.running_var f4 [24]
000000 40 0e 5c 41 15 3f 7a 3f a1 e6 74 43 88 31 b1 40
       13.753479 0.97752506 244.9009 5.5372963
000010 56 d6 0c 42 22 a9 86 40 a1 e6 74 43 88 31 b1 40
       35.209312 4.208146 244.9009 5.5372963
000020 b0 96 4e 41 33 0d 7b 3f c4 0f 80 43 16 3a bb 40
       12.911789 0.98067015 256.12317 5.8508406
000030 da b8 16 42 5d 6d 8e 40 c4 0f 80 43 16 3a bb 40
       37.68052 4.45085 256.12317 5.8508406
000040 d5 12 43 41 20 38 7b 3f 9e 2b 86 43 80 9d c8 40
       12.192098 0.98132515 268.34076 6.269226
000050 4c 2c 21 42 03 56 9d 40 9e 2b 86 43 80 9d c8 40
       40.29326 4.9167495 268.34076 6.269226

fcs1.weight f4 [400, 24]
000000 fc 89 12 3e c8 bc df 3e c8 dd a3 3c 57 f0 23 3e
       0.1431045 0.43698716 0.020003214 0.16009651
000010 48 2c 67 bf 20 fc 07 bf ea 67 d6 bc 76 8c ba ba
       -0.9030194 -0.5311909 -0.026172597 -0.0014232534
000020 46 4e 5f bd 2b a1 a1 be f5 a7 ee 3b ce ae c5 3d
       -0.054518007 -0.31568274 0.0072832056 0.09652482
000030 43 10 ca 3e c4 64 2b 3e f6 eb 90 bc 98 3c 32 3e
       0.39465532 0.16737658 -0.01769064 0.17405927
000040 73 4b 52 bc 9b 11 63 be 78 67 cf bd 55 7d bb bd
       -0.012835371 -0.22174685 -0.10127157 -0.091547646
000050 f1 95 58 3f 91 75 da 3e b3 b6 44 3d 14 c7 a9 bd
       0.8460379 0.4266782 0.048025798 -0.08289924
000060 13 26 5b 3e bb ab bf 3d cf 38 c2 bd a0 42 c7 be
       0.21401243 0.09358927 -0.09483492 -0.38918018
000070 da 2d bd 3d 09 cf 87 bd ce d9 49 be 29 dd 4c 3d
       0.09237261 -0.06631286 -0.19711992 0.050015602
000080 ae 5e 45 3e 7c e0 04 be 70 af c8 bd 0e 39 ed bd
       0.19274399 -0.12976259 -0.09799087 -0.11583148
000090 8b b4 03 be aa aa 7f bb b7 a2 15 be a9 1f b7 bd
       -0.1286184 -0.0039011636 -0.14612852 -0.089415856
0000a0 8a be 26 3e 36 aa eb 3c 4f f2 b4 be ba 15 82 be
       0.16283622 0.028767686 -0.35341117 -0.254072
0000b0 0d 86 14 bf d6 0e 8f bd 87 1b a8 be 06 9a 87 be
       -0.58017045 -0.069852516 -0.32833502 -0.26484698
0000c0 fe 79 20 3d a2 e0 67 3e d4 ff 21 3b 72 73 fe ba
       0.03917884 0.22644284 0.0024719136 -0.0019413067
0000d0 fa 06 e6 3d 7f b4 aa be 91 b4 2b 3d 64 ff 19 ba
       0.112317994 -0.33340833 0.04192025 -0.0005874543
0000e0 20 6a 72 3d 51 9d 93 bd a6 17 4f 3c 67 25 85 be
       0.05918324 -0.0720774 0.012639916 -0.26005098
0000f0 e1 29 7a 3d 04 de af bd ce 31 aa 3d 63 53 96 be
       0.061075095 -0.08587268 0.08310281 -0.29360494
000100 d1 4b b3 3d 78 6b 31 3e b3 72 f2 bd 4a 1f 84 3e
       0.08754695 0.17326152 -0.118382834 0.25805122
000110 20 54 b4 bc 13 ec e2 3e 55 5f c6 bd 49 8d a7 3e
       -0.02201277 0.44320735 -0.09686152 0.3272498
000120 88 60 ca bc 02 cc 16 be 78 e5 0d 3c 55 63 c1 3d
       -0.024704233 -0.1472626 0.008660667 0.09442774
000130 03 b4 39 bf 1d 3b c7 bd f0 94 82 3c 01 8a 03 3a
       -0.725403 -0.09728072 0.01594016 0.00050178176
000140 bb 8a 53 3c da cc 0b bd c2 e1 7b bc 86 16 07 3b
       0.012911494 -0.03413091 -0.015373649 0.002061279
000150 42 41 41 bd bb 40 60 bd f9 18 53 3d a5 77 69 bd
       -0.047181375 -0.05474923 0.051537488 -0.056998868
000160 95 3a db bc 8e d3 7d bd c0 31 7b 3c 74 f5 2d bd
       -0.026761333 -0.061969332 0.015331686 -0.04247041
000170 f0 f1 70 3f 6b a1 dd 3d 8a 3c af 3c f5 62 eb bc
       0.9411917 0.10821804 0.021391172 -0.02873371
000180 fb aa aa bc e2 7e cb bd 74 ac 97 3b 18 72 a7 be
       -0.020833483 -0.0993631 0.0046287123 -0.32704234
000190 62 4d 3e bc 2e 27 16 be 04 61 09 bd 67 e9 19 be
       -0.011615129 -0.14663383 -0.033539787 -0.15030442
0001a0 1d af 13 3d 7b 64 b8 be 2b 02 b9 3e fa 6f c3 be
       0.036055673 -0.3601416 0.36134467 -0.3817137
0001b0 c8 b8 80 bd 18 8a 2d bd cc 3f c1 3e 10 7f c7 be
       -0.06285244 -0.042368025 0.37743986 -0.38964128
0001c0 ee 1a 4b bd 2c ff 25 bf d4 0f 99 be f2 6a 77 3e
       -0.04958623 -0.64842486 -0.29894888 0.2416189
0001d0 24 25 86 be c7 74 43 bd f5 a4 99 be 57 1b 4f 3e
       -0.2620021 -0.04771879 -0.30008665 0.20225273
0001e0 55 c2 ed 3e 9a ec 0e 3e 66 14 07 bd 5a d7 ee 3c
       0.46437326 0.13957444 -0.032978438 0.029155422
0001f0 39 36 93 be 28 f8 7b be 93 ce b1 bd 2b 9f 7e 3d
       -0.28752306 -0.24606383 -0.08681979 0.062163513
000200 62 ee 47 3e 29 6c 4f be ac bc 82 3b 18 04 cb 3b
       0.1952453 -0.20256104 0.0039897766 0.0061955564
000210 c2 09 fe bc 64 95 e0 3d df 6b 50 3c a2 37 14 38
       -0.031010512 0.10965994 0.012721031 3.533776e-05
000220 a6 36 24 3e 22 aa a6 3d 99 6f bc 3e 6c 05 35 3e
       0.16036472 0.08137919 0.36803892 0.1767785
000230 7f e1 45 3e 9b 46 70 bb 56 77 f2 3e d1 bb 86 3e
       0.19324301 -0.0036663178 0.4735667 0.26315168
000240 82 ac 0b 3c c4 49 33 be 48 69 c5 3c 9d 94 80 3d
       0.008525016 -0.17508608 0.024098054 0.06278346
000250 32 7a c6 be 69 d0 87 bd f0 48 61 3d ab ed 51 bc
       -0.38765103 -0.06631548 0.0550012 -0.012813012
000260 83 89 17 3d 65 8f 0a bd 0e 51 b6 bc 8d 97 b4 3d
       0.036996376 -0.033828158 -0.022255447 0.088179685
000270 4c 3e 59 3c 7f e7 e0 bc c2 26 89 bc a0 ac b2 3b
       0.013259482 -0.027454136 -0.016742114 0.0054527074
000280 a9 99 3f bd 7e b1 38 3c 67 6d 2a bd 1e 6e fb bc
       -0.0467774 0.011272786 -0.04160824 -0.030692156
000290 ba 62 42 3f c6 e3 03 3e 9c 90 08 3d 94 98 01 bd
       0.75931895 0.12879857 0.033341035 -0.03163965
0002a0 e9 73 1d 3d f4 e7 4a 3e eb 18 21 3e 78 fc 03 be
       0.03844062 0.19815046 0.15732162 -0.12889278
0002b0 64 d5 d6 3d 16 15 4f be 5f 0c 4b 3d a6 ba 28 bd
       0.1048992 -0.20222887 0.049572345 -0.041193627
0002c0 34 33 07 3d df 61 34 be 4e a4 e7 3d b9 74 c0 3d
       0.033007815 -0.1761546 0.113106355 0.09397263
0002d0 fe 74 c3 3e 3a 99 65 be 59 e2 ef 3d 68 9b 4f 3d
       0.38175195 -0.22421733 0.11713094 0.050685316
0002e0 56 5f 41 bd c1 d4 7f be 95 1a 1b bd 6c 3e e1 3e
       -0.04721006 -0.24983503 -0.037867147 0.43992937
0002f0 5b fe 96 3e 8f ab dd 3e 73 0a 8b bd d0 d1 fd 3e
       0.29490933 0.4329495 -0.067891024 0.49574137
000300 ea 73 e9 3e f8 93 17 3d 4f 72 17 3e d3 bc 8a be
       0.45596248 0.03700635 0.14789699 -0.27097186
000310 34 60 9c bc 71 91 bc bd 69 f7 c3 3d 97 da 9b bd
       -0.019088842 -0.09207428 0.09568674 -0.07610052
000320 da 77 cb 3d 6e a2 5e be aa 3f 09 bf d2 46 c3 bd
       0.09934969 -0.2174165 -0.5361277 -0.09534992
000330 5e 46 68 bd 69 b5 b9 bd df d1 00 bf 6c 17 e2 bd
       -0.056707732 -0.09067804 -0.5032024 -0.110396236
000340 b8 ef 8c 3d 3f a3 1f 3e 02 68 0c bc f8 8e 8c 3e
       0.0688166 0.15589617 -0.008569719 0.27452826
000350 a5 56 18 be 0a 29 b7 3c 24 64 74 3d dd 4b a5 3e
       -0.14876802 0.022358436 0.059665814 0.32284442
000360 e3 de 1e 3d 1a 54 0e 3c 53 6b 03 3f 92 c3 77 3a
       0.03878678 0.008687044 0.5133564 0.00094514445
000370 b4 7a 3c 3d ea fb a1 3c 3d 6c d0 3e db c9 75 3d
       0.046015456 0.019773442 0.4070758 0.060006958
000380 76 c6 d9 bb 86 85 f8 be 54 94 7e be 1f ae 65 3e
       -0.006645973 -0.4853937 -0.2486127 0.22429703
000390 0b 95 ce bc 6d 2e a0 3d a3 1e 84 be 6f dd 85 3e
       -0.025217554 0.07821355 -0.25804624 0.26145503
0003a0 2b 84 24 3e 8c 94 c2 be d4 a4 8e 3e d2 ee 23 bd
       0.16066043 -0.38003957 0.2786013 -0.04002268
0003b0 b1 04 3f 3d 52 78 e6 3d 19 2a a1 3e 4e f9 9d bb
       0.046635333 0.11253418 0.3147743 -0.004820979
0003c0 03 17 c0 bd b2 84 40 bd 9c 5e 3a be f4 62 66 bd
       -0.09379389 -0.047001548 -0.18200153 -0.056246713
0003d0 e9 86 78 bc 1e 3c 98 be 0b 28 37 be 2a 61 1b 3d
       -0.015168884 -0.29733366 -0.17886369 0.03793446
0003e0 5b 94 c0 bd 9f 84 82 be 5e 10 20 bd c2 f4 1f 3e
       -0.094032966 -0.25491807 -0.03907811 0.15620711
0003f0 58 b7 80 3d 74 10 5f 3d 5c 99 82 3b 88 f7 54 3e
       0.0628497 0.05445905 0.003985567 0.2079755

fcs1.bias f4 [400]
000000 4f 68 a3 be ea 8e b7 be b6 50 77 be 8f a1 a9 3b
       -0.3191552 -0.35851222 -0.24151883 0.00517673
000010 0c 99 9f be 1b 48 24 be 3b cc 60 be 9b e0 48 be
       -0.31171453 -0.16043131 -0.21952908 -0.1961693
000020 30 27 c7 bd 93 0a b6 bd 63 aa c0 be a2 57 c8 be
       -0.09724271 -0.088887356 -0.37629995 -0.3912936
000030 7d ee 2a 3d bf 81 e0 be 6f d3 c4 bd c3 4b d2 be
       0.041731346 -0.43848988 -0.0961064 -0.41073427
000040 13 69 2f be 95 1c e0 be 89 11 c3 bd cf 9c 09 be
       -0.17129926 -0.43771806 -0.09524829 -0.13438724
000050 3e 09 72 be 85 98 62 bd 45 d0 ba bd 94 99 4f be
       -0.23636338 -0.055321235 -0.091217555 -0.20273429
000060 93 ef 8f be 97 77 7b be 86 35 28 3d 80 c3 3e be
       -0.28112468 -0.24557339 0.04106667 -0.18629265
000070 42 25 4a be ba 57 b5 be fd 63 bc be 38 51 4e be
       -0.19740775 -0.35418493 -0.36795035 -0.2014817
000080 a2 1c 53 be 37 08 c0 be 15 94 44 3d 43 d0 c9 be
       -0.20616391 -0.37506267 0.047992785 -0.39416704
000090 75 c9 b9 bd 04 a2 c7 be 33 2e 48 be 49 ab b1 bd
       -0.09071628 -0.38990796 -0.19548874 -0.08675248
0000a0 be 66 7d bd 9e 65 98 be a7 ef 4e bd ae e5 bf bd
       -0.06186556 -0.29765028 -0.05052152 -0.0936998
0000b0 d2 1b eb be ae 41 23 3e f0 91 0f be eb cf 0d be
       -0.45919663 0.15943024 -0.14020514 -0.13848846
0000c0 41 c9 dc bd a9 27 ac be 34 3e 51 be 2a 82 9b be
       -0.10780574 -0.33624008 -0.20433885 -0.30372745
0000d0 86 15 33 be e6 67 24 bd 01 53 2b bd b6 f0 b3 3c
       -0.1748868 -0.040138148 -0.041827206 0.021965366
0000e0 93 13 96 3d 00 11 f6 bd 68 c9 6b 3d fe ef 3c bc
       0.07327952 -0.12014961 0.057565123 -0.011531828
0000f0 d4 fa 52 be f1 ea ab bd a7 fc 79 3c d7 0b 54 be
       -0.20603496 -0.08394421 0.015257991 -0.20707642
000100 8f 5b 44 be 26 f0 3a be a3 59 40 be 18 89 aa 3c
       -0.19175552 -0.18255672 -0.18784194 0.020817325
000110 1a ed 34 bc 67 19 a3 bd 1e 95 ad be 99 7b 83 be
       -0.011042858 -0.079638295 -0.3390283 -0.25680235
000120 15 0b 30 bd ab 61 79 bb 2e c3 2f bd 5a 97 07 be
       -0.04297932 -0.00380526 -0.042910747 -0.1324133
000130 9a dd 11 be 87 32 4e be c6 87 88 bc fb dc 6d be
       -0.1424469 -0.20136462 -0.016666304 -0.23228829
000140 a2 0c c6 3d e3 9f 7e be 46 b4 99 bd 82 9f a8 3d
       0.09670378 -0.2486568 -0.075050876 0.08233549
000150 17 74 9f be ab 5b bd bd 71 64 c3 3c 0a 30 ef be
       -0.31143257 -0.09246 0.023851605 -0.46716338
000160 a4 65 eb be da 43 21 be c1 85 49 be f6 23 52 be
       -0.45975983 -0.1574854 -0.1967993 -0.2052153
000170 7e 37 6c be d8 9c bb bd 89 70 f2 be d6 00 97 be
       -0.23068044 -0.09160775 -0.47351483 -0.29492825
000180 31 24 50 be aa 9d c9 be 56 ce 7c be e0 1e 85 be
       -0.20326306 -0.393781 -0.24688086 -0.26000118
000190 c5 44 f6 bd 27 0c 3e be af 89 4a be 02 1b bc be
       -0.120248355 -0.18559323 -0.19779085 -0.36739355
0001a0 50 d5 94 be c0 c6 80 be 73 f1 ef 3b 71 54 73 bd
       -0.29068995 -0.25151634 0.007322484 -0.0594067
0001b0 11 d9 d6 be 74 1e 60 be 93 aa 9a bd 30 06 06 be
       -0.41962484 -0.21886617 -0.07552066 -0.13088298
0001c0 09 44 a1 bc 05 73 be bd 54 59 10 be 40 ba be bd
       -0.019685762 -0.09299282 -0.14096576 -0.09312868
0001d0 15 19 14 3d cc 83 2a be 98 f4 13 be a5 4b 55 be
       0.036156733 -0.16651839 -0.14448774 -0.20829637
0001e0 4a f4 f5 be ae d2 64 be f9 13 bf be 8b 13 f8 bd
       -0.4803794 -0.22345993 -0.37319925 -0.121131025
0001f0 a2 31 2e be 4d 2a 36 be c5 df a5 bc e1 14 96 be
       -0.17011121 -0.17789574 -0.020248303 -0.29312804
000200 38 ac c5 be ce aa 65 be ad ff da be a3 9f 6b be
       -0.38607955 -0.22428438 -0.4277319 -0.23010115
000210 5d 58 86 3c 7d 9c a1 3d 7c c8 e1 3b 6e 51 93 be
       0.016399557 0.07891176 0.0068903547 -0.28773063
000220 65 00 9a be 33 6e 30 be 7f c9 ce be c7 90 ce bd
       -0.30078426 -0.17229538 -0.40388104 -0.10086208
000230 4c d3 63 be 12 86 a1 3c f1 28 01 be 22 96 ea be
       -0.22248572 0.01971725 -0.12613274 -0.45817667
000240 90 ff 74 bc e4 76 74 be d0 55 bf be 98 00 20 3d
       -0.014953509 -0.23873478 -0.37370157 0.039063066
000250 67 ab 3e bd 4d 18 a7 bd c4 59 e1 be fc af 32 be
       -0.04655018 -0.08158932 -0.44013798 -0.17449945
000260 97 f5 ba bd 9d ce 2d be 27 67 90 be 63 6e b7 be
       -0.09128874 -0.16973348 -0.282037 -0.35826406
000270 87 d2 dd be 9c 4a cc bd 2e 0a d0 be 9f a7 3a be
       -0.43324682 -0.09975168 -0.40632766 -0.18228005
000280 b5 96 3b bd 02 6d 52 3e e3 81 b0 be 1f 35 6f be
       -0.045798022 0.20549396 -0.34474096 -0.23360108
000290 47 fe 3a be 62 6a 97 be 60 c7 04 bd 32 35 e3 be
       -0.18261062 -0.2957335 -0.0324167 -0.44376522
0002a0 6b 72 2c be 75 36 6c bc dc b1 46 be 84 03 d3 bd
       -0.16840522 -0.01441728 -0.19403785 -0.10303405
0002b0 95 2a d7 be 4d 41 ce be 75 19 e0 be e0 23 7a bd
       -0.42024675 -0.40284196 -0.43769422 -0.06106937
0002c0 10 d6 ec bd 23 9e 67 be 73 53 08 3d 3a f3 7a 3c
       -0.11564267 -0.22618918 0.03328271 0.015316779
0002d0 4a 94 d7 bd 84 66 71 be 81 b7 cf bd b6 41 ab bb
       -0.10526331 -0.23574263 -0.101424225 -0.005226339
0002e0 f8 e4 2a 3c 99 d4 90 3c 98 c7 fd bd 8c 7e a3 be
       0.010430567 0.0176795 -0.12391585 -0.31932485
0002f0 c0 9c f6 3c 12 11 0c be 6a a4 43 be 02 a4 a2 be
       0.030104041 -0.13678387 -0.19105688 -0.31765753
000300 bc 30 89 bb be 9a 93 bd 2e 14 67 be 9a d3 41 ba
       -0.004186718 -0.07207249 -0.22566292 -0.0007393897
000310 7f ff 3c be 94 da 53 be 07 ca 96 be b4 ff 63 bd
       -0.18456839 -0.2068885 -0.2945101 -0.05566378
000320 0c 79 5d bd b5 f0 76 be 2f c6 4c be e0 0b 05 be
       -0.054070517 -0.2411526 -0.19997476 -0.12992811
000330 fe 31 b9 3c 69 cd ad be 61 0d b2 be d9 86 00 bf
       0.022606846 -0.33945778 -0.34775832 -0.5020576
000340 6f 7b 5e be 97 ba 56 3e 42 70 1f be eb 06 bb bd
       -0.21726774 0.20969616 -0.15570167 -0.09132179
000350 cf 13 2f be 61 b9 43 be 44 a0 45 bd 5d 9f 35 be
       -0.170974 -0.19113685 -0.048248544 -0.17736574
000360 1a 64 15 3e 63 5e 3e be 4e ad 35 3d 85 2d df bd
       0.14588967 -0.18590693 0.04435473 -0.10897354
000370 ba 54 3c be 61 8d 75 be 1d 76 f3 bd c0 72 f2 3d
       -0.18391696 -0.23979713 -0.11887763 0.11838293
000380 34 94 0c be 5d 0d 2b be c5 f4 d0 be bd 9b 87 be
       -0.1372841 -0.16704316 -0.40811744 -0.26486006
000390 ec 64 88 be 98 7f 5b bd dd f1 7f bd a5 3f cf be
       -0.26639497 -0.05358848 -0.06248652 -0.40478244
0003a0 47 68 4a be ba fa e6 bd 0f cb 32 be a2 29 2e bd
       -0.19766341 -0.11278291 -0.17460273 -0.042520173
0003b0 53 04 27 be 68 d3 82 be b1 8b ec bd f9 27 20 bd
       -0.16310243 -0.25551915 -0.115500815 -0.03910062
0003c0 4e 9b d0 bd ce 9b 47 be a7 57 28 be 7e 47 c6 be
       -0.10185872 -0.19493029 -0.16439687 -0.3872642
0003d0 43 c3 4c bd e3 8c 01 be 14 31 8d be 48 d7 6b 3c
       -0.049990904 -0.126514 -0.27576506 0.014394589
0003e0 0f 7e ef bd 03 05 8e be c7 0d 91 3c b6 0f a1 be
       -0.11693966 -0.277382 0.017706765 -0.314573
0003f0 8a 00 6b bd 96 fd 1c be f1 c3 18 3d 9c e1 36 bf
       -0.05737356 -0.1533111 0.03729624 -0.71438

fc2.weight f4 [300, 402]
000000 15 9e 3d bd 5f 72 83 3e 8c cb e6 be 98 58 24 bf
       -0.046293337 0.25673196 -0.4507717 -0.64197683
000010 56 01 30 be ff 84 29 bd 52 94 aa bd c7 91 e7 be
       -0.1718801 -0.0413866 -0.08329071 -0.45228407
000020 8b 07 c9 be 87 06 b5 bc a9 55 e7 bd 9e 74 25 3e
       -0.39263567 -0.022097839 -0.11295635 0.16157767
000030 b7 ba 84 3e 2b 1f b2 bc 6c fe b6 bd 2d 42 e5 be
       0.25923702 -0.021743378 -0.08935246 -0.4477705
000040 9c c3 20 3f 67 e0 52 be 95 48 c9 be 8c 45 83 bd
       0.62798476 -0.20593415 -0.39313188 -0.064097494
000050 73 85 8e be 19 cc 7c be ae db 30 bf 09 ec 82 be
       -0.2783619 -0.24687232 -0.69085205 -0.25570706
000060 25 72 47 3c a5 62 a7 3d 78 5a 6f 3e 9b f2 fe 3e
       0.01217321 0.08173112 0.23374355 0.49794468
000070 60 fb 17 be f1 47 1b bf ab eb 97 be f5 a6 5f 3e
       -0.14841986 -0.6065665 -0.29671988 0.21841033
000080 5f 18 ce 3d c6 26 2f bc 49 75 4a 3d 3f 0e 6a 3f
       0.10063242 -0.010690397 0.049428258 0.9142799
000090 bd f8 93 be 71 17 5d be a0 b0 f3 bd 18 13 48 3d
       -0.2890071 -0.21590973 -0.11898923 0.048846334
0000a0 4d 86 21 3e 48 c3 cc be 71 dc b3 be f8 a7 02 3c
       0.15773888 -0.39992738 -0.3512912 0.007974617
0000b0 ce ea d0 be 0a 67 f7 3d ea 2a d4 bd 50 2c 12 bd
       -0.40804142 0.120802 -0.10359748 -0.03568679
0000c0 d4 35 18 bf 82 27 0e 3d 70 bc 92 bf 15 bf 80 be
       -0.59457135 0.034705646 -1.1463757 -0.25145784
0000d0 b0 91 a6 bc 95 69 eb bd d6 fc 3c bf f6 6c 79 3e
       -0.020333141 -0.114947475 -0.738233 0.24357972
0000e0 d4 de 84 3d ba b4 b8 3e b4 b7 94 bf 2b a2 da be
       0.064878136 0.36075383 -1.1618562 -0.4270185
0000f0 7c db 3c 3c c1 d5 35 bf 63 a5 a7 3e 8a 2c 4c 3d
       0.0115269385 -0.7102929 0.32743368 0.049847163
000100 dc c3 5d bd ab b3 c3 3e 8e cc 0f bd ee f3 9d bf
       -0.054141864 0.38223013 -0.035107188 -1.2340066
000110 c1 31 60 be de 6e 16 be 92 59 9c bd 92 83 96 be
       -0.2189398 -0.1469073 -0.07634272 -0.29397255
000120 f8 7b 67 3d f3 af 31 3d 5d 0e 90 be b9 1c 0e 3e
       0.05651471 0.04338069 -0.28135958 0.13878144
000130 09 0c 69 3e 31 d7 a9 bd 6e e5 81 bf bf 79 e0 3c
       0.22758497 -0.08292998 -1.0148141 0.027401803
000140 0e 62 4e 3e ec fe ba bb 34 ef a2 be b0 8a 0c 3d
       0.20154592 -0.0057066586 -0.31823123 0.03431195
000150 5b af 24 be fd c6 b9 3d 4e a9 ef be 02 07 f0 3a
       -0.16082518 0.09071157 -0.46808857 0.0018312635
000160 e0 2a 76 3d 16 ad 56 3e 23 cf d7 be 48 54 79 3c
       0.060099483 0.20964465 -0.4215022 0.015217848
000170 58 01 04 3c bc 25 83 be f3 a4 8c bd a5 01 ca bc
       0.008056961 -0.25614727 -0.06867399 -0.024658987
000180 75 82 70 be 93 c9 8e bd 6f 16 39 bd 0e f5 58 3d
       -0.23487265 -0.06972041 -0.04518741 0.052968077
000190 41 a9 c5 3c 80 c9 47 3d d3 c2 a2 bd 5b 7d 04 be
       0.024128558 0.04877615 -0.07947316 -0.12938444
0001a0 83 f6 94 be 90 89 e1 be 5e bb e1 3c 25 39 b0 3e
       -0.29094324 -0.44050264 0.027555164 0.34418598
0001b0 84 c7 07 bd 9a 33 7b bd 16 52 a9 3d 08 81 f4 be
       -0.033149257 -0.061328508 0.0826761 -0.47754693
0001c0 08 34 e3 3d 1a 53 8d be 14 10 6f be 97 2b e6 bd
       0.110939085 -0.27602464 -0.23345977 -0.11238783
0001d0 7e ee cd be 88 9e bb bb 11 4c 09 be 11 1d cb bd
       -0.40221018 -0.0057256855 -0.13407923 -0.09917653
0001e0 47 e3 e5 bd 8a e3 c0 3c 8c de 81 bd 9b ca 8d be
       -0.1122499 0.023546 -0.063412756 -0.27693638
0001f0 57 05 4f 3e 89 66 22 bf 26 da c4 be d7 67 11 be
       0.2021688 -0.63437706 -0.38447684 -0.14199768
000200 ad c7 9f 3e 5a 20 5d 3c ab 9e 54 bc 64 2b bb 3e
       0.31207028 0.013496483 -0.0129772825 0.36556542
000210 36 c1 9c be e1 46 0c bf a7 64 5e be ff 9e 79 be
       -0.30616158 -0.5479565 -0.21718083 -0.24377058
000220 dd f7 e4 bd 95 d1 08 3d 26 0c 02 3e e1 8b e3 3d
       -0.11180089 0.033402998 0.12699947 0.11110664
000230 35 fc 83 be 18 18 f0 3e 7b 7a 06 3e 66 ec 62 bf
       -0.25778356 0.46893382 0.1313266 -0.88641965
000240 fa d5 14 bf 33 78 29 3d d1 09 a3 be 53 be 32 bf
       -0.58139 0.041374397 -0.31843427 -0.6982166
000250 7a 40 a8 be 0b 85 0f 3e 42 81 76 3e f7 98 9b be
       -0.32861692 0.14015596 0.24072745 -0.3039014
000260 a6 28 22 3e 6e 0d e9 be 57 0a 16 3d 49 e8 3e 3d
       0.15835819 -0.4551806 0.036630955 0.046608243
000270 3b bd 95 3c d6 39 a5 be ab a1 b1 3e f2 d5 44 3d
       0.018278709 -0.32270688 0.34693655 0.048055597
000280 68 e0 4b bf 79 28 e8 bd c2 29 7f be 62 85 33 3d
       -0.7963929 -0.113358445 -0.24918273 0.043828376
000290 4d 47 81 bd 3f 6a 7b be c0 c3 71 be db 6c 24 bc
       -0.06312428 -0.24552248 -0.23609829 -0.010035719
0002a0 66 2f b5 be 61 8f 40 3e 51 24 01 3d 58 69 06 be
       -0.35387725 0.18804695 0.031528775 -0.13126123
0002b0 ab db bb 3c 20 01 2c be b1 85 f0 3a 91 9d b7 bd
       0.022931894 -0.16797304 0.001835039 -0.089656
0002c0 16 99 f5 3e 2a 54 a1 bd 1e 82 ae bc 82 d7 18 bf
       0.47968358 -0.07877381 -0.02130228 -0.5970384
0002d0 db 06 04 be 77 96 6f bd 1f 9e b0 be 1f a7 d5 3d
       -0.1289324 -0.058493104 -0.34495637 0.104322664
0002e0 98 54 47 be c0 3e e4 be 4b ab d3 bd 9c 89 4d 3e
       -0.19465864 -0.44579124 -0.10335406 0.20072025
0002f0 e4 4c 14 bf 7d 5b f0 3d 92 7b d0 3b 43 17 bb be
       -0.57929826 0.117362 0.006362387 -0.36541185
000300 d5 bb 36 3c 32 c3 92 bd b4 69 12 3d 92 5d e4 be
       0.011153181 -0.07166137 0.035745338 -0.44602638
000310 58 49 94 bb e3 2b 1b 3e ad 13 4d be 2e e2 80 3d
       -0.004525345 0.1515346 -0.20027037 0.0629314
000320 17 3a a1 bd 81 45 b1 be 76 8f 60 be 25 3e ba 3d
       -0.07872408 -0.3462334 -0.21929726 0.090938844
000330 80 d1 10 bf 04 9a d6 bc ca 6c 50 be 8a 6e a8 be
       -0.5656967 -0.026196487 -0.20354 -0.32896835
000340 39 ce 1b bf ef c4 de be 96 13 d9 bd 62 99 4c be
       -0.60861546 -0.43509623 -0.10599439 -0.19980386
000350 0a 92 63 be 48 7b af bb c0 d2 7c be 1b c3 1c bf
       -0.22223678 -0.0053552724 -0.2468977 -0.6123521
000360 5c 93 46 bf 41 5e 13 3d 8e 8f b5 bb 84 86 9f be
       -0.775686 0.03597856 -0.0055407947 -0.31157315
000370 d8 27 90 3e d9 d6 9f bd 2d d6 09 3e 19 cc 97 be
       0.28155398 -0.07804651 0.13460608 -0.29647902
000380 41 b9 e5 be 32 cd cc bc db 5e c6 be 92 5f 9c 3e
       -0.448679 -0.025000188 -0.38744244 0.30541664
000390 3f 05 11 3d b7 8a 17 be 5b 8f f9 be 4d 8e 12 bf
       0.035405394 -0.1479901 -0.48742184 -0.57248384
0003a0 12 12 51 bd c7 5a a5 3d a9 8e 5b be 5f 96 91 bf
       -0.051042624 0.08073955 -0.2144114 -1.1374015
0003b0 88 08 f6 bd e7 92 46 be 7d 67 15 3e 1b 9e 0d 3e
       -0.12013346 -0.19391976 0.14590259 0.13829844
0003c0 bd 57 fe be da ea b3 bb 16 9d 89 3e c2 27 f7 be
       -0.49676314 -0.005490643 0.2687766 -0.4827252
0003d0 ce 46 3d 3e 84 8a c1 bd 5b b3 15 be 67 27 b8 3d
       0.18484041 -0.09450248 -0.146192 0.089918904
0003e0 d1 e7 65 3e 70 d3 fa bd 03 45 29 3d 19 cc 07 bf
       0.22451712 -0.1224736 0.04132558 -0.53045803
0003f0 9e cf f6 3d f1 ed 41 3f 27 e9 f8 bd 5a f6 9f bb
       0.120513186 0.75753695 -0.12153845 -0.0048816623

fc2.bias f4 [300]
000000 4a 05 52 3d 2c b1 37 bd 09 b0 9d bd 93 93 c4 3b
       0.051274575 -0.0448467 -0.07699592 0.0059990375
000010 98 5a 67 bd b1 e2 c3 bb f6 38 cb bd eb f0 9b bd
       -0.05648288 -0.0059779515 -0.09922974 -0.07614311
000020 34 a6 9c bd 4c 32 7f bd e8 e2 61 bd 16 e0 33 3d
       -0.07648888 -0.062303826 -0.055148035 0.043914877
000030 da ef 61 bd f1 f0 9a bd 42 9c 3b bd b3 9a 84 bd
       -0.05516038 -0.07565487 -0.045803316 -0.06474819
000040 42 55 da 3d 38 66 b6 bd 7b e4 cf bd 82 ee b2 bd
       0.10660793 -0.089062154 -0.10151001 -0.08736898
000050 04 5f 5a bd c5 8c b2 bd 94 20 e2 bc fa d2 66 3d
       -0.05331327 -0.08718256 -0.027603425 0.056353547
000060 33 fa 35 bd 20 dc 49 bd 89 2f 1a bd 14 a1 a6 bd
       -0.04442806 -0.049282193 -0.03764299 -0.08136192
000070 c5 bb c1 bc 42 d9 da bb 02 ed 10 bd 6a cb 62 bd
       -0.023649106 -0.006678731 -0.03538228 -0.055369772
000080 e4 fb 4d bd 8d 1c 85 bd 0c fd 19 bd ef f6 0f 3e
       -0.05028905 -0.06499586 -0.03759484 0.14059041
000090 d6 d6 95 bd f5 e5 93 be be ce 9d bd 10 a4 29 3e
       -0.07316367 -0.2888638 -0.077054486 0.16566491
0000a0 b0 df 56 bc 6d b2 1c bd 5a d1 b2 bd e4 4e fd bc
       -0.013114855 -0.038256098 -0.08731337 -0.030921407
0000b0 02 f5 68 3e 8e 00 95 bd 74 d6 51 bd 0a 64 f3 bc
       0.22749713 -0.072754964 -0.05122991 -0.029710788
0000c0 04 43 a0 bd b0 3c a0 bd 21 3d 9d bc 0f 83 8c bd
       -0.07825282 -0.07824075 -0.019194188 -0.06860935
0000d0 aa dc f1 bc f9 55 b6 bd be 68 c0 bc 75 b8 18 3d
       -0.029524166 -0.08903117 -0.023487445 0.037285287
0000e0 52 90 9e bd 39 85 1b bd 11 50 e2 bc 80 fd 2f bd
       -0.07742371 -0.037968848 -0.02762607 -0.042966366
0000f0 cc 1a a5 bd 9a ef 39 bc eb 0b 90 bc e9 b6 b6 bd
       -0.08061752 -0.011348629 -0.017583808 -0.08921606
000100 65 c0 1b b9 ea 1e 45 bc 77 c5 82 bd 13 2a 1b 3e
       -0.00014853624 -0.012031296 -0.0638532 0.15152769
000110 18 c8 bd bd ea 32 8d bd c7 57 94 bd cb 20 05 bd
       -0.092666805 -0.06894477 -0.07243305 -0.032501977
000120 6b 42 81 bd 35 c9 3e bd 29 63 8e bd c6 05 b2 bd
       -0.06311496 -0.046578605 -0.06952507 -0.086925074
000130 98 75 7a bb 15 8e b6 ba 86 33 29 bd 8b cc 8e bd
       -0.0038217064 -0.0013927842 -0.041308902 -0.06972607
000140 e9 a8 90 bd 66 92 18 bc 77 64 b8 bc 28 7c 84 bd
       -0.07063467 -0.009312248 -0.022508843 -0.064689934
000150 59 b4 7e bd c4 e3 46 bc 84 22 c2 bd 18 25 d1 bc
       -0.06218371 -0.0121392645 -0.094792396 -0.025530383
000160 3d 3b b9 bd 92 69 f4 bd 71 b3 b1 bd 32 d8 57 be
       -0.09044502 -0.119341984 -0.08676804 -0.21078566
000170 e7 53 32 3c bb 8c 06 bd d5 bf b1 bc 80 69 9a 3e
       0.010884262 -0.032849055 -0.021697918 0.30158615
000180 24 97 93 bd bc 02 a7 bd b5 ea 93 bc 41 8b 88 bd
       -0.07206562 -0.081548184 -0.018056253 -0.066671856
000190 49 a8 89 bd 63 c6 58 bc 70 d2 62 3d 20 9f 4a bd
       -0.06721551 -0.013230893 0.05537647 -0.04946816
0001a0 af 0c eb 3d 24 4a 9e bc 9d 14 34 bd 14 84 79 bd
       0.114770286 -0.019322462 -0.04396497 -0.060916975
0001b0 cb 26 88 bc ae 11 99 bd 73 f6 95 bb a8 be 2b bd
       -0.01662006 -0.07474075 -0.004576498 -0.04192987
0001c0 ad e0 d0 bb e9 08 5f bd aa 42 d9 bd b6 c5 66 bd
       -0.0063744397 -0.054451857 -0.10608418 -0.056340896
0001d0 62 4a 98 bd d0 c9 8d bc b6 0b c4 bc 66 d2 49 bd
       -0.074360624 -0.017308146 -0.023931365 -0.049272917
0001e0 cd 06 90 bd 8d 4a 03 3e 38 68 c8 bc 92 df f6 bc
       -0.07032547 0.12821408 -0.024463758 -0.030135904
0001f0 ab 54 ee 3c 13 61 2b bd 98 fa 7a bd f1 59 02 bd
       0.029093107 -0.041840624 -0.06127414 -0.031824056
000200 20 58 42 bd 99 94 17 3e f7 72 57 bd ea 13 65 bd
       -0.047447324 0.1480278 -0.052599873 -0.055927195
000210 7b c0 0f bc ce e4 72 bd 4e b6 e6 3d 98 0b 44 bc
       -0.008773918 -0.059300236 0.112652406 -0.011965655
000220 e1 d0 02 bd 50 9a c7 3d fa e3 64 bc 54 3e 59 bd
       -0.031937484 0.0974623 -0.0139703695 -0.053037956
000230 04 a0 a6 be 8f 39 cc bb c7 92 b3 bd 60 6b 7a bd
       -0.32543957 -0.0062324475 -0.0876823 -0.061137557
000240 55 f1 15 bc b8 90 9f be 47 f9 14 bd 21 ed 8a be
       -0.009151776 -0.311651 -0.036370542 -0.2713404
000250 04 4d 86 bd 47 9a 81 3e 81 46 eb bc 8a fb 24 3c
       -0.06557658 0.25313017 -0.028720142 0.010069737
000260 df 8a 9d 3d d8 e0 9e bd f6 1b c3 bc e6 fe 7f bd
       0.07692503 -0.07757729 -0.023817044 -0.06249895
000270 e0 49 72 3e 3c 0b 86 bb 72 48 2e bd 7d 3e 15 3b
       0.23660994 -0.0040906947 -0.042549558 0.0022772842
000280 e4 13 01 bd d0 f8 9f bc e2 9a 8b bd 1e 70 31 bd
       -0.03151311 -0.019527823 -0.06816651 -0.043319814
000290 84 ee a2 bd 4b 32 13 bd 68 c3 83 bc ce bf f5 bc
       -0.079556495 -0.035936635 -0.016084388 -0.029998686
0002a0 a9 95 b5 bd 1d 15 37 bd 15 8b 64 bd b0 65 d3 bd
       -0.08866436 -0.04469787 -0.0557967 -0.1032213
0002b0 79 ca 95 bd cf d5 40 bc 56 47 d0 bc ed 4a 1b 3e
       -0.07314009 -0.011769726 -0.02542464 0.151653
0002c0 c4 6b 01 bb d0 b6 36 3e ef 80 e2 bd a1 99 40 3e
       -0.0019748071 0.17843175 -0.110597484 0.18808605
0002d0 aa a6 06 3d d4 21 0f bd 89 60 1e bd 43 47 28 bd
       0.032873787 -0.03494437 -0.03866628 -0.041083585
0002e0 60 47 8f 3d 0d 21 cf bc e4 dc 6c bd ad 27 a4 bd
       0.069960356 -0.025284315 -0.057827845 -0.0801538
0002f0 06 b8 6c bd c9 74 ef bc aa 8a 98 bd 54 3f 8c bd
       -0.057792686 -0.029230492 -0.07448323 -0.068480164
000300 54 80 a7 bb 85 ba 96 bd 8b f2 4a bc 11 5e 86 bc
       -0.0051117335 -0.073597945 -0.012386928 -0.016402276
000310 7d 48 8d bd 70 33 b0 bd bd 7f cb 3d 88 9f f8 bc
       -0.06898592 -0.08603561 0.099364735 -0.030349508
000320 15 e4 82 bd 35 9a 42 bd 98 18 cb bd 36 07 d9 3d
       -0.063911594 -0.047510345 -0.099168 0.105970785
000330 1f 03 91 bb 0c a6 89 bc 7a 5a 79 bd 53 47 1b 3e
       -0.004425421 -0.01680281 -0.0608773 0.15163927
000340 58 fd a1 bd 43 ef b4 3c 87 4e 27 3b f6 6a 93 bd
       -0.079096496 0.022086745 0.0025528984 -0.071981356
000350 f6 32 c4 bd 66 de 87 be 41 65 d5 3c 11 a1 a1 bd
       -0.095800325 -0.26536864 0.026049258 -0.07892049
000360 17 6e a1 bd 76 b4 11 bd 59 af 87 bd b4 de 5c bd
       -0.07882326 -0.03557249 -0.06625242 -0.053923324
000370 ec a3 a6 bd fb 3f 4b bc 05 3b 06 bd 1c 91 84 bd
       -0.08136734 -0.012405391 -0.03277113 -0.0647299
000380 d3 2d 29 bd be 65 a4 ba 56 29 32 bd 28 de cc bd
       -0.041303467 -0.0012542529 -0.043496452 -0.100033104
000390 c5 e9 08 bd e5 16 15 bd d7 09 b0 bd 12 df 12 bd
       -0.033426065 -0.036398787 -0.08595627 -0.035857268
0003a0 6a e1 aa bb 60 d2 4d 3d df a0 9c bd 80 66 8b bd
       -0.0052148597 0.050249457 -0.07647871 -0.0680666
0003b0 20 dc 0e be b0 08 8e bd 5c 00 8d bd d7 62 1b bc
       -0.13951159 -0.06935251 -0.06884834 -0.0094840145
0003c0 77 6e 45 bc 93 26 50 bd 18 01 30 bd 84 3d 34 bd
       -0.012050263 -0.050818037 -0.042969793 -0.04400398
0003d0 50 58 19 bd 68 ab f2 bc 1a 24 96 be 03 e4 0b be
       -0.037437737 -0.029622748 -0.29324418 -0.13661198
0003e0 6b db 29 bd 94 94 43 3c 9e e5 86 bd 31 91 87 bd
       -0.04146902 0.011937279 -0.06586765 -0.0661949
0003f0 53 63 bd 3c bb 67 45 bd a2 33 33 be 50 f4 4d bd
       0.02311865 -0.04819463 -0.17500165 -0.050281823

fc3.weight f4 [1, 300]
000000 90 b8 73 bf 6d 98 06 3c 22 45 94 bc 26 d9 95 3c
       -0.95203495 0.008215052 -0.018099371 0.018292021
000010 8c 81 f5 3c 25 ec da 3c e5 af 9e ba b9 6b 87 3c
       0.029969 0.02672393 -0.0012106864 0.016530858
000020 21 8c c3 bc 43 4f d0 3b 58 f4 8b 3c 46 cd 2b bf
       -0.02387053 0.006357105 0.017084286 -0.671101
000030 3b b2 ad 3b 5b 27 13 3b 7c 91 9e 3a 44 bd b6 bc
       0.0053007877 0.0022453878 0.0012097801 -0.022307046
000040 d3 d2 84 3e f0 36 1c 3b 17 c6 f5 bc f4 bd b6 bc
       0.25942096 0.0023836456 -0.030001683 -0.022307374
000050 6a f3 02 bf 36 6e fa bc 6e c0 22 3c 83 9b 37 bf
       -0.5115267 -0.03057013 0.009933574 -0.7172167
000060 ca 8e 87 3d 47 ed 91 3c ae d2 97 bc b0 a4 f7 3c
       0.06619032 0.017813338 -0.018533077 0.030229896
000070 39 68 2c 3f 00 b8 22 3f cf b4 cb bb 7f 7a 2a b8
       0.6734653 0.6356201 -0.0062166224 -4.0645242e-05
000080 fe be eb bc 66 e6 e2 3b 12 9c 57 3c f7 e0 99 3e
       -0.028777596 0.0069244383 0.013159769 0.30054447
000090 1a 38 19 bf 41 ed c2 bf a9 f8 9a ba 74 ec 09 bf
       -0.5985123 -1.5228654 -0.0011823374 -0.53876424
0000a0 a4 cf d3 3b 40 56 cd 3c d7 c2 46 bc 5c 3a a0 3c
       0.0064639617 0.025065541 -0.012131414 0.019559078
0000b0 90 87 91 3e 97 af d3 bc 56 b1 e7 bc c6 21 3d 3c
       0.28423738 -0.025840564 -0.028282803 0.011543697
0000c0 dc 30 a6 bb ec bd e9 bc 08 3c 67 3a 4d 05 dc bc
       -0.0050717425 -0.028532945 0.0008820896 -0.026857996
0000d0 b1 18 54 3c f4 e2 82 be a3 26 28 3c c0 aa ae be
       0.01294534 -0.25563776 0.010263118 -0.34114647
0000e0 86 23 dd bc 8c 71 d9 bc 07 7c db 3c ac a2 25 bc
       -0.026994478 -0.026543401 0.02679254 -0.010109585
0000f0 84 3d 8b 3c c0 68 5c 3c 9c 3d 92 bc b7 0d 79 3c
       0.016997106 0.013452709 -0.017851643 0.015201024
000100 97 e5 75 3f c9 59 be bc aa 18 e2 b9 f8 67 56 bf
       0.9605345 -0.023236172 -0.00043124455 -0.83752394
000110 82 59 d4 3c 6d e9 f6 bb 77 cd 0a bd ec 55 d2 bc
       0.025921587 -0.0075351507 -0.033887353 -0.025675736
000120 96 9d 78 bc f6 41 5f 3b 38 41 f5 bb 4a 59 0d bf
       -0.01517429 0.0034066415 -0.0074845813 -0.5521437
000130 88 be 57 3b c0 ff cd b9 ce f0 ba bc b0 30 a5 bb
       0.0032919962 -0.00039291196 -0.022819903 -0.0050412044
000140 9a b4 f5 bc 42 9e d5 3c 65 d6 13 3d 0e 8e 51 3c
       -0.029993344 0.02607644 0.036093134 0.012790216
000150 f3 6a cb bc a5 41 0d 3b 3d 19 c4 bc d2 95 dc b9
       -0.02483127 0.002155402 -0.023937816 -0.00042073295
000160 40 61 a6 3c a2 b5 d7 bc 28 6c ad bc 8c cc 81 bf
       0.020310044 -0.026331726 -0.021169737 -1.0140548
000170 49 57 13 3d ec 9a 98 bc 7c 8c bd bc d9 bb 4a 3e
       0.035971913 -0.01862856 -0.023138277 0.1979822
000180 3d 45 91 bb 37 9a 6b ba a3 ff fc bc 91 dd e1 ba
       -0.0044333027 -0.00089875184 -0.030883616 -0.001723217
000190 2e 4f fb bc 37 c2 87 be 71 f7 2d 3f 13 d5 7e 3c
       -0.030677404 -0.26515362 0.6795569 0.015553731
0001a0 5a 19 70 3e 5f 7d a9 3d 05 4c 3e 3b 53 8f a4 3c
       0.23447171 0.08275866 0.002903701 0.020087874
0001b0 5e e8 4a bb e3 4a a4 3b 58 aa 12 bd 9b fd a5 3c
       -0.0030961256 0.00501381 -0.035806984 0.02026253
0001c0 8a cb 56 3b b0 a6 be 3c bd 08 a3 3c ee 53 55 3b
       0.0032775127 0.023272842 0.019901628 0.0032551247
0001d0 79 2e a4 3c 04 35 16 bc 84 b7 f1 bb d7 f5 6e 3e
       0.020041691 -0.009167913 -0.007376613 0.23335968
0001e0 6d 3d bf 3c 40 bb b4 3e f5 65 b6 3c dd 32 7a 3c
       0.02334472 0.3529911 0.022265414 0.015270916
0001f0 d9 f3 08 3d 06 dd 28 bb 2b 77 4c bc 32 a2 e0 3a
       0.033435676 -0.0025766506 -0.012479584 0.0017138182
000200 ea 43 7e 3b 6c 1f 2c 3e d2 b4 19 bf 71 d9 1f 3c
       0.0038797804 0.16808861 -0.60041535 0.009756432
000210 f6 4e d0 3c 4e 8a f7 3c 3f 69 06 bf bd 79 b6 bc
       0.025428277 0.030217316 -0.5250434 -0.022274846
000220 41 e5 b3 bb 15 f2 2b be 06 b4 0b bb b6 e3 e8 bc
       -0.0054899757 -0.16791566 -0.002131702 -0.028428894
000230 20 01 9d be a9 0d bf bc 3f 50 15 3c 2c 66 ef 3c
       -0.3066492 -0.023321943 0.00911337 0.029223524
000240 d2 35 7d 3c 12 8c 82 3e 88 03 aa 3b df 8b b0 bf
       0.015454726 0.2549749 0.0051884092 -1.3792685
000250 97 7e 58 be c9 0b 77 3e 1e 41 d3 3e e5 20 2f bb
       -0.2114204 0.2412559 0.41260618 -0.0026722488
000260 e5 a8 cb be 53 a3 aa bb 12 f3 4b 3d de 31 2e 3c
       -0.39777294 -0.005207458 0.049792357 0.010632006
000270 74 19 2f 3e b2 73 bf 3c 7e 6d e7 bc dc 1e 26 bf
       0.17099553 0.023370598 -0.028250452 -0.6489084
000280 27 a6 d2 3c 65 58 cf 3c fc ce f1 3c 36 2a af bc
       0.025713993 0.025310704 0.029517643 -0.021382432
000290 5e d3 2a 3c 50 c1 ad 3e 2a f3 12 3a a9 b2 8e 3c
       0.01042637 0.33936548 0.0005605692 0.017419176
0002a0 57 10 83 3b d9 90 b7 bc e8 1c 82 3b 84 8f ac bb
       0.0039997506 -0.022407936 0.003970731 -0.005266132
0002b0 5b 17 f9 3c 66 a2 63 3c 42 e9 c8 bc 10 1f b0 be
       0.030406645 0.013893699 -0.024525288 -0.343987
0002c0 2e f0 00 3d 4e df b7 be 9c 01 05 3e d9 e8 78 be
       0.031479053 -0.35912555 0.12988895 -0.24307574
0002d0 87 f6 4b be 97 c3 00 bc 87 ae a3 bc f8 7d 53 be
       -0.19918261 -0.007859132 -0.019980682 -0.20653522
0002e0 89 70 b5 be 4c 44 03 bd 09 4f 48 3a 6d 13 a8 be
       -0.3543742 -0.032047555 0.00076411717 -0.3282732
0002f0 8a d2 26 3b 0d 8f 39 3c 55 f5 a8 3e 51 9b e7 3c
       0.002545508 0.01132561 0.32999673 0.028272303
000300 32 8f 48 3c e3 9e 9e 3d 67 22 15 3f 88 ad 85 bc
       0.012241172 0.07745149 0.5825562 -0.016318098
000310 f7 5f 94 be 4f 6b 95 3d 2e 40 3d 3e d4 87 56 3c
       -0.28979465 0.07295858 0.18481514 0.013093907
000320 2d 0c 8c bc 58 6b 87 ba 57 2e 2f bc 76 46 78 be
       -0.01709565 -0.0010331674 -0.010692201 -0.24245629
000330 2b ef 29 3b cb df 9d 3c 92 bf a4 bc 3c a9 fd 3e
       0.0025929909 0.019271752 -0.02011088 0.49543178
000340 23 10 42 bb 6e cc 25 bc 3d 19 ed bc 20 34 dd 3c
       -0.002961167 -0.010119541 -0.028942699 0.027002394
000350 5a d0 af 3c 97 a2 32 bf c5 55 5e 3f 03 3d fa 3b
       0.021461654 -0.6977934 0.86849624 0.0076366677
000360 65 17 37 3a 4b f6 a2 be 0d 19 e5 3c a7 16 2e bc
       0.0006984382 -0.31828532 0.027966047 -0.010625518
000370 4d d6 cd 3c 74 28 84 bc c7 1e 74 bc 98 e3 67 bc
       0.0251266 -0.01613257 -0.014899916 -0.014153384
000380 b8 51 95 3c 2c f6 be bc a6 d1 01 bd 8a 3e 10 3f
       0.018227443 -0.023310743 -0.031694077 0.5634543
000390 f8 a7 d3 3c 91 40 e3 bc 19 d3 a8 bb 72 c1 82 bc
       0.02583693 -0.027740749 -0.005152118 -0.015961383
0003a0 48 e1 fc 3a 24 64 fa 3e 27 b7 b8 bb 3b 57 88 bb
       0.0019293213 0.48904526 -0.005637068 -0.0041607893
0003b0 cb c5 83 be 03 c2 71 bc 1f 4a 98 bc 29 6a ba bc
       -0.25736842 -0.014755729 -0.018590031 -0.0227557
0003c0 94 e3 64 3b 55 3a b2 3e d4 71 58 bc 61 8c 4a bb
       0.0034925686 0.3481013 -0.0132107325 -0.0030906426
0003d0 7b bb a0 bc 69 cb 2a be 2c 18 0e bf 3c 8e 21 be
       -0.019620648 -0.16679157 -0.55505633 -0.15776914
0003e0 fa 02 fc bc 3f d4 17 3c e2 bf b3 3c b2 5e 76 bc
       -0.030763138 0.009266912 0.021942083 -0.015037226
0003f0 cd 7b 86 bf 3f 62 92 3c 53 fc 99 be 59 f1 96 bc
       -1.0506531 0.017869113 -0.3007532 -0.01842563
