Tennis/Nets/checkpoint_critic800.pth (torch_old, 526870 bytes, 9 tensors)

bn1.weight f4 [24]
0.50351965 0.41322568 0.32578546 0.31656724 0.90029925 0.68615746 0.28481162 0.047981285
0.36003765 0.08737472 0.33698156 0.2612399 0.5959633 0.93051505 0.31447667 0.34976378
0.49901065 0.15282933 0.15766451 0.6962335 0.3741502 0.607735 0.3514438 0.5158452
00000000: aae6 003f 5192 d33e 5acd a63e 1a15 a23e
00000010: 037a 663f 04a8 2f3f d4d2 913e 0688 443d
00000020: db56 b83e 84f1 b23d d988 ac3e 3cc1 853e
00000030: 0d91 183f 3c36 6e3f 1603 a13e 3d14 b33e
00000040: 537e ff3e 4b7f 1c3e ce72 213e 5c3c 323f
00000050: 9d90 bf3e 8594 1b3f 71f0 b33e 6e0e 043f

bn1.bias f4 [24]
-0.06060277 -0.028438825 -0.020339834 -0.11695453 0.06481647 -0.043565597 -0.0027802885 -0.1320465
-0.06744834 0.048852902 -0.069486216 -0.0075875046 0.03322988 -0.0249555 0.012575972 -0.03783354
-0.061259393 0.056238264 0.014546828 -0.053121127 0.07054349 -0.01750275 -0.08404212 -0.101732165
00000000: 9c3a 78bd 8af8 e8bc b99f a6bc db85 efbd
00000010: 7fbe 843d d771 32bd 8035 36bb 3337 07be
00000020: 5b22 8abd fb19 483d ca4e 8ebd 9aa0 f8bb
00000030: 0e1c 083d 7a6f ccbc 730b 4e3c 58f7 1abd
00000040: 21eb 7abd 185a 663d d255 6e3c 8a95 59bd
00000050: 1b79 903d ed61 8fbc 461e acbd f458 d0bd

bn1.running_mean f4 [24]
-7.1494946 -1.2161436 1.9017955 0.4061883 0.27620047 3.025845 1.9017955 0.4061883
-7.634799 -1.263103 2.326566 0.516146 0.28284317 2.9428117 2.326566 0.516146
-8.1226635 -1.2872288 2.1095908 0.66422516 0.28964925 2.773687 2.1095908 0.66422516
00000000: a9c8 e4c0 98aa 9bbf 096e f33f eaf7 cf3e
00000010: 266a 8d3e 72a7 4140 096e f33f eaf7 cf3e
00000020: 4650 f4c0 5cad a1bf 75e6 1440 2522 043f
00000030: d2d0 903e 0757 3c40 75e6 1440 2522 043f
00000040: 6ef6 01c1 eac3 a4bf 8903 0740 a90a 2a3f
00000050: e84c 943e 1684 3140 8903 0740 a90a 2a3f

bn1.running_var f4 [24]
18.590366 0.741051 207.70822 4.339413 42.18758 5.2174907 207.70822 4.339413
16.035349 0.73033774 217.90509 5.007707 45.8493 5.900419 217.90509 5.007707
13.03943 0.7430675 237.16747 5.7677126 49.416813 7.1383743 237.16747 5.7677126
00000000: 12b9 9441 85b5 3d3f 4eb5 4f43 79dc 8a40
00000010: 15c0 2842 aff5 a640 4eb5 4f43 79dc 8a40
00000020: 6548 8041 6af7 3a3f b4e7 5943 233f a040
00000030: af65 3742 3cd0 bc40 b4e7 5943 233f a040
00000040: 81a1 5041 ac39 3e3f df2a 6d43 1a91 b840
00000050: d1aa 4542 906d e440 df2a 6d43 1a91 b840

fcs1.weight f4 [400, 24]
0.07019751 -0.103002414 0.000114508395 0.037227094 -0.07821671 0.0833158 -0.00091467035 0.029240876
0.041441306 -0.08886934 -0.03957263 -0.033824492 -0.039371304 0.048122484 -0.06267014 0.015500487
0.015889054 -0.054588493 -0.09310165 -0.00255742 0.11641807 0.15350759 -0.012423671 -0.011203697
-0.06639544 0.20253338 0.0029284246 -0.031039473 0.14821367 -0.06598027 -0.03544271 -0.010851584
-0.036845084 0.08372448 0.08614799 0.039337706 0.25352067 0.119696714 0.04657812 0.06884278
0.050067686 0.121619254 0.019699123 -0.011158851 0.24204864 0.43968505 0.0012588878 -0.046627708
0.05482361 0.04626312 0.027535962 0.18884867 -0.018427433 -0.36374214 0.08450018 0.12316222
-0.0124383895 -0.0280797 0.02063626 0.07931006 0.034411028 0.2033928 0.079959325 0.05416753
-0.06350443 0.049099166 -0.077368066 0.051238324 -0.10830959 0.46120757 -0.1038674 0.10214865
0.052447625 -0.0005522978 -0.034089837 0.053537507 0.03610483 0.0819712 -0.057306927 0.063595094
-0.00594669 -0.032396145 -0.114849225 0.06375032 0.087036744 0.04057475 -0.045992196 0.009534823
0.020588374 0.013269141 -0.057190817 -0.004872404 0.20604044 0.07765755 -0.05749178 0.037125234
-0.04600509 -0.07448008 0.022650516 0.034378245 0.14564557 0.026487518 0.009306735 0.1067599
-0.08819491 -0.15106454 0.02116212 -0.0071713426 0.13749868 0.07143549 0.03418504 0.019726584
-0.0935663 -0.06309438 -0.09841449 0.03488413 0.04696417 0.201313 -0.057627052 -0.0031508717
0.005443358 -0.08681281 0.043021027 0.05339571 -0.034530856 -0.01994161 0.02147002 0.024251617
-0.0007724474 -0.07453595 -0.012017827 -0.0029420303 0.013533102 0.022639085 -0.009485348 -0.0072692237
-0.0013496013 -0.007386982 0.009271786 0.004932919 0.11486402 0.09190098 0.020800179 0.075155236
0.028515643 -0.06891492 0.047432184 0.11140274 -0.028826097 -0.060653906 0.07111737 0.110282905
0.012630562 0.048517894 -0.0024901682 0.09681796 -0.016852226 -0.057007287 0.0049075107 0.014141825
0.0559387 0.063481115 -0.028185781 0.07758863 0.09575962 0.045620166 0.045264304 0.086908326
0.1043775 0.14129706 -0.060371913 -0.0249579 -0.029128188 0.11358624 -0.12219841 0.11174939
-0.0016161986 0.027534658 -0.0020294185 0.06602048 0.040717952 0.062101334 -0.010052434 -0.006403447
-0.07108978 -0.07426502 -0.11134234 -0.03824814 -0.18459213 0.15035251 -0.15399928 0.002671993
0.028550066 0.036035385 -0.007697188 0.0045973146 -0.043440904 0.030731943 -0.03728858 0.08727587
0.027833723 0.016088856 -0.11605709 0.02346027 0.02318164 0.025767077 -0.08087552 -0.008255416
0.0051939907 0.056401964 -0.020532884 -0.023114966 0.09650039 0.11057091 0.020001318 0.021313895
-0.011479527 0.0017343009 -0.0037061174 -0.04059712 0.09266587 0.06115296 -0.02707379 -0.0040571867
0.00915167 -0.08704157 0.031876087 0.011960598 -0.008681438 0.06444896 0.014598351 0.0136858225
-0.020518804 -0.09258909 -0.0073559764 -0.04549844 -0.05195108 -0.050333988 -0.010444127 -0.03326881
-0.10502211 -0.070821546 0.03036013 0.0116805285 -0.031761657 -0.037422087 0.06393858 0.030211007
-0.06553078 -0.045321036 0.034870513 0.018588608 0.01604322 -0.031464648 0.087250866 0.041854426
00000000: b6c3 8f3d eef2 d2bd 3a24 f038 707b 183d
00000010: 1530 a0bd 79a1 aa3d 7dc6 6fba 908a ef3c
00000020: 5cbe 293d 2101 b6bd e916 22bd 8d8b 0abd
00000030: ce43 21bd 151c 453d 3459 80bd c1f5 7d3c
00000040: c329 823c 2f98 5fbd 14ac bebd 639a 27bb
00000050: 996c ee3d 1831 1d3e a78c 4bbc b68f 37bc
00000060: 55fa 87bd e964 4f3e d0ea 3f3b 7e46 febc
00000070: 53c5 173e aa20 87bd 602c 11bd d8ca 31bc
00000080: dfea 16bd bd77 ab3d 5b6e b03d 9320 213d
00000090: 76cd 813e 8d23 f53d b3c8 3e3d 72fd 8c3d
000000a0: c613 4d3d 8413 f93d 0e60 a13c 9dd3 36bc
000000b0: 99db 773e 661e e13e 4401 a53a b2fc 3ebd
000000c0: b98e 603d 667e 3d3d 1993 e13c 8c61 413e
000000d0: 21f5 96bc 693c babe 6e0e ad3d 793c fc3d
000000e0: 63ca 4bbc 6607 e6bc 600d a93c 506d a23d
000000f0: 94f2 0c3d 3446 503e b7c1 a33d c6de 5d3d
00000100: 9c0e 82bd 351c 493d 2673 9ebd 47df 513d
00000110: 6bd1 ddbd 6623 ec3e 6eb8 d4bd 5033 d13d
00000120: 52d3 563d 14c8 10ba c9a1 0bbd 254a 5b3d
00000130: a9e2 133d 84e0 a73d abba 6abd 253e 823d
00000140: 74dc c2bb d2b1 04bd 1236 ebbd 878f 823d
00000150: 5240 b23d b631 263d 5062 3cbd f237 1c3c
00000160: f3a8 a83c d066 593c eb40 6abd b0a8 9fbb
00000170: 44fc 523e ec0a 9f3d 807c 6bbd a110 183d
00000180: d56f 3cbd 0389 98bd 938d b93c 34d0 0c3d
00000190: 1d24 153e 5afc d83c 477b 183c efa4 da3d
000001a0: 889f b4bd aab0 1abe 2f5c ad3c 95fd eabb
000001b0: 74cc 0c3e c54c 923d 9d05 0c3d a599 a13c
000001c0: b09f bfbd a037 81bd 898d c9bd a9e2 0e3d
000001d0: 805d 403d ff24 4e3e 580a 6cbd db7e 4ebb
000001e0: 325e b23b eaca b1bd d136 303d 76b5 5a3d
000001f0: 3a70 0dbd 965c a3bc e5e1 af3c 54ab c63c
00000200: 117e 4aba 4ea6 98bd 6be6 44bc 14cf 40bb
00000210: f2b9 5d3c 9a75 b93c 6f68 1bbc ab32 eebb
00000220: 1be5 b0ba 7f0e f2bb b0e8 173c 53a4 a13b
00000230: d43d eb3d 9536 bc3d 2365 aa3c fdea 993d
00000240: a399 e93c 4423 8dbd 4048 423d 1f27 e43d
00000250: b524 ecbc 3b70 78bd fca5 913d 01dc e13d
00000260: 6bf0 4e3c b3ba 463d 1732 23bb 7f48 c63d
00000270: ae0d 8abc 7980 69bd 2fcf a03b 1db3 673c
00000280: fa1f 653d 6302 823d dee5 e6bc cae6 9e3d
00000290: 9f1d c43d 36dc 3a3d 1067 393d fefc b13d
000002a0: dfc3 d53d 2db0 103e 8a48 77bd 8374 ccbc
000002b0: 3d9e eebc e79f e83d 2943 fabd dddc e43d
000002c0: a0d6 d3ba 5d90 e13c feff 04bb bf35 873d
000002d0: dec7 263d f85d 7e3d f7b2 24bc 02d4 d1bb
000002e0: 8597 91bd 4218 98bd 7407 e4bd 15aa 1cbd
000002f0: b805 3dbe 02f6 193e fdb1 1dbe 9b1c 2f3b
00000300: d4e1 e93c d799 133d b138 fcbb 12a5 963b
00000310: 17ef 31bd 8ec1 fb3c e9bb 18bd b1bd b23d
00000320: 8c03 e43c c7cc 833c 57af edbd c12f c03c
00000330: 6ce7 bd3c 7a15 d33c 11a2 a5bd b941 07bc
00000340: 5a32 aa3b bf05 673d 9434 a8bc 995b bdbc
00000350: ffa1 c53d 0073 e23d ced9 a33c 7a9a ae3c
00000360: a014 3cbc 7b51 e33a 55e2 72bb 2a49 26bd
00000370: 9bc7 bd3d 877b 7a3d dac9 ddbc 26f2 84bb
00000380: e3f0 153c da42 b2bd 8090 023d 62f6 433c
00000390: 973c 0ebc d1fd 833d ec2d 6f3c 803a 603c
000003a0: 0d17 a8bc 599f bdbd 670a f1bb 925c 3abd
000003b0: a8ca 54bd 032b 4ebd d81d 2bbc e044 08bd
000003c0: d515 d7bd e30a 91bd cfb5 f83c b05f 3f3c
000003d0: 8318 02bd e747 19bd 3bf2 823d 137d f73c
000003e0: 0035 86bd 8da2 39bd 62d4 0e3d 2347 983c
000003f0: 126d 833c 13e1 00bd 95b0 b23d 8c6f 2b3d

fcs1.bias f4 [400]
0.028973807 -0.12177912 -0.10553056 -0.10860633 -0.20733297 0.011483015 -0.16775481 0.06239271
-0.004333601 0.14297684 -0.14492357 -0.2043144 0.14507873 -0.20969592 -0.04399315 -0.21055152
-0.017497644 -0.19933003 0.11331264 0.03929678 -0.080572136 -0.17516865 0.07777385 0.07861532
0.07770438 0.08927795 0.06124506 0.052821953 -0.10530213 -0.24125156 0.034211047 0.09698682
-0.09855121 -0.21533051 0.08321819 -0.22128057 -0.0149432495 -0.26425573 -0.20318867 0.037531648
0.037194017 -0.07765593 0.002259045 0.03653021 -0.14251679 0.12522195 0.051838417 0.08532745
-0.01500466 0.010350935 -0.11261779 -0.12343587 -0.1914766 0.049735293 0.0006875429 0.14241566
0.09375298 -0.11743695 -0.023823222 0.08481862 -0.18935987 0.11779335 -0.06968244 -0.23996621
-0.18759015 0.018111832 -0.30819413 -0.0025722326 0.12944286 -0.013148197 -0.10261806 -0.0061666854
0.035397146 0.12386332 0.051400863 -0.2257185 0.107584566 -0.041355375 -0.05107883 -0.21492986
0.10009798 -0.021694187 0.0007722388 0.10999033 -0.14458652 0.11971356 -0.037746575 -0.20601073
-0.23699327 -0.06776498 -0.30277392 -0.27194124 -0.079817735 0.047609214 -0.15608169 -0.22461803
-0.072122075 -0.06396984 -0.24235979 -0.2085573 -0.15321845 -0.18335366 0.0415432 0.0124899475
-0.094630904 -0.13358016 0.09666781 -0.036666196 -0.16878404 -0.038523875 0.09273617 -0.0133705055
-0.009343323 -0.12491642 -0.005290894 -0.17076431 0.0224373 -0.28515172 -0.20931971 -0.17140368
-0.20708162 0.0952705 -0.20914875 0.01450056 -0.030129917 -0.15160356 0.1021895 -0.08551791
-0.14920682 -0.34481245 -0.15073305 -0.06561894 0.10670336 -0.009174418 0.07071732 -0.10088527
-0.13742734 -0.0634513 -0.23521024 -0.008236797 0.006246854 0.03049056 -0.09791885 -0.29881313
0.06271044 -0.023021229 -0.17455359 -0.020481866 0.04851756 -0.077273645 -0.22656551 -0.11719683
-0.01602167 -0.0024011834 -0.16388701 -0.19744417 -0.054736957 -0.10082776 -0.24932194 -0.2506598
0.056653947 0.14419143 -0.24600825 -0.15567729 -0.17765227 -0.13205697 0.08222203 -0.2116772
0.05255232 -0.08699393 -0.13419217 0.024320645 -0.20236525 -0.1699789 -0.19475637 -0.037386887
-0.028885456 -0.07273184 0.08733894 0.107173696 0.031041825 -0.22118506 0.12292653 -0.105710454
0.12734616 0.0891645 0.08969849 -0.1322243 0.109226435 0.02215367 -0.2091021 -0.21038121
-0.04044985 0.042775083 -0.24644652 0.09294181 -0.29844493 0.049062997 -0.052602313 -0.046074435
0.04444992 -0.09387567 -0.24855126 -0.15108371 0.025415745 -0.13434607 -0.1685032 -0.25296155
-0.079362795 0.15193777 0.01912193 0.104007654 -0.0090960255 -0.19113685 0.14143401 0.07798872
0.19135894 -0.045916095 0.044027805 -0.054530147 0.028987562 0.13115728 0.09968494 0.13859616
-0.058147535 -0.20397756 -0.2740607 -0.21164554 -0.36199299 0.0541357 -0.011209044 -0.067819774
-0.32540247 -0.03249129 -0.15406801 0.07695415 0.06718737 -0.06029414 0.0152549315 0.070838384
0.08591447 -0.20219658 -0.13709842 -0.118684456 0.081256196 -0.25950915 -0.022926582 0.065804176
-0.24153425 0.074440084 0.165871 -0.12888804 -0.014703841 -0.051278006 -0.07864111 -0.2583658
00000000: 7a5a ed3c 5567 f9bd 6820 d8bd ff6c debd
00000010: 184f 54be 4123 3c3c ebc7 2bbe 808f 7f3d
00000020: e100 8ebb 8568 123e d866 14be cb37 51be
00000030: 858f 143e 87ba 56be 2932 34bd d19a 57be
00000040: 3857 8fbc 2c1d 4cbe 7510 e83d a9f5 203d
00000050: 0103 a5bd 695f 33be e547 9f3d 1201 a13d
00000060: 7923 9f3d 5cd7 b63d 1adc 7a3d d55b 583d
00000070: a5a8 d7bd a60a 77be e220 0c3d 07a1 c63d
00000080: 37d5 c9bd 9a7f 5cbe 4c6e aa3d 6097 62be
00000090: 88d4 74bc 874c 87be b110 50be c9ba 193d
000000a0: c158 183d 120a 9fbd 7c0c 143b b4a0 153d
000000b0: ecef 11be 2f3a 003e 8554 543d 28c0 ae3d
000000c0: 1bd6 75bc f896 293c 28a4 e6bd f2cb fcbd
000000d0: 7112 44be 3cb7 4b3d 393c 343a 69d5 113e
000000e0: 9001 c03d c982 f0bd eb28 c3bc 62b5 ad3d
000000f0: 8ee7 41be a43d f13d abb5 8ebd b4b9 75be
00000100: a217 40be 445f 943c 9fcb 9dbe e792 28bb
00000110: ab8c 043e 896b 57bc 6b29 d2bd e811 cabb
00000120: 99fc 103d 0dac fd3d b689 523d c022 67be
00000130: 4c55 dc3d 4164 29bd 0938 51bd 9316 5cbe
00000140: 2b00 cd3d 02b8 b1bc 1270 4a3a 9c42 e13d
00000150: 7d0e 14be 622c f53d 279c 1abd 7af4 52be
00000160: 5dae 72be 5ec8 8abd 2f05 9bbe e23b 8bbe
00000170: 7b77 a3bd e101 433d e1d3 1fbe 4502 66be
00000180: bdb4 93bd 9f02 83bd 2a2d 78be 0b90 55be
00000190: 4ce5 1cbe 10c1 3bbe 3429 2a3d a3a2 4c3c
000001a0: d9cd c1bd 3dc9 08be c6f9 c53d 4b2f 16bd
000001b0: b9d5 2cbe 36cb 1dbd 76ec bd3d f70f 5bbc
000001c0: bd14 19bc 2ed4 ffbd 3c5f adbb d7dc 2ebe
000001d0: 6ece b73c 68ff 91be e857 56be 7284 2fbe
000001e0: 340d 54be 2e1d c33d 172b 56be c293 6d3c
000001f0: 04d3 f6bc f73d 1bbe bb48 d13d 0424 afbd
00000200: acc9 18be 428b b0be c459 1abe 3963 86bd
00000210: 4b87 da3d 4c50 16bc 3ed4 903d f09c cebd
00000220: c1b9 0cbe c1f2 81bd f4da 70be a1f3 06bc
00000230: 69b2 cc3b 57c7 f93c ae89 c8bd 09fe 98be
00000240: 556e 803d 0497 bcbc 2dbe 32be 96c9 a7bc
00000250: 59ba 463d a541 9ebd ca00 68be e404 f0bd
00000260: e13f 83bc 2c5d 1dbb ffd1 27be ce2e 4abe
00000270: dc33 60bd c97e cebd 404e 7fbe 7b56 80be
00000280: f80d 683d eba6 133e 96e9 7bbe de69 1fbe
00000290: 7aea 35be f139 07be 0664 a83d e8c1 58be
000002a0: 1a41 573d e029 b2bd ac69 09be 173c c73c
000002b0: d638 4fbe f30e 2ebe 376e 47be fe22 19bd
000002c0: 31a1 ecbc 6ef4 94bd c2de b23d e27d db3d
000002d0: 6d4b fe3c 567e 62be e8c0 fb3d b97e d8bd
000002e0: 0867 023e e19b b63d d8b3 b73d cf65 07be
000002f0: 1cb2 df3d 9d7b b53c dc1e 56be 2c6e 57be
00000300: beae 25bd ed34 2f3d 7a5c 7cbe 4758 be3d
00000310: c6cd 98be 48f6 483d 8675 57bd 8cb8 3cbd
00000320: 1f11 363d e341 c0bd 3984 7ebe b0b5 1abe
00000330: ae34 d03c 0492 09be 1a8c 2cbe 2d84 81be
00000340: f688 a2bd 9395 1b3e 98a5 9c3c f701 d53d
00000350: 7f07 15bc 61b9 43be 14d4 103e 8db8 9f3d
00000360: 99f3 433e 8412 3cbd 8056 343d 015b 5fbd
00000370: 5377 ed3c 184e 063e 9e27 cc3d 27ec 0d3e
00000380: 1c2c 6ebd 7edf 50be af51 8cbe 9cb9 58be
00000390: 2557 b9be 65bd 5d3d 23a6 37bc 18e5 8abd
000003a0: 279b a6be 9615 05bd 01c4 1dbe 239a 9d3d
000003b0: 8899 893d fdf6 76bd d2ef 793c b713 913d
000003c0: edf3 af3d 9f0c 4fbe 8763 0cbe d610 f3bd
000003d0: a669 a63d 62de 84be 87d0 bbbc 57c4 863d
000003e0: c154 77be 0b74 983d 16da 293e 3afb 03be
000003f0: 61e8 70bc e308 52bd 970e a1bd 8648 84be

fc2.weight f4 [300, 402]
-0.03039131 -0.0009143722 -0.011302008 0.019563062 0.035811827 -0.027219286 -0.029270357 0.043442026
-0.066931844 -0.0303435 0.03290966 0.09945832 -0.054912303 0.047491148 0.012595111 -0.025585879
0.04270778 -0.12655973 0.05271856 -0.027297523 -0.01972856 -0.015619392 -0.06338629 0.0003198172
0.030964466 -0.036852103 0.00208282 -0.02107114 0.06480822 -0.15807518 -0.0874681 0.050760902
-0.071163595 0.024586754 -0.06990685 0.017294127 -0.012477489 -0.091190234 -0.18845958 -0.054785818
-0.06945011 0.028242579 -0.034760885 0.0116494205 -0.06557116 4.5933903e-05 -0.05428324 0.00013010338
-0.032636546 0.038247142 0.005697889 0.040497426 -0.020333141 0.007944661 -0.017893173 -0.07581996
0.015470465 0.07346408 -0.07026739 0.029619204 0.024285888 -0.010255294 0.05015124 -0.146862
-0.054141864 0.031908624 0.012821391 -0.0492714 -0.11174826 0.030931883 -0.05144324 -0.012207261
0.037406143 0.02416065 -0.08657203 -0.0778476 0.020332586 -0.040860232 0.0039851917 0.017533567
0.03255245 -0.061378773 -0.07910984 0.0146942325 -0.15563162 0.008477602 -0.06287432 -0.02801276
0.0040075337 0.012318787 -0.019541306 0.044435736 0.019475557 -0.010579767 0.0054121274 0.005574964
-0.022594016 0.019786332 -0.05993537 0.11034563 0.04298257 0.04877615 -0.050041355 -0.0031590993
0.0025140624 -0.06848829 0.03914044 0.0067849965 0.015349968 -0.06091095 -0.04291355 -0.065700606
-0.034023453 -0.018855896 -0.013167693 0.0014077965 -0.009379224 -0.038559046 0.061847027 0.034703005
-0.00110582 -0.0004764563 -0.12966073 -0.007112656 0.014471907 -0.041763738 -0.028626027 -0.07104504
0.029687215 -0.023783542 0.013119704 0.034973297 -0.041101333 -0.022987943 -0.027157879 -0.049785387
0.12611598 0.0229434 -0.028184542 -0.011360468 -0.013127622 -0.11476864 0.032974944 0.05221783
0.015799366 -0.03303687 -0.22826742 0.055724476 -0.017083142 0.04901915 0.036623713 0.05230715
0.00967488 -0.04632832 0.12283472 0.030373253 -0.0030976324 -0.0915669 0.051984124 -0.059755918
0.012728413 -0.12683125 0.043137472 0.043337833 -0.0348618 0.0043020304 -0.039905883 -0.08156355
-0.040957477 0.03386565 0.031191107 0.039972775 0.018552892 0.007267334 -0.051035166 0.030822229
-0.079184085 -0.0008350109 -0.036500696 -0.100387104 -0.080505714 -0.019832475 -0.0366984 0.019965457
0.018065616 -0.04349047 -0.008606473 0.051659495 -0.05760811 0.051295258 0.12699719 -0.0062499377
-0.03488312 -0.2547884 0.09682901 -0.06492017 -0.15577254 -0.056662627 0.035039827 0.07604827
-0.03585864 -7.737586e-05 0.00051798706 0.049781024 -0.007218296 -0.038354624 -0.10798445 -0.057803974
0.047824692 -0.078305565 -0.0075054467 -0.022021104 -0.013084742 -0.0053552724 -0.025742827 -0.02592908
-0.068134494 -0.05783937 -0.06156991 0.004730552 0.03715977 -0.085260004 -0.05546371 0.023589175
0.0026083505 -0.025000188 -0.09065617 0.05225752 -0.043738123 -0.061056137 0.016074518 0.013008229
-0.06489897 0.0062068654 0.020884698 -0.0785066 -0.06239959 0.0059195594 -0.050555397 0.017812248
-0.05381129 0.058830388 -0.031964447 0.039958153 0.03881482 -0.26268783 -0.023126774 -0.04485648
-0.055041075 0.05905166 -0.087719224 0.0059061684 -0.025351318 0.028582891 0.024147348 -0.06970207
00000000: 32f7 f8bc 7bb2 6fba 0f2c 39bc b742 a03c
00000010: 6caf 123d fbfa debc 63c8 efbc 44f0 313d
00000020: 9013 89bd ef92 f8bc 48cc 063d ceb0 cb3d
00000030: b9eb 60bd 1486 423d b95b 4e3c 7a99 d1bc
00000040: 5aee 2e3d e098 01be 6bef 573d 0e9f dfbc
00000050: ca9d a1bc 7ae8 7fbc acd0 81bd 23ad a739
00000060: 31a9 fd3c 3bf2 16bd ec7f 083b 629d acbc
00000070: 2cba 843d 76de 21be 7a22 b3bd aaea 4f3d
00000080: 38be 91bd 296a c93c 532b 8fbd 6aac 8d3c
00000090: 626e 4cbc f2c1 babd 8cfb 40be 1867 60bd
000000a0: dc3b 8ebd fb5c e73c 6e61 0ebd 36dd 3e3c
000000b0: 2c4a 86bd 27a9 4038 1a58 5ebd 5c6c 0839
000000c0: e6ad 05bd 09a9 1c3d 5bb5 ba3b a1e0 253d
000000d0: b091 a6bc 532a 023c b494 92bc 7f47 9bbd
000000e0: d577 7d3c 5674 963d 59e8 8fbd f9a3 f23c
000000f0: 33f3 c63c d205 28bc 636b 4d3d fe62 16be
00000100: dcc3 5dbd 9eb2 023d d010 523c cfd0 49bd
00000110: 46dc e4bd dc64 fd3c 26b6 52bd f700 48bc
00000120: 2f37 193d 8eec c53c ad4c b1bd 906e 9fbd
00000130: 8690 a63c 0f5d 27bd 3696 823b 8ea2 8f3c
00000140: b855 053d 4f68 7bbd 5704 a2bd 14c0 703c
00000150: e55d 1fbe a4e5 0a3c 40c4 80bd 047b e5bc
00000160: a151 833b bdd4 493c 1715 a0bc 3f02 363d
00000170: 348b 9f3c c256 2dbc 3758 b13b 30ae b63b
00000180: 1617 b9bc f216 a23c ca7e 75bd e4fc e13d
00000190: 7e0e 303d 80c9 473d 2af8 4cbd e408 4fbb
000001a0: f8c2 243b 9743 8cbd ba51 203d ad54 de3b
000001b0: 6f7e 7b3c c37d 79bd 1ec6 2fbd 0a8e 86bd
000001c0: 2d5c 0bbd ae77 9abc 4fbd 57bc d085 b83a
000001d0: 51ab 19bc 17f0 1dbd 4f53 7d3d bd24 0e3d
000001e0: 29f1 90ba e2cc f9b9 c8c5 04be 4811 e9bb
000001f0: 941b 6d3c 7410 2bbd 2181 eabc 1080 91bd
00000200: 9a32 f33c b4d5 c2bc 07f4 563c 2940 0f3d
00000210: df59 28bd 3651 bcbc 337a debc c3eb 4bbd
00000220: 8c24 013e ccf3 bb3c 45e3 e6bc 4221 3abc
00000230: 3d15 57bc d20b ebbd bc10 073d 5de2 553d
00000240: ac6d 813c ab51 07bd efbe 69be 593f 643d
00000250: f2f1 8bbc 4ec8 483d bf02 163d 0640 563d
00000260: 6383 1e3c c4c2 3dbd c590 fb3d 54d1 f83c
00000270: a601 4bbb 6d87 bbbd 4eed 543d 9fc2 74bd
00000280: d58a 503c 0de0 01be ebb0 303d 0383 313d
00000290: 3fcb 0ebd 0cf8 8c3b 5a74 23bd ca0a a7bd
000002a0: 07c3 27bd b5b6 0a3d 7e84 ff3c 7eba 233d
000002b0: 3cfc 973c d122 ee3b 400a 51bd e67e fc3c
000002c0: 442b a2bd a2e4 5aba c181 15bd c197 cdbd
000002d0: 2ee0 a4bd b777 a2bc 1051 16bd 998e a33c
000002e0: 58fe 933c 1023 32bd 2a02 0dbc e898 533d
000002f0: 7bf6 6bbd fa1a 523d 8d0b 023e 47cc ccbb
00000300: 9ae1 0ebd a073 82be 4a4e c63d def4 84bd
00000310: d682 1fbe 1217 68bd ec85 0f3d 32bf 9b3d
00000320: 82e0 12bd d944 a2b8 86c9 073a 30e7 4b3d
00000330: 7587 ecbb bd19 1dbd f426 ddbd dcc3 6cbd
00000340: d3e3 433d ab5e a0bd 40f0 f5bb 9a65 b4bc
00000350: 6361 56bc 487b afbb 9fe2 d2bc 3969 d4bc
00000360: 198a 8bbd fae8 6cbd bb30 7cbd bf02 9b3b
00000370: d834 183d cc9c aebd ea2d 63bd 163e c13c
00000380: dcf0 2a3b 32cd ccbc f1a9 b9bd fb0b 563d
00000390: bf26 33bd 0016 7abd b5ae 833c 7820 553c
000003a0: c0e9 84bd f662 cb3b 6316 ab3c 11c8 a0bd
000003b0: b696 7fbd ddf8 c13b 2d13 4fbd feea 913c
000003c0: 3a69 5cbd 22f8 703d 27ed 02bd 29ab 233d
000003d0: 4afc 1e3d 057f 86be 5c74 bdbc 6ebb 37bd
000003e0: c072 61bd 27e0 713d 23a6 b3bd 8888 c13b
000003f0: 91ad cfbc ab26 ea3c a9d0 c53c f5bf 8ebd

fc2.bias f4 [300]
-0.020351503 -0.014018247 -0.06243711 0.028497092 -0.032667894 0.024711324 -0.06354607 -0.033392865
-0.052437343 -0.03268875 -0.03365454 0.037101388 -0.07903842 -0.021247251 -0.014506743 -0.029873056
-0.07698574 -0.074927844 -0.041434128 -0.012911904 -0.030011728 -0.082604475 -0.039172675 0.026875244
-0.03468602 -0.037577733 -0.003507562 -0.07183146 -0.016287697 0.00587204 -0.0034642445 -0.03870557
0.011730257 -0.0039709876 -0.0026576074 -0.026728684 -0.058008946 -0.0039122165 -0.07347445 -0.022407576
-0.005304975 -0.038406353 -0.047259346 0.012274718 0.039765537 -0.062025588 -0.0027445732 -0.007499989
-0.070511654 -0.038274944 -0.01776049 -0.06989777 0.007603592 -0.048844337 0.00816368 0.023807688
-0.06704315 -0.0063514058 0.0045923274 -0.030794438 -0.06638323 0.04931683 -0.020100951 -0.06104924
0.026859805 0.005122426 -0.05688453 0.0072040525 -0.049963955 -0.050615735 -0.05885142 -0.025763337
-0.017838726 -0.025258278 -0.07383922 -0.037603825 0.0010339165 0.0045388946 -0.016751206 -0.0586375
-0.043806687 0.012928643 -0.0053261383 -0.013811682 -0.02314958 0.03616428 -0.05675256 -0.058029473
-0.05298904 -0.046291843 -0.0127676455 0.0040090266 0.024968702 -0.03688625 -0.013439429 0.05343668
-0.018628823 -0.017870285 0.01185172 -0.062273793 -0.033266157 0.057969484 0.046715043 -0.00827425
-0.01915115 -0.01270853 -0.024650365 -0.021913502 0.0029659586 -0.07252316 0.07125059 -0.020277582
-0.0018326376 -0.059604693 -0.04140672 -0.05853269 -0.047458008 0.0046722176 -0.009834314 -0.01922384
-0.03337919 -0.045751024 0.02476274 0.008117469 0.013994263 -0.011924481 -0.06809269 -0.05767155
-0.045563422 0.03394591 0.023889123 -0.001349483 0.03598072 -0.042844243 0.020217078 0.0059752003
-0.023003984 0.024229521 -0.038285624 0.031627193 -0.003778456 0.029544568 -0.031606328 -0.02222101
-0.0007436129 -0.069405675 -0.030577576 -0.06499594 -0.036847588 -0.012138054 -0.020706816 0.014551306
0.0029407581 -0.029848725 0.05319592 -0.04450357 0.042288784 0.0021636551 -0.008528602 -0.048840523
-0.02121301 0.020865943 -0.06776215 -0.017422225 -0.061777655 -0.0097541325 -0.016545897 -0.012453265
-0.03902217 -0.011863936 -0.064986676 -0.00073029666 -0.048479795 0.046723213 -0.01162957 -0.019164933
0.043256614 -0.0024041305 -0.07574671 0.008935194 0.07206468 -0.014732978 -0.034791164 0.06892201
0.060982745 0.025522785 -0.011806355 -0.011024603 -0.016041968 -0.06501827 -0.036424074 -0.03325615
0.011167804 -0.12746568 -0.031903487 0.016106544 -0.03649758 -0.006164621 0.029988473 -0.0027506833
-0.059183173 -0.040856738 -0.07391597 -0.055240482 0.0006591192 0.02765024 -0.06395649 0.015600181
-0.029347008 0.040963575 0.02654489 -0.055633288 -0.057930198 -0.022168772 0.010250068 -0.012162031
-0.044138167 0.025638385 -0.055038106 -0.007473186 -0.053958565 -0.013635825 -0.021125963 -0.01225405
-0.022711022 0.037710715 0.004787618 0.006235614 -0.0018993914 -0.0139604425 -0.046948813 0.010270014
0.014609141 0.00853002 -0.00497855 -0.036214564 -0.03648076 -0.042637326 -0.05747317 0.032456864
-0.0024259298 -0.07923432 -0.04779865 -0.024282476 0.010889669 -0.005391514 -0.015381904 -0.055861082
0.03148449 0.04773491 -0.045077432 -0.06437117 -0.015779106 0.006661995 -0.019138837 -0.034483477
00000000: 32b8 a6bc caac 65bc 0ebe 7fbd bc72 e93c
00000010: c5ce 05bd 676f ca3c 7124 82bd f5c6 08bd
00000020: 8ac8 56bd a4e4 05bd 58d9 09bd a0f7 173d
00000030: e5de a1bd b70e aebc b1ad 6dbc 57b8 f4bc
00000040: b3aa 9dbd c573 99bd d5b6 29bd 738c 53bc
00000050: 28db f5bc 892c a9bd 8773 20bd 7929 dc3c
00000060: ee12 0ebd 1ceb 19bd 20df 65bb 5f1c 93bd
00000070: c76d 85bc 3e6a c03b 6108 63bb bb89 1ebd
00000080: 4430 403c 0f1f 82bb 412b 2ebb 1df6 dabc
00000090: ca9a 6dbd 0d32 80bb c679 96bd 1890 b7bc
000000a0: 5bd5 adbb fb4f 1dbd 0493 41bd e61b 493c
000000b0: 30e1 223d 8b0e 7ebd 4cde 33bb 78c2 f5bb
000000c0: 6a68 90bd 30c6 1cbd 727e 91bc 9026 8fbd
000000d0: 8d27 f93b 0011 48bd f5c0 053c 5708 c33c
000000e0: eb4d 89bd 741f d0bb 3c7b 963b 9e44 fcbc
000000f0: eef3 87bd 7200 4a3d c0aa a4bc c50e 7abd
00000100: 1809 dc3c 06da a73b c1ff 68bd f90f ec3b
00000110: 01a7 4cbd 7252 4fbd 300e 71bd a20d d3bc
00000120: 8522 92bc 73ea cebc 0439 97bd 7806 1abd
00000130: 7b84 873a 02bb 943b d339 89bc e02d 70bd
00000140: a46e 33bd a9d2 533c e386 aebb 654a 62bc
00000150: 30a4 bdbc ff20 143d 5f75 68bd 50b0 6dbd
00000160: 090b 59bd 849c 3dbd 632f 51bc 275e 833b
00000170: 2a8b cc3c 0916 17bd 0d31 5cbc 6ce0 5a3d
00000180: 799b 98bc b464 92bc b72d 423c ce12 7fbd
00000190: 1842 08bd 6971 6d3d 4658 3f3d b890 07bc
000001a0: dfe2 9cbc 7037 50bc 90ef c9bc f283 b3bc
000001b0: 8760 423b 0687 94bd d4eb 913d 2c1d a6bc
000001c0: 1d35 f0ba 0d24 74bd 189a 29bd f9bf 6fbd
000001d0: 5463 42bd 6719 993b 1a20 21bc 517b 9dbc
000001e0: 9eb8 08bd 6d65 3bbd 3bdb ca3c 22ff 043c
000001f0: 3148 653c e65e 43bc 2e74 8bbd 0139 6cbd
00000200: b6a0 3abd de0a 0b3d 1fb3 c33c 23e1 b0ba
00000210: 8560 133d 727d 2fbd 499e a53c 9dcb c33b
00000220: da72 bcbc fd7c c63c 63d1 1cbd 848b 013d
00000230: f99f 77bb 7307 f23c a375 01bd d608 b6bc
00000240: 04ef 42ba 9024 8ebd d37d fabc 971c 85bd
00000250: 7fed 16bd b0de 46bc 57a1 a9bc 9a68 6e3c
00000260: bcb9 403b 5085 f4bc f7e3 593d 6049 36bd
00000270: 0137 2d3d 1ccc 0d3b 8dbb 0bbc 000d 48bd
00000280: e8c6 adbc 0eef aa3c e2c6 8abd 0eb9 8ebc
00000290: 910a 7dbd cccf 1fbc 438b 87bc c708 4cbc
000002a0: b6d5 1fbd f460 42bc bc17 85bd 6171 3fba
000002b0: c092 46bd d760 3f3d f489 3ebc c7ff 9cbc
000002c0: d92d 313d 9e8e 1dbb 1721 9bbd ec64 123c
000002d0: a696 933d 9762 71bc 2e81 0ebd fc26 8d3d
000002e0: 0bc9 793d 2915 d13c 716f 41bc 89a0 34bc
000002f0: 726a 83bc 4c28 85bd 6931 15bd 9a37 08bd
00000300: 2af9 363c 5d86 02be 3bad 02bd dff1 833c
00000310: 7d7e 15bd 9700 cabb 63aa f53c cf44 34bb
00000320: 0e6a 72bd 6559 27bd 4261 97bd d843 62bd
00000330: bec8 2c3a c282 e23c 9ffb 82bd e797 7f3c
00000340: 2369 f0bc 6cc9 273d ab74 d93c bbdf 63bd
00000350: 3748 6dbd 499b b5bc e7ef 273c 4143 47bc
00000360: 39ca 34bd 9707 d23c a36f 61bd a1e1 f4bb
00000370: a803 5dbd cc68 5fbc 5b10 adbc 36c5 48bc
00000380: 770c babc 8d76 1a3d 73e1 9c3b 1f54 cc3b
00000390: 00f5 f8ba 57ba 64bc 664d 40bd 9043 283c
000003a0: 2e5b 6f3c 7fc1 0b3c 1b23 a3bb b955 14bd
000003b0: d96c 15bd 7aa4 2ebd fd68 6bbd 7df1 043d
000003c0: 59fc 1ebb 9a45 a2bd 84c8 43bd 0bec c6bc
000003d0: 956a 323c 4cab b0bb 6204 7cbc 97ce 64bd
000003e0: e1f5 003d ae85 433d 1da3 38bd 08d5 83bd
000003f0: 2f43 81bc dd4c da3b 0dc9 9cbc 8c3e 0dbd

fc3.weight f4 [1, 300]
-0.012245809 0.0005506394 -0.011671219 -0.005011315 -0.004749402 0.012608243 0.0048708995 -0.002754016
0.02319034 -0.0015291016 -0.011261504 -0.024468992 0.032126747 0.032770205 0.004946843 -0.01822177
0.020300234 0.0048455647 0.005100336 -0.016098114 0.0014311738 0.017395101 0.0067004245 -0.001888749
-0.028810535 -0.071659125 0.0065922476 -0.02551263 0.09334423 0.062576056 -0.026418982 0.0026750697
0.006153556 0.050630756 -0.010232443 -0.010779723 0.0061972407 -0.0028905189 0.020569475 -0.0033834362
-0.01827869 -0.004968944 -0.020928614 0.0032685564 0.030478863 -0.010299801 0.005104893 0.020088885
-0.0032863712 0.003473648 -0.00049042626 0.0053768386 0.056172017 0.014534536 -0.0032190923 0.0013875003
-0.020528197 0.0023952725 -0.00011478896 -0.0106340125 -0.0016204753 0.105301574 0.038756922 -0.007425008
0.0034648536 -0.0062731025 -0.003196472 -0.0023300843 0.005830039 0.0147292465 0.02158033 0.014020711
-0.025753694 0.004183386 -0.001750792 -0.0052553564 0.0024130875 0.0017385497 0.00591915 0.119509436
-0.0016158489 -0.003170229 -0.00032132765 -0.027314859 0.0014252048 0.011008181 -0.009023279 0.01865402
-0.008237221 -0.013914746 0.00049925316 -0.022188088 -0.015080347 0.027913267 -0.003726155 0.13195412
-0.0023659896 0.011572401 -0.0013728981 0.0011748872 -0.004903818 -0.025732597 -0.015029778 0.000709844
0.13105394 0.008242297 -0.0014600935 -0.007148787 -0.00465071 -0.0032462138 0.03617541 -0.0016928873
0.0033651912 -0.041330755 -0.00013321008 -0.025205413 0.0028910697 0.018283209 0.002390788 0.0021622686
0.013067747 0.005153159 0.000755503 -0.055729587 0.0014441925 -0.0043553696 0.0036973394 0.011334523
0.003963468 0.0003664701 0.0038740148 -0.004128901 -0.027572013 -0.0066830874 -0.03222269 -0.011755275
-0.0064098705 -0.020337893 0.014235625 0.0010133665 -0.015185932 0.014144798 0.028547242 -0.007669402
0.0075889155 0.0028034982 -0.0065401476 -0.031925987 -0.01667668 0.0020450894 0.022202527 -0.0021375052
-0.0094386665 6.170343e-05 -0.018259699 -1.0585292e-05 0.043867607 0.0050096507 0.00714014 -0.083323166
-0.018990295 -0.0057595684 0.0064969524 0.0004032259 -0.007209528 0.006482969 0.014646511 -0.008379191
0.00045791373 -0.002043931 -0.02955153 -0.0173594 -0.011395169 0.0012313006 0.0063273315 -0.013292742
0.07589982 -0.007874804 -0.0010294754 0.0015930294 -0.016156334 -0.0023271106 0.023739986 -0.012045086
-0.0155875115 -0.006034658 1.21422545e-05 -0.012803428 0.0027692192 -0.059751213 0.013461638 -0.003523631
0.008289072 0.013717279 0.006166426 0.060575716 0.011773852 0.0016174804 0.0038231541 0.018557843
-0.026014859 0.002548669 0.022605062 -0.00054520543 0.0071581337 0.0004149052 -0.026477091 0.002623971
-0.0064040227 0.0033350745 0.004627915 -0.025365112 -0.0035999727 0.0047305273 -0.0006534068 -0.007621564
-0.0012883286 -0.03142866 0.020076154 0.010481904 -0.01468483 -0.0043682638 0.04128529 0.0012271871
-0.0028399217 0.06760372 0.0040405537 0.006597103 0.0040715877 -0.0051583718 -0.0062285503 0.003514814
-0.008230125 0.0020452351 0.014978169 0.027753146 0.016394943 -0.0026998108 -0.01490642 -0.00024552929
0.0034038469 0.008402856 -0.020094268 0.0025011695 -0.004347194 0.0007539237 -0.015895197 -0.0016886713
-0.023663161 0.003415659 -0.0065989434 0.00017787484 -0.0040443297 0.00348141 0.0051838793 0.024913667
00000000: a5a2 48bc c958 103a a438 3fbc f535 a4bb
00000010: dfa0 9bbb ce92 4e3c 119c 9f3b b97c 34bb
00000020: abf9 bd3c 236c c8ba 2c82 38bc 3273 c8bc
00000030: 5697 033d 0d3a 063d 2019 a23b d245 95bc
00000040: ad4c a63c 8bc7 9e3b b820 a73b 31e0 83bc
00000050: 3996 bb3a 2c80 8e3c 3c8f db3b e68f f7ba
00000060: 1204 ecbc 05c2 92bd c803 d83b ddff d0bc
00000070: 422b bf3d e027 803d 9f6c d8bc 3950 2f3b
00000080: c5a3 c93b 3262 4f3d faa5 27bc 6f9d 30bc
00000090: 3912 cb3b dc6e 3dbb 5181 a83c a4bc 5dbb
000000a0: 31bd 95bc 86d2 a2bb 7c72 abbc 4735 563b
000000b0: cfae f93c 7fc0 28bc f246 a73b 7291 a43c
000000c0: 2960 57bb 25a6 633b f38f 00ba 3130 b03b
000000d0: a114 663d 4322 6e3c 68f7 52bb c9dc b53a
000000e0: c02a a8bc 01fa 1c3b dbba f0b8 483a 2ebc
000000f0: 2166 d4ba 5aa8 d73d 94bf 1e3d 7b4d f3bb
00000100: 9912 633b 998e cdbb e77b 51bb 54b4 18bb
00000110: e909 bf3b f052 713c 3bc9 b03c 20b7 653c
00000120: 69f9 d2bc c914 893b d57a e5ba 2035 acbb
00000130: e424 1e3b 0ce0 e33a 6ef5 c13b 5dc1 f43d
00000140: e4ca d3ba 9ec3 4fbb de77 a8b9 69c3 dfbc
00000150: f0cd ba3a a85b 343c 60d6 13bc 51d0 983c
00000160: 69f5 06bc adfa 63bc 50e0 023a cbc3 b5bc
00000170: 8f13 77bc 5daa e43c 8232 74bb fb1e 073e
00000180: b80e 1bbb 2b9a 3d3c d1f2 b3ba acfe 993a
00000190: 35b0 a0bb 2bcd d2bc 753f 76bc d314 3a3a
000001a0: 0133 063e b30a 073c 9c60 bfba 5f40 eabb
000001b0: fc64 98bb 6ebe 54bb ab2c 143d dfe3 ddba
000001c0: 8a8a 5c3b 704a 29bd 4fae 0bb9 957b cebc
000001d0: 1a78 3d3b abc6 953c c4ae 1c3b d9b4 0d3b
000001e0: 1a1a 563c d5db a83b f30c 463a b544 64bd
000001f0: 0f4b bd3a 7db7 8ebb 104f 723b 6fb4 393c
00000200: fbdf 813b c922 c039 2fe3 7d3b bb4b 87bb
00000210: b4de e1bc cdfd dabb f0fb 03bd 3299 40bc
00000220: e409 d2bb a79b a6bc 8a3c 693c f0d2 843a
00000230: 6ace 78bc 95bf 673c e8db e93c 9b4f fbbb
00000240: 70ac f83b e5ba 373b bc4e d6bb d3c4 02bd
00000250: 889d 88bc e806 063b 13e2 b53c 6315 0cbb
00000260: a3a4 1abc c766 8138 5d95 95bc 7c97 31b7
00000270: 85ae 333d ff27 a43b d6f7 e93b 56a5 aabd
00000280: 8991 9bbc c3ba bcbb 63e4 d43b 1068 d339
00000290: e73d ecbb 166f d43b ebf7 6f3c e048 09bc
000002a0: 2414 f039 79f3 05bb 0d16 f2bc 4d35 8ebc
000002b0: ceb2 3abc 9863 a13a 8155 cf3b cdc9 59bc
000002c0: 5d71 9b3d 5205 01bc 76ef 86ba 32cd d03a
000002d0: 4a5a 84bc 7082 18bb 5c7a c23c c158 45bc
000002e0: c362 7fbc 61be c5bb 96b6 4b37 78c5 51bc
000002f0: ca7b 353b b0bd 74bd 348e 5c3c b8ec 66bb
00000300: e3ce 073c 70be 603c bb0f ca3b 3e1e 783d
00000310: 1de7 403c a301 d43a e28d 7a3b 9e06 983c
00000320: 1d1d d5bc 9207 273b 402e b93c 1eec 0eba
00000330: c78e ea3b a287 d939 7ce6 d8bc eef6 2b3b
00000340: d6d8 d1bb 4491 5a3b c4a5 973b 7fca cfbc
00000350: 85ed 6bbb 8a02 9b3b 6349 2bba 50be f9bb
00000360: 22dd a8ba 57bb 00bd bf76 a43c 4bbc 2b3c
00000370: a498 70bc a723 8fbb c41a 293d 91d9 a03a
00000380: fb1d 3abb d273 8a3d 9f66 843b 832c d83b
00000390: f46a 853b 8f07 a9bb de18 ccbb cb58 663b
000003a0: a5d7 06bc 5a09 063b ff66 753c 915a e33c
000003b0: b04e 863c 4fef 30bb 0f3a 74bc 62ba 80b9
000003c0: 1313 5f3b 22ac 093c bc9c a4bc a9ea 233b
000003d0: e872 8ebb f7a2 453a a536 82bc 6856 ddba
000003e0: 3fd9 c1bc 40d9 5f3b f33b d8bb ea83 3a39
000003f0: 4c86 84bb 5e28 643b 88dd a93b bf17 cc3c
