Continuous_Control/checkpoint_critic.pth (torch_old, 543814 bytes, 9 tensors)

bn1.weight f4 [33]
0.5001352 0.2620462 0.4448146 0.03670148 0.031923242 0.03380559 0.03403697 0.034276087
0.05637755 0.06674698 0.12878488 0.111559875 0.10587637 1.029964 0.31650048 0.8835575
0.031213645 0.028455203 0.019763224 0.024874795 -0.07183976 0.054923564 0.059316084 0.2973231
0.14176854 0.24145539 0.83836067 0.22002661 0.78804857 0.25708312 0.045797765 0.17550886
1.0524627
00000000: dc08 003f eb2a 863e bdbe e33e 4b54 163d
00000010: f2c1 023d bb77 0a3d 5a6a 0b3d 1565 0c3d
00000020: 25ec 663d a4b2 883d 2fe0 033e 8179 e43d
00000030: b6d5 d83d dcd5 833f 5a0c a23e d330 623f
00000040: c2b3 ff3c e31a e93c 7ce6 a13c 3ac6 cb3c
00000050: b920 93bd 88f7 603d 6cf5 723d bc3a 983e
00000060: c62b 113e 1540 773e ce9e 563f a84e 613e
00000070: 8dbd 493f 66a0 833e 7096 3b3d 98b8 333e
00000080: 19b7 863f

bn1.bias f4 [33]
-0.10147684 -0.12826787 -0.087093756 0.016399188 -0.002939507 0.0012451115 -0.008600909 0.009628953
0.012743792 -0.024339855 -0.045290604 -0.018580683 -0.0006310376 -0.19568788 -0.09587911 -0.13235152
0.0085754115 7.549076e-05 -0.003350499 0.006936866 0.010803068 0.0097559765 -0.052931122 -0.04666556
-0.052530862 -0.05861294 -0.22587416 -0.20144679 -0.10043156 0.36844394 -0.0046397178 0.0013934023
0.04589675
00000000: 17d3 cfbd a758 03be 365e b2bd 9757 863c
00000010: bea4 40bb 0233 a33a d4ea 0cbc c2c2 1d3c
00000020: 56cb 503c 6064 c7bc a482 39bd 8436 98bc
00000030: 376c 25ba 6762 48be 445c c4bd 2887 07be
00000040: e27f 0c3c cb50 9e38 0c94 5bbb a64e e33b
00000050: 5aff 303c 88d7 1f3c 4ece 58bd 6324 3fbd
00000060: 9a2a 57bd 1f14 70bd 8e4b 67be 1148 4ebe
00000070: 10af cdbd afa4 bc3e c608 98bb d3a2 b63a
00000080: 3bfe 3b3d

bn1.running_mean f4 [33]
0.3722687 -2.7426066 -0.29481533 0.8233353 0.03450502 0.06048596 -0.050762102 0.009431706
-0.017226813 0.019841328 -0.0036048885 0.022825342 -0.014113261 0.12487323 -3.329126 -0.17111285
0.02682417 0.00036067588 0.0007748642 -0.038282074 0.25668547 0.029608952 0.25097203 -0.03467786
0.11663223 -0.018853193 -0.25937384 -0.99999976 -0.09706948 0.0 0.99999976 0.0
-0.024348296
00000000: 019a be3e de86 2fc0 09f2 96be 1ac6 523f
00000010: 2355 0d3d 20c0 773d eceb 4fbd 7187 1a3c
00000020: 3f1f 8dbc 488a a23c fe3f 6cbb 36fc ba3c
00000030: 4f3b 67bc 89bd ff3d 6610 55c0 3538 2fbe
00000040: 5dbe db3c 1919 bd39 4220 4b3a aacd 1cbd
00000050: 476c 833e 798e f23c 687f 803e 5f0a 0ebd
00000060: e1dc ee3d 0372 9abc a6cc 84be fcff 7fbf
00000070: 5dcc c6bd 0000 0000 fcff 7f3f 0000 0000
00000080: 1476 c7bc

bn1.running_var f4 [33]
4.308159 0.864802 3.129523 0.08318885 0.0737027 0.07888068 0.078921884 0.41281998
0.08143813 0.16485259 3.0931478 2.2688618 2.6316254 21.95981 2.2116559 16.083803
0.14310333 0.29392052 0.11053813 0.4504156 3.5734131 1.1408969 1.1409241 8.518617
5.01014 8.069826 32.280342 6e-45 31.61161 6e-45 6e-45 6e-45
0.28492394
00000000: 70dc 8940 aa63 5d3f 1b4a 4840 ea5e aa3d
00000010: 71f1 963d 328c a13d cca1 a13d 245d d33e
00000020: 09c9 a63d 1ecf 283e 22f6 4540 0835 1140
00000030: 8d6c 2840 b1ad af41 c58b 0d40 a1ab 8041
00000040: ae89 123e c07c 963e d161 e23d e09c e63e
00000050: cdb2 6440 e908 923f cd09 923f 414c 0841
00000060: 1153 a040 021e 0141 121f 0142 0400 0000
00000070: 94e4 fc41 0400 0000 0400 0000 0400 0000
00000080: 8de1 913e

fcs1.weight f4 [400, 33]
-0.012785071 0.52796996 0.5419482 -0.4407847 -0.083453216 0.0540825 -0.56318414 -0.29652283
-0.1794945 0.023900181 0.065546125 0.52588964 -0.49869034 0.3325693 0.11399476 0.006811961
-0.25063574 0.3975523 0.028820435 -0.07838605 0.5022133 0.119821884 -0.20059721 -0.4716909
0.5702606 0.31655788 0.11894684 0.60118586 -0.22853145 -0.5390883 0.01929258 0.011457711
-0.027533624 -0.16567223 -0.5137551 0.0030263742 -0.21668726 -0.21820028 -0.1633254 0.13486624
-0.099695265 0.22340146 -0.39507505 0.20884165 -0.35916367 0.22169818 -0.0558721 0.39898756
-0.019162038 0.06817419 -0.005931565 0.334043 -0.0014670052 0.18277049 0.059513513 -1.0268042
-0.1981131 -0.008383201 -0.2766268 0.15471305 0.11317771 0.02045886 -0.12906584 0.020057317
0.025719073 -0.05153554 -0.14697853 -0.03901736 0.1033428 -0.072618365 0.05176416 -0.13285919
0.37616286 0.13103148 -0.1913575 -0.70056283 0.40443033 0.2591168 -0.05939852 0.3679406
0.0035351 -0.06441108 -0.065904275 0.18056433 0.26199943 0.17117944 0.074521616 -0.17315525
0.34955904 0.45217195 -0.23604919 0.07088317 0.1715458 0.16195077 -0.11431856 -0.23640546
-0.036509573 -0.064981714 0.06674464 0.1651849 -0.27094358 -0.03727445 0.08685286 0.3941107
-0.011137874 0.34601906 0.22448568 0.13846226 -0.36801547 -0.119753994 -0.18399422 -0.0086769685
-0.22267437 0.67997825 -0.20852123 0.0277307 0.13498226 0.0026498872 -0.39269677 -0.06600127
0.27903438 0.1079521 -0.17406505 0.22040796 0.22866122 -0.07280129 0.27893713 0.010457807
-0.3147845 0.048774093 -0.048356585 -0.22086242 -0.26237932 -0.18017447 -0.19549261 0.39869222
-0.44880578 0.19718637 0.3120563 -0.10554643 0.39557013 0.2613443 -0.15561049 0.14888531
0.3513245 0.27329683 0.37430185 0.47476837 0.04566117 0.14370719 0.033595633 -0.08567808
0.16187084 0.15119904 0.24963191 0.3366177 0.6307533 0.55584586 -0.11726907 0.22831072
-0.35477024 -0.24475406 -0.030714208 0.043486882 -0.0047026696 0.06104213 0.12921882 0.38407654
0.07230399 -0.3396937 -0.099630676 0.114640936 -0.076842435 -0.08935151 -0.25281346 0.6918471
0.28044027 0.101043105 0.32818475 -0.040556584 0.019322062 0.08512002 -0.089249104 0.38142487
0.24813704 -0.45739987 0.0026853317 0.05626372 0.271585 0.07882499 0.5312581 0.020205986
0.3341266 -0.20796578 -0.38283485 -0.034076076 -0.012878995 0.051044516 0.04395988 0.21523944
-0.13820821 -0.2871491 -0.012610773 0.6081323 0.22269343 -0.054167975 0.07203869 -0.51447403
0.4238555 0.5643758 -0.6907288 0.2585835 -0.024454992 0.012697284 -0.121596456 0.10378107
0.20181143 0.38572407 -0.36659598 0.07882391 0.31289935 0.6229026 0.4901961 -0.38401896
-0.021030642 0.35953447 -0.2431327 -0.4005565 0.11189455 0.008472668 0.10339914 0.062290903
0.25071865 0.12383542 0.551835 0.014679495 0.06791779 -0.05272662 0.03387195 0.06195945
-0.1791194 -0.053305037 0.21707124 -0.101199746 -0.014528747 0.020531664 -0.1390897 -0.04919811
-0.040890727 -0.047097985 0.5205242 0.10693633 -0.068820424 0.2873096 -0.029957725 0.021780813
00000000: 7978 51bc 0a29 073f 1ebd 0a3f 88ae e1be
00000010: 85e9 aabd 9d85 5d3d d62c 10bf d7d1 97be
00000020: 68cd 37be 50ca c33c 0c3d 863d b4a0 063f
00000030: 5754 ffbe 8646 aa3e 1676 e93d df36 df3b
00000040: 5453 80be fa8b cb3e d518 ec3c de88 a0bd
00000050: 0d91 003f 2d65 f53d 5b69 4dbe 7881 f1be
00000060: 99fc 113f e013 a23e 679a f33d 51e7 193f
00000070: 2604 6abe b101 0abf 790b 9e3c 20b9 3b3c
00000080: 328e e1bc fba5 29be 7485 03bf 2256 463b
00000090: 44e3 5dbe e56f 5fbe c63e 27be 601a 0a3e
000000a0: 082d ccbd 5ac3 643e 4747 cabe 96da 553e
000000b0: 4de4 b7be d904 633e 25da 64bd 1948 cc3e
000000c0: b5f9 9cbc e99e 8b3d 935d c2bb af07 ab3e
000000d0: 8748 c0ba 3028 3b3e 71c4 733d 526e 83bf
000000e0: 29de 4abe b259 09bc 07a2 8dbe 196d 1e3e
000000f0: b7c9 e73d 5799 a73c d629 04be 3e4f a43c
00000100: ceb0 d23c ee16 53bd 8a81 16be abd0 1fbd
00000110: 64a5 d33d f0b8 94bd a806 543d 3d0c 08be
00000120: 6b98 c03e 1e2d 063e 38f3 43be 1658 33bf
00000130: 7e11 cf3e f5aa 843e dd4b 73bd b662 bc3e
00000140: 23ad 673b f5e9 83bd d2f8 86bd dbe5 383e
00000150: ca24 863e aa49 2f3e ca9e 983d 9c4f 31be
00000160: 67f9 b23e 1583 e73e e1b6 71be 322b 913d
00000170: b4a9 2f3e 6cd6 253e d91f eabd 4614 72be
00000180: 108b 15bd 2215 85bd 6ab1 883d 3b26 293e
00000190: 1eb9 8abe 18ad 18bd eadf b13d e1c8 c93e
000001a0: a17b 36bc 6929 b13e 93df 653e 0dc9 0d3e
000001b0: 866c bcbe 9541 f5bd fb68 3cbe d829 0ebc
000001c0: c004 64be 0e13 2e3f 9786 55be 7e2b e33c
000001d0: ca38 0a3e bba9 2d3b 8d0f c9be ad2b 87bd
000001e0: 98dd 8e3e fe15 dd3d 1c3e 32be a0b2 613e
000001f0: 2b26 6a3e d818 95bd d9d0 8e3e 3957 2b3c
00000200: 6f2b a1be 58c7 473d 8e11 46bd c229 62be
00000210: 9556 86be a87f 38be 372f 48be 6321 cc3e
00000220: dfc9 e5be 39eb 493e d8c5 9f3e ba28 d8bd
00000230: 2b88 ca3e ecce 853e 5b58 1fbe 6475 183e
00000240: cee0 b33e 90ed 8b3e 7ea4 bf3e d714 f33e
00000250: 3507 3b3d fa27 133e 939b 093d fd77 afbd
00000260: 78c1 253e ecd3 1a3e 829f 7f3e 2859 ac3e
00000270: 0c79 213f ea4b 0e3f c42a f0bd 49ca 693e
00000280: 72a4 b5be cfa0 7abe 5d9c fbbc 4d1f 323d
00000290: da18 9abb 5007 7a3d f051 043e aea5 c43e
000002a0: 1d14 943d 55ec adbe 2b0b ccbd dec8 ea3d
000002b0: 915f 9dbd edfd b6bd c470 81be e41c 313f
000002c0: de95 8f3e b0ef ce3d d507 a83e a91e 26bd
000002d0: 4d49 9e3c 6853 ae3d 3cc8 b6bd 1f4a c33e
000002e0: a317 7e3e 5130 eabe 64fc 2f3b c974 663d
000002f0: 300d 8b3e ff6e a13d 8800 083f 0687 a53c
00000300: a412 ab3e fbf4 54be ee02 c4be 5b93 0bbd
00000310: 6c02 53bc 0e14 513d 460f 343d ba67 5c3e
00000320: 7486 0dbe 3505 93be 6a9d 4ebc 8fae 1b3f
00000330: bf09 643e 3ddf 5dbd 0589 933d 92b4 03bf
00000340: 9703 d93e ef7a 103f 9ad3 30bf 0e65 843e
00000350: d655 c8bc 4508 503c 9007 f9bd 2b8b d43d
00000360: a8a7 4e3e a07d c53e 78b2 bbbe 6e6e a13d
00000370: 5834 a03e 8b76 1f3f fcfa fa3e 229e c4be
00000380: 7448 acbc e714 b83e c7f7 78be be15 cdbe
00000390: f828 e53d f2d0 0a3c eec2 d33d bf24 7f3d
000003a0: 325e 803e 6d9d fd3d 0f45 0d3f 4482 703c
000003b0: 7b18 8b3d def7 57bd 50bd 0a3d 31c9 7d3d
000003c0: 136b 37be 6256 5abd ec47 5e3e d041 cfbd
000003d0: fb09 6ebc 0532 a83c 886d 0ebe f583 49bd
000003e0: 097d 27bd d1e9 40bd 1341 053f 6f01 db3d
000003f0: b9f1 8cbd 3e1a 933e e769 f5bc ad6d b23c

fcs1.bias f4 [400]
-0.53373295 0.06536114 -0.23239702 -0.33634922 -0.35056275 -0.10638502 -0.45740634 -0.4430721
-0.4056096 -0.3423421 -0.22749995 -0.2418499 -0.16353874 -0.16523342 -0.2109599 -0.20685743
-0.19812982 -0.46554244 -0.056131404 -0.09838282 -0.49485615 -0.6169038 -0.20675598 -0.18668336
-0.2991887 -0.08722163 -0.3083687 -0.23832074 -0.24505097 -0.25356892 -0.39913923 -0.5026683
0.09824955 -0.22623773 -0.31818292 -0.6320552 -0.30578876 -0.39788604 -0.46250626 -0.18628877
-0.25281328 -0.25684398 -0.26880807 -0.28584707 -0.30960986 -0.36268443 -0.3231976 -0.40580046
-0.20604596 -0.32676345 -0.16387124 -0.29103577 -0.403018 -0.25184834 -0.083253205 -0.24133763
-0.38911754 -0.038881704 -0.09985717 -0.19928217 -0.2626992 -0.29728684 -0.4885915 -0.0014403224
-0.3514605 -0.039636552 -0.20335403 -0.3533708 -0.059074245 -0.3583145 -0.32784206 -0.26555997
-0.3298756 -0.27497715 -0.06385773 -0.22515664 -0.48990712 -0.35330617 -0.18199697 -0.21146666
-0.4370945 -0.4895565 -0.20415531 -0.28642365 -0.112947986 -0.34010506 -0.30411705 -0.15296957
-0.26519227 -0.14149275 -0.1450234 -0.34717155 -0.14426146 -0.06181466 -0.27906534 -0.34115356
-0.13285965 -0.33682775 -0.36866653 -0.160251 -0.33867684 -0.22556494 -0.023066673 -0.51898104
-0.48093367 -0.22890408 -0.39123973 -0.4410359 -0.15471096 -0.39762688 -0.102509245 -0.37987372
-0.53733885 -0.42824286 -0.24209395 -0.194523 -0.16206133 -0.30530614 0.029824432 -0.18971244
-0.43417957 -0.49628046 -0.024050482 -0.36039853 -0.4265379 -0.24916856 -0.058515247 -0.40515813
-0.18746772 -0.25608578 -0.304227 -0.02981104 -0.41136855 -0.2772535 -0.21049228 -0.20128344
-0.21533726 -0.096110225 -0.03592131 -0.2562999 -0.41391256 -0.49599847 -0.35773197 -0.14772925
-0.23344582 -0.24389826 -0.07202089 -0.43331257 -0.15751216 -0.3596126 -0.2181255 -0.26145115
-0.17660168 -0.36692455 -0.029576331 -0.25560996 -0.26075387 -0.36260813 -0.1303109 -0.45309302
-0.4383319 -0.5296492 -0.42363694 -0.28574643 -0.21421969 -0.24029608 -0.28909922 -0.43989724
-0.3924877 -0.13458516 -0.35058865 -0.39971638 -0.48773178 -0.39598942 -0.3585925 -0.059882075
-0.4530817 -0.34602845 -0.28531408 -0.2924583 -0.4514072 -0.32190776 -0.3403483 -0.13362367
-0.18504184 -0.28951794 0.019605873 -0.27531454 -0.39430568 -0.095824406 0.014565714 -0.30028778
-0.35737646 -0.1675963 -0.28588936 -0.5724579 -0.30860066 -0.3909389 -0.25263894 -0.53628564
-0.2786299 -0.25524214 -0.18348815 -0.1681004 -0.3963934 -0.3542444 -0.19115391 -0.26284495
-0.1947182 -0.38843262 -0.12649713 0.024600862 -0.3873079 -0.15473326 -0.453367 -0.35940734
-0.100462094 -0.272557 0.084175535 -0.05119155 -0.48246792 -0.69617134 -0.32695758 -0.35485795
-0.5652468 -0.33980685 -0.028476806 -0.1174784 -0.11531154 -0.40061337 -0.4600591 -0.39278734
-0.19507194 -0.22371861 -0.33485153 -0.23126943 -0.4485308 -0.47213197 -0.27245873 -0.16679
-0.011028279 -0.12126401 -0.39416686 -0.22756067 -0.51423967 -0.45130423 -0.29017645 -0.07659191
-0.07246123 -0.25059208 -0.55212843 -0.27262032 -0.34316203 -0.40756038 -0.0887471 -0.39955413
00000000: b9a2 08bf 10dc 853d 7cf9 6dbe f735 acbe
00000010: f67c b3be 64e0 d9bd 2a31 eabe 59da e2be
00000020: 10ac cfbe 7747 afbe bff5 68be 80a7 77be
00000030: b376 27be f332 29be df05 58be 6fd2 53be
00000040: 8be2 4abe 945b eebe 0bea 65bd ef7c c9bd
00000050: c95d fdbe 68ed 1dbf d7b7 53be ec29 3fbe
00000060: 432f 99be 41a1 b2bd 81e2 9dbe 5a0a 74be
00000070: a4ee 7abe c9d3 81be fa5b ccbe dfae 00bf
00000080: 0f37 c93d ddaa 67be dfe8 a2be 5fce 21bf
00000090: 5890 9cbe b8b7 cbbe 9fcd ecbe 7cc2 3ebe
000000a0: be70 81be 0e81 83be 36a1 89be 8c5a 92be
000000b0: 2f85 9ebe c6b1 b9be 287a a5be 14c5 cfbe
000000c0: b6fd 52be 8a4d a7be ddcd 27be a402 95be
000000d0: 6058 cebe 44f2 80be a880 aabd 3621 77be
000000e0: 6a3a c7be 6c42 1fbd ea81 ccbd a010 4cbe
000000f0: 8280 86be fb35 98be aa28 fabe 33c9 bcba
00000100: a1f2 b3be f059 22bd 0a3c 50be 04ed b4be
00000110: d6f7 71bd 0075 b7be eada a7be 7af7 87be
00000120: 74e5 a8be cec9 8cbe d7c7 82bd 768f 66be
00000130: 1bd5 fabe 8ce4 b4be 6a5d 3abe b78a 58be
00000140: daca dfbe 26a7 fabe 170e 51be 1fa6 92be
00000150: 4651 e7bd 4022 aebe 3bb5 9bbe 0ea4 1cbe
00000160: 48c7 87be 7ae3 10be 0481 14be 78c0 b1be
00000170: 47b9 13be 5e31 7dbd a7e1 8ebe aeab aebe
00000180: 5c0c 08be b074 acbe dcc1 bcbe d718 24be
00000190: 0d67 adbe 7ffa 66be 52f6 bcbc f1db 04bf
000001a0: f03c f6be d565 6abe 9350 c8be 75cf e1be
000001b0: 8d6c 1ebe c095 cbbe 5ef0 d1bd cf7e c2be
000001c0: 0a8f 09bf a642 dbbe 7ae7 77be 0a31 47be
000001d0: 68f3 25be 1651 9cbe 5e52 f43c fa43 42be
000001e0: c94c debe 7918 febe 8405 c5bc 2886 b8be
000001f0: 2d63 dabe 0b26 7fbe afad 6fbd e370 cfbe
00000200: 8af7 3fbe ad1d 83be a4c3 9bbe 4836 f4bc
00000210: e69e d2be 2cf4 8dbe 4a8b 57be 3f1d 4ebe
00000220: 5f81 5cbe 70d5 c4bd 3922 13bd be39 83be
00000230: 59ec d3be 83f3 fdbe a528 b7be 5646 17be
00000240: 6c0c 6fbe 77c0 79be b07f 93bd 25db ddbe
00000250: de4a 21be 251f b8be 4b5c 5fbe eddc 85be
00000260: 12d7 34be 89dd bbbe 104a f2bc 4fdf 82be
00000270: 8881 85be c6a7 b9be 3870 05be cffb e7be
00000280: 0a6d e0be 1797 07bf f1e6 d8be 5b4d 92be
00000290: 685c 5bbe 2d10 76be d004 94be 363a e1be
000002a0: 26f4 c8be b1d0 09be 5b80 b3be a0a7 ccbe
000002b0: fbb7 f9be 20bf cabe 7099 b7be e846 75bd
000002c0: 53fa e7be a42a b1be b014 92be 18bd 95be
000002d0: d81e e7be 18d1 a4be 2242 aebe a5d4 08be
000002e0: 9c7b 3dbe b23b 94be 7f9c a03c 07f6 8cbe
000002f0: 6fe2 c9be 963f c4bd 08a5 6e3c 52bf 99be
00000300: 0cfa b6be 5d9e 2bbe 1760 92be 9a8c 12bf
00000310: e800 9ebe 2529 c8be e459 81be 044a 09bf
00000320: 94a8 8ebe 19af 82be 51e4 3bbe 8322 2cbe
00000330: 13f4 cabe 865f b5be dabd 43be 9d93 86be
00000340: 3564 47be a4e0 c6be 7788 01be bf87 c93c
00000350: 394d c6be 6572 1ebe b81f e8be 3d04 b8be
00000360: 12bf cdbd 978c 8bbe 3964 ac3d 3bae 51bd
00000370: 0906 f7be 4938 32bf fc66 a7be f1af b5be
00000380: 04b4 10bf 2afb adbe 3148 e9bc 8498 f0bd
00000390: 7528 ecbd 321d cdbe de8c ebbe 6c1b c9be
000003a0: f0c0 47be 7e16 65be a971 abbe e5d1 6cbe
000003b0: d4a5 e5be 48bb f1be b67f 8bbe ffca 2abe
000003c0: f4af 34bc 4459 f8bd 3dd0 c9be aa05 69be
000003d0: 36a5 03bf 5911 e7be 0292 94be 38dc 9cbd
000003e0: 8e66 94bd 9b4d 80be 4a58 0dbf e494 8bbe
000003f0: efb2 afbe c1ab d0be 0ac1 b5bd 5c92 ccbe

fc2.weight f4 [300, 404]
-0.062412616 -0.0049415454 -0.018475562 0.0066895955 -0.06570414 -0.037684593 -0.05230514 -0.03411445
0.09717356 -0.08682503 -0.046517998 0.004602378 -0.02452922 -0.019570345 0.047164656 0.018987095
-0.05611667 -0.008763559 -0.07032685 -0.10445002 -0.042008515 -0.09981725 -0.095122404 -0.012439658
-0.08639587 -0.010934893 -0.0447238 -0.03343914 -0.0024668097 -0.028154377 -0.07806683 -0.030082393
-0.025821192 -0.034616522 -0.12592573 0.005595816 -0.0058622235 0.019759066 -0.020359922 -0.05893257
-0.0007591365 0.012196292 -0.051745668 -0.04757862 -0.16607109 -0.10870793 -0.110009305 -0.09311833
0.020997342 -0.05903859 0.031596716 -0.07661179 0.021001583 -0.04882853 -0.08990591 0.034404855
0.037985917 0.0256827 -0.018941063 -0.065586805 0.029637212 0.031541117 -0.023216296 0.034577608
-0.034408316 0.027202819 0.015862154 0.022901814 0.0055412846 0.055740014 -0.08876789 -0.108812466
-0.082930796 -0.07225888 -0.037478656 0.07132775 0.014202325 0.003174646 -0.044459935 -0.06366764
0.011027571 -0.07951642 0.0020188019 -0.12598895 -0.05473281 -0.060895614 -0.090114966 0.020188065
-0.010003411 0.0031909295 -0.02016535 -0.026327506 -0.012898689 0.007396018 -0.04269501 -0.0064084795
-0.009020371 -0.032048915 -0.038500823 0.023894 0.020399958 -0.056897264 -0.04471698 -0.056069154
-0.021564214 -0.107191436 0.043462504 -0.022533061 -0.03258275 0.014788558 -0.054592043 0.03704657
-0.016693732 0.050050166 -0.08841792 -0.06952176 -0.011265258 0.0046592643 -0.02583347 0.039804164
-0.040141486 -0.026136894 -0.020189386 -0.07343572 -0.12788849 -0.048967496 -0.004653028 -0.046648566
0.009662407 -0.04282017 0.014631324 -0.03789525 -0.04110274 0.016161218 -0.049862243 -0.0069840583
-0.04656228 -0.04752384 -0.02154945 -0.07760544 -0.051740155 -0.08984743 -0.04086579 -0.036735557
-0.048247796 -0.012881859 -0.039958816 -0.019220807 -0.038018662 -0.023976084 -0.004189593 -0.016337406
-0.13448071 -0.033704475 -0.061013352 -0.019267377 -0.075886376 -0.07747849 -0.094014734 -0.066245586
0.012841503 -0.07698999 -0.09211516 -0.0020167986 -0.021178616 -0.04033071 0.004282149 0.018492546
0.014818177 -0.012393444 -0.012663245 -0.07671315 -0.04904311 0.017725743 0.0107771875 -0.06535543
-0.050489865 0.016641885 -0.03703587 -0.08697784 -0.071829066 -0.09935786 -0.13438593 -0.057222817
-0.07592665 -0.043178707 -0.00051220466 -0.0032808396 -0.059259325 -0.080698274 -0.07115677 -0.026010865
-0.051496852 -0.03870008 -0.031456277 -0.013324589 -0.048595414 -0.010301318 -0.03139205 -0.08321917
-0.025508864 -0.07721092 -0.015810788 0.01766863 -0.097863704 -0.04924911 -0.058038086 -0.015855644
-0.03431951 0.008866688 -0.007962341 -0.051584434 0.018086666 0.02733112 -0.088879734 -0.09249896
-0.026262764 0.016081518 0.045858636 -0.0049068914 0.00019270144 -0.03984268 -0.026733255 -0.07415623
0.008343942 -0.012532632 0.008667607 -0.039523974 -0.009023719 0.023323523 -0.06245581 -0.0022802064
0.028974015 -0.07606758 0.06593421 -0.037621792 -0.09691819 -0.043340478 -0.02646228 -0.019944593
-0.024635043 -0.024745574 -0.0758657 -0.081329964 -0.0119680455 0.0872886 -0.0039782193 -0.011230117
-0.00016093675 -0.020555548 -0.055461034 -0.005678762 -0.019834073 -0.062608205 0.015248824 -0.14056963
00000000: 5fa4 7fbd b0ec a1bb 105a 97bc 6534 db3b
00000010: e48f 86bd 295b 1abd ea3d 56bd 98bb 0bbd
00000020: ee02 c73d 52d1 b1bd a889 3ebd 8bcf 963b
00000030: 81f1 c8bc fd51 a0bc ba2f 413d d38a 9b3c
00000040: 98da 65bd 0895 0fbc 8607 90bd e4e9 d5bd
00000050: 1f11 2cbd fd6c ccbd 89cf c2bd b5cf 4bbc
00000060: 51f0 b0bd 4428 33bc 4e30 37bd 7bf7 08bd
00000070: 33aa 21bb 02a4 e6bc 81e1 9fbd 5a6f f6bc
00000080: f786 d3bc 0eca 0dbd adf2 00be 1b5d b73b
00000090: e517 c0bb c4dd a13c dac9 a6bc 4763 71bd
000000a0: ca00 47ba f5d2 473c 44f3 53bd cde1 42bd
000000b0: 8a0e 2abe 43a2 debd 8f4c e1bd d3b4 bebd
000000c0: 9e02 ac3c 73d2 71bd 8f6b 013d a4e6 9cbd
000000d0: 830b ac3c 6d00 48bd 9720 b8bd 1bec 0c3d
000000e0: 1f97 1b3d 8764 d23c 4a2a 9bbc 6052 86bd
000000f0: bdc9 f23c 4231 013d 1a30 bebc 40a1 0d3d
00000100: bcef 0cbd 72d8 de3c 59f1 813c 969c bb3c
00000110: aa93 b53b a44f 643d f1cb b5bd 12d9 debd
00000120: 9fd7 a9bd 77fc 93bd 3883 19bd 4914 923d
00000130: deb0 683c b90d 503b 9f1b 36bd 2e64 82bd
00000140: fcac 343c 81d9 a2bd e04d 043b 3f03 01be
00000150: 832f 60bd ae6d 79bd 328e b8bd 7161 a53c
00000160: 59e5 23bc ea1e 513b ce31 a5bc c8ac d7bc
00000170: 0655 53bc 4c5a f23b f6e0 2ebd 39fe d1bb
00000180: 2eca 13bc b945 03bd 0ab3 1dbd 5abd c33c
00000190: d01d a73c 1b0d 69bd 2729 37bd c5a8 65bd
000001a0: 6fa7 b0bc 2f87 dbbd bd05 323d 4197 b8bc
000001b0: 7d75 05bd b54b 723c e89b 5fbd 25be 173d
000001c0: 4bc1 88bc 6701 4d3d 7414 b5bd 6d61 8ebd
000001d0: eb91 38bc beac 983b b7a0 d3bc b109 233d
000001e0: 666b 24bd 0a1d d6bc 3664 a5bc 7765 96bd
000001f0: 33f5 02be 2492 48bd 6e78 98bb 9112 3fbd
00000200: 134f 1e3c 3464 2fbd 39b8 6f3c 0d38 1bbd
00000210: 595b 28bd 8864 843c 5a3c 4cbd 87da e4bb
00000220: 17b8 3ebd 5ca8 42bd 7988 b0bc 9aef 9ebd
00000230: 7ced 53bd ee01 b8bd e362 27bd 0678 16bd
00000240: 7b9f 45bd 6f0e 53bc dbab 23bd f474 9dbc
00000250: 75b9 1bbd 7e69 c4bc da48 89bb 06d6 85bc
00000260: 50b5 09be b40d 0abd 23e9 79bd 9ed6 9dbc
00000270: 516a 9bbd 0bad 9ebd cc8a c0bd c4ab 87bd
00000280: 2b65 523c eeac 9dbd dfa6 bcbd 442c 04bb
00000290: c77e adbc d131 25bd 4551 8c3b ae7d 973c
000002a0: f0c7 723c df0d 4bbc 8079 4fbc c91b 9dbd
000002b0: 6ee1 48bd 9435 913c cd92 303c 11d9 85bd
000002c0: 76ce 4ebd 9054 883c edb2 17bd 7021 b2bd
000002d0: 1e1b 93bd 227c cbbd 779c 09be 7962 6abd
000002e0: 6e7f 9bbd 28dc 30bd 7945 06ba 5b03 57bb
000002f0: e8b9 72bd 2345 a5bd a4ba 91bd bd14 d5bc
00000300: 5dee 52bd fa83 1ebd 4cd8 00bd 604f 5abc
00000310: fc0b 47bd dcc6 28bc f394 00bd d06e aabd
00000320: f7f7 d0bc c220 9ebd a085 81bc cebd 903c
00000330: c46c c8bd 6fb9 49bd 58b9 6dbd b2e3 81bc
00000340: 9d92 0cbd 9645 113c 7b74 02bc 334a 53bd
00000350: 7d2a 943c 83e5 df3c 9406 b6bd 1870 bdbd
00000360: 0225 d7bc 63bd 833c 44d6 3b3d fdc9 a0bb
00000370: e60f 4a39 1432 23bd b3ff dabc 39df 97bd
00000380: 08b5 083c ab55 4dbc 9402 0e3c e4e3 21bd
00000390: 38d8 13bc f910 bf3c aad1 7fbd 846f 15bb
000003a0: ea5a ed3c 52c9 9bbd 8408 873d 4f19 1abd
000003b0: 0b7d c6bd c985 31bd 6cc7 d8bc d862 a3bc
000003c0: 6ecf c9bc 3bb7 cabc 7a5f 9bbd 5390 a6bd
000003d0: 9f15 44bc 5ec4 b23d b95b 82bb 86fe 37bc
000003e0: 21c1 28b9 1c64 a8bc 1c2b 63bd e914 babb
000003f0: 117b a2bc bb38 80bd 34d6 793c 7cf1 0fbe

fc2.bias f4 [300]
-0.07493522 -0.055411644 1.2468659 -0.04211162 -0.14007631 -0.076371334 0.50147283 0.35063747
0.12984054 -0.20930643 -0.08849905 -0.1755502 -0.067525335 0.01981863 0.20754924 -0.34987253
0.35571098 -0.08083963 0.21180448 -0.040038224 -0.04671237 -0.10855456 -0.08045464 -0.35552096
-0.122954346 -0.11182177 -0.0043730037 -0.09631741 0.014382134 -0.11252195 -0.052758858 0.37589636
-0.13430776 -0.109297924 -0.13508466 -0.3288977 -0.44182748 0.18725437 0.018966943 -0.0811775
-0.10302862 -0.060346913 -0.06420476 0.20981501 0.35402784 -0.09786547 -0.035624098 -0.1161399
-0.04724339 -0.07669057 -0.12499243 -0.067433886 -0.26563278 -0.15335742 -0.20828071 0.14503035
-0.0526774 -0.17431293 0.057582304 -0.099360175 -0.067537844 -0.06823379 -0.12488942 -0.041545663
0.08095985 -0.102780916 -0.31885067 -0.048845284 0.5094907 -0.14942773 -0.3947924 -0.27116045
-0.028732045 -0.37369153 -0.062329642 0.02844669 -0.023784056 -0.34160691 0.5090034 0.06992074
-0.110921726 -0.04464063 0.28642386 -0.30606312 -0.03569877 -0.41552082 -0.05691131 -0.08448743
0.16789727 0.241539 -0.10726031 0.011962696 0.24529603 -0.11114936 -0.2376608 -0.07732695
-0.32878765 -0.08732089 -0.13721469 -0.16502345 0.30021647 -0.08446291 -0.3755933 -0.08952613
0.44357187 -0.07364353 -0.02268061 0.26475048 -0.23748603 -0.03176396 -0.1749267 -0.063945875
0.6450774 -0.18852028 -0.035611834 -0.03455884 -0.28881124 0.33208445 0.74165493 -0.3592524
0.06768005 -0.005747763 -0.15006854 -0.054185778 -0.053842 0.1677592 -0.3014301 -0.24538682
-0.12811582 -0.4095789 -0.21872218 0.2498307 -0.5232552 0.26493493 0.25133172 -0.21085913
-0.011979305 -0.38043827 -0.06381707 -0.00942297 -0.4777456 0.41438437 -0.08873375 -0.062763445
0.0782067 -0.334912 -0.096908405 0.259701 -0.07662939 -0.06319146 -0.06291257 -0.0687838
-0.27299875 -0.087365635 -0.07319187 -0.18740179 0.07337526 -0.1579897 0.43974844 -0.0851381
-0.5163993 0.11152106 -0.32482216 0.023090376 -0.15125322 0.5773176 0.7398986 -0.08275992
0.5454475 -0.2205177 -0.518433 0.08398528 0.0043235547 0.48723385 -0.093072474 0.33777133
0.45010546 -0.46954387 -0.14621323 0.13539593 -0.02566121 0.0786387 -0.21755771 0.2205913
0.40303892 -0.19280185 0.11113978 -0.18969256 -0.12094743 -0.001214895 0.07534039 0.51801986
0.11144416 -0.11307047 -0.30023757 -0.2593961 -0.061127946 -0.053838044 -0.18342058 -0.10803414
-0.030360496 -0.37522927 0.438185 -0.04006966 -0.04146167 -0.08817659 -0.021555826 0.4987857
-0.067690626 0.3661869 0.34721568 -0.05565742 -0.27486613 0.4627669 -0.20128585 -0.09460713
-0.053968012 -0.1425252 -0.039663106 -0.36185676 -0.18031019 0.06008359 -0.115056306 -0.17354089
0.301204 -0.3968 -0.29647088 -0.12790938 -0.07826181 -0.11795643 -0.072695 -0.2771727
0.21077201 -0.070714146 0.26450855 0.22292896 -0.046644885 -0.34386587 -0.07640009 -0.18564643
-0.075486794 0.041951917 -0.092890225 -0.07054049 -0.07182634 -0.094755195 -0.2742244 -0.0473811
0.19757108 -0.10345305 -0.02806683 -0.053157005 -0.07714966 0.120284215 -0.034719385 -0.2797229
00000000: a377 99bd 52f7 62bd 4d99 9f3f 3c7d 2cbd
00000010: 2a70 0fbe 9368 9cbd 8660 003f c186 b33e
00000020: ebf4 043e 6d54 56be fd3e b5bd 6ec3 33be
00000030: b94a 8abd ae5a a23c ca87 543e 7e22 b3be
00000040: c01f b63e 3f8f a5bd 46e3 583e 1fff 23bd
00000050: 7855 3fbd da51 debd 67c5 a4bd d806 b6be
00000060: 7dcf fbbd d002 e5bd 6a4b 8fbb 1042 c5bd
00000070: 0ba3 6b3c e871 e6bd ac19 58bd 7d75 c03e
00000080: f987 09be 97d7 dfbd a253 0abe 4865 a8be
00000090: 3637 e2be 9cbf 3f3e 9060 9b3c 6440 a6bd
000000a0: ab00 d3bd 532e 77bd c97d 83bd bfd9 563e
000000b0: 2343 b53e b16d c8bd 93ea 11bd c2da edbd
000000c0: 4982 41bd f20f 9dbd 08fc ffbd c71a 8abd
000000d0: 0501 88be ba09 1dbe 8a47 55be d682 143e
000000e0: 42c4 57bd 177f 32be 6cdb 6b3d 597d cbbd
000000f0: 4851 8abd 28be 8bbd 06c6 ffbd c92b 2abd
00000100: 47ce a53d cd7e d2bd 6540 a3be fe11 48bd
00000110: fc6d 023f 9503 19be 3b22 cabe 8bd5 8abe
00000120: 775f ebbc 7f54 bfbe 5e4d 7fbd 0809 e93c
00000130: c8d6 c2bc 1ae7 aebe 0c4e 023f 9b32 8f3d
00000140: ee2a e3bd 18d9 36bd 26a6 923e 4eb4 9cbe
00000150: e038 12bd 25bf d4be d51b 69bd bf07 adbd
00000160: 43ed 2b3e 0056 773e 4bab dbbd 2fff 433c
00000170: e22e 7b3e 47a2 e3bd 5a5d 73be 985d 9ebd
00000180: db56 a8be 4bd5 b2bd 0282 0cbe e8fb 28be
00000190: f9b5 993e e4fa acbd c44d c0be 7a59 b7bd
000001a0: da1b e33e 6bd2 96bd b0cc b9bc 608d 873e
000001b0: 8a2f 73be ed1a 02bd fc1f 33be 0ef6 82bd
000001c0: cb23 253f 760b 41be b7dd 11bd 928d 0dbd
000001d0: 11df 93be f906 aa3e 19dd 3d3f eeef b7be
000001e0: d79b 8a3d bb57 bcbb 91ab 19be e8f1 5dbd
000001f0: 6e89 5cbd 11c9 2b3e 0c55 9abe af46 7bbe
00000200: cb30 03be 53b4 d1be b5f8 5fbe 9ed3 7f3e
00000210: 0ef4 05bf 8da5 873e 8dae 803e 75eb 57be
00000220: d944 44bc cec8 c2be 86b2 82bd cd62 1abc
00000230: 129b f4be 302a d43e 0aba b5bd 1f8a 80bd
00000240: d62a a03d 9679 abbe ea77 c6bd 88f7 843e
00000250: dfef 9cbd 866a 81bd 4ed8 80bd 85de 8cbd
00000260: 7ec6 8bbe c1ec b2bd 9ee5 95bd 41e6 3fbe
00000270: c545 963d 0dc8 21be b526 e13e e25c aebd
00000280: bf32 04bf 2765 e43d 174f a6be 0728 bd3c
00000290: 20e2 1abe 16cb 133f ff69 3d3f 087e a9bd
000002a0: 73a2 0b3f 64cf 61be 06b8 04bf 7900 ac3d
000002b0: 9bac 8d3b b776 f93e c89c bebd 5df0 ac3e
000002c0: 3974 e63e 0e68 f0be ecb8 15be 3ba5 0a3e
000002d0: 7537 d2bc 540d a13d 73c7 5ebe b0e2 613e
000002e0: 1e5b ce3e d96d 45be 419d e33d c43e 42be
000002f0: 49b3 f7bd 1d3d 9fba 104c 9a3d f39c 043f
00000300: d63c e43d 7e91 e7bd bdb8 99be 91cf 84be
00000310: 4c61 7abd 4885 5cbd 9bd2 3bbe 0141 ddbd
00000320: 93b6 f8bc 0d1e c0be c959 e03e 1520 24bd
00000330: b6d3 29bd ee95 b4bd d895 b0bc d760 ff3e
00000340: 62a1 8abd d97c bb3e 41c6 b13e 09f9 63bd
00000350: 41bb 8cbe c8ef ec3e e11d 4ebe 62c1 c1bd
00000360: 900d 5dbd 20f2 11be c875 22bd 4a45 b9be
00000370: 3ca3 38be 361a 763d a4a2 ebbd b4b4 31be
00000380: 6937 9a3e 5f29 cbbe 08cb 97be adfa 02be
00000390: ba47 a0bd 2493 f1bd 1ee1 94bd 95e9 8dbe
000003a0: 9ed4 573e 94d2 90bd aa6d 873e 7d47 643e
000003b0: b50e 3fbd 300f b0be a677 9cbd 191a 3ebe
000003c0: d298 9abd c6d5 2b3d 3b3d bebd 8877 90bd
000003d0: b019 93bd 030f c2bd 2467 8cbe af12 42bd
000003e0: 1350 4a3e 31df d3bd 69ec e5bc 29bb 59bd
000003f0: a400 9ebd 9257 f63d ea35 0ebd d737 8fbe

fc3.weight f4 [1, 300]
-0.040681984 -0.0023818682 0.3281957 -0.024106845 0.030708006 0.019667178 0.053927876 0.018705923
0.058963533 -0.22236599 -0.0022263888 -0.044236697 0.14605002 0.09039613 0.04881279 -0.097341046
0.049922314 -0.052303698 0.065878816 0.0049365642 -0.05694704 0.10832031 0.0084069995 -0.08953447
-0.102514595 -0.111356266 -0.28713012 -0.026927609 0.042321913 -0.10475916 0.0012910347 0.04563555
-0.3364187 -0.16540632 -0.08415412 -0.049641043 -0.039598458 0.06664995 0.06093588 0.013552724
-0.07998817 0.0996163 0.0067270785 0.029723195 0.049586695 -0.031227225 0.10821149 -0.017301524
0.020480745 -0.03303593 -0.013810597 0.0069364686 -0.03782114 -0.012312735 -0.09255299 0.06751933
-0.026897458 -0.07634045 -0.11170064 0.00077682384 -0.061497994 0.021572594 0.030153742 0.02853355
0.050161798 -0.072676495 -0.055766646 -0.00039553855 0.05521998 -0.16148469 -0.077514775 -0.042086266
-0.19394325 -0.046273746 -0.010575149 -0.05560199 -0.015136185 -0.031137528 0.049364984 0.044826288
-0.09673256 0.010627848 0.061257523 -0.054019403 -0.14601487 -0.04222537 -0.023002105 0.025794858
0.05264141 0.03045616 0.04992073 0.11294866 0.038779892 0.020176612 -0.03791337 -0.106764406
-0.043133475 -0.008964502 -0.25126362 0.058870204 0.056646027 0.0019845122 -0.046342183 0.1003892
0.033018287 -0.0029260013 -0.11844363 0.04066016 -0.04213738 0.00412396 -0.18567817 -0.14074497
0.04551872 0.01598338 0.026829349 -0.003932923 -0.042140987 0.05632288 0.17394546 -0.041018985
0.15849888 0.05956333 -0.15905775 -0.0037634014 0.011683822 0.07399657 -0.25491753 -0.038065065
-0.29347488 -0.06212189 -0.34072068 0.037853412 -0.055482544 0.04806822 0.054611254 -0.15972118
0.22746709 -0.051068135 0.029510934 -0.03730855 -0.086353995 0.05556202 -0.021936875 0.005883585
0.053517487 -0.11612752 -0.008288407 0.046490215 -0.00017276219 -0.29558554 -0.3870729 0.01975571
-0.06207753 0.015682327 0.0036218748 -0.10320119 0.053146277 -0.042952273 0.05171841 -0.06880108
-0.09376196 0.056009978 -0.11769231 0.03592576 -0.05021935 0.08471359 0.07179024 -0.26509398
0.04189477 -0.14379364 -0.06674895 0.073928975 -0.09468556 0.064350516 -0.025574079 0.06702251
0.049910035 -0.041286465 -0.1980228 0.07598748 -0.013768174 0.21858592 -0.16757783 0.053531565
0.08472281 -0.09486029 0.062579386 -0.106770456 -0.005661733 0.04250819 0.0652156 0.07130064
0.071717374 -0.012271164 -0.1348967 -0.052223958 0.0012760594 0.008442415 -0.13952366 0.0049815862
0.021112941 -0.047156706 0.052397367 -0.024441944 0.009166097 -0.0084045455 0.00014525678 0.042316217
-0.013030347 0.060649414 0.05244997 0.0022941823 -0.27791297 0.033910114 -0.08867689 -0.15617776
0.0042098532 0.10974039 0.014229105 -0.06485682 -0.039740607 -0.065434314 0.006439218 0.0029626405
0.044989724 -0.055451155 -0.17967284 -0.13104679 0.0018669796 0.0010766768 -0.00045535876 -0.101769425
0.044713724 0.07026156 0.03841816 0.022029461 0.01390733 -0.071589336 0.013743927 -0.07892062
-0.015920691 0.0581121 -0.013321316 -0.016095784 0.024874406 0.0021445132 -0.10352936 0.018660014
0.046531282 0.009427948 -0.09361356 -0.0150555745 -0.031152831 0.07457125 0.029804777 -0.09307841
00000000: 27a2 26bd 1e19 1cbb 4409 a83e b87b c5bc
00000010: 5b8f fb3c 101d a13c 7ae3 5c3d 2a3d 993c
00000020: bf83 713d e9b3 63be 9be8 11bb 8a31 35bd
00000030: 238e 153e 9b21 b93d ecef 473d be5a c7bd
00000040: 577b 4c3d 673c 56bd 79eb 863d e7c2 a13b
00000050: 4d41 69bd 0ad7 dd3d 83bd 093c d95d b7bd
00000060: 2cf3 d1bd c10e e4bd b802 93be 4a97 dcbc
00000070: be59 2d3d f88b d6bd f037 a93a 58ec 3a3d
00000080: 123f acbe 4660 29be ff58 acbd 6854 4bbd
00000090: fe31 22bd c57f 883d e797 793d 3f0c 5e3c
000000a0: d6d0 a3bd a103 cc3d d36e dc3b 0f7e f33c
000000b0: 6b1b 4b3d 3dd0 ffbc fc9d dd3d edbb 8dbc
000000c0: 3cc7 a73c af50 07bd d845 62bc 514b e33b
000000d0: 57ea 1abd 5bbb 49bc 6c8c bdbd 9347 8a3d
000000e0: 0f58 dcbc 6258 9cbd 4ec3 e4bd c4a3 4b3a
000000f0: 52e5 7bbd 02b9 b03c fb04 f73c 31bf e93c
00000100: 7576 4d3d 6ad7 94bd 916b 64bd 4960 cfb9
00000110: 592e 623d 3e5c 25be 11c0 9ebd a662 2cbd
00000120: 0f99 46be 8a89 3dbd 6443 2dbc eabe 63bd
00000130: c3fd 77bc 2114 ffbc f032 4a3d c59b 373d
00000140: b81b c6bd 6d20 2e3c 2be9 7a3d 7343 5dbd
00000150: ec84 15be 82f4 2cbd e96e bcbc bd4f d33c
00000160: 859e 573d 327f f93c ae79 4c3d a151 e73d
00000170: aad7 1e3d 6c49 a53c 0d4b 1bbd 4ca7 dabd
00000180: baac 30bd d9df 12bc a0a5 80be e221 713d
00000190: aa05 683d 970e 023b 4dd1 3dbd da98 cd3d
000001a0: 2f3e 073d 28c2 3fbb 9392 f2bd 458b 263d
000001b0: 3f98 2cbd 4922 873b 6b22 3ebe 731f 10be
000001c0: d671 3a3d 94ef 823c 39c9 db3c c0df 80bb
000001d0: 079c 2cbd d2b2 663d c21e 323e 8603 28bd
000001e0: 884d 223e aef8 733d 09e0 22be 66a3 76bb
000001f0: 806d 3f3c 848b 973d 8d84 82be 1dea 1bbd
00000200: 5742 96be 8673 7ebd f172 aebe 2e0c 1b3d
00000210: aa41 63bd 2fe3 443d 0db0 5f3d f38d 23be
00000220: 22ed 683e d22c 51bd eac0 f13c dad0 18bd
00000230: 5dda b0bd 0095 633d f6b4 b3bc 17cb c03b
00000240: 2735 5b3d 44d4 edbd 19cc 07bc 866c 3e3d
00000250: 7f27 35b9 fd56 97be 6b2e c6be bad6 a13c
00000260: 0245 7ebd 3978 803c fa5c 6d3b 255b d3bd
00000270: e9af 593d b9ee 2fbd afd6 533d 95e7 8cbd
00000280: 4506 c0bd b86a 653d aa08 f1bd e426 133d
00000290: ceb2 4dbd 527e ad3d c306 933d 66ba 87be
000002a0: da99 2b3d a43e 13be acb3 88bd 1368 973d
000002b0: 81ea c1bd 34ca 833d bb80 d1bc 1943 893d
000002c0: 776e 4c3d ff1b 29bd 7dc6 4abe 539f 9b3d
000002d0: e893 61bc fdd4 5f3e 8699 2bbe ea43 5b3d
000002e0: 2783 ad3d 1d46 c2bd 9f29 803d 78aa dabd
000002f0: 0f86 b9bb 111d 2e3d c28f 853d 1206 923d
00000300: 8fe0 923d fe0c 49bc 5c22 0abe cae8 55bd
00000310: 7341 a73a 0e52 0a3c 4adf 0ebe 933c a33b
00000320: 0cf5 ac3c 6427 41bd 9f9e 563d 793a c8bc
00000330: 662d 163c 38b3 09bc 1250 1839 c553 2d3d
00000340: 3d7d 55bc 856b 783d c8d5 563d fe59 163b
00000350: 9c4a 8ebe 55e5 0a3d 3b9c b5bd 10ed 1fbe
00000360: cff2 893b 92bf e03d 3121 693c a7d3 84bd
00000370: 0cc7 22bd 6d02 86bd 1300 d33b dc28 423b
00000380: 2547 383d c020 63bd 28fc 37be 2131 06be
00000390: 71b5 f43a 471f 8d3a 38bd eeb9 7d6c d0bd
000003a0: bd25 373d 4be5 8f3d 5c5c 1d3d 2177 b43c
000003b0: 92db 633c 6e9d 92bd 352e 613c 22a1 a1bd
000003c0: 1c6c 82bc f406 6e3d a641 5abc 4edb 83bc
000003d0: 69c5 cb3c f68a 0c3b 3307 d4bd e3dc 983c
000003e0: 9697 3e3d ae77 1a3c 77b8 bfbd a8ab 76bc
000003f0: 3934 ffbc d0b8 983d 2629 f43c e59f bebd
