Navigation/Nets/sucessful_networkDDQN.pth (torch_old, 38486 bytes, 11 tensors)

fc1_val.weight f4 [64, 37]
00000000: 90da e93d e0a1 8a3c ee9e b63c d6bb 7dbc
00000010: 2ded a1bc 16c4 8c3e 2d7b 0d3d 1e81 2bbe
00000020: 6735 91bd e25a acbd 85f9 e03d 39c2 653d
00000030: 60c5 d23b 596a 2ebd 1211 d73c a770 013e
00000040: 06d4 c2bb 7ece 5ebd 8673 8cbe d752 c4bc
00000050: d805 873e 05a9 d23d 8d50 54be e0bd b8bd
00000060: f21f 51be 879a 813c f67d d93d f898 19bd
00000070: 8227 ac3d cac9 97bb 6c6b 533e f93b 1e3e
00000080: 5a23 88be 585b 553d cee3 7bbe 39ee 443d
00000090: 1994 b53d f652 2bbe aaa5 1ebd 5903 a1bc
000000a0: 3264 b23c 7d1c 253c 52de a13d 080c 39be
000000b0: f0a2 90bd 4b78 95bc 5e7f 94be 63c9 263e
000000c0: f5eb 65be 4c0e 04be c7b1 ee3b 839c 68be
000000d0: 67c2 e33d 1cc9 fb3d 317b f5bd d411 863d
000000e0: 2df6 013d 6b7a 4ebd 5a50 a43e 920b 4ebe
000000f0: aadc e83d 4cba a83d c0cc ab3b f0ec 9a3e
00000100: 90ac 43be c953 a1bd e2d2 0b3b d555 663d
00000110: 9700 87be b11b 613d 6f94 4ebe f417 4cbd
00000120: 69b5 463e 9115 c83d b410 a8be 7991 52bd
00000130: 4b78 43bd f736 67be 9571 a6be 8637 babd
00000140: c7cd 8d3d e5f0 2d3e 0874 13be 80bd 0abf
00000150: 04ec e73c e42c d0be e2ab c3bd 6aac 033e
00000160: 7685 3fbe e7f0 8ebe 1eb1 8abe 6715 a43c
00000170: 942c 66bd 940f b8be 4572 393d b73a 8dbb
00000180: 8ebe 2c3e f7fb 89be 66d4 eb3c b4f1 12be
00000190: 2089 fdbe a344 283e 864c 86bd abf3 20bf
000001a0: a3d5 98bd f731 c7bd 0f8c 963c f3be a9be
000001b0: b893 523c 17f2 c43d 4edf 2fbd 9042 973e
000001c0: 21e3 82be e0fd 8cbe 5ecc fbbe f8f3 84bf
000001d0: e3e2 88bc f88f ccbe e517 f63d 72ba 743b
000001e0: 8c44 cd3d 7d37 bfbd 7c3c b1bd 1fdf 01bf
000001f0: c907 04be 93e3 5bbe 8fd0 663d f458 be3d
00000200: 8481 6cbe f4c8 1abe fb41 80be f983 9dbe
00000210: ed21 e33d 5524 653e cdcb 00be 852d 19be
00000220: 42f7 65be e777 093d 8637 e13d 434c 48be
00000230: 6797 00be e98b afbe 5e22 77be 137a ef3d
00000240: 9efd 8bbc c177 75bc a226 2c3e 17e0 d1bb
00000250: 703e 2c3e d584 ffbc 8fcf 81be ab99 2f3d
00000260: d55e 6dbe f0d9 ddbd d153 b83d 07b9 3e3e
00000270: e9f5 ddbd 5799 023d 45ad 533d 92bd eabc
00000280: 2102 f5bd 55ea babd e309 9ebe d3e7 603e
00000290: 2f9e 3a3d 2416 efbc b753 c4be f9da 82be
000002a0: dd0c 6e3e ff24 3f3d c447 f5bb f9e7 fd3d
000002b0: f1b8 85be 9fca 663d 47bc 123e 9f1c 45bd
000002c0: 4c87 71bd 69bf d9bd 7357 b2bd d68c 8b3d
000002d0: ef64 433e 650a 563d bee0 553e 8429 333d
000002e0: b29c 593b 93ce 6dbe e1c5 8cbd 90f3 c4bc
000002f0: 2a3d f73d bdb2 4dbe 09db 15be 4653 153d
00000300: 18f1 c6bc 127f 2e3d 5582 d23e 1c1f 31bd
00000310: e677 bebe 70e2 4c3e 4927 453e b39b 7c3d
00000320: e791 943d 6ad0 53bc 5aaf 67bd cbdf 733e
00000330: 2639 2e3d 8bd6 123e f723 95bd f474 0fbe
00000340: dfa0 843c 5101 cb3e e822 19be 9ff8 dfbd
00000350: 003a 3bbe 8e2b 46bc f30a 3fbc cf87 c73a
00000360: 1af5 b1be b2a0 9c3d f30b a03e db04 2b3e
00000370: 36fb c73d 48cc fa3c 8fb0 39bd 0df3 9e3d
00000380: 6183 d9bd 003b 2a3e c689 b03e fe8c 1f3d
00000390: 60dc b8bd 64cf 843d 6cf0 07be a877 25be
000003a0: 63ef 27be 5d35 923d a603 c3bc 052d 6ebc
000003b0: d52f 5fbd 70fb 163d f94e b3be 8e7e d93d
000003c0: b280 3b3e eb16 7e3d e63b 6bbe 7db3 9f3d
000003d0: 2a51 a7bd a7d2 c5be f27e 0b3e a284 fd3b
000003e0: e347 26be 3db2 2d3e 7cab 033e 439a 55be
000003f0: 5de0 fb3d b6a3 6f3d 9b2c 54be 9c33 ab3b
0.114186406 0.016922891 0.02229258 -0.015486678 -0.019766415 0.27493352 0.034541298 -0.16748473
-0.07090264 -0.08415772 0.10985092 0.05609343 0.0064322203 -0.04258189 0.026253257 0.1264063
-0.0059456853 -0.054396145 -0.27431887 -0.023965282 0.26371646 0.10286144 -0.20733853 -0.09020591
-0.20422342 0.015820755 0.10619728 -0.037499398 0.08405973 -0.0046322094 0.20646447 0.15452565
-0.2658947 0.052089065 -0.2459862 0.04807875 0.08866138 -0.16730866 -0.03873221 -0.019654917
0.021776292 0.010077593 0.07903732 -0.18070996 -0.07062328 -0.018245837 -0.29003423 0.1628776
-0.22453292 -0.12896079 0.0072843763 -0.22715954 0.11121064 0.12294218 -0.119863875 0.06546369
0.031728912 -0.050409716 0.32092553 -0.20121601 0.11370213 0.08238658 0.005242914 0.30258894
-0.19108796 -0.07877309 0.0021335413 0.0562342 -0.26367638 0.05495805 -0.2017381 -0.04982753
0.1940514 0.097697385 -0.32825243 -0.051408265 -0.047722142 -0.22579561 -0.3250853 -0.090926215
0.069240145 0.16986425 -0.14399731 -0.54195404 0.028310783 -0.4065925 -0.095542684 0.1285874
-0.18703255 -0.2791817 -0.27088255 0.020029737 -0.056194857 -0.35949385 0.04527499 -0.004309978
0.16869566 -0.26950046 0.028787803 -0.14350015 -0.4951868 0.16432433 -0.065575644 -0.6287181
-0.07462623 -0.09726327 0.018377332 -0.33153495 0.012852602 0.096164875 -0.04293757 0.2954297
-0.2556391 -0.2753744 -0.49179357 -1.0386953 -0.01670975 -0.3995359 0.12016276 0.0037342575
0.1002284 -0.093367554 -0.086541146 -0.5073108 -0.12893595 -0.21473531 0.05635124 0.0929431
-0.23096281 -0.1511572 -0.2505034 -0.3076475 0.11090455 0.22377141 -0.12577744 -0.1495877
-0.22457603 0.033561613 0.109969184 -0.19560342 -0.12557755 -0.3428643 -0.24134204 0.11693206
-0.017088708 -0.014982165 0.16811612 -0.0064048874 0.16820693 -0.031191269 -0.25353667 0.04287116
-0.23180707 -0.10832584 0.09000362 0.1862527 -0.10837919 0.031884518 0.051678915 -0.028654847
-0.11963297 -0.091267265 -0.30866918 0.21963434 0.045561012 -0.029185362 -0.3834512 -0.25557688
0.23247094 0.04666614 -0.007485362 0.12397761 -0.26117662 0.05634558 0.14329635 -0.048123
-0.05896692 -0.10632212 -0.08708086 0.06813972 0.19081472 0.052256007 0.20886514 0.043740764
0.003320497 -0.23223333 -0.0687368 -0.02404192 0.12072213 -0.20087714 -0.14634337 0.03645637
-0.024284884 0.042601652 0.4111506 -0.04324256 -0.3720085 0.20008254 0.19253267 0.061671924
0.07254391 -0.012928108 -0.056563713 0.23815839 0.04253497 0.14339654 -0.072822504 -0.14009458
0.01618999 0.39649442 -0.14954722 -0.109360926 -0.18283844 -0.012095345 -0.011660325 0.0015222969
-0.3475731 0.07647838 0.31259117 0.16701071 0.097647116 0.030614987 -0.045334395 0.07761202
-0.10620762 0.16624069 0.34480113 0.03895282 -0.09026408 0.06484869 -0.13275307 -0.16158926
-0.16399913 0.071390845 -0.02380545 -0.014537101 -0.054488976 0.036860883 -0.3502119 0.106198415
0.18310812 0.062033575 -0.22972068 0.077979065 -0.08169778 -0.38637277 0.13622645 0.0077367583
-0.1623836 0.16962524 0.12858385 -0.20859627 0.12298653 0.058505736 -0.2072014 0.005224658

fc1_val.bias f4 [64]
00000000: d65d 4b3e 5a7f 39be 860d 8d3d dec9 02be
00000010: 101e 9cbd 2836 34bd 24cd b33d 4ead 343e
00000020: 98b1 b53c a9fb 023e 3e36 703d c762 143e
00000030: 640a e6bd aa24 8f3d 8b5a 84bd 40c6 c23d
00000040: 5f24 21be fc58 a8bc 34c3 073e 4e15 523d
00000050: b2ad 1d3e f552 d5bd 52c4 25be fbfe a5bd
00000060: ac54 95bd 19c1 fc3c 6615 893d 8364 f23d
00000070: 939a 293e 302e 743d aad5 893d 49e7 bfbd
00000080: 12dd 3dbb ddfb acbd 7230 b5bb 3e14 16be
00000090: 6a71 fabc 3a3f 19be b6f9 563e 549a e7bd
000000a0: c9ed bf3d 7147 d9bd 70f7 02bd 0c4e 6f3c
000000b0: 0501 c5bc b185 a1bd 8633 8bbc f13d 1bbe
000000c0: a999 b9bc 161a 98bd fa1c 4c3d ca38 3bbe
000000d0: 8a95 ccbd 3033 f33b d0c8 073e 9745 93bc
000000e0: 6cb7 1dbe 412b f73d 2d55 bebd a2df 533e
000000f0: 00f8 933d d907 b43d bc19 273a 7bc3 233e
0.19860014 -0.18114987 0.06887345 -0.12772319 -0.076229215 -0.04399696 0.08779362 0.17644235
0.02217941 0.12791313 0.05864548 0.14490806 -0.112324506 0.06989415 -0.06462582 0.095104694
-0.1573653 -0.020550244 0.13258058 0.05128985 0.15398291 -0.104162134 -0.16188172 -0.08105274
-0.072915405 0.030853795 0.066935346 0.11835577 0.16562872 0.05961436 0.06730206 -0.09370286
-0.002897088 -0.084464766 -0.005529457 -0.1465616 -0.030571658 -0.14965525 0.20993695 -0.11308733
0.09371526 -0.106093295 -0.031974256 0.01460601 -0.024048338 -0.07886828 -0.016992342 -0.15160348
-0.022656279 -0.074268505 0.04983232 -0.18283382 -0.0998946 0.0074218735 0.13260198 -0.017977519
-0.15402001 0.12068797 -0.0929359 0.20690778 0.072250366 0.08790559 0.0006374379 0.15992539

fc2_val.weight f4 [32, 64]
00000000: baff 16be 7e59 54be 35d7 8e3d 9268 aebd
00000010: 5171 d53d fbef 4d3e 838b a2bd a5bd afbd
00000020: c4e8 d0bd 859a 8d3e 7b1a 1bbe cbba e4be
00000030: 1334 903d caba 33be b161 fa3d b127 9f3d
00000040: 1cd9 30be 7764 fbbd 6b4b 9fbd 4c4b e5be
00000050: c9fb 3b3e f347 9e3d 2c76 d5bb 4ac7 afbd
00000060: dd48 8ebd f98c 553c c9f6 a13d 312a 8f3d
00000070: 19f9 193d 24e9 8b3d b586 35be a292 143e
00000080: ae93 8fbe 36cd b63b 982e 42bc 0370 3c3d
00000090: cf5e 0c3c 6648 c5bd 161d 9b3e a89b 2ebf
000000a0: f28e 203e 4c1a a3bd 0dde 533d 9bc4 f1bd
000000b0: 2d80 9a3c 15dc 6b3e c01e c6bd e581 bebc
000000c0: e953 58be 39d8 b93d 5368 c93c 018b 5fbc
000000d0: 81df 9d3d 0496 573b 064e 2fbe 8b56 2a3e
000000e0: 9c16 91bd cbed 07bd a443 423d 2ebd 25be
000000f0: 0683 d73d e554 053e b3c0 37be c333 1a3e
00000100: 08b5 853d 4126 21be 9553 d6be 229b d8bd
00000110: 1dc9 40bd b464 f43c a97a 853d 1d60 e7bd
00000120: 7557 debd 1bcc 25be 133b babb 832e b83c
00000130: 1329 903d 59d9 013e b558 ec3c 46a5 533d
00000140: c801 193e 3ad2 82bb 239e 333c 14b3 d73d
00000150: 635a 233e 9285 c2bd 5eda fcbb 81fe 91bd
00000160: 58ca 653d a45c cabd 28fc fb3d 7b5c b0be
00000170: 6009 fdbc e1db b0be 4a0f 153d bb64 18be
00000180: 0445 9c3c 0400 bebd b3e0 eb3d d521 5c3d
00000190: 9e92 113d 60be 34be 25ac 023e 969f 63bd
000001a0: 8b49 eb3d 6919 843d 0388 88be 93de 483e
000001b0: 5e04 90be c298 d9bd 2547 a2be db87 1bbe
000001c0: 33d1 b0bb 1c63 0cbe d635 88bc 9b4b 463e
000001d0: 8e04 9c3d 5738 f53d 0de1 06be 265f 3a3d
000001e0: 3be7 073e 18c6 0e3f f7e0 1e3e 2c27 e63d
000001f0: 5496 cebe 04a7 863d bd00 f23d ff2a c63c
00000200: 028e 1abf 3d57 08be 6b50 a43d c8a2 11bd
00000210: 2fff e33c 83e0 79be 0bb5 c5be fd1c b5bd
00000220: f587 8e3e 0396 4b3e 209a 263e 5d96 b1be
00000230: 4cfa 1cbd 218e 93bd ce4a 0abe 0953 85be
00000240: e4f4 d0bd 7f15 f53d 758b 893d ce5c a73d
00000250: 05ac 07bf fae4 663e 5b79 8e3d 8aab 35bd
00000260: c55c 4fbe 1459 1e3e 25b5 eebe 7bab bbbd
00000270: 7697 b43c 324b 793a 264c f8bd d4a4 d8be
00000280: b2cc 5d3a 5f61 e63d 544a b7bd 2f97 a5be
00000290: 7140 54bb d997 43bf df32 233d 12e9 fabe
000002a0: 7d5e 653e e820 7dbe 087c a53e 50f8 f2bc
000002b0: 407f 2abe 4922 873d cdaf a3be b16c 303e
000002c0: 8068 1b3b cd35 fbbd 4e7b 00be 3487 c9bd
000002d0: b3cb 90be 0e2f 56be 634f 8dbd 1e3d df3d
000002e0: e028 26bc 6873 25bc feb8 5bbe eab9 8a3c
000002f0: 09fe 203d 6bf4 57be bb5b 163e 0b04 36be
00000300: 2eb0 75bc 133f 44be d530 0bbd ea1b de3c
00000310: 7593 263e bf8b 683d 790a 29bf 4220 ccbe
00000320: d496 8b3e 223f 8f3d fc7f 833e 4f61 adbe
00000330: 9cb6 c7bd 61a0 20bd c52f 10be 38c4 033e
00000340: f6a2 723e 9f20 0a3e c4de d2bd d7a6 dbbe
00000350: 2840 25bf b5e1 29bd 484b 08bf cca4 973b
00000360: 8279 64be 64a1 babd 1977 833c 34ef 24bd
00000370: 1e0e 3b3c 52be 1cbe d6f5 5b3e e960 4ebe
00000380: c71e 643c 4401 77bc 4243 53bd 6e6c 48be
00000390: 4f89 d13d 2556 5e3e 8e7f 66bd 5334 25be
000003a0: ff35 0fbf 019c efbd d3da 09be d6b6 8bbe
000003b0: 7555 103e da44 0dbf c4e2 a83d 5263 a1be
000003c0: 4814 393e f5ec 503c 5e30 153e 17a0 11bd
000003d0: 1cc1 e03d 0cd7 c2bd 8ff6 443e 2903 e1bc
000003e0: 269a ad3c 2e96 313e 7cbf 19bf 4745 d0bd
000003f0: 7364 1a3e bf1e a4be 7a5a 91bd cea1 543e
-0.1474599 -0.20737264 0.06974641 -0.08516039 0.10422004 0.20111077 -0.07936766 -0.08581094
-0.102006465 0.27656952 -0.1514682 -0.44673762 0.07041182 -0.17551723 0.122256644 0.077712424
-0.1727032 -0.122750215 -0.07778057 -0.4478401 0.18357767 0.07728567 -0.0065143313 -0.08582933
-0.06947491 0.013034099 0.07908399 0.06990469 0.037591074 0.068315774 -0.17727168 0.14509061
-0.28042358 0.0055786623 -0.011851929 0.04600526 0.008567526 -0.096329495 0.30295628 -0.6820626
0.1567953 -0.07964 0.051725436 -0.11805078 0.018859947 0.23033173 -0.09673834 -0.023255298
-0.21125759 0.09074444 0.024585878 -0.013643981 0.077086456 0.0032895813 -0.17119607 0.16634576
-0.070843905 -0.03318576 0.04742779 -0.16185448 0.105230376 0.13020666 -0.17944603 0.15058808
0.065286696 -0.15737249 -0.41860643 -0.10576464 -0.047066797 0.029833175 0.06517536 -0.11297629
-0.10856525 -0.16191141 -0.0056833117 0.022483116 0.07039084 0.12680568 0.028850893 0.05167129
0.14942086 -0.003992346 0.010962996 0.10532203 0.15952449 -0.09498133 -0.007716461 -0.07128621
0.056101173 -0.09880951 0.12303954 -0.34445557 -0.03088826 -0.34542754 0.036391534 -0.14882176
0.019075878 -0.09277347 0.11517467 0.053743202 0.035540216 -0.17650747 0.1276098 -0.055572115
0.114886366 0.06450159 -0.2666627 0.19616155 -0.28128332 -0.10624839 -0.31694904 -0.15188543
-0.0053960322 -0.13709682 -0.016627233 0.19364779 0.07618056 0.119736366 -0.13171788 0.045500897
0.13271801 0.5577102 0.15515505 0.1123794 -0.40349066 0.065748245 0.11816547 0.024190424
-0.60372937 -0.13314529 0.08023151 -0.03555563 0.027831642 -0.2440205 -0.38614687 -0.0884342
0.27838102 0.19881444 0.16269732 -0.3468503 -0.03832464 -0.07204843 -0.13505098 -0.26039913
-0.10202959 0.11966991 0.067160524 0.08171998 -0.52996856 0.22548285 0.069567405 -0.044353046
-0.20250233 0.15463668 -0.46622577 -0.09163567 0.022044878 0.0009509801 -0.12123899 -0.42313254
0.0008460983 0.11249041 -0.08949724 -0.32341906 -0.0032387043 -0.76403576 0.039843436 -0.49005944
0.22399326 -0.24719584 0.3232119 -0.02965942 -0.16650105 0.06598336 -0.31970063 0.17228962
0.002371341 -0.12266121 -0.12547037 -0.09840241 -0.2828041 -0.20916387 -0.068999074 0.10900329
-0.010141581 -0.010098316 -0.21457288 0.016934354 0.039304767 -0.21089332 0.1468343 -0.1777498
-0.014995618 -0.19164686 -0.033982117 0.02711292 0.16267188 0.056773897 -0.66031605 -0.3986836
0.2726351 0.069944635 0.25683582 -0.33863303 -0.09751627 -0.03921545 -0.14080723 0.1286782
0.23694977 0.13489006 -0.102963954 -0.42900726 -0.6455102 -0.041475017 -0.5323987 0.0046277996
-0.22311977 -0.09112814 0.016048001 -0.040267184 0.01141694 -0.15306976 0.21480498 -0.20154156
0.0139233535 -0.015075985 -0.051577814 -0.19572613 0.10231268 0.21712549 -0.05627399 -0.16133241
-0.55941767 -0.11699677 -0.13462381 -0.2728793 0.140951 -0.55183184 0.08246377 -0.31521088
0.18074143 0.012751807 0.14569232 -0.035553064 0.10974333 -0.09513673 0.1923468 -0.027467327
0.021191668 0.17342445 -0.60057807 -0.101694636 0.15077381 -0.32054707 -0.07097335 0.20764849

fc2_val.bias f4 [32]
00000000: 61ee 18bd 862a 953c 89f2 a6bc 253c ebbd
00000010: 02fa 69bd 29df 3d3e a7a2 fabd 6258 0fbe
00000020: ec1e e1bd 87cd a83d f8c1 963e bbc2 003e
00000030: bf5a 6e3d 4991 9d3e 4dd9 5c3e a940 ed3d
00000040: b166 5d3e 75e9 a0bc 52eb 563d beec 4cbd
00000050: 1896 983e 82ab 30be aa87 ac3e 19ba 4c3e
00000060: 6191 ecbc d9e9 65bd c990 3f3e 5a96 26be
00000070: 75cb 85bd 5684 a0bc 311f 193e 4629 d9bc
-0.03733671 0.018208753 -0.020379322 -0.11486081 -0.05712319 0.1854216 -0.12238055 -0.13998559
-0.10992226 0.08242326 0.2944486 0.12574284 0.05819201 0.30774906 0.21567269 0.115845986
0.21621205 -0.019642571 0.052470513 -0.050030462 0.29802012 -0.17252925 0.33697253 0.19992866
-0.028877916 -0.056131218 0.18707575 -0.16268292 -0.06532947 -0.019594353 0.14953305 -0.026508939

fc3_val.weight f4 [1, 32]
00000000: da02 0bbe 25bd 543e 955e 03bf 56c1 203f
00000010: 9ebc d6bd 1982 003e e033 16be 6e36 efbe
00000020: 709a 2cbf 854e f2be ed2a 663e 855e ae3d
00000030: 1b0d 06bf 25fa 723e f876 0d3e 62e0 e93d
00000040: 0a76 2b3e aa75 56be efa7 9f3d 36f8 0d3f
00000050: c02e 723e 7e76 78be 2c9e 3e3e d58b 703e
00000060: 0200 4cbe 25f6 34be 9f3f 0b3e 732e 93be
00000070: be31 18be bb61 4d3e 9dc0 8e3e 0a01 de3e
-0.13575307 0.20775278 -0.51316196 0.6279501 -0.104851946 0.12549628 -0.14668226 -0.46721214
-0.6742315 -0.4732553 0.22477312 0.08514122 -0.5236375 0.23728235 0.13814914 0.11419751
0.16744247 -0.20943323 0.07795703 0.55456865 0.23650646 -0.24263951 0.18615025 0.23490842
-0.19921878 -0.17672022 0.13598488 -0.28746375 -0.14862725 0.20056812 0.27881327 0.43360168

fc1_adv.weight f4 [64, 37]
00000000: 42ab 593d 3bd9 f63d bcac 4d3d e7e9 cb3d
00000010: 8841 893d 32e7 2d3d 9018 863d 6a86 363d
00000020: 19f7 c63d c409 153e 4c2a 813d bce1 003e
00000030: dc7a 19be 27ef 5abe 9aa2 e6be 182c e5bd
00000040: 51ae 70bd 4722 4abc aaa5 003e 4336 213e
00000050: 6436 d23e 7269 4cbf a749 bebe d677 7ebe
00000060: c8b2 abbf 04aa 6dbd 3128 983d a81c 293d
00000070: 5639 563e 4fa4 753e af5b a4bd 34e3 b53d
00000080: d543 c1bc 63a3 45bd aba4 5bbd 86fa 393c
00000090: 7ed0 60ba 69a5 77bd eada 7dbd b3bd 9d3d
000000a0: c617 1c3d 0db6 113d 229b 0b3e 0861 65be
000000b0: e951 b83d 051b 0abd 2db9 c13e 4a76 9b3d
000000c0: 21ae 53be 8511 adbc c90f eb3d 8095 973c
000000d0: 5ee9 623d d016 cd3d 597e a0bd 421c 1bbe
000000e0: 16f3 0cbe 333f f6bd a42f 5dbd e4d2 e03c
000000f0: 0831 52be 887d 013e 9419 7f3e 20fe 963c
00000100: 4c2b 98bd 18db a2be e08a a43e 62bf 19be
00000110: 15bc b8bd 07c8 2d3e 0905 a7bd 3214 923d
00000120: 4f4a bebd 741f 68bd 7972 6d3d cbc2 5f3d
00000130: 12ca 423c e539 acbd 70b6 6dbd f124 623e
00000140: 085c 963c aeeb b03d 972d 523e 6e9c b03e
00000150: 6c01 53be e4d5 f6bc 6049 fc37 7fad 59bd
00000160: 5f3a 763d 8014 08be 8bd1 0dbd 682a 10bc
00000170: 9213 983d ec94 353d 2ea6 c5bd a4df e13d
00000180: d660 42bd c875 0fbe 03ed b0bd 9dc0 5e3e
00000190: 6a7a 39bd 5431 4cbe dadf 75be 4e59 51bf
000001a0: 7db5 243e 8dd0 21be 3ec6 84be 1423 3fbe
000001b0: 655d 05bf 86f2 a3bd 7571 f83c 22f3 ca3e
000001c0: 082d 93be 88c0 9cbd 632a 44be 13eb 17bf
000001d0: 087b ac3d 7701 813d ac95 5dbd da60 15be
000001e0: d938 d6be ee68 f1bc d0e1 b03d c757 713c
000001f0: 826c 523d d1d5 dcbc 02b2 71be 811d ca3d
00000200: a113 fb3c 109f babd 1d4e 0d3e 5c83 2c3d
00000210: a929 b4bd 03a0 d73c 3668 8bbd 35f7 e23d
00000220: 887f c0bd 9568 ce3d 4e81 9f3d d5f8 923d
00000230: dc84 623e 882f a23d bfeb 18bd 34ef f7bd
00000240: 6175 213e adbb a13e 631b 3ebb 7237 4dbb
00000250: 8d7f 693d 5371 1e3c de53 03be 2be8 d9be
00000260: fadd 5ebe f1d0 cc3d 8cb5 37bc 06fb 13be
00000270: 605d 5f3d ed04 933e fa81 963d 59ee b6bd
00000280: 1c18 42be fc8c d7bd 1380 a73d 6568 cebc
00000290: b569 63be cfe9 19be 70a2 b33d c35a 91bd
000002a0: 6e4c 123d b521 82be 5853 bd3d adb5 1e3c
000002b0: a62c 663c 4c5b e4bc 236c 733d 149e 9fbd
000002c0: 2020 02be 51c3 173d 4066 21be 274c 293d
000002d0: dfe2 0dbd 9ebb bb3a a675 6b3e 9c70 553e
000002e0: 3c02 d53d f39c 7ebe d4a1 cf3c 6da9 89be
000002f0: e141 3b3d 6241 bbbd 64c6 5abd feae cdbd
00000300: bd33 8b3d 63ff 97be df4c 1b3e bbb8 f2bd
00000310: 5dd4 bebd 734e c8bd 11b3 eebb a1f2 f9bd
00000320: ec69 30be e68c 1cbe 404d d63d fabe ea3c
00000330: 73bf b8bc 4741 7b3d bf60 4dbe 1958 b13d
00000340: db76 79be bba3 a5bd 56e6 56be 7401 f6bd
00000350: 3982 2a3d e11d 8c3c 2754 4c3e fecd 36be
00000360: 5923 433e c0e3 083c d190 a9be 6947 bb3d
00000370: e55c 6e3e 16d9 ddbd e548 5c3d 2178 43be
00000380: 9ca0 45bd dc01 adbe 155f b1bb a6fe cdbd
00000390: ab6b cf3c dcc1 08bd 13d7 13be 3a7e 9bbe
000003a0: 7e57 38bd f3bb d0bb d62a 0b3e eb1a 9fbe
000003b0: 8477 11be 10f4 693e 9a5a 4ebd 2fcb b9bd
000003c0: 4532 34be e98b 303d 8fee b2be a960 75bd
000003d0: 640c 0e3e 34ff 5fbd 3ebb 65be 2608 cfbd
000003e0: 1bbd 773c 5469 863d 2fad d7bb 6b2f 13be
000003f0: c393 513d 3484 8b3e 0d31 b5bd 5316 ba3d
0.05314184 0.12053152 0.05021356 0.09956723 0.06701952 0.042456813 0.06547654 0.04456178
0.09715099 0.14554507 0.063068956 0.12586111 -0.14988273 -0.21380292 -0.4504593 -0.11190051
-0.05875999 -0.012337274 0.12563196 0.15743355 0.41057122 -0.79848397 -0.37165567 -0.24850401
-1.3413935 -0.058023468 0.07429541 0.041287094 0.2092031 0.2398846 -0.080253 0.08881226
-0.023591915 -0.04825152 -0.053623836 0.011351233 -0.00085759896 -0.06046048 -0.06197635 0.07702198
0.03810861 0.035574008 0.13633397 -0.22400296 0.08999998 -0.033717174 0.3783659 0.07590921
-0.20671894 -0.021126518 0.1147762 0.018503904 0.055398338 0.10014117 -0.07836599 -0.15147498
-0.13764605 -0.12023773 -0.05400051 0.02744431 -0.20526516 0.12645543 0.24912101 0.018431723
-0.07430133 -0.3180778 0.32137203 -0.15014413 -0.09020249 0.16970836 -0.08155257 0.07132758
-0.09291517 -0.05667062 0.057970498 0.05462913 0.011888998 -0.0840948 -0.058035314 0.22084405
0.01835443 0.08638702 0.20525204 0.34494346 -0.20606011 -0.030131288 3.0074909e-05 -0.053143974
0.06011426 -0.1328907 -0.034623664 -0.008799173 0.07425608 0.044331476 -0.09650837 0.11028984
-0.04745563 -0.14009774 -0.086389564 0.21753164 -0.04528276 -0.19940692 -0.24011174 -0.81776893
0.16084857 -0.15802212 -0.25932497 -0.18665725 -0.52095634 -0.08005242 0.030327538 0.3963862
-0.28745294 -0.0765391 -0.19156794 -0.5934307 0.08421904 0.062991075 -0.054097816 -0.14587727
-0.41840246 -0.02946898 0.0863682 0.0147304 0.051373012 -0.026957424 -0.23603061 0.09868909
0.030649008 -0.0911237 0.13799329 0.04211746 -0.087970085 0.026321417 -0.06806986 0.11082307
-0.09399325 0.10078541 0.07788335 0.07176367 0.22120994 0.07919222 -0.0373342 -0.12106171
0.15767433 0.31588498 -0.0029008023 -0.0031313566 0.057006408 0.009670573 -0.12824962 -0.42559943
-0.21764365 0.1000079 -0.011212718 -0.14451227 0.05453241 0.28714696 0.0734901 -0.0893218
-0.1895451 -0.105249375 0.08178725 -0.025196264 -0.22208293 -0.15030597 0.08771217 -0.070973895
0.03571742 -0.2541634 0.09244412 0.00968687 0.014048731 -0.027875565 0.0594293 -0.07793823
-0.12707567 0.037051503 -0.15761662 0.04133239 -0.03464019 0.0014322882 0.22994098 0.20843738
0.10400817 -0.24864559 0.02534572 -0.26887074 0.045717124 -0.0914333 -0.053411856 -0.10043143
0.06796978 -0.29687032 0.15166043 -0.11851641 -0.09317849 -0.09780588 -0.00728453 -0.12204481
-0.17227906 -0.15288123 0.10463953 0.028655518 -0.022552228 0.06134155 -0.20056437 0.086593814
-0.24361746 -0.0808787 -0.20986304 -0.12011996 0.041628096 0.017104091 0.19953977 -0.17852017
0.19056453 0.008355081 -0.331183 0.0914448 0.23277624 -0.108324215 0.053780455 -0.19088794
-0.048248872 -0.3379048 -0.005412946 -0.10058336 0.025319895 -0.033388004 -0.14437513 -0.3036974
-0.045005314 -0.0063700615 0.1359056 -0.31075224 -0.14205748 0.22847009 -0.050379373 -0.09071957
-0.17597301 0.04310218 -0.3494763 -0.059906635 0.13871914 -0.05468674 -0.22434708 -0.10108976
0.01512077 0.065630585 -0.0065819244 -0.14373557 0.051166307 0.272493 -0.08847246 0.09086289

fc1_adv.bias f4 [64]
00000000: 17d8 2b3d 2d02 0fbe 1b94 6a3d a008 c63d
00000010: e424 39be c354 03be 2fcc 0fbe b5c8 4b3d
00000020: fe8c c8bd de29 373d 579c 83bc b041 7b3d
00000030: 36f8 ab3d 44f6 bfbc e5b9 a63d aaa4 2bbe
00000040: c2ae 75be 095f 18be 83e1 02bd a542 ae3c
00000050: 8dcf b7bd 18dd a2bd f49e 303d 479e e2bd
00000060: 758c 32be 1671 e33d bee3 ddbd 6cd5 0c3d
00000070: 9f39 943c 2073 70ba 8862 04be 05e4 83bd
00000080: 5901 3ebe c165 a93d a0e8 cabd 63dd 073d
00000090: 498b 003d 88c8 363d eeb1 64bd 2da6 ecbc
000000a0: 7ec7 ba3c 4c3b 4cbc bb8c a43c eea7 ee3c
000000b0: 0e53 173e ee48 b23c 6426 f83d 6163 3e3e
000000c0: b434 14be 3ff9 17be 8d75 bf3d d8cc 9e3c
000000d0: b3fe 09bd a6de 563c 33a0 e03d be1c c5bd
000000e0: a9aa 8f3d f45c 14be 5753 1cbe 821a 19bd
000000f0: b158 e83b 36ca 86bc fa6c a9bc a48c cebc
0.041954126 -0.13965674 0.05727015 0.09669614 -0.18080479 -0.12825303 -0.14042734 0.049751956
-0.09792517 0.044717662 -0.01606576 0.06134194 0.08396952 -0.023432858 0.08140925 -0.16762033
-0.23992446 -0.14880003 -0.031953346 0.021272013 -0.08975134 -0.079523265 0.04312034 -0.11065345
-0.17436393 0.11105554 -0.10834454 0.034383222 0.018093882 -0.00091724284 -0.12928212 -0.06439976
-0.18555202 0.08271361 -0.09907651 0.033170115 0.031382833 0.044624835 -0.05583375 -0.028887833
0.022800203 -0.012465309 0.020086637 0.02913281 0.14777777 0.021763291 0.121166974 0.18592598
-0.1447323 -0.14841174 0.09348593 0.019384786 -0.033690166 0.013114607 0.109680556 -0.09624623
0.07014973 -0.14488584 -0.15266167 -0.037378795 0.007090651 -0.016453844 -0.020681847 -0.025213547

fc2_adv.weight f4 [32, 64]
00000000: 688a 283e 05d1 79be 3cb3 0fbe 0716 2dbe
00000010: 99f3 11be 482c adbe cb88 9ebe f08a 933c
00000020: 073e 35be 0017 dabc e67c 82bd a475 e33d
00000030: 8962 01bb 8cad 71be 59d4 19bd f7b8 583d
00000040: da55 6bbd 2510 d03c 53e9 1a3e e046 163d
00000050: 20d4 b2be 4e64 4fbc 23a6 293e 1331 64be
00000060: 47b3 4fbd 4ce3 3e3c 9141 dfbc aa12 2c3e
00000070: ad04 303d a457 25be 6729 cabc 2585 403d
00000080: f7fd 41bc 1609 30bd a896 a3be b864 06be
00000090: 72db 093e 9e7c 8cbd b8fb 81be 7b70 8f3d
000000a0: 1fd4 af3d 997c 42be 9779 9cbe 958a 8a3e
000000b0: 854c 303c b84c f13d ebd7 3cbd 1eeb ff3d
000000c0: 6c99 9cbd f615 773e f44d 9dbc e156 e3bd
000000d0: ec4f 323e afbb 4dbe 8b7c ba3d 7bee 2e3e
000000e0: ef9d 0f3d 5502 0dbe 842d 2a3d 17c8 62be
000000f0: 27ea 24be 6524 93bd 4941 793e 66df 07bf
00000100: 9f9a 5cbd 44d6 94bb 1225 1abd 28bb 90be
00000110: 5fd2 3abe cdf2 8fbe 02a7 943e e9b7 debd
00000120: 8a8c 0e3e 8209 89be 0067 25be e0e9 643b
00000130: 43f1 37be dde7 1d3d 9c40 46bd 5900 a1be
00000140: 3041 0dbe 1d96 ed3d 0017 8abd 5a41 1d3e
00000150: 828b 083c 03df f5bd acc0 1c3e 3d54 5e3c
00000160: 4ee0 22be b8f3 73bd 83de cc3d 08cd 833d
00000170: 9cc9 a0bc f491 06be cecc 90bd 6275 c53c
00000180: 2304 59be bdd6 033e 5e12 153e 3ab7 23be
00000190: 0313 27be bea5 a23d cd27 a23d 23b5 6cbe
000001a0: cf43 b8bc 269e 3f3e 5109 773d 0ae7 5b3e
000001b0: c977 7abe 3685 12be 7ba3 243d e2d1 b63d
000001c0: c7b5 91be f811 88bc 2767 4cbe cb66 c13c
000001d0: 5a5f dcbd 841a f8bc b936 bf3d 8d80 a1bd
000001e0: a757 69be 01e9 fcbd 20d0 7dbe 86d3 29be
000001f0: 0145 59be 0869 033d 8ffe 53bc ae08 1cbd
00000200: b4d3 e6bd 70f9 ba3d 5c6c 343e 5055 563d
00000210: 70a2 c7bd 97bb 1fbe ea33 0d3e 172e 03be
00000220: 78fd b03d c0d3 d6bd 897e 3cbd 921e c9bd
00000230: e6cf dbbd f77c 943c e343 be3d 40ca 9dbd
00000240: 7010 12bd b2ae 033e d1c8 aabd 6dcc 3b3e
00000250: d0fd 50bd 4f25 01bd 9871 123e 3cf1 a33d
00000260: 45c8 073e 05b2 aa3d 0af6 c13c 5779 9e3d
00000270: 8ede a2be edfb 3cbd 226e 4c3d 1399 1abd
00000280: c336 893d 1679 cdbd 8d56 cebd cf72 abbe
00000290: e3c6 b83c e169 993c 2dbd 143e 60ec 54bd
000002a0: c8e1 3dbe f2a5 c3bd c14f 43bb 8c98 cb3d
000002b0: e24f 233f c537 10be 235f f13d 90e2 91bd
000002c0: 9d48 2cba 028d c2be fd31 74bc ed08 8ebc
000002d0: 6982 00be 3673 7f3d a606 23bd f61a 3e3d
000002e0: 4a2f fa3d 7689 15bd fc11 3a3d 4135 d0ba
000002f0: d44a feba 8317 403d 9572 8f3c 374e 053d
00000300: 2414 23be f797 0b3e db65 87bd 0791 233d
00000310: 4fd4 f83a 51be 393d 63c1 c4bd 6452 e4bd
00000320: 28fc 91be 9a86 be3a c148 3ebe 3420 2cbd
00000330: 5bd5 a4bd dbd3 83bc e3a9 24bd 332c 133e
00000340: e523 a23c 69ca c7bd 18cd b03d d6d9 193e
00000350: 5570 b7be 883b de3d 3bf3 f53e b47f 173d
00000360: a7ff 53bd c300 b23d 2b5e 133c 0cb5 eebd
00000370: ef88 7d3e be32 30bb 8a61 59bd 9760 fbbd
00000380: 1419 073d 6eea fdbc 33cc f5bc 326c 9bbd
00000390: 428f b93d d84c ff3a 6ede e8bd 1a66 9c3c
000003a0: ae15 88bd 955d 8b3d 9643 af3c 4eb7 2d3e
000003b0: 85fc a1be 3cea a73d 2b97 6d3c 3f65 413d
000003c0: 5fe5 8ebb da01 593c 44a9 d43d f2b1 4cbe
000003d0: 68a3 863d 7771 d53d 8857 e13c 9fef debd
000003e0: f9be 5e3a f863 1abe b0b3 11bd 59d1 80bc
000003f0: 877f 0ebe 0c8e 8dbe 0f87 543c b01d 37bb
0.16459048 -0.24396141 -0.14033216 -0.16902934 -0.14253081 -0.33822846 -0.3096374 0.018010587
-0.17699443 -0.026622295 -0.06371479 0.111064225 -0.001974257 -0.23601359 -0.037556026 0.05291077
-0.05745492 0.025398323 0.15128069 0.036688685 -0.34927464 -0.012658192 0.16567282 -0.22284345
-0.05070808 0.0116508715 -0.027252944 0.16803995 0.04297321 -0.16146713 -0.024677945 0.047001977
-0.011840335 -0.042977415 -0.3195088 -0.13124359 0.13462618 -0.06859706 -0.2538736 0.07003876
0.08585381 -0.18992843 -0.30561516 0.27058855 0.010760431 0.11782211 -0.046104353 0.12496017
-0.076464504 0.24129471 -0.01920221 -0.11100555 0.174133 -0.20091127 0.09105786 0.1708316
0.035062727 -0.13770421 0.041547313 -0.2214664 -0.16104947 -0.07184676 0.2434131 -0.53075254
-0.053858396 -0.004542144 -0.03763301 -0.2826779 -0.18244313 -0.2811493 0.29033667 -0.10874922
0.13920799 -0.26765066 -0.16152573 0.003492944 -0.17963128 0.0385512 -0.04840146 -0.31445578
-0.13794398 0.116008975 -0.06742668 0.15356961 0.0083340425 -0.12005427 0.15307873 0.013569889
-0.15905878 -0.0595586 0.10003378 0.06435591 -0.019627385 -0.13141614 -0.070703134 0.024103824
-0.21192984 0.12874885 0.14557788 -0.15987864 -0.16315846 0.07941769 0.07917748 -0.23115973
-0.022493271 0.18712673 0.06031162 0.21474853 -0.24459757 -0.14308628 0.04019497 0.08926751
-0.28458998 -0.01661013 -0.19961224 0.023608586 -0.10760374 -0.030286081 0.093366094 -0.07885847
-0.22787343 -0.123491295 -0.24786425 -0.16584596 -0.21217729 0.032082587 -0.0129391095 -0.038094215
-0.11270848 0.09129608 0.17619461 0.052327454 -0.09747779 -0.15598904 0.13789335 -0.1281055
0.08642095 -0.10489607 -0.04601911 -0.09820284 -0.10733013 0.018125994 0.09290292 -0.07704592
-0.035660207 0.1285961 -0.08339084 0.18339701 -0.051023304 -0.03152972 0.14301145 0.08004996
0.1325999 0.08334736 0.02367689 0.077379875 -0.3181042 -0.046138693 0.04990972 -0.03774364
0.06699898 -0.10032861 -0.10075102 -0.3348603 0.022555774 0.018727245 0.1452529 -0.051983237
-0.1854316 -0.09553136 -0.0029802176 0.099412054 0.63793766 -0.14083774 0.11785724 -0.071232915
-0.00065720995 -0.37998205 -0.014904496 -0.01733824 -0.12549748 0.062365733 -0.039801262 0.04641243
0.12216051 -0.036508046 0.045427307 -0.0015885012 -0.0019400963 0.046897423 0.017510692 0.032545295
-0.15925652 0.13632189 -0.06611224 0.03993323 0.0018984171 0.045347515 -0.09607198 -0.11148527
-0.28512692 0.0014535964 -0.18582441 -0.0420229 -0.08048507 -0.016092231 -0.04020108 0.1437233
0.019792506 -0.097554035 0.086328685 0.15024504 -0.3582789 0.108511984 0.48037133 0.03698702
-0.05175748 0.086915515 0.008994619 -0.11655626 0.24759267 -0.0026885713 -0.053071536 -0.122742824
0.0329829 -0.030995574 -0.030004596 -0.07588996 0.090605274 0.0019477857 -0.1137055 0.019091655
-0.0664476 0.06804959 0.021394532 0.16964456 -0.3163797 0.081989735 0.014501373 0.047215696
-0.0043608393 0.01324507 0.10383847 -0.19989756 0.06574136 0.10422032 0.027507558 -0.10885548
0.0008497085 -0.15077198 -0.035571754 -0.015724825 -0.13915835 -0.27647436 0.012971654 -0.002794128

fc2_adv.bias f4 [32]
00000000: 8f6a a63c afd4 2a3d bbbd b93d 3d8f 15bd
00000010: 7a5b c9bc 73e2 b43d 1415 0f3d 9286 5b3d
00000020: bb2f 0d3e d08a 63bd 520c 76bc 5cfd cfbd
00000030: ee3f 093e 782e 6b3c d5b0 5bbd b13e 54bb
00000040: 277b debd 348c cabd 017c 6c3d 726a 0ebd
00000050: 3fac 053d 95ed d5bd 46dc 88bd 7215 6b3d
00000060: aa98 bd3d 7bcf 56bc 5627 afbd c55b 963d
00000070: a5a7 aa3c 8777 113b 6a22 ccbd 77f2 64bc
0.020314483 0.041706737 0.09069391 -0.036513556 -0.024579752 0.08832254 0.03493221 0.053595133
0.13787739 -0.055552304 -0.015017586 -0.10155746 0.13403293 0.014354341 -0.053635437 -0.0032386
-0.10863333 -0.09890023 0.057735447 -0.034769483 0.03263497 -0.10445706 -0.06682639 0.0573935
0.09257634 -0.013110991 -0.085524246 0.073417224 0.020831892 0.0022196488 -0.099675015 -0.013973824

fc3_adv.weight f4 [4, 32]
00000000: 3c2f ec3d 48ab 81be efef 593d 1e0b 043e
00000010: 2de0 29be 8785 bfbd e5b8 793e fea9 f23c
00000020: 84c2 ccbe ddbe 313e 39e0 733e 5759 883b
00000030: 249c 3d3e 4284 0d3e 8a84 aa3d 6473 ca3d
00000040: a203 243d df84 1d3e 9c83 f83d 7cb8 aebe
00000050: b9c7 383e 542f 66bd 77b4 60be 270b c13d
00000060: a9f9 37bd 9ebe 313e 886c fd3d 8f9b 7f3d
00000070: 62b1 b33e 43de 473d 1c12 80be e8e0 82bd
00000080: 5653 a13e 1d14 4dbe 6905 4f3e 8ec7 503e
00000090: 92ea 3abd 8e5e 81bd dc1e d1be 4497 e93d
000000a0: 3ab6 21be c9f7 a33e 89e7 da3d fd56 aa3e
000000b0: f85b b43d bdbe c5bb cba3 50bc ae31 943e
000000c0: 5354 323d 9efc cc3e 3b60 943e 2b1f 69bd
000000d0: 371a 743e 515b 663e 0539 783b 8d01 b93d
000000e0: 9894 56be 03d4 ef3d d123 833d 7465 803c
000000f0: 6843 353e 2f0a 113e 9361 4c3e 506e 4ebe
00000100: d3eb 5e3e a1f3 133f 64fb f2bc 5290 f43c
00000110: 2ff6 913d 305d a1bd 6993 153f 8cea e73d
00000120: 8fbf 64be 9c91 883e a635 0abe a818 963c
00000130: 8cec 09be 031b 9e3e 65a9 4b3e 092b 403e
00000140: adb5 9fbe f491 b93e a322 d83e 4b2f 51bc
00000150: cc5e 5fbc 22df 123e 8dbb 7cbe 7ac0 a43e
00000160: 7589 ee3d 8c36 c23e 58a4 95be d048 123e
00000170: 2347 1a3d a84d 92be c132 093f 49bb c03d
00000180: cddc 08be 8b3b cabd fdb3 bb3e 1c25 66be
00000190: 47a9 603e e74b a4be b4f6 80be 0aeb 06be
000001a0: e55e 41be 7e37 aa3e ffd0 1b3e 455f 443e
000001b0: 6507 b0bc 5b9a f83d ac20 36be b1ea a23e
000001c0: 82d5 c43e dab9 853d 1511 ab3e 88be 28be
000001d0: 43cc ca3e 635e 2d3e acab 6ebb 1fc8 73be
000001e0: 539e 77be c596 8b3e 3658 b23e b5df 05be
000001f0: 0f9f da3d 1043 853e 058d 9bbd 7279 2abe
0.11532447 -0.2532599 0.053207334 0.12894866 -0.16589423 -0.0935164 0.24386938 0.029622074
-0.39992154 0.17357965 0.23816003 0.0041610408 0.18516594 0.13819984 0.08326061 0.0988529
0.040042527 0.15382718 0.121344775 -0.34125125 0.18044938 -0.05619748 -0.21943842 0.09425955
-0.04491583 0.17357871 0.12374216 0.06240421 0.3509627 0.04879595 -0.25013816 -0.06390554
0.31508893 -0.20027204 0.20216908 0.20388624 -0.04563386 -0.06316863 -0.40843856 0.11405805
-0.1579217 0.32024983 0.10688693 0.33269492 0.08806604 -0.0060347007 -0.012734364 0.28944153
0.04353745 0.40036482 0.28979668 -0.05691449 0.23838125 0.22495772 0.0037875783 0.09033499
-0.20955122 0.1171036 0.06403316 0.015673377 0.17701495 0.14164041 0.19959097 -0.20159268
0.21769647 0.57793623 -0.029660888 0.029853974 0.07127034 -0.07879102 0.58428055 0.11324033
-0.22338699 0.2667359 -0.13497028 0.018322304 -0.13469142 0.30879983 0.19888838 0.18766417
-0.31193295 0.36244166 0.42213926 -0.012767623 -0.013633441 0.14342931 -0.2468092 0.32178098
0.116473116 0.3793224 -0.29226947 0.14285588 0.037665498 -0.28574872 0.5359307 0.09410722
-0.13365479 -0.09874638 0.36660758 -0.22475094 0.21939574 -0.3208916 -0.2518822 -0.13175598
-0.18883856 0.33245462 0.15216444 0.19176967 -0.021487901 0.12138816 -0.17785901 0.3181968
0.38444144 0.06529589 0.3341147 -0.16478932 0.39608964 0.16930537 -0.0036418242 -0.23806809
-0.2418149 0.27263466 0.34832925 -0.13073619 0.10674869 0.26027727 -0.07595257 -0.1664789

fc3_adv.bias f4 [4]
00000000: 8b23 583d 9484 96bd d13e 7ebd 1e2e fe3c
0.05276827 -0.07349506 -0.062071625 0.03102785
