Navigation/Nets/sucessful_network.pth (torch_old, 28393 bytes, 6 tensors)

fc1.weight f4 [64, 37]
000000 40 24 ca bd f2 93 d2 3b 84 40 8d 3d ce 14 7f bc
       -0.098701954 0.006426328 0.06897071 -0.015568925
000010 c0 bc 05 be f7 fa 99 3d 64 ec 9d 3c 82 7e 47 3d
       -0.13060284 0.07518571 0.019277759 0.04870463
000020 2d a5 8f bc a4 0f e5 bd b6 4c 23 3e 19 c4 61 bd
       -0.017534817 -0.11184624 0.15947232 -0.055118654
000030 a8 fe db bc 6b 95 17 3e dc 23 39 3d 63 ee 1e be
       -0.026854828 0.14803092 0.045200214 -0.15520625
000040 5c af 59 3c 85 09 96 3d 88 9e 15 bd 81 45 8a bc
       0.013286438 0.073260345 -0.03652814 -0.016878845
000050 b4 12 74 bd f3 ef 12 be 7f 67 15 be 94 e7 b0 bd
       -0.05958815 -0.14349346 -0.14590262 -0.0863792
000060 b9 eb 87 3e 03 ad f4 bd c3 40 11 be fc f1 6c be
       0.2654703 -0.11947062 -0.14184861 -0.23139185
000070 72 48 60 3e ff 9b b8 3e 73 93 95 39 ac 34 9d bd
       0.21902636 0.36056516 0.00028529353 -0.07676062
000080 42 4f 12 3e c5 54 da 3c 1e 00 e9 3d 09 01 f9 bc
       0.14288047 0.02665175 0.113769755 -0.030396001
000090 55 86 93 bb ee 5b 97 bd 65 5b 0c bc 4d 8a 05 bc
       -0.0045020976 -0.07390581 -0.008566712 -0.008150649
0000a0 23 0b a2 3c 85 0b 69 3d 7f 08 d2 3e 36 6f 2d bf
       0.019780701 0.05689575 0.41022107 -0.6774782
0000b0 02 42 23 be f5 cf e7 be b3 df d5 bf df 8e d8 3d
       -0.15943149 -0.45275846 -1.6708893 0.105741255
0000c0 a1 09 17 3e e0 6e 83 3d 46 b1 66 3d b6 9d 3e bd
       0.14749767 0.06417632 0.056321405 -0.046537124
0000d0 4e a7 a0 3d db 3c 6c 3d 80 89 c7 3c 77 c1 c4 3d
       0.07844411 0.057675224 0.024357557 0.09607213
0000e0 1c 3c 47 3d 0b 1d e9 3b 67 6a 42 bd cd a0 7f bb
       0.04864131 0.007114058 -0.047464754 -0.0039005757
0000f0 6d 09 b4 bd 3b 82 63 bd e2 8c fc 3b ac 85 8f 3d
       -0.0879086 -0.05554412 0.007707224 0.07007918
000100 dc f6 bc 3d 38 d6 55 3c 5d df e9 bd 78 93 22 3d
       0.09226772 0.013051562 -0.11419556 0.03969142
000110 98 b9 bd 3d ab bb 0c 3d f0 25 10 bc 70 9b 18 be
       0.09263915 0.03435866 -0.0087981075 -0.14903045
000120 8b 80 7a bc 05 22 9d 3a b2 07 8b 3b de dc a6 3d
       -0.015289436 0.0011988288 0.0042428607 0.08147596
000130 f1 7d 20 3c 95 6f 67 bc c8 e1 ca bc 3a fc ce be
       0.009795652 -0.014125724 -0.024765864 -0.4042681
000140 42 da 0b 3e 8f ec 81 3d b9 17 f5 3d 7a fb 1f be
       0.13657477 0.06343948 0.11967415 -0.15623274
000150 9d c4 28 be b3 d1 9c 3d 63 f3 52 3c d7 73 47 3d
       -0.16481252 0.076571845 0.012875411 0.048694458
000160 20 bd 59 3e 70 9d 38 be fa ee 24 3d 4c 87 5b 3e
       0.21263552 -0.18028808 0.04026697 0.2143833
000170 45 85 97 bd 65 2f 2a be 74 69 bb bd 26 46 16 bd
       -0.07398466 -0.16619642 -0.09150973 -0.036687993
000180 83 1e f1 3c 92 ce 45 bd 70 de 0d bd 57 6f 14 be
       0.029433494 -0.048292704 -0.03463596 -0.14495598
000190 88 7e 59 3e 28 d0 9b bd 59 f0 be bd d3 7a fc 3a
       0.21239674 -0.07608062 -0.093231864 0.0019262679
0001a0 fc 25 47 bf ff 09 4f 3e b1 ca f9 3d cc 22 80 3d
       -0.77792335 0.20218657 0.121968634 0.06256637
0001b0 c3 0c b2 be bc f0 53 bd 26 2d 59 bc 2a 54 99 bd
       -0.3477536 -0.051743254 -0.013255393 -0.07486756
0001c0 1e dc a4 bd db 26 f8 3d aa d6 b4 3d 3a 72 4a 3e
       -0.080497965 0.12116786 0.088300064 0.19770136
0001d0 1a c4 d8 bd 9b 30 a4 bc 1e f0 1a 3e b6 e5 28 3d
       -0.105842784 -0.020042708 0.1513066 0.041234694
0001e0 1d 06 87 3e 1a f6 1d be 58 b4 a4 3d 90 b9 84 3d
       0.26371852 -0.15425912 0.0804221 0.06480706
0001f0 a3 d1 1b 3e d7 da 64 3d 9d 92 90 3e 61 5c 20 3e
       0.15216689 0.055872764 0.28236857 0.1566024
000200 77 93 6a be ee d0 07 be 9c 66 4b bf f7 f6 32 3d
       -0.22907816 -0.13263294 -0.79453444 0.043692555
000210 29 0d f8 bc d1 fe e6 3c 99 49 e5 3d df 8b 75 3d
       -0.030279713 0.028197678 0.11195678 0.059947845
000220 aa d7 dd 3d ac 39 fe bc db 2c 43 bd 3c 26 1a be
       0.1083215 -0.03103336 -0.0476502 -0.15053648
000230 71 ef f1 be 85 60 25 be 5c 18 a8 3d a7 57 90 3b
       -0.47252992 -0.161501 0.08207771 0.00440498
000240 52 77 2f 3d 04 5d e3 3d 96 83 1d 3b 62 0e 3f 3c
       0.042838402 0.11101726 0.002403473 0.011661144
000250 ff 52 d8 bd 5b 50 02 3d 03 17 cd bd cf ad af 3b
       -0.10562705 0.031814914 -0.10014155 0.005361296
000260 88 9b 62 bd 10 9d 6c 3e ca 74 9d be be f2 36 be
       -0.055324107 0.2310679 -0.30753165 -0.17866036
000270 5c 3f 7f be d0 ca 3a bf 0c 24 83 bc 6c c6 05 be
       -0.24926513 -0.7296572 -0.0160084 -0.13063973
000280 a7 e4 32 3d 5f 76 af bc 87 f6 4c be 9c 0b 49 3e
       0.04367509 -0.021418748 -0.20015918 0.19633335
000290 f9 8d 6d be fa b4 ff bb b1 7b 4e be fe 1e f9 bd
       -0.2319869 -0.0078035565 -0.20164372 -0.121641144
0002a0 9f d3 39 3c 2d 14 74 bd 57 f8 50 bd 01 cc 50 be
       0.011341958 -0.059589554 -0.051018085 -0.20390321
0002b0 45 1c 57 bd 98 01 86 bd ce 63 97 bc 61 b0 83 3d
       -0.052517194 -0.06543273 -0.018480208 0.06430126
0002c0 8e 0d 44 3e 81 ce c6 3d 02 f1 e8 3d 11 9f 97 3e
       0.19145796 0.09707356 0.113740936 0.29613546
0002d0 6f b2 96 be a1 0e 08 be 06 63 7f be d9 1f d4 3c
       -0.2943301 -0.1328683 -0.24940118 0.025894092
0002e0 3e 45 7a bc 78 c2 9c bd e4 ee 01 3e d9 5f 8c 3d
       -0.015275298 -0.076542795 0.12688786 0.06854219
0002f0 95 03 f4 3d 79 15 88 3c 1b 11 44 be f7 59 79 3c
       0.11914746 0.016611801 -0.1914715 0.015219203
000300 7c 93 05 be 1d a6 82 3d 1e 4e b4 3e 7b 95 c2 bd
       -0.13044542 0.0637934 0.3521585 -0.095011674
000310 9c 96 cf bc 6f db 17 bd 9f 7a 3f bd 7d d4 80 3e
       -0.02534037 -0.037074503 -0.0467478 0.25162116
000320 fb 78 bb bb df bd c2 3d be 74 8c 3d 76 60 01 3e
       -0.005721209 0.09508871 0.06858204 0.12634453
000330 49 bd 33 3d b4 34 9e bd a4 50 da 3d 96 5f d7 bc
       0.04388169 -0.07724896 0.10659912 -0.026290696
000340 fd e6 44 bd 06 b4 3b be ad ac 8b bc 12 4a 21 3e
       -0.04807185 -0.18330392 -0.017050112 0.15750912
000350 fa 6d 04 3e 26 52 8d 3e 23 f9 e8 3d 58 02 1c 3e
       0.12932578 0.27601737 0.11375644 0.15235269
000360 d0 06 17 be f8 8a d7 be 0d f4 d3 be 10 b5 8e bf
       -0.14748693 -0.42098212 -0.41397133 -1.1149006
000370 cd 8c 4a bd c7 25 aa 3b 5c 61 25 bd 56 9c 0e 3e
       -0.049450684 0.0051924917 -0.040376052 0.13926825
000380 42 55 db 3d 7a cc 53 be 88 ca 77 be a0 f4 f2 bc
       0.10709621 -0.2068347 -0.24198353 -0.029657662
000390 e4 be c9 3c 13 61 cf 3d 08 b2 9a 3e b4 e5 44 3e
       0.024627157 0.10125937 0.30213952 0.1922825
0003a0 fc c8 e9 3b ff a0 09 bd 3b 9e e6 bd 6b 2f 29 bd
       0.007134555 -0.033600803 -0.11260649 -0.041304987
0003b0 bf e7 81 be 19 fa ba bd fe fe 19 3c 38 a8 82 bd
       -0.2537212 -0.091297336 0.009399174 -0.063797414
0003c0 b8 05 b7 bd 1d 74 e3 bd 8f 0c 87 3e 2c eb 27 be
       -0.08936638 -0.11106131 0.2637677 -0.16398305
0003d0 d1 9b ae be 0c 43 89 be a3 2c b0 bf 29 5e 7f 3d
       -0.34103253 -0.26808965 -1.3763622 0.062345657
0003e0 a6 18 c6 3c 94 c6 f4 bc d0 72 3c 3e b4 17 72 3e
       0.024181675 -0.029879846 0.18403172 0.23641855
0003f0 73 52 36 3e 54 84 76 be 95 4d ac bc 1d d9 1e be
       0.1780489 -0.24073917 -0.021033088 -0.1551251

fc1.bias f4 [64]
000000 1f ae 11 be 2a b4 7d 3e 0f fd 85 3c 79 c6 e5 bc
       -0.14226578 0.24775758 0.01635602 -0.02804874
000010 e1 0c 6f bd 22 7e 81 3c 7a 52 97 3d ba ce 39 be
       -0.05836189 0.015807215 0.07388778 -0.18145266
000020 13 9c 57 bd 09 11 cf 3d 24 a6 bf 3d c6 23 a2 3d
       -0.05263908 0.10110671 0.09357861 0.079169795
000030 9a 2f 00 3d d9 08 3f be 7d 22 82 bd ec 0c 11 3e
       0.031295396 -0.18655719 -0.06354234 0.14165086
000040 e1 be 47 bd 8a ef 18 be 4e 86 94 bd 18 58 fe bd
       -0.04876602 -0.14935127 -0.07252179 -0.12419146
000050 6b b9 d2 3c f3 45 58 be a7 dc 1b 3e c4 c0 45 bd
       0.02572318 -0.21120434 0.15220891 -0.04827954
000060 d3 1e c4 bc 4d 80 45 bb 7e fe 24 3d 6b a5 e6 bd
       -0.02394048 -0.0030136288 0.040281765 -0.1126202
000070 6b 23 a8 3d 3f 5a 38 be 71 42 28 3d 78 ef 17 3e
       0.082098804 -0.18003176 0.04107899 0.14837444
000080 87 19 52 be a4 28 03 be be c1 19 3e 19 f5 ef bc
       -0.2051755 -0.12808472 0.15015313 -0.029291676
000090 77 53 20 bc d4 7f 27 3e c5 a7 18 be fb 36 2e 3e
       -0.009785525 0.16357356 -0.14907749 0.17013161
0000a0 25 60 66 3e af c7 7a bd 46 59 e1 bd b0 58 bb 3c
       0.22497614 -0.06122559 -0.11003356 0.022869438
0000b0 76 6c b7 bb 7b f4 89 bd 91 ae d0 3d 44 6f 51 be
       -0.0055976463 -0.06736084 0.10189546 -0.204526
0000c0 19 2b 6d bd f6 d0 85 3d 8e 41 e6 bd b6 61 2a 3e
       -0.05790243 0.06533997 -0.11242972 0.16638836
0000d0 6c 3e d1 bd dc 67 9b 3d 75 16 b0 3d da 7c 20 3d
       -0.10216984 0.07588169 0.08598033 0.039181568
0000e0 04 d4 06 3e 15 39 ea 3d 6b c6 7d be bb ee 72 bd
       0.13166815 0.11436669 -0.24782722 -0.059309702
0000f0 41 ed ae 3c 43 40 46 be 96 16 29 be 77 77 bc bd
       0.021353366 -0.19360451 -0.16512522 -0.092024736

fc2.weight f4 [64, 64]
000000 a7 9f 8f bc 62 c3 ca bd 8f 1f 58 3e bf b7 b7 3d
       -0.017532183 -0.099005476 0.21105789 0.08970594
000010 fd e0 08 3e 63 0c 2f 3d 9c 13 d4 bc 09 5d 78 3e
       0.13367076 0.042736422 -0.025888257 0.2425424
000020 a5 c3 33 bb af be d7 bb 99 14 9b bd 0f f8 7f bd
       -0.0027429846 -0.0065840106 -0.07572288 -0.062492426
000030 8e dc 94 bd ca 9a 47 3d d0 2f a1 bd c3 d3 37 3c
       -0.0726863 0.048731603 -0.07870448 0.0112199215
000040 d6 ee 30 3f a9 41 ad be 3f 41 3a be 15 4c af bd
       0.69114435 -0.33839157 -0.18188952 -0.08559433
000050 dd 0a 21 be a5 8f 52 be 3f 54 ab bd a4 94 f8 bd
       -0.157268 -0.20562609 -0.08365678 -0.12137726
000060 03 b9 23 bd d6 b5 84 be 6a 4b d6 bc 95 e1 2c 3d
       -0.039971363 -0.2591998 -0.026159007 0.04220732
000070 b9 16 3a be f7 97 22 bd e5 bf 37 bc 7f 12 8d be
       -0.1817273 -0.039695706 -0.011215185 -0.27553174
000080 b1 d6 7b 3e 68 dd f3 3d 4e 88 76 3e a1 00 03 be
       0.24593617 0.11907464 0.24075434 -0.12793209
000090 0a 93 00 bc d7 7b 09 3d 0b 69 a1 bb d5 c6 a9 3d
       -0.007847557 0.03356537 -0.004925852 0.08289877
0000a0 2b 8e 37 bf 87 27 9f 3d ba e7 10 3d 32 1a c5 3d
       -0.71701306 0.07771211 0.03537724 0.09624137
0000b0 ca 0a a0 3d 2a 28 fb 3c 94 33 1c 3e ab 0f 1e 3e
       0.07814558 0.0306588 0.1525405 0.15435664
0000c0 48 cc fa bd e6 21 80 bc 82 8e 2c bc 7d 73 0d 3e
       -0.12245995 -0.015641164 -0.010532023 0.13813587
0000d0 05 9c 94 ba 96 3f c8 bc 4b 16 19 be 95 6a da 3c
       -0.0011338001 -0.024444383 -0.1494991 0.02666215
0000e0 91 3f dd bc af 05 6f 3e eb b4 58 bc 70 63 c8 3d
       -0.02700785 0.23342012 -0.013226728 0.09784591
0000f0 aa dd f2 3d 17 77 ce 3d 33 9a f9 3c 56 ae d9 3d
       0.11858685 0.10081308 0.030469036 0.10628955
000100 fa e3 a5 3c 51 91 a5 bc d8 63 bc ba 65 d8 14 3e
       0.02025031 -0.020210894 -0.0014373017 0.14535673
000110 80 52 45 be bf 76 0e bd 61 92 80 be 47 c4 88 bd
       -0.19269753 -0.034781214 -0.25111678 -0.06678062
000120 62 b6 3a bd 7b 0b bb 3b fc 5b 64 3d d5 03 ea bd
       -0.04558409 0.0057081557 0.055751786 -0.11426512
000130 b0 dc 13 be 41 c3 63 be 2a 7c 0c 3e 3e 3f 45 3d
       -0.14439654 -0.22242452 0.1371924 0.048156016
000140 e0 c6 fc 3d 6b d6 3f ba 27 08 d8 be 4b 48 10 bd
       0.1234262 -0.00073180225 -0.4219372 -0.035225194
000150 cd 9d f0 3d c1 73 96 be 00 29 8b bc 6a 4f 84 bd
       0.11748848 -0.29385188 -0.016987324 -0.064604595
000160 ff 4d 92 3d 94 6a 75 be c8 3f 48 3e 55 ef 81 3c
       0.07143783 -0.23966438 0.1955558 0.015861193
000170 60 31 ac 3d 18 fe 85 bd 5b 4c 05 3d ec 48 07 bd
       0.08407855 -0.06542605 0.03254352 -0.033028528
000180 43 b7 34 bd 69 94 fb 3a 21 4b 06 3e 7e 97 95 bd
       -0.044120084 0.001919401 0.13114597 -0.073042855
000190 d9 20 a5 bc 22 c1 26 bd b7 34 52 be e3 85 ee 3d
       -0.020157265 -0.04071153 -0.20527922 0.116466306
0001a0 4d a3 cc 3d fa ec 24 bd 30 52 36 3c 51 24 a9 3c
       0.09992085 -0.04026506 0.011127993 0.0206472
0001b0 73 96 25 be f8 5b 8e be 4a 70 22 bd f3 14 47 bd
       -0.16170673 -0.27804542 -0.03965787 -0.048603963
0001c0 af 9f 5d 3c 83 f1 11 bd 55 47 79 be ee 29 8a be
       0.013526841 -0.035630714 -0.24343617 -0.26985115
0001d0 44 8e 6d be 7a ff f1 3c 7b 7f 8c bc 89 52 86 3c
       -0.23198801 0.029540766 -0.017150631 0.016396778
0001e0 ca c7 09 3d 36 90 3a be fc e6 99 3b f9 97 69 be
       0.0336378 -0.18219075 0.004696725 -0.22811879
0001f0 fa c9 bd 3d 47 e6 11 bd a3 93 39 be f6 c6 2f bd
       0.092670396 -0.03562 -0.18122725 -0.042914353
000200 5d 59 1f be 49 34 b2 3d ce b6 5b bd 2c 24 f5 bd
       -0.15561433 0.08701379 -0.053641133 -0.1196979
000210 50 12 66 bd ae 9b af bd db f5 16 3e 06 0b 69 3d
       -0.056169808 -0.085746154 0.14742224 0.05689528
000220 81 69 e8 bd 30 f5 84 3d 01 64 9d bd e7 06 81 3d
       -0.11348248 0.06492078 -0.0768509 0.06300145
000230 c5 00 9b 3e 52 a5 31 3e a3 0a 42 3e fa 37 8d bd
       0.30274025 0.17348221 0.1894937 -0.06895442
000240 8f af 82 3e 69 db ba bd 97 31 39 3e b0 f2 bf 3d
       0.25524566 -0.091238804 0.18085323 0.09372461
000250 6f 7f fa 3d b8 fd b3 be 67 ec 12 3e 60 5d 2b 3d
       0.12231337 -0.3515451 0.14347993 0.041837096
000260 fe 14 9f 3c 59 48 7a bc 6b 5c 1d bc c0 b5 66 3d
       0.01941919 -0.015276038 -0.009604554 0.056325674
000270 1e a3 cc bd cf 94 d8 bc 6f e6 8e 3d 24 0a cb bd
       -0.0999205 -0.026438145 0.069775455 -0.099140435
000280 d0 a2 90 bd 3b 2a 00 bd 8c 6b 12 3e d5 eb b1 bd
       -0.07062304 -0.031290274 0.14298838 -0.086875595
000290 5f 3e d6 bd ca 77 6a 3b bb cd 19 be f9 b0 94 bd
       -0.10461115 0.0035776966 -0.15019886 -0.07260317
0002a0 3f e7 aa bd 06 3e f6 3d b9 83 d0 be f0 88 df bd
       -0.08344888 0.12023549 -0.40725496 -0.10914791
0002b0 89 78 15 3d db c0 86 3e 28 9c 41 bd 47 38 fc 3d
       0.036491904 0.26319012 -0.047268063 0.123154216
0002c0 56 eb 81 3e c7 6a 80 be 71 24 78 3e 32 0e 2d 3e
       0.2537486 -0.25081465 0.24232651 0.16899946
0002d0 4b 46 00 3e 64 8b 04 bd bd fa d8 3d d1 56 13 be
       0.12526815 -0.032359496 0.105946995 -0.14388587
0002e0 2f a0 15 3e 96 aa c7 3d 7d 7c 68 bc 6e 40 a2 3d
       0.14611886 0.097493336 -0.014189837 0.07922445
0002f0 f2 61 fa 3c f7 ab 7a bd 15 db 0b 3e cb df ce be
       0.030564282 -0.061199155 0.13657792 -0.40405115
000300 91 a5 ec bc 67 2a 30 be 42 99 44 bd 3d f0 d5 3b
       -0.028887542 -0.17203675 -0.04799772 0.006528883
000310 81 2b 0c 3e 04 8b ab 3d 49 88 8f 3d 82 69 66 3d
       0.1368847 0.083761245 0.07008416 0.056252964
000320 8e 93 36 bd 5d 59 86 bd 78 b3 86 bd ee e9 9b be
       -0.044574313 -0.065600134 -0.065772 -0.30451912
000330 9e 32 1a be 7c 31 9a be 2e a6 96 3d f8 94 8e 39
       -0.15058371 -0.3011588 0.07355915 0.0002719534
000340 4c 30 f2 be 59 1b 8b be e3 c6 40 be 57 1a 0d be
       -0.47302473 -0.27169302 -0.1882587 -0.13779579
000350 b6 29 d7 3c 13 89 21 3e 88 57 fe 3c 1d d8 11 bd
       0.026265007 0.15774946 0.031047598 -0.035606492
000360 ef aa 5a bd 5a d2 cc bc 9c dd 9b be 36 b0 08 3e
       -0.05338567 -0.025002647 -0.30442512 0.13348469
000370 be 6a 11 be 00 3e 0d 3e 1b fb 39 bc 3f 02 79 bc
       -0.14200875 0.13793182 -0.011351372 -0.015198289
000380 04 2d 0b 3e d5 a4 27 bd 1e 24 4b be 48 86 03 3e
       0.13591391 -0.04092868 -0.19837996 0.12844193
000390 b6 e6 52 bc 8f 3f 9f bd 8a 41 8c bd 25 9c 0c be
       -0.012872389 -0.07775795 -0.06848438 -0.1373144
0003a0 04 0b da 3e 16 de 22 be fc 4c 1b bd 05 c6 62 3d
       0.4258653 -0.15905032 -0.037915215 0.055364627
0003b0 ca d8 84 3b bb 5e 09 bd 77 2b 5a bd 40 c7 4b bd
       0.0040541636 -0.033537608 -0.053264108 -0.049750566
0003c0 cb ed c3 3c c2 3a 27 be 6e cf b8 3e e8 dc bc be
       0.0239171 -0.16331008 0.36095756 -0.36887288
0003d0 fc 47 49 be 83 a2 b4 3d d3 95 bc bd d2 c8 31 3d
       -0.19656366 0.08820059 -0.09208264 0.043404408
0003e0 5e 24 1f 3c 46 24 a3 bd de a0 91 3d 8a 74 5b be
       0.00971326 -0.07965903 0.07110761 -0.21431175
0003f0 a2 f2 73 3b 31 b0 cf 3b 87 59 ae 3c 40 0f 98 be
       0.0037223478 0.0063381423 0.021282924 -0.29699135

fc2.bias f4 [64]
000000 9c 7d a8 bd d2 79 93 3e db 53 17 3d 70 c6 69 3d
       -0.08227083 0.2880388 0.036945205 0.05707401
000010 f4 f8 bc 3e 75 46 c3 bd 1d ed a0 3e 04 95 dc 3d
       0.36908686 -0.09534923 0.31430903 0.1077061
000020 9e ef d8 bc 26 e5 e8 3c 9a fd 65 bd 42 6f d0 3d
       -0.026481446 0.028429579 -0.056150056 0.10177471
000030 3b 25 e1 bd 93 ae a7 3c 33 5e 8c 3e f1 40 c4 3e
       -0.10993429 0.020468986 0.27415618 0.38330796
000040 e0 8a 1d be 5b e5 76 bd 3d 8e 94 3d 3f 78 c8 3d
       -0.15385008 -0.060277324 0.07253692 0.0978856
000050 b2 88 36 3c df 12 90 3d f7 63 d8 bb 20 c6 9d 3e
       0.011140989 0.070348494 -0.0066037136 0.3081522
000060 52 4d 29 3e 72 53 38 be 1f b3 c3 3e f2 08 42 3e
       0.16533402 -0.18000582 0.38222596 0.18948725
000070 a9 e5 90 b9 01 0c 6d 3e 9d f5 3c 3b 7d 77 44 3e
       -0.0002763693 0.2314911 0.002883292 0.19186206
000080 dd e2 92 3d eb 68 11 3e 9b 87 35 3e 72 da 10 3e
       0.07172177 0.1420018 0.1772751 0.1414583
000090 2f a3 4d 3e 37 8b 45 3d 44 e3 aa 3e de fb 5f 3e
       0.20081781 0.04822847 0.33376515 0.21873423
0000a0 85 bd 1c be 90 50 bf 3e 33 ec 4f bd b2 cc 90 bd
       -0.15306671 0.37366152 -0.050762367 -0.070702925
0000b0 e3 40 9d bd 0c 31 92 3d d9 a0 24 3e 60 2c d7 bd
       -0.07678392 0.07138261 0.16076984 -0.10506511
0000c0 76 e1 c9 3e 31 a6 a0 bd be 0b 43 3d 2f cd 59 3e
       0.39429826 -0.078441985 0.04761862 0.21269678
0000d0 e9 8a 04 3d 23 e0 bc 3d ff b8 91 bd 89 8e 9d bd
       0.032359038 0.09222438 -0.07115363 -0.07693202
0000e0 03 7d 5c 3d 15 41 05 bb f3 2c 56 3d b5 52 20 3d
       0.053830158 -0.0020332981 0.05228896 0.039141376
0000f0 53 cb 8d 3e e6 c1 d9 3e 01 72 c4 bd c0 9c 23 be
       0.27694187 0.42530745 -0.09592057 -0.15977764

fc3.weight f4 [4, 64]
000000 86 c4 ba 3e c6 96 12 3e 41 72 a8 bc e2 87 cf 3c
       0.3647806 0.14315328 -0.020562293 0.025333349
000010 e2 02 1a 3e 9d 79 7c be 1a 9d f5 3d dc ca a5 3d
       0.15040162 -0.24655767 0.11992855 0.08095333
000020 60 79 c9 bd 04 15 33 3e af 9a c6 bd c0 c8 5a 3e
       -0.098376036 0.17488486 -0.09697472 0.21365643
000030 cf bb d4 bd 7a 90 54 3d 7c 9b af 3e 25 7c 2b 3e
       -0.10387384 0.051895596 0.34298313 0.16746576
000040 3c c1 a1 3e 64 79 73 be 5f 26 bb 3e 31 df c7 3d
       0.3159274 -0.23776776 0.36552712 0.09759367
000050 96 e7 01 3a b4 29 f7 bd d2 2b fb be a6 f9 eb 3d
       0.00049554685 -0.12068501 -0.4905687 0.11522226
000060 4e b7 89 3e e2 5a cf be 1c c3 3e 3e 75 d8 90 3e
       0.26897663 -0.40499026 0.18629116 0.28290144
000070 9e c7 57 3e 00 70 dc 3d f5 b5 6b 3b 68 37 07 3e
       0.21072242 0.1076355 0.003596661 0.1320473
000080 53 a9 4b bf dd 6f 7b 3e 6b 5f 1e 3e 3a 4b 55 3e
       -0.79555243 0.24554391 0.15466087 0.20829478
000090 33 7a b3 3d cb 7b 60 3e 5a 40 50 3e d6 ac ad 3d
       0.08763542 0.21922223 0.20337048 0.084802315
0000a0 de e6 ef 3c 59 dc 33 3e 9b 60 0d bd bf 30 0c 3f
       0.02928489 0.17564525 -0.03451596 0.5476188
0000b0 41 af 96 3b f4 50 7d 3e 3c ac 4a 3e 15 c9 6c be
       0.0045985286 0.24737912 0.19792265 -0.23123582
0000c0 35 dd 51 3e 08 e4 81 bd ad 94 7f 3e 9e bd 15 3e
       0.2049454 -0.06342322 0.24959059 0.14623114
0000d0 d5 f4 dd 3e a0 23 9c 3e b6 09 de bd 44 c1 80 3d
       0.43350855 0.3049593 -0.10841696 0.062868625
0000e0 4f 2e a8 3e c9 7b e8 3d 30 57 ab be 62 0c d3 3d
       0.3284783 0.11351735 -0.33464956 0.10305096
0000f0 d2 da 0b 3e 13 d7 43 3e 08 85 00 be dc a0 cc bd
       0.13657692 0.19125013 -0.12550747 -0.09991619
000100 1a 52 e4 3e b0 a9 1f 3e f3 95 95 3d 1b 6b 85 3d
       0.4459389 0.15592074 0.07303991 0.06514569
000110 16 1d 18 3e 08 3b 1c be 29 2e 19 3d 9b 26 06 3e
       0.14854845 -0.15256894 0.037397537 0.13100664
000120 e2 2f c4 bd 59 df d5 3d 47 19 86 bd eb ed d9 3e
       -0.095794454 0.10442991 -0.0654779 0.4256433
000130 78 dd 9f bd f3 37 84 3b 83 ad 93 3e b0 4d 60 3e
       -0.07805914 0.00403499 0.28843316 0.21904635
000140 1c 6e af 3e 8a e2 16 be 42 db 6a 3e 27 67 dc 3d
       0.34263694 -0.14734855 0.22935203 0.10761862
000150 03 a8 5d bc d5 f4 28 3e 2c 40 fe bd 3b cf 54 3e
       -0.013528827 0.16499646 -0.124145836 0.20782177
000160 8a 4a 34 3e 84 41 59 be e4 48 11 3e b6 7d 8d 3d
       0.1760656 -0.21216398 0.14187962 0.06908743
000170 64 7a 32 3e b4 15 0e 3e 40 1b 18 3e 2a 44 fa 3d
       0.17429501 0.13875467 0.14854145 0.122200325
000180 b3 1e 7d 3e 3d 2c 95 3e bc e0 14 3e e1 7f 21 3e
       0.24718742 0.29135314 0.14538854 0.15771438
000190 a8 02 70 3e 1b 95 a0 3e b6 6c 6c 3e 28 dc a3 3d
       0.23438513 0.31363758 0.23088345 0.08000976
0001a0 55 aa 6a be 3a 3e 78 3e 2d 62 90 bd 75 b8 db 3e
       -0.22916539 0.24242488 -0.070499755 0.42914167
0001b0 0f da 9e 3e a2 ac 82 3e ef d7 b7 3d ad 4e de bd
       0.3102574 0.25522333 0.08976733 -0.1085485
0001c0 bd 97 ef 3d eb 00 26 be 17 52 14 3f 1c 4f 39 3e
       0.11698864 -0.16211288 0.5793776 0.18096584
0001d0 75 a5 aa 3e a3 4d c6 3d 53 99 6c 3d 31 eb 4a 3e
       0.3332936 0.09682777 0.05776341 0.19816281
0001e0 2f 1d 98 3e d7 51 04 3e ae c1 65 be 88 15 51 3e
       0.29709765 0.12921844 -0.22437164 0.2041837
0001f0 3f b6 01 3e 88 a6 15 3e 9c e2 86 bd 5b 0a 32 be
       0.12667178 0.14614308 -0.06586191 -0.17386763
000200 46 d0 51 3e 90 83 38 bb 08 02 6e 3e 62 09 d2 3e
       0.20489606 -0.002815459 0.23242962 0.41022784
000210 ef 80 08 3e 4c a6 1c be 6b e8 27 3e 27 2a f4 3d
       0.13330434 -0.15297812 0.16397254 0.119221024
000220 51 a4 78 bb 7a 23 66 3d 54 78 06 be c8 ad 17 3e
       -0.0037939737 0.056186177 -0.13131839 0.14812386
000230 3a d7 4b be 3b 76 58 3d a8 e4 f0 3d c8 a4 14 3e
       -0.19906321 0.05284713 0.11762363 0.14515984
000240 ee 61 c9 bd fc 33 b5 bc 8f 25 7b 3e 8b d5 eb 3d
       -0.09833132 -0.022119515 0.24526046 0.115153395
000250 d6 7e 8b 3e 22 3b 85 bd 7f d0 9c be 48 ab 89 3e
       0.27245206 -0.06505419 -0.3062782 0.2688849
000260 c0 bc 5b 3e 94 f3 0f be c1 3f 20 3e b6 7d 1e 3d
       0.21458721 -0.14057761 0.1564932 0.038694106
000270 a8 bd 94 3e 80 f5 65 3e cf 98 39 3d 93 ec 29 3e
       0.29050946 0.22456932 0.045311745 0.16594152
000280 7c 16 03 3e 51 30 06 3e 40 0e 5b 3e 51 47 b4 3d
       0.12801546 0.13104369 0.21392155 0.08802665
000290 c8 34 92 3d cb b8 62 3e 69 da 70 3e 5f 7b 21 3e
       0.071389735 0.22140805 0.23520817 0.15769719
0002a0 d6 dc af be 56 e9 3a 3e 28 0e 46 3e ec 37 eb 3e
       -0.34348172 0.18253073 0.19341338 0.45941103
0002b0 cd ca 04 bf 79 7d c3 3e 49 ca 2d be f7 29 cb bd
       -0.5187195 0.38181666 -0.16971697 -0.099201135
0002c0 c2 e2 ab 3d f9 74 a2 be b3 63 42 3f 44 49 4d 3e
       0.0839286 -0.31729868 0.7593338 0.2004748
0002d0 a3 08 aa bd d0 dc ee 3d 86 66 8e be f9 83 e9 3e
       -0.083024286 0.116632104 -0.27812594 0.456085
0002e0 35 42 d2 3e be 2a a4 3d 5c 47 a9 be 72 41 92 be
       0.41066137 0.08015965 -0.33062255 -0.28565556
0002f0 8d 7a 37 3e 3e 23 ba 3d df e0 ba be e5 99 93 be
       0.17917843 0.09088753 -0.36499688 -0.2882835
000300 63 ee 16 3f 36 46 19 3e 11 38 de 3c 19 1e 99 3e
       0.589575 0.1496819 0.027126344 0.29905775
000310 94 28 53 3d 44 5f 2a 3e 2b 34 63 3e 47 12 69 bc
       0.05155237 0.16637903 0.22187869 -0.014225549
000320 f1 cd 59 be 88 2a 62 3e 33 0a ab 3d 5d 1a f2 3d
       -0.21269967 0.22086537 0.08351555 0.11821435
000330 f0 94 45 bd b8 3e 58 3e 87 59 ad 3e 88 21 e1 3d
       -0.04823774 0.21117675 0.33857366 0.10992724
000340 eb f9 2b 3f e1 f8 2d be e2 da 38 3e a5 93 9b 3e
       0.6717822 -0.16989471 0.18052247 0.3038608
000350 ba 6e ba 3d 36 df 4a 3e c2 e1 7a 39 13 1b ff 3d
       0.09103151 0.1981171 0.00023925959 0.12456336
000360 06 26 59 3e e9 fd 79 be 32 74 16 3e 27 c8 1b 3e
       0.21205911 -0.24413265 0.14692762 0.15213071
000370 23 f3 a7 3d 00 b9 7e 3d 55 f1 38 3e a1 fe 0c 3e
       0.082006715 0.06218815 0.18060811 0.13769008
000380 e3 bc 58 be 3f cb 19 3e be c2 1f 3e f1 da bd 3d
       -0.21165805 0.15018938 0.15601632 0.092702754
000390 98 f6 c1 3d 53 f3 a2 3e bb e3 25 3e 21 e6 86 3e
       0.09470862 0.31826267 0.16200154 0.2634745
0003a0 02 b5 ce bd f5 c8 1a 3e 8c 1a 77 3c 77 3f 3d 3e
       -0.10093118 0.15115722 0.015082013 0.18481241
0003b0 25 bf 84 3e c9 3e aa 3e 78 32 3b bd 6d 2c 6d 3d
       0.25927082 0.33251026 -0.045702428 0.057903696
0003c0 a5 47 34 3e 3a 2e 9e 3e 0a 0c 50 bd 4f b4 8f 3e
       0.17605455 0.30894643 -0.05079273 0.28067252
0003d0 1e 31 02 3e 70 9a ec bb c7 f5 7c 3e 7a 03 59 be
       0.12714049 -0.007220559 0.24703132 -0.21192732
0003e0 75 f4 1c 3e 51 0a 93 3e d5 78 17 be 7a 32 4e 3e
       0.15327628 0.28718808 -0.14792188 0.20136443
0003f0 51 dc 17 3e 22 24 2a 3e c5 86 5d bd 8c 23 5d be
       0.14830138 0.16615346 -0.054083604 -0.21595591

fc3.bias f4 [4]
000000 21 ca 47 3e d6 04 01 3e 33 a0 8e 3e 16 f6 4f 3e
       0.195107 0.12599501 0.27856597 0.20308718
